SmallD_SDD_WORKING/out_step3_ipc10_s1_adamlr.pth (torch, 186848 bytes, 3 tensors)

module.data.weight f4 [20, 768]
0	0xbd7bb654	-0.06145318
1	0xbdb278ec	-0.0871447
2	0xbd1737ce	-0.036918454
3	0xbc644050	-0.013931349
4	0x3d6c1172	0.057633825
5	0xbae2f06a	-0.0017314081
6	0xbdb0370c	-0.08604249
7	0xbe11643a	-0.1419839
8	0xbd1f40cf	-0.038880166
9	0x3d08201e	0.033233754
10	0xbd9d58e7	-0.076829724
11	0x3d395a06	0.04525187
12	0xbd8c8f57	-0.068632774
13	0xbcaa8996	-0.02081756
14	0x3d4e9170	0.05043167
15	0x3c920be9	0.017827945
16	0x3d93b583	0.07212355
17	0xbdc6108f	-0.09671127
18	0x3b305942	0.002690867
19	0xbd9bfd2b	-0.07616647
20	0x3cea2b43	0.028585082
21	0xbdd01d0e	-0.10161792
22	0x3d0ce661	0.034399394
23	0x3cdc4956	0.026890438
24	0x3d39a020	0.045318723
25	0xbd69192e	-0.05690878
26	0x3b34a7d3	0.0027565851
27	0x3ca0c171	0.01962349
28	0x3c9d120b	0.019173643
29	0x3db67907	0.08909803
30	0xbc15e502	-0.009148838
31	0x3b9221ec	0.00445961
32	0x3bc780a4	0.006088333
33	0x3caa2e8e	0.020774152
34	0xbda18154	-0.078859955
35	0xbc62460d	-0.013810647
36	0x3c127650	0.008939341
37	0x3d8ae27d	0.067814805
38	0x3c8fb1f1	0.017540904
39	0x3d1dc487	0.0385175
40	0x3c3f62f6	0.011681309
41	0x3d28dbfa	0.04122541
42	0xbd3b8993	-0.045785498
43	0x3d16e502	0.036839493
44	0xbd1ff2a2	-0.039049752
45	0x3e072eba	0.13201419
46	0xbd4214a8	-0.04738298
47	0xbd67e9d7	-0.05661949
48	0xbd642a68	-0.055704504
49	0x3dac8096	0.08422963
50	0x3da32b14	0.07967201
51	0x3d376234	0.04477139
52	0xbd38f5be	-0.045156233
53	0x3d944f75	0.07241718
54	0x3d90ade1	0.07064415
55	0xbd39f9f1	-0.04540438
56	0xbc03e57d	-0.00805032
57	0xbd63afa5	-0.05558743
58	0x3e174596	0.14772639
59	0x3d71c0af	0.059021648
60	0xbdb0f5c2	-0.086406246
61	0xbbab1f65	-0.0052222484
62	0x3cbfe178	0.023422942
63	0xbcdf1aba	-0.027234424
64	0xbccfe047	-0.025375498
65	0x3d5f527d	0.054522026
66	0x3ca054eb	0.019571742
67	0x3d100262	0.035158522
68	0xbd01a383	-0.031650078
69	0xbb8685c6	-0.0041053025
70	0xbc6eb50f	-0.014569535
71	0x3d89790d	0.06712542
72	0xbd9206de	-0.07130216
73	0xbd62035c	-0.055178985
74	0x3c271bde	0.010199515
75	0xbc9a6283	-0.018845802
76	0xbcd70ee8	-0.026252225
77	0x3d834b7e	0.06410883
78	0x3c246abf	0.010035216
79	0x3ba61100	0.0050679445
80	0x3d9b42d7	0.07581108
81	0x3d8a3206	0.067478225
82	0xbdb83aa8	-0.08995563
83	0xbcfe16c3	-0.031016713
84	0x3d6363af	0.055514988
85	0xbcb6c273	-0.022309517
86	0xbc4e1a3d	-0.012579498
87	0xbc9d5266	-0.01920433
88	0x3d3c9397	0.04603919
89	0x3db219b9	0.086963125
90	0xbe06107e	-0.13092229
91	0xbd5b88ea	-0.05359737
92	0xbd47d8ca	-0.04879073
93	0xbd4d8ccf	-0.050183114
94	0xbd838c28	-0.06423217
95	0x3d05dbb2	0.03268022
96	0x3dbc5a2e	0.09196888
97	0xbda1c65f	-0.078991644
98	0xbc9b8d18	-0.018988177
99	0xbb9553f2	-0.004557126
100	0xbdba6ac2	-0.09102394
101	0xbd928d5f	-0.07155871
102	0x3cc380bf	0.023865102
103	0x3d94ddce	0.072688684
104	0xbcc083d8	-0.023500368
105	0x3d7a6c15	0.06113823
106	0xbb9c30f8	-0.0047665797
107	0x3d621a96	0.055201136
108	0xbd3c451a	-0.045964338
109	0xbd9143b9	-0.07092995
110	0x3da886a5	0.082288064
111	0xb9a3b362	-0.00031223433
112	0xbc717b26	-0.0147388335
113	0xbd628684	-0.055304065
114	0x3d431308	0.04762557
115	0xb8e11763	-0.00010733192
116	0x3afd7f60	0.0019340329
117	0xbc0a8f84	-0.008457068
118	0x3ba69666	0.005083847
119	0x3c4a0d46	0.012332266
120	0x3d936070	0.07196128
121	0xbd344c51	-0.044018093
122	0x3d90d959	0.07072706
123	0xbc136e30	-0.008998439
124	0xbd22364f	-0.039602574
125	0x3c6e9945	0.0145629095
126	0x3d7adffc	0.061248764
127	0xbd2dba97	-0.042414274
128	0xbdd0d394	-0.10196605
129	0x3d363e41	0.044492964
130	0x3d31333f	0.043261763
131	0xbcf5c892	-0.030002866
132	0xbdae52d4	-0.08511892
133	0x3d194864	0.037422553
134	0xbd27bfb6	-0.040954314
135	0xbdba3696	-0.09092443
136	0xbc73b870	-0.014875516
137	0x3d047fe1	0.032348517
138	0x3d0cae43	0.034345876
139	0x3cd8b908	0.026455417
140	0xbd0ff49f	-0.0351454
141	0xbc5a2492	-0.013314383
142	0xbd27d5f5	-0.04097553
143	0xbbd855df	-0.0066020335
144	0x3d2bc089	0.041931663
145	0x3cf20e3b	0.029547801
146	0x3d66ab21	0.056315545
147	0x3cbc570e	0.02299073
148	0xbc0806c3	-0.008302393
149	0xbca3c560	-0.019991577
150	0xbd29809f	-0.04138243
151	0xbb9b8819	-0.0047464487
152	0xbc928634	-0.017886259
153	0xbd940c9e	-0.07228969
154	0xbd9e5beb	-0.07732376
155	0xbc5226e1	-0.012826652
156	0xbc823ad2	-0.015897188
157	0xbc1a1466	-0.009404277
158	0xbc42b3df	-0.011883705
159	0x3d352779	0.044227097
160	0x3d8171bb	0.063205205
161	0x3d072455	0.032993633
162	0x3d9a772c	0.075422615
163	0xbd9a5459	-0.07535619
164	0x3d55e9d9	0.052224968
165	0xbd570841	-0.052498106
166	0x3d4a77e5	0.049430747
167	0x3d69f501	0.05711842
168	0xbd16c1f7	-0.036806073
169	0x3d97534c	0.073889345
170	0x3d972c21	0.07381464
171	0x3bcb337e	0.0062012067
172	0xbc974c1a	-0.018468905
173	0x3c6a737f	0.014309763
174	0xbcb2fba2	-0.021848504
175	0xbda51087	-0.08059793
176	0x3cfce617	0.030871434
177	0x3cd7b71b	0.026332429
178	0x3c6efcac	0.014586609
179	0x3c9632ed	0.01833483
180	0xbcf63e36	-0.030058961
181	0xbd0b4860	-0.03400457
182	0x3d8eaf8b	0.06967076
183	0x3d55e594	0.052220896
184	0x3c8b762d	0.017024124
185	0x3c264188	0.01014746
186	0x3c4c63d9	0.012474977
187	0xbd07d1bf	-0.033159014
188	0x3dacb5e6	0.08433132
189	0xbd9d87ca	-0.07691915
190	0xbde9964c	-0.1140562
191	0xbd7585d6	-0.05994209
192	0xbc9756f5	-0.018474082
193	0xbdcd1938	-0.10014576
194	0x3c811261	0.015755834
195	0x3d32c345	0.043643255
196	0x3cbfcdec	0.02341362
197	0xbd715296	-0.05891665
198	0x3d61456d	0.05499785
199	0x3b20b7da	0.0024523647
200	0xbdc40f2b	-0.095732056
201	0xbd07f38e	-0.033191256
202	0x3b7054f6	0.0036671734
203	0x3d83b541	0.06431056
204	0x3c5b1256	0.013371071
205	0xbd8b703c	-0.068085164
206	0x3c554b46	0.013018435
207	0x3d12b388	0.035815746
208	0xbbc40b38	-0.0059827827
209	0x3d50b8c6	0.050957464
210	0xbcded621	-0.027201714
211	0x3b86d415	0.0041146376
212	0xbcddbfd2	-0.027069006
213	0x3dc2ea2c	0.09517321
214	0xbdbe64ba	-0.09296556
215	0x3cf5594f	0.029949812
216	0x3d59a059	0.053131435
217	0x3d8cedca	0.06881292
218	0xbcc4d12b	-0.02402552
219	0x3d9e7893	0.077378415
220	0xbc048d9e	-0.008090405
221	0xbd544a7b	-0.051828843
222	0xbc60ebcc	-0.013728093
223	0x3d0f447d	0.034977425
224	0xbd654d2e	-0.055981807
225	0xbcbf1ddb	-0.023329666
226	0x3c9c58a7	0.019085241
227	0xbce34234	-0.027741529
228	0x3a9bf48e	0.0011898444
229	0x3d9fa34b	0.077948175
230	0xbc9e73c7	-0.019342316
231	0x3ccc4e10	0.024939567
232	0xbd3b1033	-0.045669746
233	0x3d2a441d	0.041568864
234	0x3ba62373	0.005070144
235	0x3d7db7ac	0.06194274
236	0x3b4017c4	0.002931104
237	0x3bd27bae	0.006423435
238	0x3d805fe6	0.06268291
239	0x3c936dc2	0.017996673
240	0x3caa7087	0.02080561
241	0xbdb97f9c	-0.09057543
242	0x3ddc1da9	0.10747845
243	0xbd534b7e	-0.051585667
244	0x3d98c764	0.07459906
245	0xbcdcf6e7	-0.026973201
246	0xbd05e0f5	-0.03268524
247	0xbd478e2b	-0.048719566
248	0xbd855577	-0.06510442
249	0x3d8d66f0	0.069043994
250	0x3d14d226	0.036333226
251	0x3becf9ca	0.0072319256
252	0x3c9508b1	0.018192621
253	0x3d8cbc1a	0.06871815
254	0x3d5ccc36	0.05390569
255	0x3db82b02	0.08992578

exp_avg f4 [20, 768]
0	0xb9018bfd	-0.00012354548
1	0xb75134b1	-1.2469639e-05
2	0x364a99d3	3.0189883e-06
3	0xb9d7c736	-0.0004115642
4	0xb9ef3e57	-0.0004563208
5	0x3906d1c9	0.00012857387
6	0x398e32e2	0.0002712226
7	0x39e29c30	0.00043222448
8	0x38e6812d	0.000109913155
9	0xb8e2383c	-0.00010786994
10	0x38bcb9ef	8.9991714e-05
11	0xb9cf3b88	-0.0003952647
12	0x388d991d	6.7519235e-05
13	0x3bcba6ec	0.006214967
14	0x3afb70d0	0.0019183401
15	0xb8fa4cf3	-0.00011935262
16	0xb89873a2	-7.269463e-05
17	0x3a163c43	0.00057310256
18	0x388c42d7	6.68817e-05
19	0x381a532a	3.6793914e-05
20	0xb900c305	-0.00012279682
21	0xba171afe	-0.0005764215
22	0x37147fb9	8.851225e-06
23	0xb8658cba	-5.4728916e-05
24	0xb91760a6	-0.00014436487
25	0xb86b63c1	-5.612127e-05
26	0x395cae07	0.00021045665
27	0xba4d2fec	-0.00078272703
28	0x38e1ef2d	0.00010773386
29	0xb9c1e657	-0.00036983445
30	0x391c6ecf	0.00014918599
31	0x3b08db17	0.002088254
32	0xbb3c4ae1	-0.0028731155
33	0xba33d1e7	-0.0006859586
34	0x37a12c44	1.9213308e-05
35	0x37bd17e7	2.2541686e-05
36	0x374ca2c3	1.2197243e-05
37	0x38bb68bd	8.936364e-05
38	0x3a6bf128	0.00090004737
39	0x37cee0f9	2.4661875e-05
40	0xba160c1f	-0.0005723852
41	0xb9d007cf	-0.0003967867
42	0x3a084dbc	0.00051995716
43	0xb80e49d2	-3.392419e-05
44	0x37dd384f	2.6371474e-05
45	0x380b576f	3.322161e-05
46	0xb9072a7a	-0.00012890427
47	0xb850576d	-4.9672486e-05
48	0xb8ef0b39	-0.000113984985
49	0xb8c33ceb	-9.3096714e-05
50	0x3921fe7d	0.00015448961
51	0xb947b4f0	-0.00019045523
52	0x399c281a	0.00029784517
53	0xb6fc6ee1	-7.5230932e-06
54	0xb822a057	-3.8773138e-05
55	0x39bb9303	0.00035776952
56	0xbb266d80	-0.0025394857
57	0xb785ca1f	-1.5948955e-05
58	0xb8e8c5e8	-0.00011099485
59	0x3a1b695a	0.00059284794
60	0x39193122	0.0001460952
61	0xb9b33df1	-0.0003418769
62	0x3a89f79b	0.0010526063
63	0xb9cabb7c	-0.0003866813
64	0x3880d8f6	6.143928e-05
65	0x3b1c81de	0.0023881118
66	0xba827543	-0.000995316
67	0x3af6d333	0.0018831253
68	0xba6a38b0	-0.00089348387
69	0x3879065a	5.937214e-05
70	0xbacbc0bc	-0.001554511
71	0xb886a41f	-6.420188e-05
72	0x3a8089b7	0.0009806667
73	0x382cd6a3	4.120789e-05
74	0xb9d4f0be	-0.00040615158
75	0x3904b7c8	0.00012656965
76	0x3832c7e7	4.262468e-05
77	0xb81e5fa2	-3.77592e-05
78	0xba85d5af	-0.0010210777
79	0xba402ed3	-0.0007331196
80	0xb7de81c6	-2.6524893e-05
81	0x39b33840	0.0003418345
82	0xb626c1f7	-2.484883e-06
83	0xb81563e4	-3.56174e-05
84	0x398d569b	0.00026958142
85	0xb7d284f3	-2.509586e-05
86	0xb9ba83e9	-0.00035574965
87	0xba1d8089	-0.0006008228
88	0xb8ebd237	-0.00011244829
89	0x3831aecf	4.236289e-05
90	0x39aa1dfa	0.0003244726
91	0x381597ca	3.5665733e-05
92	0x389d7344	7.507813e-05
93	0x390e1a51	0.00013551979
94	0xb88fb85b	-6.85311e-05
95	0xba89f40d	-0.0010525003
96	0xb9ed5770	-0.0004526931
97	0x38a4047e	7.820966e-05
98	0x39251d77	0.00015746603
99	0x3b64924f	0.0034877246
100	0xb92abf51	-0.00016283734
101	0x39f71ea7	0.0004713435
102	0x3a09b8e1	0.00052536844
103	0xb8b5a9ed	-8.662404e-05
104	0x38cebfe2	9.8585864e-05
105	0xb7164efa	-8.959085e-06
106	0x37dda0bf	2.6420106e-05
107	0xb996f1d5	-0.00028790408
108	0x37264285	9.909859e-06
109	0xbbcd6fbe	-0.006269424
110	0x378fe8d4	1.7155347e-05
111	0xb8ac551d	-8.217453e-05
112	0xbb4d01f6	-0.0031281686
113	0x387de85c	6.0536302e-05
114	0xb86ecff4	-5.6937293e-05
115	0x3a94ad2f	0.0011343117
116	0x3a833f2c	0.0010013334
117	0xba9e0db9	-0.0012058533
118	0xb7bf81c0	-2.2829394e-05
119	0xb9b34abd	-0.00034197225
120	0xb7dcaa28	-2.6305279e-05
121	0x3976e1b1	0.00023544465
122	0x38a15a1d	7.693863e-05
123	0x39440755	0.00018694748
124	0xbb0ec6f2	-0.002178606
125	0x3a8e61b4	0.0010862858
126	0xb796a9e3	-1.7960503e-05
127	0x38834096	6.258597e-05
128	0x39965876	0.00028676138
129	0x390d0103	0.00013447185
130	0xb903e6f2	-0.00012579167
131	0x3aef87db	0.0018274741
132	0x3839ee1a	4.4329186e-05
133	0x3902caa0	0.0001247325
134	0x38055e90	3.179774e-05
135	0x3a34e660	0.00069007836
136	0x3a83e341	0.0010062234
137	0x3ae3a66c	0.0017368323
138	0xb8955c33	-7.122047e-05
139	0xb8fe50a1	-0.00012126682
140	0xb98d0e10	-0.00026904093
141	0xba8a012f	-0.0010528917
142	0xbae17986	-0.0017202355
143	0xb9944bc2	-0.00028285204
144	0x391437cc	0.00014135166
145	0x396b0566	0.00022413358
146	0x377dd433	1.5129382e-05
147	0x39a9a2fc	0.00032355625
148	0x38ab8025	8.177784e-05
149	0x390669d3	0.00012818658
150	0x39f9ac5e	0.00047621405
151	0xbb897caf	-0.0041957716
152	0x388919b7	6.537459e-05
153	0x37ca6442	2.4126963e-05
154	0xb9f01463	-0.00045791556
155	0x384e9393	4.9251666e-05
156	0xba02ca8e	-0.00049892894
157	0x3a81e43c	0.0009909938
158	0x399266db	0.00027923923
159	0x392929a2	0.00016132605
160	0x390e5dc6	0.00013577109
161	0xb8d2ac67	-0.00010045693
162	0x390f00cd	0.00013637841
163	0x3863d65e	5.4320662e-05
164	0xbcd68f9b	-0.026191523
165	0x3915974b	0.00014266108
166	0x386741bf	5.5135923e-05
167	0xb7dd4600	-2.637785e-05
168	0x36069680	2.0055159e-06
169	0x38b70e48	8.72878e-05
170	0xb880077d	-6.1049104e-05
171	0xb885c9eb	-6.379544e-05
172	0x39de5863	0.00042408993
173	0xb90b0602	-0.00013258311
174	0x3aa6fed1	0.0012740736
175	0x3794a6aa	1.7720584e-05
176	0x3968d707	0.00022205348
177	0xb80c374f	-3.343011e-05
178	0xb879743d	-5.947448e-05
179	0xb9348cfd	-0.0001721866
180	0xb9439e57	-0.00018655635
181	0x39a82072	0.0003206763
182	0x38a8ce0f	8.049246e-05
183	0x39182d9a	0.00014512838
184	0x399145f9	0.0002770869
185	0xb977b004	-0.00023621327
186	0x3a0e7ffd	0.0005435942
187	0x39857a98	0.00025459076
188	0xba434dc1	-0.0007450246
189	0x38562200	5.105324e-05
190	0xb72ccae9	-1.0299243e-05
191	0xb4fbcf0e	-4.6903045e-07
192	0x390237fe	0.00012418625
193	0xb7605d3a	-1.3373146e-05
194	0x3afd473c	0.0019323598
195	0xb83b9115	-4.4719392e-05
196	0xb8348707	-4.30411e-05
197	0xb8798411	-5.9489223e-05
198	0x38fe9a73	0.00012140432
199	0x3aadcf8c	0.0013260706
200	0xb862b5d6	-5.4051947e-05
201	0x39aa7334	0.0003251076
202	0x3985b937	0.00025505733
203	0xb776e7f9	-1.4716753e-05
204	0xba3f27b5	-0.00072919886
205	0x3b650f28	0.003495166
206	0xb881a3e8	-6.181729e-05
207	0xb9ea7db7	-0.00044725623
208	0x39825cbd	0.00024864628
209	0x37391234	1.10310975e-05
210	0x3909b6fa	0.00013133502
211	0xb813cce6	-3.5238358e-05
212	0x388b7576	6.649915e-05
213	0xb8391f0d	-4.4136355e-05
214	0x381c153b	3.721307e-05
215	0xb86b90d3	-5.6163244e-05
216	0xb89fdd5a	-7.622941e-05
217	0x398308a6	0.0002499271
218	0xbaeff857	-0.0018308264
219	0xb80ccd2e	-3.356969e-05
220	0x3a124c5b	0.0005580836
221	0xb719d857	-9.169881e-06
222	0xbab908fb	-0.0014117056
223	0xb82b8c96	-4.0900508e-05
224	0xb76183e2	-1.3441751e-05
225	0x386ad54c	5.5988596e-05
226	0xb92d9704	-0.00016554823
227	0x3aae91ba	0.0013318576
228	0xba2df1a3	-0.0006635433
229	0xb9a41681	-0.00031297284
230	0x3aa51186	0.0012593723
231	0x37617d38	1.34402e-05
232	0xb78242a1	-1.5528234e-05
233	0x3a608daf	0.00085660344
234	0xba992ada	-0.0011685744
235	0xb8c1f62c	-9.24881e-05
236	0xb9b03103	-0.00033605853
237	0xbb0a42ee	-0.0021097022
238	0x386bd419	5.6225897e-05
239	0x3790b2a8	1.7249331e-05
240	0xb7682aca	-1.383824e-05
241	0xb87e703a	-6.066284e-05
242	0xb8f5606b	-0.000117004696
243	0xb693fc34	-4.4103017e-06
244	0xb8a8079b	-8.012281e-05
245	0x39941540	0.00028244592
246	0x3941c6e8	0.00018480013
247	0xb7d5ca12	-2.5485675e-05
248	0x39e30173	0.00043297894
249	0xb8767e79	-5.8768757e-05
250	0x3b891832	0.0041837925
251	0xb9a954ca	-0.00032297365
252	0x39737ae1	0.00023220062
253	0xba6cc2a5	-0.000903169
254	0xba60cf0d	-0.0008575775
255	0x37170f9c	9.003936e-06

exp_avg_sq f4 [20, 768]
0	0x371a6eb5	9.204891e-06
1	0x36f1dd6f	7.208138e-06
2	0x36fb11d5	7.482459e-06
3	0x370ed63d	8.513741e-06
4	0x37dd952b	2.6414715e-05
5	0x3784f121	1.584791e-05
6	0x3717a8a5	9.039567e-06
7	0x378703cb	1.609502e-05
8	0x36f9dec6	7.4467125e-06
9	0x376dc689	1.4172526e-05
10	0x365b40a9	3.267118e-06
11	0x37989a9b	1.8191806e-05
12	0x3742a4f0	1.1601704e-05
13	0x38de51d0	0.00010601024
14	0x389bc4e9	7.427653e-05
15	0x374903b6	1.1981398e-05
16	0x3728ae82	1.0054211e-05
17	0x379d13b9	1.8725043e-05
18	0x37b7b5c9	2.189995e-05
19	0x36e2ffcb	6.765103e-06
20	0x36ae4ee9	5.1947904e-06
21	0x37cfd1d8	2.4774039e-05
22	0x372d910b	1.0345374e-05
23	0x374cdb7c	1.221045e-05
24	0x366454ed	3.402408e-06
25	0x358d324d	1.0519958e-06
26	0x36d63d4d	6.3848333e-06
27	0x37f516cf	2.9216897e-05
28	0x374eb5d2	1.232089e-05
29	0x37621cd6	1.3477364e-05
30	0x370f5669	8.543583e-06
31	0x38aef73d	8.343018e-05
32	0x390b6db5	0.00013296942
33	0x38b98a02	8.8471934e-05
34	0x36c58db0	5.887552e-06
35	0x373592f1	1.0822653e-05
36	0x38d9845c	0.0001037202
37	0x37145e4c	8.843443e-06
38	0x38480a20	4.7693145e-05
39	0x36bad619	5.568156e-06
40	0x3682d715	3.8993408e-06
41	0x36faaafe	7.4704867e-06
42	0x372d988b	1.034712e-05
43	0x374d9680	1.2253993e-05
44	0x36a8ebe2	5.0342505e-06
45	0x36e49224	6.8119425e-06
46	0x370b5efa	8.307159e-06
47	0x379a6865	1.8406843e-05
48	0x3753451d	1.2592672e-05
49	0x3723084a	9.717487e-06
50	0x3760777a	1.3379258e-05
51	0x37a3062f	1.9433994e-05
52	0x36b406ae	5.3651956e-06
53	0x36912220	4.3253094e-06
54	0x36c50d13	5.8725795e-06
55	0x37832e63	1.5638017e-05
56	0x396978ee	0.00022265661
57	0x364e8a6d	3.0776966e-06
58	0x3725e3c0	9.887794e-06
59	0x38163aec	3.5817662e-05
60	0x371d332b	9.369843e-06
61	0x37267417	9.9214e-06
62	0x37cba84c	2.4277855e-05
63	0x37d1421e	2.494553e-05
64	0x369026de	4.296059e-06
65	0x39019531	0.00012357977
66	0x3757e34d	1.2867921e-05
67	0x398dc86c	0.00027042942
68	0x38af75bc	8.36658e-05
69	0x36ee764a	7.1067234e-06
70	0x395c92f6	0.00021035582
71	0x37606fd8	1.3377481e-05
72	0x39943d3a	0.00028274377
73	0x3785c35f	1.5945812e-05
74	0x379867a3	1.8168072e-05
75	0x370a849c	8.2563165e-06
76	0x375c02c4	1.3113666e-05
77	0x371e0aba	9.420031e-06
78	0x37b4c29e	2.1548298e-05
79	0x374b80a8	1.2129698e-05
80	0x370321ce	7.816079e-06
81	0x38f48248	0.000116590934
82	0x3744dcb5	1.1733898e-05
83	0x36ae47f7	5.193982e-06
84	0x379da161	1.8791006e-05
85	0x37e5ea2f	2.7407978e-05
86	0x38548f3b	5.0678133e-05
87	0x3807cbca	3.23763e-05
88	0x37592520	1.2942852e-05
89	0x374cf587	1.2216514e-05
90	0x37335c31	1.0690696e-05
91	0x37272843	9.96335e-06
92	0x372ad143	1.0181512e-05
93	0x372789db	9.986073e-06
94	0x36fa6d97	7.4633385e-06
95	0x3787c549	1.6185122e-05
96	0x372e9066	1.0404829e-05
97	0x36e9fdaa	6.9734715e-06
98	0x36fe845a	7.5851976e-06
99	0x394d2901	0.00019565599
100	0x3740c07c	1.1488908e-05
101	0x374cdb40	1.2210396e-05
102	0x3779fc58	1.490031e-05
103	0x36d5f7f2	6.3767593e-06
104	0x36f9c40a	7.4436e-06
105	0x37726bc9	1.444942e-05
106	0x3738d6d9	1.1017278e-05
107	0x36b2d251	5.3292974e-06
108	0x37075126	8.065521e-06
109	0x396bbfda	0.00022482817
110	0x36b2d1ff	5.32926e-06
111	0x3721c496	9.642119e-06
112	0x3973515e	0.00023204598
113	0x37353f4d	1.0803179e-05
114	0x373a486e	1.1103328e-05
115	0x39c9d66f	0.00038497473
116	0x382a0b9e	4.0541978e-05
117	0x38362074	4.3422406e-05
118	0x3662cc82	3.3795664e-06
119	0x3721d152	9.645084e-06
120	0x3712d15e	8.751025e-06
121	0x370deb6d	8.459069e-06
122	0x37ac7501	2.0558482e-05
123	0x3716287d	8.950124e-06
124	0x389ffb4c	7.6285185e-05
125	0x38b69b9d	8.7074215e-05
126	0x3715be52	8.9254045e-06
127	0x373e9e1b	1.1361694e-05
128	0x379b31c0	1.8500607e-05
129	0x38037920	3.134564e-05
130	0x3628e05d	2.5164547e-06
131	0x388a2702	6.5876186e-05
132	0x3697ff52	4.529874e-06
133	0x37138e50	8.7950175e-06
134	0x374ef2a9	1.23350555e-05
135	0x3748e53a	1.19743e-05
136	0x389b1489	7.394801e-05
137	0x391c6fa1	0.00014918904
138	0x372117a7	9.601855e-06
139	0x37136e9e	8.787638e-06
140	0x378d2bc5	1.6828892e-05
141	0x383707e3	4.3637945e-05
142	0x39a43ddf	0.00031326615
143	0x3819ac9a	3.663879e-05
144	0x372c6095	1.0274486e-05
145	0x378f4f64	1.7083898e-05
146	0x3752d032	1.256545e-05
147	0x370bbb45	8.328648e-06
148	0x372b337f	1.0204384e-05
149	0x3746304e	1.18129665e-05
150	0x37f569e0	2.9255578e-05
151	0x390a771e	0.0001320508
152	0x374d3a2b	1.22324955e-05
153	0x370bb99a	8.328259e-06
154	0x37680106	1.3828516e-05
155	0x3747fe50	1.1920536e-05
156	0x37e30fac	2.7067807e-05
157	0x37aab993	2.0351994e-05
158	0x3a0e80bc	0.0005436053
159	0x37ffbe34	3.0486939e-05
160	0x37c040a2	2.291828e-05
161	0x373822f4	1.0975393e-05
162	0x373d651d	1.128882e-05
163	0x36b03faf	5.2526225e-06
164	0x39471dd2	0.00018989228
165	0x382d8949	4.137427e-05
166	0x36911950	4.3242835e-06
167	0x36880f51	4.054899e-06
168	0x36bab1db	5.563937e-06
169	0x36b6f902	5.453011e-06
170	0x372e1d67	1.0378054e-05
171	0x3706dd85	8.038599e-06
172	0x380c465c	3.344413e-05
173	0x37608ae3	1.33837775e-05
174	0x38ab84a6	8.178623e-05
175	0x3753cf00	1.2624776e-05
176	0x37771483	1.4727123e-05
177	0x371f886a	9.5089e-06
178	0x3730bb55	1.0534034e-05
179	0x37878510	1.6155216e-05
180	0x3753c548	1.2622513e-05
181	0x3826e779	3.979306e-05
182	0x36f4a8aa	7.2914017e-06
183	0x38403b29	4.5831464e-05
184	0x37b443c4	2.1489228e-05
185	0x3706aab4	8.026767e-06
186	0x392695ab	0.0001588675
187	0x379fc858	1.904757e-05
188	0x37a57791	1.972521e-05
189	0x379a1989	1.8370121e-05
190	0x3718bd94	9.104046e-06
191	0x36fa1b2c	7.453744e-06
192	0x38174675	3.6066824e-05
193	0x3761832e	1.3441588e-05
194	0x38e6e2b3	0.00011009481
195	0x37b7ba1e	2.1901968e-05
196	0x3780d28b	1.535683e-05
197	0x37229024	9.689513e-06
198	0x37296447	1.0096533e-05
199	0x397dfd56	0.00024222335
200	0x36f5d36b	7.3261813e-06
201	0x37b8aceb	2.201503e-05
202	0x378e85a2	1.6989947e-05
203	0x36fafbe0	7.4799027e-06
204	0x3807db50	3.239076e-05
205	0x3a222701	0.00061856216
206	0x3717651a	9.023841e-06
207	0x3773bad4	1.4527428e-05
208	0x36cb9aff	6.0679154e-06
209	0x374bcc90	1.2147371e-05
210	0x378566a3	1.590263e-05
211	0x36babc63	5.565163e-06
212	0x36db7c96	6.5412123e-06
213	0x37473d83	1.1875646e-05
214	0x372895bf	1.0048446e-05
215	0x37184613	9.076221e-06
216	0x3710c1f7	8.62823e-06
217	0x36683a25	3.4604539e-06
218	0x38abbbe3	8.188912e-05
219	0x3787e2e6	1.6198912e-05
220	0x37c0a059	2.2962851e-05
221	0x369d7022	4.6920186e-06
222	0x3880be55	6.138968e-05
223	0x3784a093	1.58104e-05
224	0x36b758cf	5.4641637e-06
225	0x374c7d65	1.2188543e-05
226	0x37f73c17	2.9472676e-05
227	0x37e9b4f8	2.7860035e-05
228	0x391be483	0.00014867079
229	0x36c720fc	5.934502e-06
230	0x38250d68	3.935155e-05
231	0x374cc544	1.2205277e-05
232	0x36d76820	6.419621e-06
233	0x36d2405c	6.26598e-06
234	0x384d603b	4.896543e-05
235	0x36a031b7	4.774159e-06
236	0x3989c5a7	0.0002627794
237	0x3977525f	0.00023586441
238	0x36de955d	6.6335037e-06
239	0x36f68c16	7.3476795e-06
240	0x3717a4b6	9.038651e-06
241	0x373d4629	1.1281613e-05
242	0x36bcf57e	5.6314157e-06
243	0x36bc36d3	5.609219e-06
244	0x371b8ca8	9.271469e-06
245	0x36e7182a	6.8871495e-06
246	0x3759cd1b	1.2981963e-05
247	0x3780bf46	1.5347858e-05
248	0x371641bf	8.956004e-06
249	0x3742bdf1	1.1607525e-05
250	0x38c0cf1c	9.1938506e-05
251	0x37c74133	2.375301e-05
252	0x36dc6c30	6.5691056e-06
253	0x38228db2	3.8755774e-05
254	0x3865075d	5.4604712e-05
255	0x3722057a	9.657228e-06
