SmallD_SDD_WORKING/out_step3_ipc25_s4_adamlr.pth (torch, 463328 bytes, 3 tensors)

module.data.weight f4 [50, 768]
000000 20 b9 43 bd 15 24 79 bd 97 de 55 bd 10 28 e3 3b
       -0.04778397 -0.060825426 -0.05221423 0.006932266
000010 66 13 a2 3d 18 75 8e bc 67 f0 cd bd 97 31 fd bd
       0.07913856 -0.017389819 -0.10055619 -0.12362974
000020 43 47 7c bd 4f 9e 87 3d 98 c8 72 bd c3 1e 64 3c
       -0.061591398 0.06621992 -0.059273332 0.01392335
000030 b2 c0 a9 bd 5d 7d 93 bc 60 7a 94 3c 2b 02 01 3d
       -0.08288707 -0.018004114 0.01812476 0.03149621
000040 17 ad a3 3d bd 04 c0 bd eb 0c 45 bc bc 34 5b bd
       0.07991999 -0.09375904 -0.012027006 -0.05351709
000050 fa 8a c3 3c 04 b2 85 bd c0 0f 8e 3d 26 46 49 3d
       0.02386998 -0.065280944 0.06936598 0.049139164
000060 82 94 26 3d 1d 86 61 bd ce 7f 4b bc 8e 85 7b bc
       0.04066897 -0.05505954 -0.012420608 -0.015351666
000070 7c 82 81 bc 61 fd bd 3d 75 0c 1a bd 86 95 8d 3c
       -0.01580929 0.09276844 -0.037609536 0.017283212
000080 34 ec b6 3b eb ef 20 3c f7 f9 8c bd 0a 7f dd 3c
       0.005582357 0.009822826 -0.068836145 0.027038116
000090 70 44 41 3d 7e d2 96 3d bd 84 16 3c 38 35 27 3d
       0.047184408 0.07364367 0.009186921 0.040822238
0000a0 71 77 a3 3b 90 5f 86 3d 42 54 3f bd b8 ee 80 3d
       0.0049886038 0.06561196 -0.046711214 0.06295532
0000b0 7c 28 95 bd 89 22 21 3e 21 33 89 bd e1 71 65 bd
       -0.072831124 0.1573583 -0.06699205 -0.056016807
0000c0 a9 95 7d bd c2 70 aa 3d 2f 45 8d 3d 0c a9 5e 3d
       -0.061910305 0.08322288 0.06897961 0.054360434
0000d0 36 4d 4d bd 6e b7 97 3d b6 7d 8c 3d ab 67 7f bd
       -0.050122462 0.07408033 0.06859915 -0.062354725
0000e0 08 81 9c bc 97 c9 b9 bd b9 d4 cc 3d 21 1d f5 3b
       -0.019104496 -0.09071653 0.10001511 0.007480279
0000f0 e4 62 9e bd b0 96 1c 3d 53 f4 8a 3c 7d d4 8f bc
       -0.07733706 0.038229644 0.016962206 -0.017557377
000100 38 bc e1 bc 64 28 d7 3c 5c 7f 91 bc 6e 01 21 3d
       -0.02755557 0.026264377 -0.017760925 0.039308004
000110 05 2a ff bc 81 71 fc bc cb 65 af bc cb a7 1d 3d
       -0.031147966 -0.030815842 -0.021410843 0.038490098
000120 c5 be aa bd 07 f1 93 bd 29 64 ad 3c c6 62 84 bd
       -0.08337168 -0.07223707 0.021165924 -0.06464152
000130 bd ef c6 bc 1c 9d 9d 3d 99 99 04 3b a1 26 c4 3c
       -0.024284238 0.07695982 0.0020233153 0.023944201
000140 b0 d6 9b 3d 9c 11 4e 3d 83 9b bf bd 8b 89 04 bd
       0.07609308 0.050309762 -0.093558334 -0.032357734
000150 69 7c 8a 3d 82 99 ba bc 14 24 76 bd 42 2b d9 bc
       0.067620106 -0.022778276 -0.060093 -0.026509885
000160 d4 27 64 3d 6e 84 16 3e 74 73 24 be 69 16 64 bd
       0.055702046 0.14698955 -0.16059667 -0.055685434
000170 10 e0 7a bd 0f 22 ee bd fa 92 a7 bd 87 ac 7f 3d
       -0.06124884 -0.1162759 -0.081823304 0.062420394
000180 9b a7 bc 3d 7f ae 9e bd e8 23 3f bc b0 43 dc bc
       0.09211656 -0.07748126 -0.011666276 -0.026887745
000190 9a e7 a5 bd d7 5a c6 bd 20 f3 50 3d ed 99 91 3d
       -0.08100815 -0.09685295 0.051013112 0.07109437
0001a0 6f 9f 83 bd dc c5 a3 3d d4 f8 4a bd 29 39 a9 3d
       -0.06426894 0.07996723 -0.049553707 0.082628556
0001b0 af ff 8c bd 49 d9 47 bd 4c 09 6f 3d 44 d5 e1 3c
       -0.06884705 -0.048791204 0.058358476 0.027567513
0001c0 b7 c0 b7 3b a6 c3 ab bd 9c dc 7c 3d 77 4a e1 3b
       0.00560769 -0.08386926 0.061733827 0.006875332
0001d0 63 dd 00 3d 76 01 d1 bc 80 8a 83 bc 9e 59 19 3d
       0.03146113 -0.025513392 -0.016057253 0.03743898
0001e0 36 b2 47 3d 88 31 15 bd 3a c8 b4 3d 4b 2c 1f bd
       0.04875394 -0.03642419 0.08827253 -0.0388606
0001f0 d9 40 09 bd f2 f4 ba bb b9 ac 81 3d 9c 6d 04 bd
       -0.03350911 -0.0057054693 0.06331772 -0.032331094
000200 50 d6 e8 bd 82 95 3b 3d 09 f7 a2 3d 96 1c db bc
       -0.11369002 0.04579688 0.079572745 -0.02674703
000210 b8 37 c3 bd 04 90 78 3d a9 68 86 bd bf b2 89 bd
       -0.09532112 0.06068422 -0.06562931 -0.06723546
000220 f3 af aa bc b3 be 21 3d 92 9b 8e 3d 5a 4f 5f 3d
       -0.020835852 0.039488506 0.069632664 0.054519035
000230 0c 0b 3f bd 0a 84 d2 bc ae 67 80 bd df 40 a0 ba
       -0.046641394 -0.025697727 -0.06269775 -0.0012226364
000240 1e 4e 0e 3d fa 5a 84 3d a2 ed 78 3d fd 20 8b bb
       0.034742467 0.06462665 0.0607735 -0.004245876
000250 82 56 43 bd e4 05 ec bc ed 71 89 bd 8d cb f2 bc
       -0.047689922 -0.028811403 -0.06711183 -0.029638076
000260 fd f8 97 bc a9 c3 96 bd 0b 6c 93 bd 20 c1 90 3b
       -0.018551344 -0.07361538 -0.07198342 0.0044175535
000270 7a c4 e5 3a b5 ac 94 bc 78 08 47 bd 02 fe 3f 3d
       0.0017529868 -0.01814876 -0.04859206 0.0468731
000280 f6 39 85 3d 47 dc fe 3c e5 ba b9 3d 11 dc 90 bd
       0.06505196 0.031110896 0.090688504 -0.07073224
000290 96 f8 87 3d 05 c0 87 bd 26 bc 72 3c d5 80 90 3d
       0.06639211 -0.06628422 0.014815366 0.07055823
0002a0 77 3d 93 bd 69 00 97 3d 8b e2 87 3d f8 e8 39 3d
       -0.07189458 0.07373125 0.066350065 0.045388192
0002b0 1e ca 98 bc 35 cb 97 3c 96 9d 71 bc ae ee 7f bd
       -0.018651064 0.018529514 -0.014747044 -0.062483482
0002c0 ff ce 46 3d 92 29 df 3c 94 9d 50 3d 4f 43 8a 3c
       0.04853725 0.027241502 0.05093153 0.016877798
0002d0 f6 f9 3d bd 0a 39 7c bd f8 60 9a 3d 8e dd a1 3d
       -0.04638096 -0.061577834 0.075380266 0.07903586
0002e0 6b 8b d7 3b ff 40 8f 3c bc ad 3b bc 68 09 d5 bc
       0.006577899 0.017487047 -0.011454996 -0.026005462
0002f0 00 e5 90 3d e7 fd a2 bd 2a e1 73 bd f4 12 81 bd
       0.07074928 -0.07958584 -0.059540905 -0.06302443
000300 68 f8 14 3b 03 3e ee bd 57 51 8e bc 46 77 86 3d
       0.002273107 -0.116329215 -0.01737277 0.06565718
000310 8d 83 32 3d 89 02 82 bd 90 8f 4e 3d 60 a6 93 bc
       0.043582488 -0.0634814 0.05042988 -0.01802367
000320 2a 48 bc bd 57 3d 40 bc e2 b6 5d 3d c1 e0 81 3d
       -0.09193452 -0.011733375 0.05412949 0.063416965
000330 ec ca 0c 3d dd 8d 83 bc 34 02 d1 3c 38 11 7f 3d
       0.03437321 -0.016058857 0.025513746 0.06227228
000340 af 30 99 bc 96 7f 58 3d 19 7c 5c bd ad c2 b6 bb
       -0.018699972 0.05285605 -0.053829286 -0.0055774064
000350 13 d1 80 bc 4f a3 c1 3d 85 15 ca bd aa 19 25 3d
       -0.015724694 0.09454977 -0.09867386 0.04030768
000360 43 18 77 3d ab 48 d3 3d 7d aa 4c bc ee fd 95 3d
       0.060325872 0.10316595 -0.012491819 0.07323824
000370 30 76 ff bc 0a a5 3a bd e4 75 0d 3c ee 82 5f 3d
       -0.031184286 -0.04556755 0.008634064 0.054568224
000380 5a f2 10 bd de 05 86 bc 93 ae 14 bb e9 51 2b bd
       -0.035387374 -0.01636022 -0.0022687062 -0.041826162
000390 74 43 45 3b 43 9e 84 3d 8a 1f a2 bc 2b 6f 0f 3d
       0.003010002 0.064754985 -0.01979043 0.035018127
0003a0 d9 c5 5c bd f6 7b 34 3d 09 0d 33 bc 74 0b 92 3d
       -0.05389962 0.04406353 -0.010928401 0.07131091
0003b0 50 fa d3 3c c8 a3 15 3b b2 b7 8c 3d cd 21 5f 3d
       0.025876194 0.0022833217 0.068709746 0.054475594
0003c0 d2 ae 18 3d a3 e5 86 bd 64 43 c1 3d fd 55 5d bd
       0.037276097 -0.065867685 0.09436682 -0.054037083
0003d0 05 ed 59 3d ac e8 aa bc 77 79 21 bd 9e bb ce bd
       0.053204555 -0.0208629 -0.03942248 -0.10094379
0003e0 ce 5e 90 bd a7 e7 8d 3d 0a d8 1b 3d cc 48 7e 3c
       -0.070493326 0.0692895 0.038047828 0.015520286
0003f0 a3 b0 b0 3c ad fe cb 3d 5a 22 7b 3d ab 3b d1 3d
       0.021568602 0.09960685 0.061312057 0.10216459

exp_avg f4 [50, 768]
000000 b4 d0 d8 38 37 73 3a b8 7a 3f 40 39 69 9d d4 37
       0.000103385566 -4.4453158e-05 0.00018334194 2.534567e-05
000010 da d6 b9 38 43 e4 af 37 13 1d 30 38 d5 7f fc 3a
       8.861507e-05 2.0967918e-05 4.1988747e-05 0.0019264171
000020 cd 37 f1 37 55 e7 36 38 66 db e9 37 6f 18 2a b9
       2.8755423e-05 4.3607626e-05 2.787793e-05 -0.00016221566
000030 34 df bc 37 30 5b ee b8 3e 5b 0b b7 4a 6c 13 38
       2.2515283e-05 -0.00011365709 -8.30629e-06 3.5148383e-05
000040 45 2f dd 37 71 93 a5 b9 c2 2e b7 38 58 2e 02 38
       2.6367265e-05 -0.00031581105 8.734829e-05 3.1037576e-05
000050 fd bf 92 37 50 7c 6f b8 1b c2 21 b8 10 a8 6b 36
       1.7493958e-05 -5.7097815e-05 -3.8566166e-05 3.5115554e-06
000060 c7 da 1a 38 a7 65 0b 39 ca fb b1 36 88 0c 1b 39
       3.6920213e-05 0.00013293941 5.304323e-06 0.0001478662
000070 32 b4 11 38 ef a9 6b b9 17 1b 7a b7 75 b8 60 b8
       3.4738514e-05 -0.00022474652 -1.49074685e-05 -5.357755e-05
000080 a0 1f e4 39 ac 88 8b 38 18 7c dd b8 3a e5 ba b6
       0.0004351111 6.6534936e-05 -0.000105612155 -5.5699174e-06
000090 9a 10 88 b8 11 17 bd b8 e6 05 07 3a fd 32 df b7
       -6.4880776e-05 -9.016519e-05 0.000515072 -2.6607415e-05
0000a0 d0 f9 4c 36 c1 70 f5 37 59 ab cd 38 ed 82 9b b8
       3.0543779e-06 2.9258781e-05 9.807078e-05 -7.415363e-05
0000b0 3e 92 22 38 6a f6 12 39 02 1f 7e 39 cd 99 1a b9
       3.876001e-05 0.00014015441 0.00024234879 -0.0001474388
0000c0 fa f7 8f 38 ca 03 0f b8 fc a4 ee b8 75 57 dc 38
       6.8649606e-05 -3.4097386e-05 -0.00011379455 0.000105067076
0000d0 79 e4 5b b8 b8 20 d3 b8 7c eb 82 b7 5c 15 78 b9
       -5.242645e-05 -0.000100673584 -1.5606864e-05 -0.0002365908
0000e0 eb d8 d7 39 2b 93 b4 b7 e4 b8 fb b8 ff 0d 08 b8
       0.00041169612 -2.1526203e-05 -0.00012003051 -3.243796e-05
0000f0 97 10 40 b8 dc b2 3c b8 fa ef 6a b8 bc 14 4a b9
       -4.5791818e-05 -4.498927e-05 -5.6013443e-05 -0.00019271945
000100 d9 e3 ff 37 5c 68 8d 39 1b c6 ad b8 12 bc 0f 3a
       3.0504469e-05 0.0002697137 -8.286183e-05 0.0005483042
000110 16 94 f8 b9 c4 81 92 b7 91 16 89 ba d7 6a 0b 39
       -0.0004741258 -1.7464983e-05 -0.0010458996 0.00013295874
000120 3d 84 a1 b9 c5 95 e2 37 6e 2a 12 ba 1a 51 22 b8
       -0.00030806838 2.7011041e-05 -0.00055757805 -3.869934e-05
000130 98 ed 8c b6 04 0e 1e b8 58 9b 8a b9 a8 d1 81 b9
       -4.1999847e-06 -3.768319e-05 -0.0002643715 -0.00024761003
000140 85 ad 15 37 65 2c eb b9 a1 af 37 b6 a5 4e e7 b7
       8.921493e-06 -0.0004485577 -2.7371354e-06 -2.7573968e-05
000150 8b bf 8a 39 39 92 a6 b7 24 25 db 39 96 6d b8 39
       0.00026464122 -1.9856832e-05 0.00041798607 0.00035176863
000160 71 a8 99 37 27 c0 a3 b8 2d 2f 8e b7 69 81 a6 b8
       1.8317458e-05 -7.808237e-05 -1.6949687e-05 -7.939601e-05
000170 5e b0 6b b7 d7 24 9e b8 d5 78 1b 38 8f 4b ee 38
       -1.4048155e-05 -7.540889e-05 3.7067413e-05 0.00011362798
000180 f2 06 54 37 5f 5e ba 38 dc 72 eb 38 27 7f 96 39
       1.2637802e-05 8.886749e-05 0.000112270674 0.00028704965
000190 f8 69 55 b9 e9 f1 a5 b9 18 38 f8 b9 61 39 0c 38
       -0.0002035274 -0.0003165149 -0.0004734404 3.343204e-05
0001a0 81 d8 4d 36 36 80 bf 37 5d a0 87 38 3e ed 8d 39
       3.0673402e-06 2.2828677e-05 6.4671716e-05 0.00027070375
0001b0 c8 5d a6 36 4e c1 30 ba 5b df 07 38 1c a8 45 b8
       4.958103e-06 -0.0006742672 3.2394524e-05 -4.7125024e-05
0001c0 3d 57 69 39 98 80 87 38 59 c1 26 38 f8 64 53 ba
       0.0002225311 6.461254e-05 3.9757553e-05 -0.0008064057
0001d0 db e2 b9 b8 da ae 98 38 66 6d 9f 39 3f cb a4 b7
       -8.8637426e-05 7.2804934e-05 0.0003040835 -1.9644967e-05
0001e0 84 71 ca b7 21 23 2d b9 68 7a 13 39 9f 98 9e b8
       -2.4133136e-05 -0.00016511652 0.00014064612 -7.562455e-05
0001f0 57 a7 b3 39 d2 10 e1 b7 81 6f 43 b8 cd 7d 00 38
       0.00034266218 -2.6829923e-05 -4.659547e-05 3.063474e-05
000200 b4 e4 2e b9 eb 52 82 b9 47 5c 07 38 f6 b4 c0 b8
       -0.00016679132 -0.0002485731 3.2272448e-05 -9.18898e-05
000210 62 8c 34 37 9a ea 1c 3a c9 34 d7 37 4d 20 28 b9
       1.07615215e-05 0.0005985886 2.5654577e-05 -0.00016033761
000220 73 f2 ff 39 3d e5 ae 39 b8 8e 24 b7 1a 4e 9e 36
       0.0004881803 0.00033358662 -9.808391e-06 4.717859e-06
000230 fa 35 e3 38 e8 a6 37 ba 86 8a 51 38 d4 d0 55 b9
       0.000108342574 -0.0007005767 4.9958493e-05 -0.00020391057
000240 08 c1 3e b9 fd cb 44 b8 44 cd 55 37 33 65 a7 38
       -0.00018191722 -4.692002e-05 1.27435815e-05 7.9820304e-05
000250 88 88 2c b7 f7 fb 27 b8 89 f9 6c 39 6b 94 fa 38
       -1.0283788e-05 -4.0050563e-05 0.00022599673 0.00011948574
000260 78 c4 16 b9 c8 47 39 b8 ff c2 90 b6 72 93 b5 38
       -0.00014378305 -4.417429e-05 -4.314235e-06 8.6582164e-05
000270 7a ef fa 37 9e bc 71 b9 5b b1 3f 39 f2 5c 2d b9
       2.9913837e-05 -0.00023053816 0.0001828125 -0.0001653319
000280 74 b0 82 39 d5 05 0d 37 9a 61 87 b8 4d 25 3d b8
       0.00024927 8.405613e-06 -6.455481e-05 -4.509585e-05
000290 15 4e 19 39 fa 98 81 b7 67 97 45 39 5d 2e 14 38
       0.00014620305 -1.5449234e-05 0.00018843786 3.532913e-05
0002a0 30 91 9a 36 f2 de d4 b8 3f 76 00 39 ac 33 18 b8
       4.6064597e-06 -0.000101504746 0.00012251081 -3.6287747e-05
0002b0 b0 11 9f 37 61 6e ac b8 15 83 21 b9 6a 93 38 38
       1.8962513e-05 -8.222159e-05 -0.00015402988 4.400631e-05
0002c0 a4 ee 9a b6 dc 24 aa 36 91 b3 89 b8 94 03 8b 38
       -4.617339e-06 5.070686e-06 -6.566116e-05 6.628703e-05
0002d0 5c 34 42 39 d4 ff c9 38 65 89 18 b7 f4 ae 17 b9
       0.00018520787 9.6320786e-05 -9.091896e-06 -0.00014465657
0002e0 b9 53 d7 35 a5 c7 99 38 4b c1 36 39 8d c6 28 b8
       1.6043115e-06 7.332795e-05 0.0001742888 -4.0239236e-05
0002f0 94 ed c2 b8 25 bb 02 b9 3f 22 08 39 4f 52 04 39
       -9.294893e-05 -0.00012467483 0.00012982728 0.00012619163
000300 69 77 8b b8 7c 41 c0 38 98 a3 dd 37 fb 46 54 b9
       -6.6502784e-05 9.167471e-05 2.6421432e-05 -0.00020244338
000310 6b ef 09 39 39 cd c8 38 97 14 9d b8 8b 1e 81 39
       0.00013154528 9.574969e-05 -7.4901785e-05 0.00024627554
000320 58 27 17 38 35 af 23 b9 e3 0f f9 38 54 fa 98 37
       3.6037847e-05 -0.00015610161 0.000118762044 1.823638e-05
000330 b8 18 de b8 f9 8a 03 39 fe 6a 0b b9 94 22 c8 38
       -0.00010590389 0.00012544905 -0.0001329593 9.543184e-05
000340 4c 9a 4a 39 f3 6f 57 39 df ad 84 b6 d8 d8 af 38
       0.00019321701 0.00020545702 -3.954148e-06 8.3850406e-05
000350 0c ca 67 b7 86 dd 45 39 06 ca 3b b8 be d0 ab 37
       -1.3815716e-05 0.00018869908 -4.4772423e-05 2.0481992e-05
000360 67 86 17 b8 d2 bc 78 b8 9e df 03 ba 4d c3 2c b7
       -3.6126377e-05 -5.930366e-05 -0.0005030575 -1.0297471e-05
000370 a3 66 45 b8 09 a7 72 b7 f2 6a 96 37 5c 61 3e b6
       -4.7064048e-05 -1.4463215e-05 1.7931194e-05 -2.8368877e-06
000380 54 2d c9 37 af 36 95 b8 ca 31 7b 38 34 a8 83 b9
       2.3982175e-05 -7.115059e-05 5.9889433e-05 -0.00025111588
000390 c9 de 62 b9 84 83 87 38 f6 b5 32 b9 75 71 c8 37
       -0.00021636033 6.461798e-05 -0.00017043189 2.389469e-05
0003a0 6f 4a 5d 38 5b 82 60 38 a1 52 16 b9 4a d0 e5 37
       5.2759828e-05 5.3527165e-05 -0.00014335896 2.739592e-05
0003b0 2a cb e5 38 40 1c db b9 21 87 bd b7 b0 33 44 38
       0.00010957413 -0.00041791983 -2.259348e-05 4.677818e-05
0003c0 e1 95 af b7 6e 53 03 b9 72 d1 d1 38 7d ec 87 38
       -2.0931418e-05 -0.00012524214 0.00010004909 6.481351e-05
0003d0 e2 29 51 39 22 d7 be 38 f2 67 bb b7 b5 b5 59 36
       0.00019947396 9.0999776e-05 -2.234054e-05 3.2441287e-06
0003e0 9d d7 b9 b9 9f 80 54 b7 8f 63 bd b7 0d 89 94 b7
       -0.00035446594 -1.2666132e-05 -2.2576916e-05 -1.7706794e-05
0003f0 0c 29 bc b8 75 58 6b 39 14 30 2f b9 87 12 58 38
       -8.972184e-05 0.00022444299 -0.00016707211 5.1515668e-05

exp_avg_sq f4 [50, 768]
000000 51 eb 9d 34 e0 4a 65 34 d9 33 b4 34 21 96 5e 36
       2.9414744e-07 2.1354526e-07 3.3565337e-07 3.3167964e-06
000010 1c db 56 35 f8 38 05 34 68 00 36 35 db 4e 8c 37
       8.004006e-07 1.2407315e-07 6.7800875e-07 1.672602e-05
000020 c1 36 78 34 a8 66 38 33 df 4f 44 34 54 bb ba 35
       2.3116719e-07 4.2934204e-08 1.828298e-07 1.39126e-06
000030 a9 f0 40 33 80 44 35 35 7e b9 81 37 64 cf 0d 34
       4.4922363e-08 6.7527435e-07 1.5464375e-05 1.3207097e-07
000040 0a b8 4a 34 47 b7 ad 35 91 39 c0 37 7c 05 f6 33
       1.8879669e-07 1.2942845e-06 2.291499e-05 1.1456265e-07
000050 52 4e 07 34 ed ba 83 35 bd 9f a5 34 ba 88 b7 33
       1.2601348e-07 9.814663e-07 3.084987e-07 8.546472e-08
000060 8c 5e 1b 34 70 5a 8a 34 fe ba b2 34 89 88 19 35
       1.4469896e-07 2.5770305e-07 3.3291138e-07 5.7195626e-07
000070 c0 e6 fc 34 10 ca 6b 37 5b 24 4f 34 75 d9 b7 36
       4.710655e-07 1.4054138e-05 1.9291603e-07 5.4791403e-06
000080 87 ba 0c 38 61 a9 8d 38 37 bd 07 35 9a 0a 0e 34
       3.355232e-05 6.754953e-05 5.0566763e-07 1.3228637e-07
000090 aa d5 cd 34 09 55 12 35 e1 c2 8f 37 64 84 66 33
       3.8339687e-07 5.451298e-07 1.7137676e-05 5.3671457e-08
0000a0 fc ac c5 34 9c d5 b7 34 17 0b 26 36 4d 07 8f 34
       3.6819972e-07 3.4241828e-07 2.4742383e-06 2.6641138e-07
0000b0 5b 59 8b 34 25 22 8f 34 37 50 14 35 48 4c 75 38
       2.5955782e-07 2.666067e-07 5.5251024e-07 5.8483594e-05
0000c0 61 02 f0 34 d9 0b 91 34 cc c9 a5 34 80 bf df 34
       4.4705214e-07 2.7016975e-07 3.0880472e-07 4.167632e-07
0000d0 ce e3 f5 35 5e 68 36 34 fe 65 6e 33 ad 96 5b 36
       1.8320222e-06 1.698804e-07 5.5506455e-08 3.2721248e-06
0000e0 85 8b 84 37 c2 82 aa 34 44 42 55 34 52 36 fa 34
       1.5800595e-05 3.1760106e-07 1.9861278e-07 4.6605652e-07
0000f0 85 6e f4 33 c9 d1 37 35 af 11 23 36 6e 45 52 36
       1.1382239e-07 6.847809e-07 2.4299186e-06 3.1332852e-06
000100 2f 7e 23 34 0d 49 87 37 f3 21 85 36 82 d2 d8 38
       1.5226463e-07 1.6127271e-05 3.967661e-06 0.00010338893
000110 9d d1 c6 37 55 60 27 34 ab 80 9a 39 29 0f 2f 34
       2.3701048e-05 1.5588132e-07 0.00029469034 1.630366e-07
000120 2e 6e 8b 36 70 35 41 33 bd 20 a4 36 59 5c 0c 34
       4.1553494e-06 4.4984915e-08 4.891392e-06 1.3072112e-07
000130 1f d4 11 35 9b 96 6e 34 76 fe 97 36 6e 0a 1c 37
       5.4325386e-07 2.2220267e-07 4.529774e-06 9.300753e-06
000140 2e db 88 34 70 86 0d 37 c5 ff 6b 34 3a 70 18 33
       2.5491448e-07 8.435556e-06 2.1979129e-07 3.5492327e-08
000150 2b d8 60 37 0e 11 8f 34 91 88 33 35 28 31 da 35
       1.3401771e-05 2.6648235e-07 6.6881427e-07 1.6256572e-06
000160 b5 57 30 33 b1 41 7c 35 86 ff 99 37 d2 fa f1 33
       4.1057962e-08 9.397291e-07 1.8358009e-05 1.1268061e-07
000170 a1 57 88 34 a9 53 9a 34 26 d2 57 34 bf a3 30 36
       2.5395732e-07 2.8745606e-07 2.0099887e-07 2.6321356e-06
000180 04 0e a4 34 32 47 d3 33 74 39 0b 36 d3 89 0b 38
       3.0557578e-07 9.8384035e-08 2.0746056e-06 3.326854e-05
000190 ae 7f be 34 cb a7 9f 35 f7 95 a2 35 c4 89 06 34
       3.5483157e-07 1.1895257e-06 1.2113586e-06 1.2529841e-07
0001a0 15 6c 5d 34 43 db 3c 34 f7 3d 12 34 e4 a8 28 35
       2.0621549e-07 1.7588631e-07 1.3619852e-07 6.2830645e-07
0001b0 05 bc 64 34 c9 e6 84 38 c5 08 93 34 88 be 2b 34
       2.1302556e-07 6.3372376e-05 2.7387264e-07 1.5994931e-07
0001c0 46 e7 ed 35 92 c2 be 34 b8 92 a9 34 db 48 70 38
       1.7725185e-06 3.5531826e-07 3.1585455e-07 5.728831e-05
0001d0 eb c9 03 36 23 78 03 35 f8 87 a4 36 a7 4b 13 35
       1.9638053e-06 4.8976125e-07 4.9034097e-06 5.4871856e-07
0001e0 0e 1d eb 33 4a 12 0b 34 e2 9a 1d 35 b0 ac 59 35
       1.0948325e-07 1.2952037e-07 5.871244e-07 8.1090093e-07
0001f0 6d 9c b6 37 25 f3 00 38 5f e3 5c 34 25 12 1f 34
       2.1768932e-05 3.0744024e-05 2.0571814e-07 1.481463e-07
000200 63 65 da 35 f8 4d 9c 34 a0 16 7a 33 30 82 2e 37
       1.6271773e-06 2.9113994e-07 5.822824e-08 1.040152e-05
000210 28 f2 1d 34 52 56 e9 35 81 34 82 33 ac c9 bf 35
       1.470986e-07 1.7384975e-06 6.063147e-08 1.4289303e-06
000220 1a db c1 37 67 c3 51 37 9b 24 a5 34 02 2a 0e 33
       2.310942e-05 1.2502866e-05 3.076028e-07 3.3100157e-08
000230 0f 6e 88 34 61 89 86 38 f8 ed ed 38 57 19 c9 37
       2.5412052e-07 6.415207e-05 0.00011345366 2.3972867e-05
000240 9e 9e 27 35 f4 15 29 34 9f f8 43 34 46 e5 78 35
       6.2443166e-07 1.5747338e-07 1.8251238e-07 9.2720836e-07
000250 37 6e 58 34 d1 a1 cc 33 73 fc 9d 35 88 a6 af 36
       2.0156664e-07 9.5289245e-08 1.1770884e-06 5.234793e-06
000260 0e 25 c8 34 06 59 1c 34 b0 dc 67 36 1b f0 7f 35
       3.7279864e-07 1.4561019e-07 3.455014e-06 9.53443e-07
000270 b5 75 37 35 1e 55 a1 37 c6 e1 ca 37 d6 bb 32 35
       6.83441e-07 1.9232331e-05 2.418541e-05 6.6583505e-07
000280 6d d0 a2 36 f0 fb 1d 34 54 82 53 35 86 71 d9 33
       4.85224e-06 1.4713419e-07 7.879328e-07 1.01255e-07
000290 29 9d 15 36 8e e4 0c 35 96 57 91 36 c7 80 f1 34
       2.229421e-06 5.2486655e-07 4.331533e-06 4.4983446e-07
0002a0 24 7a 26 33 ec 63 39 34 50 ea df 34 50 f0 83 33
       3.8760973e-08 1.7265819e-07 4.1707472e-07 6.1438755e-08
0002b0 de 51 12 37 51 7e 00 37 26 37 ea 36 27 5d 56 34
       8.721339e-06 7.658805e-06 6.9801636e-06 1.9964192e-07
0002c0 00 8d 23 36 6a 19 ca 34 db bf be 33 cf 52 71 34
       2.4370966e-06 3.7643923e-07 8.882463e-08 2.2475e-07
0002d0 6d b2 44 34 b4 b8 da 35 7f 4d bf 34 80 5f bb 34
       1.8318833e-07 1.6296021e-06 3.5632908e-07 3.490095e-07
0002e0 09 2b 22 36 d0 9a 3a 35 cb ae c2 36 14 23 0d 36
       2.416493e-06 6.951568e-07 5.801999e-06 2.1031055e-06
0002f0 55 d6 48 36 9e bf 20 35 37 62 78 34 84 be 68 35
       2.992708e-06 5.9883484e-07 2.313253e-07 8.670397e-07
000300 f4 db 1e 36 53 44 b8 34 5f 8f bf 37 29 24 a2 34
       2.3671864e-06 3.4322383e-07 2.2835737e-05 3.020116e-07
000310 00 03 89 36 b1 c0 e2 33 7d 7e 38 35 7d d5 9d 37
       4.0832674e-06 1.05589955e-07 6.8729406e-07 1.8815272e-05
000320 b8 6c 91 34 d9 54 14 38 a3 f6 05 34 46 53 55 34
       2.7087458e-07 3.536497e-05 1.2476316e-07 1.9867466e-07
000330 69 39 60 36 30 29 10 37 50 6b 77 34 38 d6 a5 34
       3.3412018e-06 8.592659e-06 2.3042708e-07 3.088951e-07
000340 e3 2a 8f 36 40 9c 82 36 8c 0d 41 33 33 32 5d 34
       4.2667248e-06 3.892492e-06 4.4948635e-08 2.0600491e-07
000350 62 61 ba 34 af 16 ed 34 bf 77 03 34 30 dc 49 33
       3.4716055e-07 4.4161195e-07 1.2243889e-07 4.699922e-08
000360 98 0e 30 34 be 0f bf 34 86 54 12 37 a0 07 08 37
       1.6396586e-07 3.5587976e-07 8.721958e-06 8.108007e-06
000370 5c c0 73 35 1c 01 8f 33 6f bb 1a 35 44 e0 84 34
       9.0804474e-07 6.659158e-08 5.764222e-07 2.475009e-07
000380 d0 f3 fd 33 4e 0d d2 35 69 c9 7e 35 c7 8d 55 36
       1.182558e-07 1.5650091e-06 9.4915464e-07 3.1821999e-06
000390 af 64 ef 36 e0 44 9b 37 d5 3a 43 35 02 4f 2c 34
       7.134476e-06 1.8509512e-05 7.272877e-07 1.6047491e-07
0003a0 63 5b 88 34 43 df 3e 36 5d 20 12 37 ad 5f 90 34
       2.5398467e-07 2.8442162e-06 8.709813e-06 2.6891703e-07
0003b0 f5 92 1d 37 93 53 28 38 98 02 98 34 c0 20 92 34
       9.392145e-06 4.0132156e-05 2.8314093e-07 2.7218448e-07
0003c0 bb 08 80 33 84 29 19 34 8f ae 82 34 90 31 b0 34
       5.9620525e-08 1.4264339e-07 2.4341395e-07 3.2818616e-07
0003d0 b4 fb d6 34 dc 1b 86 35 92 e2 f4 34 28 30 11 33
       4.0043744e-07 9.991886e-07 4.5613393e-07 3.380424e-08
0003e0 6a b9 62 35 65 7b 02 34 3f 96 a9 36 97 8e 6a 34
       8.4461374e-07 1.2152084e-07 5.0540834e-06 2.1844822e-07
0003f0 39 35 15 37 8c 03 cf 34 2f 86 f8 36 ae 97 cf 33
       8.893484e-06 3.8559335e-07 7.406597e-06 9.666779e-08
