SmallD_SDD_WORKING/out_step3_ipc05_s0_adamlr.pth (torch, 94688 bytes, 3 tensors)

module.data.weight f4 [10, 768]
00000000: 1ccd 87bd 04e5 cdbd 6e1c b5bc 8754 29bd
00000010: 7a94 6b3d b906 01bb 7446 9fbd aa0c f3bd
00000020: e77b f3bc e66f 973c 071f a9bd 2c71 583d
00000030: 6042 6ebd 6839 3a3b 793a 8e3d 3404 873b
00000040: f472 7b3d e8ce ccbd 7066 483c 57b5 b8bd
00000050: 3651 053d 8322 adbd a0e3 e73c 9270 ff3c
00000060: d1ba 573d 9006 51bd f184 0d3c 33e0 483c
00000070: ee1c fc3c 1caf c13d 0b6e 79bc 4a94 f2bb
00000080: 1ce8 473c 766c 553c c045 7cbd 578b 7dbb
00000090: 9ba7 5fbc c480 803d 39ca b53c 5c41 bc3c
000000a0: 4feb dc3c 93de 193d 14ca c8bc 79f0 0b3d
000000b0: d513 2ebd bc21 053e 1f3e 64bd 1cfc 15bd
000000c0: 54a2 54bd 8de2 6d3d 56e3 cc3d 54e6 e73c
000000d0: 52b6 17bd f24a 453d c3e5 b93d ad18 4dbd
000000e0: 94aa 16bc 81c0 81bd 2b18 0d3e 21f8 9d3d
000000f0: fd6a c1bd 67b9 22bc e698 a53c 52b4 7dbc
00000100: fe25 3ebc e297 8f3d f2b4 4d3c 40d7 743d
00000110: a15a 42bd 049c c63b f3ed 22bc 5309 783d
00000120: 5dcd 65bd 2f10 0dbd f720 e53b f747 643a
00000130: 513f d2bc e25c 933d 3643 8f3b 4232 6d3b
00000140: 4ab9 873d 4331 983d 9292 c8bd 2dc8 95bc
00000150: 4889 553d 7e5c a5bc 74ac af3b eace bcbb
00000160: 023e 213d 4360 b03d 7c65 02be 7de9 30bd
00000170: fef1 3cbd de92 7bbd b612 70bd 5fee 323d
00000180: fefd 8f3d 377f aebd 4a64 adbc e795 1bbb
00000190: c6b7 94bd 59fd 9abd 51d9 953c d589 843d
000001a0: 3552 f8bc b0a6 433d 30b9 15bc 1bed 343d
000001b0: e40d 5dbd 09ac 90bd a786 b03d 710a 1d3b
000001c0: 59dc b9bc 13c5 62bd 6e05 303d abe1 87bb
000001d0: fe39 bdba 0cdf 82bb 857a 9a3b c5ee ef3c
000001e0: 1d2e 813d 4322 55bd c25e 913d 5317 06bb
000001f0: 8cb0 61bd ff7a a33c e7c9 563d 1755 c4bc
00000200: ea83 9bbd 48b5 013d 3a18 3f3d 8bc0 b5bc
00000210: 11af 9dbd ff9d 363d 72fc 86bc e3f6 e7bd
00000220: b4f6 3cbc e56e f63c 6695 083d 6234 d63c
00000230: 9674 ffbc 1d6d eebb 2035 34bd 982f 4dbc
00000240: 8324 313d 7373 c13c 0525 873d 3ea3 0b3d
00000250: 1d27 36bc 1fe3 83bc 449c b7bc 376f 8ebb
00000260: afce 3ebc 86a8 91bd 8a39 a0bd 5786 20bb
00000270: b676 01bd 3627 2cbc 0a12 ff3b fd5c 263d
00000280: 874c 8b3d 9803 233d 0c63 8c3d 9d35 87bd
00000290: 1322 263d acb2 67bd d990 7b3d ae38 2e3d
000002a0: a4c9 e9bc efde 9e3d fc31 823d 8ac3 e73b
000002b0: eea7 74bc b953 113c 24f4 66bc c1a6 9bbd
000002c0: 4f5a 0e3d 72be df3c 8bfb ee3b b950 5c3c
000002d0: d71e 08bc bcb9 66bc 3a98 863d 3686 f43c
000002e0: d0a9 c33c 9a78 2c3c fca1 b03c f96c 3cbd
000002f0: 68c8 963d f6af b8bd e4dd d4bd 7361 83bd
00000300: 75ba 30bd f6cc b4bd a2ad cd3c 6593 283d
00000310: 90c6 cd3c 4ebb 52bd 8dd9 093d 0bea 953c
00000320: b2c9 a3bd 50c6 e9bc 05c6 86bb 20ad 373d
00000330: abe2 b93c a12d 9dbd 5ab4 89bb c34a d53c
00000340: 8244 d73b 83ec 6e3d fc67 08bd 4c4c 643c
00000350: 81a1 c3bc 3cc7 b63d b43d a8bd 95e3 dd3c
00000360: f024 563d c6be 743d 3cc7 e2bc e5b0 7f3d
00000370: 8872 0ebc fc4c e2bc bb85 06bd e47d 0c3d
00000380: cfa8 0bbd e220 eeba 9d65 b53c 7011 86bc
00000390: 48f5 0e3b c41b 533d efc3 45bc ddfd 003d
000003a0: 3e9c 38bd 4826 513d 2b5b 0b3b b06d 883d
000003b0: b916 2a3c ee58 6e3c b880 673d 08b8 c23c
000003c0: 3a72 8a3c 74e1 dabd ddca d23d 0129 59bd
000003d0: 8f69 a13d 81c1 5ebc fd36 0fbd dad8 23bd
000003e0: 4876 8abd 2da5 993d f590 003d 0235 ceba
000003f0: 827b 043c e8a3 5d3d 9f82 4e3d 6ccf 933d
-0.066309184 -0.10053447 -0.022108283 -0.041340377 0.057514645 -0.0019687845 -0.0777711 -0.1186765
-0.029722167 0.018485975 -0.08257871 0.052842304 -0.05816877 0.0028415564 0.069447465 0.004120374
0.061388925 -0.10000402 0.012231454 -0.09018963 0.032548152 -0.08453848 0.028306782 0.031181607
0.052668396 -0.05103165 0.008637653 0.0122604845 0.030775513 0.094572276 -0.01522399 -0.0074029313
0.012201335 0.013026347 -0.061589956 -0.003868779 -0.0136508 0.0627456 0.022191154 0.022980385
0.026967673 0.03756578 -0.02451042 0.03416488 -0.042499382 0.1300115 -0.055723306 -0.036617383
-0.05191262 0.058077384 0.100042984 0.028308071 -0.03703911 0.048167177 0.09077027 -0.05007236
-0.009195942 -0.06335545 0.1377875 0.077133425 -0.094442345 -0.009931899 0.02021451 -0.015484886
-0.011605738 0.07011391 0.012555348 0.05977559 -0.04744971 0.006061079 -0.009944427 0.060555767
-0.056104053 -0.034439262 0.006992455 0.00087082334 -0.025664957 0.0719545 0.004372026 0.0036193286
0.06627138 0.07431271 -0.09793581 -0.018283928 0.052132875 -0.020185705 0.005361134 -0.0057619708
0.039365776 0.086121105 -0.12734026 -0.04319142 -0.04612922 -0.06141936 -0.058611594 0.04368436
0.07030867 -0.08520358 -0.021165986 -0.0023740472 -0.072616145 -0.075678535 0.018292101 0.06471602
-0.030312637 0.047766387 -0.00913839 0.044171434 -0.053968325 -0.07064063 0.08619433 0.0023962522
-0.022688078 -0.055363726 0.04297393 -0.0041467748 -0.0014436839 -0.0039938744 0.0047143125 0.029288659
0.063076235 -0.052034628 0.07098152 -0.002046068 -0.05510001 0.01995611 0.052438643 -0.023966355
-0.0759352 0.031667024 0.046653964 -0.022186538 -0.07699407 0.04458427 -0.016477797 -0.11326387
-0.011533428 0.030082176 0.033345602 0.026148025 -0.031183522 -0.007276191 -0.043995976 -0.012523554
0.04324771 0.02361462 0.06598858 0.034091227 -0.011117724 -0.01609951 -0.02241338 -0.004346754
-0.011645957 -0.071122214 -0.07823475 -0.0024494135 -0.031607352 -0.0105073955 0.007784133 0.040616024
0.06801706 0.03979835 0.06854829 -0.06602023 0.04055984 -0.05656688 0.061417434 0.042534523
-0.028538533 0.07757365 0.0635719 0.0070728706 -0.014932616 0.008870059 -0.014096294 -0.07600165
0.034754094 0.027312491 0.00729317 0.01344698 -0.008308134 -0.014082368 0.06572004 0.029849153
0.023884684 0.0105268005 0.021561615 -0.046002362 0.07362443 -0.09017937 -0.10393885 -0.06415071
-0.04314657 -0.08828156 0.025107209 0.04115619 0.025119096 -0.05144816 0.03365474 0.018300077
-0.07997455 -0.028536946 -0.0041129612 0.04484284 0.022691092 -0.07674719 -0.004202408 0.026036626
0.006569446 0.058331024 -0.033302292 0.013934206 -0.023880722 0.0892472 -0.08214894 0.027086059
0.05228132 0.05975225 -0.027682893 0.06242456 -0.008694299 -0.0276246 -0.03284238 0.034299746
-0.034096535 -0.0018167759 0.02214318 -0.016365737 0.002181368 0.05154015 -0.01207064 0.031492103
-0.04507088 0.0510619 0.0021264057 0.06661546 0.010381394 0.01454757 0.05651924 0.023769394
0.01690017 -0.10687533 0.10292599 -0.05301762 0.07881462 -0.01359594 -0.03496455 -0.040001728
-0.067608416 0.07502208 0.03138824 -0.001573235 0.008086087 0.05411139 0.05041754 0.07217297

exp_avg f4 [10, 768]
00000000: a509 7d39 6ba9 0139 9d45 f5b7 8dc5 9db9
00000010: 3edf d8b9 2c92 c738 5bc5 743a f647 893a
00000020: 66b0 2039 f696 31b9 5d34 a0b9 94a9 38b9
00000030: 4436 0d39 7f42 b0b7 dfab 3e3a c8e3 efb9
00000040: 5258 81b8 4237 a7b9 bd58 203b 8b0a 2739
00000050: d8fd ecb9 5822 47ba 0ffd 84b9 bb83 73b9
00000060: ea49 18b9 6ab7 bd39 5608 abb9 5e24 22bb
00000070: f277 37b9 fcc5 8a38 288b 8638 ca92 233b
00000080: 42ab 02bb 5de8 1eba bcff ceb8 1b17 ac39
00000090: 06ba 7739 cf2b 2bb9 cc81 003b 0373 5239
000000a0: 8ee4 51b9 4bbd 33ba b05b 623b 19cb 0fb9
000000b0: 1567 7839 d1fd 20ba 3598 e539 1fb6 00b9
000000c0: ef46 c4b8 d0f6 87ba cb4a b7b9 1281 87bb
000000d0: b334 8b38 eb1e 9938 1d2c 90b9 ea38 e6b9
000000e0: e18f e4bb 75ed 2e39 807f 76b9 fda5 343b
000000f0: b3d8 d338 76c8 0eba d7e0 063a 7d35 f7ba
00000100: 86ef 073a 0708 593b 1a04 dbba a76e b33b
00000110: d527 a2bb c9df 8539 55fb ffbb 3d6c c3b8
00000120: 22cc 3f3b cbab 5d39 9575 2fba f262 193a
00000130: 82e1 b039 a4ac 96b9 484a 88b8 8cc3 1bba
00000140: 94f6 02b8 d90b 2a3b af10 f338 1de9 6839
00000150: d2dd 5b3b 4cab 6c39 b5f8 b0b9 3623 a2b9
00000160: 9891 08b9 20ba aab9 0f7f 5139 4f3f b837
00000170: d604 8339 4540 2cb9 801c 0339 4ca4 c038
00000180: 2035 23ba c02d 81b9 375e 8f3a 3e62 cf39
00000190: 736c 1b39 5e8e 7bb8 d7e6 1c38 170a eeb8
000001a0: 3971 043a 7cf0 7dba e854 2bb8 e44f 32bb
000001b0: 10ce 2939 eded 5dbb 4c93 3638 81ec 5939
000001c0: 2953 babb 0620 833a cf38 a1b9 86f8 af3a
000001d0: e84b 65ba 8224 9fba 2940 61b9 b254 56b9
000001e0: e730 f6b7 b4ad 9639 4268 0039 929e 543a
000001f0: 0f88 d2ba 72d5 793b 8ba2 40b9 999d 5139
00000200: c969 143b 09d7 453a 6f18 98b8 768c ea39
00000210: 065f fe38 2f60 82bb f873 3938 3ec8 1db9
00000220: 7fbe 9e3b 9a0e 4a3b 42ec 1cb9 01e7 25b9
00000230: 8ec4 e1bb 8034 44ba c9f8 99ba 09c8 09ba
00000240: 74d0 2cb9 3ca5 2938 7e7e 9bb8 ae23 30b9
00000250: 7181 cc39 6151 4139 553c 3a3b 5090 c3bb
00000260: 9f5d 0e38 5330 0e39 2957 c138 3bb7 d6b8
00000270: 68ec c8bb f8a0 e2ba c30d 3d3b 2006 a7b9
00000280: ab45 883a ef92 ffb8 c652 8239 fb63 fc36
00000290: cd85 17bc 9ed6 343c 86a5 d73a 805e 02b9
000002a0: 315b 213a 8777 f7b9 66c5 42b9 e778 23b9
000002b0: cc13 953b 7da0 12b9 455b 1e3b 6e19 0e39
000002c0: 2db3 5339 56b4 c438 c46c 20b9 6058 16ba
000002d0: 226a 0439 e81b b73a c05a 22b9 5e27 fd3b
000002e0: c522 f6b8 039b e0ba c90d 043c 7f34 a4b7
000002f0: e603 04b9 8a6a 6538 8926 9539 c4f7 8a38
00000300: 6683 7b38 4de6 bd39 0e77 f83a 4bd4 abb8
00000310: 230a 7b3a fe3f 5b39 5a14 ab3a 2028 cab9
00000320: 5099 b338 46ea 94ba 1349 9e39 33f3 183b
00000330: 7d11 1dba 9d69 2eb8 dd61 3c39 c689 72ba
00000340: 953f 5c3a dac4 8b39 c240 7539 d57d 37b9
00000350: 4aa4 5d3a 8479 cf36 aa9b cab6 f5aa a7b8
00000360: 52d6 6c3b a74b b3b9 e487 60bb a9f3 c238
00000370: e074 e1b9 29d1 f039 34d8 86bb 8f85 7eb7
00000380: fc1a cd38 00cd 2839 a372 81ba 082b 7938
00000390: b901 a8ba 0f8f c039 d531 9e3b a7fd 26b9
000003a0: e679 dc38 7949 f939 7de9 09b9 7869 5839
000003b0: 7a25 dcba a36f c5bb 6af8 c5b8 ecf4 b3b9
000003c0: 290f cfb8 5948 4839 cc30 8db9 3343 7dba
000003d0: 0de9 6dba 92ca e53a 3c4f 5b39 9d4b 1139
000003e0: e3df 8bb8 a509 8db8 1ec7 5e3b 564c 84b9
000003f0: 26dd b0b7 bcd9 f1b8 f7c0 08ba 0c5c 88b8
0.00024131553 0.00012365512 -2.9238692e-05 -0.0003009256 -0.0004136506 9.516286e-05 0.00093372696 0.0010473717
0.00015324503 -0.00016936273 -0.00030556592 -0.0001761078 0.00013467023 -2.10118e-05 0.00072735356 -0.00045755343
-6.16765e-05 -0.00031893892 0.0024466955 0.00015930289 -0.00045202556 -0.0007596365 -0.00025365545 -0.0002322336
-0.00014523385 0.00036185543 -0.00032621872 -0.0024740915 -0.00017496923 6.61723e-05 6.415538e-05 0.002495932
-0.0019938503 -0.00060618465 -9.87048e-05 0.0003282361 0.00023625055 -0.00016324151 0.0019608615 0.00020070006
-0.00020016936 -0.0006856515 0.0034539513 -0.00013713202 0.00023689524 -0.0006141337 0.00043791687 -0.00012274877
-9.359221e-05 -0.0010373238 -0.00034960205 -0.0041352594 6.6378525e-05 7.3013674e-05 -0.00027498687 -0.00043911423
-0.0069751595 0.00016682393 -0.00023507886 0.0027564757 0.000101016274 -0.0005446741 0.0005145198 -0.0018860545
0.0005185533 0.0033116357 -0.0016709596 0.0054758373 -0.004948596 0.0002553447 -0.0078119435 -9.3184855e-05
0.002926596 0.000211402 -0.00066932413 0.0005851231 0.00033737352 -0.00028738857 -6.498821e-05 -0.00059419195
-3.122406e-05 0.0025947003 0.000115902505 0.00022212086 0.0033548963 0.00022570527 -0.00033754637 -0.00030925282
-0.00013024209 -0.000325636 0.00019979126 2.196399e-05 0.0002498987 -0.0001642714 0.0001250375 9.185876e-05
-0.0006225873 -0.00024638884 0.0010938112 0.00039555313 0.00014822352 -5.9975653e-05 3.7408285e-05 -0.00011350604
0.0005052272 -0.0009687019 -4.0848652e-05 -0.0027208263 0.0001619386 -0.0033863739 4.3529362e-05 0.00020782837
-0.005686183 0.001000405 -0.0003075064 0.0013425506 -0.00087469677 -0.0012141617 -0.00021481574 -0.00020440182
-2.9348257e-05 0.00028739648 0.0001224587 0.0008110787 -0.0016062277 0.0038121608 -0.00018371099 0.00019990503
0.002264606 0.00075469963 -7.252476e-05 0.0004473661 0.00012129363 -0.003978751 4.421544e-05 -0.00015047283
0.0048444862 0.0030831457 -0.00014965332 -0.00015821682 -0.006889886 -0.000748463 -0.0011747117 -0.0005255943
-0.00016480853 4.0446626e-05 -7.414537e-05 -0.0001679796 0.00039006353 0.0001843623 0.0028417308 -0.005968131
3.394263e-05 0.00013560177 9.219192e-05 -0.000102384445 -0.0061316974 -0.0017290404 0.0028847314 -0.00031857286
0.0010396739 -0.00012186716 0.00024857203 7.5218245e-06 -0.009248209 0.011037497 0.0016452528 -0.0001243297
0.0006155251 -0.00047200566 -0.00018574818 -0.00015589931 0.004549479 -0.00013983432 0.0024163288 0.00013551649
0.00020189276 9.3795985e-05 -0.00015299307 -0.0005735215 0.00012628039 0.0013970109 -0.00015483331 0.00772564
-0.000117366704 -0.0017136041 0.008059927 -1.9574769e-05 -0.00012589953 5.4697077e-05 0.00028448206 6.626503e-05
5.9965438e-05 0.00036220477 0.001895638 -8.193458e-05 0.00095764006 0.00020909306 0.001305233 -0.00038558338
8.563942e-05 -0.0011361323 0.00030190553 0.0023338317 -0.00059916807 -4.1583193e-05 0.00017965534 -0.0009252097
0.00084018084 0.00026658812 0.00023389145 -0.00017499116 0.0008454962 6.183227e-06 -6.038191e-06 -7.995024e-05
0.0036138487 -0.00034197906 -0.0034260685 9.296026e-05 -0.00043002423 0.00045932204 -0.004115129 -1.5170676e-05
9.780188e-05 0.00016098097 -0.0009876083 5.9406302e-05 -0.0012817896 0.0003672768 0.004827718 -0.00015925487
0.00010513123 0.00047547722 -0.0001315232 0.00020638655 -0.0016795837 -0.006025271 -9.439963e-05 -0.00034324022
-9.873353e-05 0.00019100438 -0.00026929972 -0.00096611975 -0.000907556 0.0017531684 0.00020914985 0.00013856446
-6.669739e-05 -6.7252004e-05 0.0033993195 -0.00025233877 -2.1083815e-05 -0.00011532332 -0.0005216742 -6.5021304e-05

exp_avg_sq f4 [10, 768]
00000000: 4456 b836 1351 8636 cbbd 2138 171b 2437
00000010: 0dd9 1a38 9411 ee36 fb6e d337 0d69 2438
00000020: 72c3 4737 e41e bf36 6a30 2f38 1c36 9c36
00000030: e841 c536 3c14 9438 6e12 0f37 3e25 1837
00000040: 30e0 9b37 8d79 f436 234f 6938 9bf1 1237
00000050: 577f 2537 7788 e537 429e 2a38 24e5 6e37
00000060: a0d0 9f37 7f66 b837 d98e 2638 b377 7e38
00000070: 85b9 2738 7d88 c236 678f be37 6fae 6139
00000080: f9d9 1839 66b2 5138 a0da 0038 ca83 2a38
00000090: 2939 ae37 a5f3 ce37 dc5f 8639 9b02 2837
000000a0: 8069 d937 4003 1838 6318 3e39 396b 8437
000000b0: 5a23 a737 b629 f537 3b27 d536 ec01 bf37
000000c0: 30e3 cd37 a64e 0438 5163 0a37 56d8 df38
000000d0: f8b8 8837 da75 2238 8335 6b37 ff63 ab37
000000e0: b2ec 5a39 f04e 1837 4b0f dc37 3e59 3139
000000f0: 4e98 cf37 61f1 3f38 116e 9137 b320 8a38
00000100: a54b 6f37 4c65 d838 2f41 fd37 d3a9 c939
00000110: c4b6 8239 47f0 9537 0354 2e3a aec5 c937
00000120: 4225 4e39 f69f 4737 91e3 d937 f891 d837
00000130: a7c6 9736 f938 da36 93d5 1638 ba54 eb38
00000140: 3334 0037 74bc 9b39 b077 8d36 6b02 c936
00000150: e0aa e938 fae9 2a37 0d87 3338 7e5f 9038
00000160: e287 9b37 0644 f137 d4aa 0038 229f b437
00000170: 8a1f 8837 61d1 a937 8371 a136 a8b2 1338
00000180: 28b8 f237 0652 8837 bef7 2937 112f 9b37
00000190: ba61 f437 adea b237 cef6 9437 d513 1f38
000001a0: cba6 0d38 144f 1f38 e154 ac37 7273 0c39
000001b0: 1f81 7e37 d60b 8938 febf b036 deb0 b237
000001c0: 0a21 0d3a 7a12 8337 4ec2 8c37 99b7 7f38
000001d0: 7dcc bc37 0e58 ed38 363f ab36 12bf 1f37
000001e0: e9ae f137 c6d0 5c37 e1ea 7637 4f1b 1c38
000001f0: f22a 2b39 ec52 6339 fbcc 7237 b66f 2c37
00000200: 7d07 9639 bbdb 8038 196b d136 f7d3 bd38
00000210: c1b0 0837 0c20 9a39 f9cb 0137 0d54 1f38
00000220: b817 1539 d040 7737 e55d b436 4cbb fa37
00000230: f6f4 7039 1b62 bc38 059b df38 b817 9838
00000240: 3e7f 0938 4a14 ca37 dfa0 bf37 fb1d 9537
00000250: 5987 1438 1fab a637 c030 3e38 44fd 5239
00000260: 5278 c138 8352 ef37 808b 1d36 cba8 4337
00000270: e398 6d39 1e30 fc38 67cd fa38 986f 8136
00000280: 57b3 8f38 9eb5 b236 f31f 8f37 1ada b637
00000290: a1e4 da39 f06c 9439 1ed2 b438 96e9 4137
000002a0: d41a b537 1a4f 4438 9420 c137 c419 4e37
000002b0: 23b1 2e39 7c45 8537 a8b0 1638 c53d e337
000002c0: 7e2b 1d38 7472 4537 ad1b 8837 be13 5e38
000002d0: 8d7c e237 b1e3 9138 c4bc 1238 1d61 e838
000002e0: 20bd ab37 e2d1 a338 b48b a739 93ad dc37
000002f0: 0264 9237 4838 df37 f2d0 1b38 9cb0 a137
00000300: e86c e436 e0d5 5537 aabf 143a a275 9137
00000310: 089b 7738 9ad7 2138 31b6 0039 e8c0 0f38
00000320: 7066 e836 f95b 1d38 2239 1a38 c5cd 1838
00000330: c2a6 9837 84a7 bc39 701a 0838 531e 6c38
00000340: d018 1c38 e059 7037 251a 0038 84f7 f437
00000350: 24c6 0038 bb05 1538 f96f e036 b888 ce37
00000360: b954 7f38 05da 2337 612c 1339 4265 2837
00000370: ffd3 4438 76ff ff37 7904 bb38 6fa0 8638
00000380: 51cd e536 1c2b 6537 f50d 7a37 78dc d637
00000390: 3fe0 e838 d6ee e137 bf6c 1a39 c754 cc36
000003a0: ef72 ae36 9ca6 0138 0d71 8939 3516 2f37
000003b0: 478e c438 a75a bb39 902d f237 19e6 d136
000003c0: b87e 3337 902f 4637 0ffb a437 dc2b ba37
000003d0: 04f7 1238 cd14 8138 95bc 5237 73f2 0038
000003e0: 7d06 fd37 5ee7 db37 63cb bc38 edfe 1d39
000003f0: 4cc2 7736 cf26 f637 4cca 6736 69c3 dd36
5.49367e-06 4.0029495e-06 3.856215e-05 9.781469e-06 3.6918605e-05 7.094999e-06 2.520484e-05 3.9198483e-05
1.190683e-05 5.6958397e-06 4.176834e-05 4.6554615e-06 5.87873e-06 7.060959e-05 8.527755e-06 9.068577e-06
1.8581835e-05 7.285917e-06 5.562523e-05 8.758531e-06 9.864415e-06 2.7362474e-05 4.0678548e-05 1.4239256e-05
1.9051426e-05 2.1982238e-05 3.971052e-05 6.0669798e-05 3.998868e-05 5.79754e-06 2.2716542e-05 0.00021522654
0.00014577051 4.999563e-05 3.072119e-05 4.0653897e-05 2.0769034e-05 2.467057e-05 0.00025629892 1.0014187e-05
2.5917543e-05 3.624265e-05 0.00018128897 1.5785556e-05 1.9924413e-05 2.92257e-05 6.3524617e-06 2.276987e-05
2.4543697e-05 3.15445e-05 8.248565e-06 0.00010673764 1.6298596e-05 3.8733568e-05 1.4019551e-05 2.0431353e-05
0.00020878276 9.078285e-06 2.6233165e-05 0.0001691328 2.4747245e-05 4.576275e-05 1.73366e-05 6.5864435e-05
1.42631225e-05 0.000103185506 3.0190304e-05 0.00038464236 0.00024931703 1.7874072e-05 0.0006650092 2.4053119e-05
0.0001965957 1.1898568e-05 2.5974385e-05 2.5817179e-05 4.523277e-06 6.5035388e-06 3.5961693e-05 0.00011221455
7.641548e-06 0.00029704312 4.216061e-06 5.9905483e-06 0.00011142134 1.01872665e-05 4.28027e-05 6.884242e-05
1.8540715e-05 2.8761115e-05 3.0676674e-05 2.1531774e-05 1.622715e-05 2.024387e-05 4.8113884e-06 3.5213918e-05
2.8934403e-05 1.6250659e-05 1.0130867e-05 1.8499357e-05 2.9132574e-05 2.1328533e-05 1.7757902e-05 3.7927024e-05
3.3772358e-05 3.79822e-05 2.0543523e-05 0.00013394447 1.5169643e-05 6.534874e-05 5.2675596e-06 2.1301614e-05
0.00053836463 1.562502e-05 1.677978e-05 6.0967726e-05 2.2506569e-05 0.00011317442 5.103556e-06 9.5216255e-06
2.8810888e-05 1.3161631e-05 1.471743e-05 3.721873e-05 0.00016323829 0.00021679298 1.447205e-05 1.0278009e-05
0.0002861581 6.1444436e-05 6.241153e-06 9.051704e-05 8.147385e-06 0.00029397046 7.73649e-06 3.7986832e-05
0.00014218583 1.4737438e-05 5.375349e-06 2.988954e-05 0.00022979439 8.982812e-05 0.00010662343 7.252343e-05
3.278185e-05 2.4089724e-05 2.2843886e-05 1.7776145e-05 3.5412002e-05 1.9868427e-05 4.5344932e-05 0.0002012151
9.2253686e-05 2.8529443e-05 2.3476023e-06 1.1662206e-05 0.00022659036 0.00012025259 0.00011959188 3.857491e-06
6.852176e-05 5.3259564e-06 1.7061806e-05 2.1797652e-05 0.00041750542 0.00028309925 8.622206e-05 1.1558082e-05
2.1589374e-05 4.680371e-05 2.3022563e-05 1.2284556e-05 0.00016659922 1.5887192e-05 3.592731e-05 2.7089272e-05
3.7472222e-05 1.1768763e-05 1.6225351e-05 5.294731e-05 2.6999298e-05 6.9565496e-05 3.4984914e-05 0.00011080711
2.0472857e-05 7.8115394e-05 0.0003195681 2.630687e-05 1.7451126e-05 2.660988e-05 3.7149475e-05 1.9274936e-05
6.807608e-06 1.2745586e-05 0.0005674312 1.7340124e-05 5.9033773e-05 3.8586186e-05 0.00012274903 3.4273515e-05
6.926064e-06 3.7517373e-05 3.676967e-05 3.6431262e-05 1.8197465e-05 0.00035982963 3.244955e-05 5.6295026e-05
3.7216407e-05 1.432604e-05 3.0541927e-05 2.9202325e-05 3.070211e-05 3.5529705e-05 6.6887555e-06 2.4620778e-05
6.087564e-05 9.766319e-06 0.00014035545 1.0037156e-05 4.692748e-05 3.0517327e-05 8.917688e-05 6.419501e-05
6.848634e-06 1.3659501e-05 1.4904411e-05 2.5613452e-05 0.00011104391 2.6933307e-05 0.00014727096 6.089543e-06
5.198984e-06 3.0911164e-05 0.00026214906 1.0435983e-05 9.3725095e-05 0.0003573496 2.8869865e-05 6.2554723e-06
1.0698735e-05 1.1812794e-05 1.9667232e-05 2.2193351e-05 3.5039164e-05 6.155074e-05 1.2560883e-05 3.0743377e-05
3.0162972e-05 2.6214573e-05 9.002422e-05 0.00015067654 3.6918964e-06 2.9343557e-05 3.4539435e-06 6.609062e-06
