SmallD_SDD_WORKING/out_step3_ipc30_s5_adamlr.pth (torch, 555488 bytes, 3 tensors)

module.data.weight f4 [60, 768]
0	0xbd498697	-0.04920062
1	0xbd26e2a3	-0.04074348
2	0xbd5ae089	-0.05343679
3	0x3cc0ac0c	0.023519538
4	0x3d9adc8f	0.075615995
5	0xbcbc16b0	-0.022960037
6	0xbdb4606e	-0.08807455
7	0xbde4ecbd	-0.11177967
8	0xbd679bb8	-0.05654499
9	0x3d86b23c	0.06576964
10	0xbd494d94	-0.04914625
11	0x3adc546f	0.0016809831
12	0xbd924baf	-0.07143342
13	0xbcd4884c	-0.025943898
14	0x3c7bf149	0.015377351
15	0x3d330720	0.043707967
16	0x3d7a2416	0.06106957
17	0xbdd60093	-0.10449328
18	0xbc3f2f04	-0.011668924
19	0xbd778847	-0.0604327
20	0x3ce006ce	0.027346995
21	0xbd8753b9	-0.06607766
22	0x3d927075	0.07150356
23	0x3d60a97d	0.054849137
24	0x3d34ffc6	0.044189237
25	0xbd6725ad	-0.056432415
26	0xbb9d2b3b	-0.0047964132
27	0xbcda8c80	-0.026678324
28	0xbb118219	-0.0022202788
29	0x3dc58011	0.09643567
30	0xbd3af888	-0.045647174
31	0x3c9e574a	0.019328732
32	0x3c555a31	0.013021992
33	0x3c7a9ef4	0.015296686
34	0xbd50afa1	-0.050948743
35	0x3c7fa00b	0.015602122
36	0x3d5f4cb8	0.054516524
37	0x3d96a030	0.07354772
38	0x3c954a52	0.018223915
39	0x3d560372	0.05224938
40	0xbbe5db38	-0.0070146583
41	0x3d7ef993	0.06224973
42	0xbd318995	-0.0433441
43	0x3d8cdb39	0.06877751
44	0xbd8c8c12	-0.06862654
45	0x3e15ca2e	0.14627907
46	0xbd8c10cb	-0.068391405
47	0xbd60d9a7	-0.05489507
48	0xbd446d54	-0.047955826
49	0x3dd20db8	0.10256523
50	0x3d9ac9b1	0.07558001
51	0x3d549a7c	0.05190514
52	0xbd314b8f	-0.04328495
53	0x3d92e381	0.07172299
54	0x3d9a7ead	0.07543693
55	0xbd8211e2	-0.06351067
56	0xbcf7b31c	-0.030236773
57	0xbda82cd1	-0.08211673
58	0x3dd0beb2	0.10192622
59	0x3b465d04	0.0030267844
60	0xbda424ad	-0.08014808
61	0x3d89a924	0.06721714
62	0x3c55d2ad	0.013050717
63	0xbc84924c	-0.016183041
64	0xbcbb5331	-0.022866817
65	0x3c4e7702	0.012601616
66	0xbc118f74	-0.0088843
67	0x3d2cb487	0.04216435
68	0xbcf08e12	-0.02936462
69	0xbd1c2d96	-0.03812941
70	0xbcb38ef8	-0.021918759
71	0x3d3fb9bd	0.046807993
72	0xbda36676	-0.07978527
73	0xbd9cee76	-0.0766267
74	0x3cc9bb66	0.024625491
75	0xbd4a264b	-0.049352925
76	0xbc8758e7	-0.016521884
77	0x3d94d419	0.07267017
78	0xbbb29459	-0.0054498133
79	0x3d038c0a	0.032115974
80	0x3d9b746e	0.075905666
81	0x3d15f333	0.036608886
82	0xbdb04daf	-0.08608567
83	0xbcd3ef3f	-0.025870917
84	0x3d94d773	0.07267656
85	0xbc64693c	-0.013941105
86	0xbd5738b7	-0.052544322
87	0xbcf0c3aa	-0.029390175
88	0x3d628a27	0.055307534
89	0x3e1526c9	0.14565577
90	0xbe2276ad	-0.15865584
91	0xbd390461	-0.04517019
92	0xbd90d0a8	-0.07071048
93	0xbde9c075	-0.114136614
94	0xbd8042de	-0.06262754
95	0x3d85ba1e	0.0652964
96	0x3dbed0bf	0.09317159
97	0xbdbc2f92	-0.09188761
98	0xbc9872ef	-0.018609492
99	0xbd0fe19b	-0.035127264
100	0xbda38bec	-0.07985672
101	0xbdf171a7	-0.117892556
102	0x3d75584e	0.059898667
103	0x3d995344	0.07486585
104	0xbd92f612	-0.071758404
105	0x3db05872	0.086106196
106	0xbd7f6fe9	-0.062362585
107	0x3da90f57	0.08254879
108	0xbd9987a0	-0.074965715
109	0xbd3fe742	-0.046851404
110	0x3d8bd809	0.06828315
111	0x3d0af3b2	0.033923812
112	0xbc449cc9	-0.012000271
113	0xbdd3ed42	-0.10347988
114	0x3d88f3a6	0.06687097
115	0x3b1f0f0d	0.0024270446
116	0x3ce2b90c	0.027676128
117	0xbcc960fc	-0.024582379
118	0xbb72ae5a	-0.003703019
119	0x3c9edadf	0.019391475
120	0x3d135d88	0.03597787
121	0xbd0fc5ec	-0.035100862
122	0x3db268d7	0.08711403
123	0xbd0cc976	-0.034371816
124	0xbcbea719	-0.023273038
125	0xbcf42d77	-0.029806836
126	0x3d56ebbc	0.052470908
127	0xbd4b51de	-0.04963862
128	0xbe053c47	-0.13011275
129	0x3d428eea	0.047499575
130	0x3d6a6e5d	0.057234157
131	0xbd0a89d0	-0.033822834
132	0xbde86e1e	-0.11349128
133	0x3d7cc4f0	0.06171125
134	0xbd9e1352	-0.07718529
135	0xbd762583	-0.060094368
136	0xbc934de2	-0.017981473
137	0x3d452b50	0.04813701
138	0x3d9151cd	0.070956804
139	0x3d5931b0	0.0530259
140	0xbd29ac5a	-0.041424133
141	0xbcef3255	-0.029198805
142	0xbd7f7361	-0.062365893
143	0xbc167a64	-0.009184454
144	0x3d4f9af5	0.050684888
145	0x3d6149b6	0.055001937
146	0x3d5ee52e	0.05441778
147	0xbc80a85c	-0.01570528
148	0xbd1d3e2e	-0.038389377
149	0xbcd5e261	-0.026108922
150	0xbd956302	-0.07294275
151	0xbd2cb8dd	-0.042168487
152	0xbcb4e11a	-0.022079993
153	0xbd5b8e08	-0.05360225
154	0xbd9e2a96	-0.077229664
155	0xbbc9b3d6	-0.0061554713
156	0x3bff1548	0.0077845193
157	0xbc41c90e	-0.01182772
158	0xbd6ab94e	-0.057305627
159	0x3d732dfa	0.05937002
160	0x3d99cede	0.0751016
161	0x3d13e955	0.036111195
162	0x3daa7e36	0.08324854
163	0xbd998030	-0.07495153
164	0x3d71215b	0.0588697
165	0xbd57dbe3	-0.052699935
166	0x3c2768cc	0.010217857
167	0x3d69b9ba	0.05706189
168	0xbd8cfd0c	-0.06884202
169	0x3d83ae81	0.06429768
170	0x3d9e6d48	0.077356875
171	0x3d490f1d	0.04908668
172	0xbc81965b	-0.015818765
173	0x3ca362d3	0.019944584
174	0xbc60cbe7	-0.013720489
175	0xbd6d8130	-0.05798453
176	0x3d338bed	0.043834615
177	0x3d069965	0.032861132
178	0x3d3bbc9c	0.04583417
179	0x3c379700	0.011205435
180	0xbd81601f	-0.06317162
181	0xbd8662ae	-0.065617904
182	0x3da9d8dc	0.08293316
183	0x3da64fc0	0.0812068
184	0x3b800b67	0.0039076093
185	0x3b39f25f	0.0028373224
186	0xbcf92789	-0.03041436
187	0xbcaf3904	-0.021389492
188	0x3d805660	0.06266475
189	0xbdace794	-0.084426075
190	0xbd6aa8ee	-0.05729001
191	0xbd85539c	-0.06510088
192	0x3b8e356b	0.004339864
193	0xbdfcef76	-0.12350361
194	0xbd0053f1	-0.031330053
195	0x3d61da0e	0.055139594
196	0x3cc88a8f	0.024480132
197	0xbd9bf31f	-0.07614731
198	0x3d81a9bb	0.06331202
199	0xbc7f2bb9	-0.015574389
200	0xbda374e1	-0.07981277
201	0xbc61da12	-0.013784902
202	0x3ced2fcd	0.028953457
203	0x3d9b1b94	0.075736195
204	0x3d0f7d29	0.03503147
205	0xbb7fcde5	-0.0039032635
206	0x3d046e5d	0.032331813
207	0x3d80c792	0.06288065
208	0xbca8be13	-0.020598447
209	0x3d2d9b1a	0.042384245
210	0xbd4841d5	-0.048890907
211	0xbc951205	-0.018197069
212	0xbc829674	-0.015940882
213	0x3dc91520	0.098184824
214	0xbd9b34a6	-0.07578401
215	0x3cdd75e1	0.027033748
216	0x3d8e8a24	0.06959942
217	0x3dda8531	0.106699355
218	0xbc9fe77e	-0.019519564
219	0x3d958c42	0.07302143
220	0xbd24bb22	-0.040217526
221	0xbd1b9cf2	-0.03799147
222	0x3c02ae40	0.007976115
223	0x3d8f5721	0.069990404
224	0xbd3140ff	-0.043274876
225	0xbcde566a	-0.027140815
226	0xbbf5f5c4	-0.007506104
227	0xbd4f0335	-0.050540168
228	0x3b292e54	0.0025814967
229	0x3d60070e	0.054694228
230	0xbc43cac3	-0.011950198
231	0x3d3fe39f	0.046847936
232	0xbd26ab91	-0.040690962
233	0x3d0f716f	0.035020288
234	0x3b451fb4	0.003007871
235	0x3d7b1a63	0.06130446
236	0x3c747cf6	0.014922371
237	0x3bafca0e	0.005364663
238	0x3d881a9d	0.06645701
239	0x3d8b3f67	0.067992024
240	0x3d34029e	0.04394781
241	0xbd97394b	-0.07383975
242	0x3dc6df87	0.09710603
243	0xbd8264b4	-0.06366864
244	0x3d4f87e9	0.050666723
245	0xbbd9c7ee	-0.006646148
246	0xbd4ff448	-0.050770074
247	0xbdd112be	-0.10208653
248	0xbd982998	-0.074298084
249	0x3d72a64a	0.059240617
250	0x3d31dd48	0.04342392
251	0x3c1a37c3	0.009412709
252	0x3c82b01c	0.015953116
253	0x3dd28e6f	0.10281073
254	0x3d88ed8f	0.06685936
255	0x3db3476a	0.087538555

exp_avg f4 [60, 768]
0	0xb913a486	-0.00014080302
1	0xb7c22e65	-2.3148206e-05
2	0x38a33f50	7.7842386e-05
3	0x3843e9a7	4.670923e-05
4	0xb9ba9f96	-0.00035595585
5	0x39081487	0.00012977618
6	0x3854a15f	5.0695027e-05
7	0x38a4dfb2	7.861796e-05
8	0xb8867cdd	-6.4128755e-05
9	0x376a09cd	1.3949769e-05
10	0x379207b7	1.7408149e-05
11	0x38114514	3.4635028e-05
12	0x36a623be	4.9513465e-06
13	0x385e0543	5.2933825e-05
14	0x39c024f5	0.0003664863
15	0x35892d2f	1.0220446e-06
16	0xb6d4889a	-6.333995e-06
17	0x391babdb	0.00014845973
18	0xb7f43693	-2.911248e-05
19	0xb7c0f1d7	-2.3000799e-05
20	0xb5c4d613	-1.4665442e-06
21	0x373bd4da	1.1195627e-05
22	0xb59ac499	-1.1531112e-06
23	0x37b51ca2	2.1590215e-05
24	0xb810d135	-3.4527115e-05
25	0xb811e18c	-3.478075e-05
26	0x3895643d	7.1235445e-05
27	0xb92a820d	-0.00016260911
28	0x378944da	1.6363734e-05
29	0xb8d61e4b	-0.00010209958
30	0xb802b4d3	-3.116282e-05
31	0x39addd49	0.00033162002
32	0xb9e68272	-0.00043966208
33	0xba18e5af	-0.00058325654
34	0xb714b48c	-8.863524e-06
35	0xb876eda7	-5.88723e-05
36	0xb7a41a3f	-1.9562545e-05
37	0x388ec9e0	6.80869e-05
38	0xb7f929be	-2.970255e-05
39	0x38528186	5.018853e-05
40	0x3723c5e3	9.761631e-06
41	0x3705a713	7.966318e-06
42	0x3762c8bb	1.3517386e-05
43	0x36867729	4.0073833e-06
44	0x380d9029	3.375128e-05
45	0x383f6afd	4.563759e-05
46	0xb78ae862	-1.6559094e-05
47	0xb9899f95	-0.00026249574
48	0x388e6e2b	6.791608e-05
49	0xb710197c	-8.589002e-06
50	0xb70873a8	-8.13316e-06
51	0x384b688b	4.8496335e-05
52	0xb8ccc7c7	-9.7646895e-05
53	0x36802255	3.818694e-06
54	0xb70b8af4	-8.317398e-06
55	0xb8876cab	-6.4575426e-05
56	0xb9d258ab	-0.00040120384
57	0x38153d07	3.5581204e-05
58	0x35387f2b	6.8730395e-07
59	0x3677023a	3.6807164e-06
60	0xb7d342a9	-2.5184201e-05
61	0xb748165a	-1.1926133e-05
62	0xb78a581b	-1.649191e-05
63	0x38864fd4	6.404487e-05
64	0xb7b54195	-2.160742e-05
65	0x372f1826	1.0436435e-05
66	0x38669ef7	5.498432e-05
67	0xb9bffb01	-0.0003661737
68	0x39ece231	0.00045181953
69	0xb71c6c01	-9.323471e-06
70	0x38e9925e	0.00011137569
71	0xb6d8c7a6	-6.460544e-06
72	0xb98b0658	-0.00026516872
73	0x3646ab39	2.9603964e-06
74	0x388adc1d	6.621352e-05
75	0xb78b3c73	-1.659824e-05
76	0xb78cf56f	-1.680359e-05
77	0x375a7845	1.3021815e-05
78	0xb7f310c2	-2.897566e-05
79	0xb8802625	-6.1106206e-05
80	0x37d70b63	2.56353e-05
81	0xb95c7ba7	-0.00021026899
82	0x37da8305	2.6048636e-05
83	0x38097f16	3.2781703e-05
84	0xb861e8b4	-5.3860902e-05
85	0x37157f50	8.910734e-06
86	0xb99c5a18	-0.00029821764
87	0x38e99268	0.00011137576
88	0xb6bab103	-5.563839e-06
89	0x37ece949	2.8242024e-05
90	0xb99cf71b	-0.00029938747
91	0xb7e55e08	-2.7342714e-05
92	0xb75bd4e9	-1.3102989e-05
93	0x37f14ac8	2.8764262e-05
94	0x37d8c9f7	2.5843254e-05
95	0xb96d113d	-0.00022608503
96	0x388eaaa2	6.8028705e-05
97	0x38782f41	5.9171816e-05
98	0x3825a325	3.9491006e-05
99	0x39cfa9f4	0.00039608742
100	0x39228891	0.00015500399
101	0xb7ee0574	-2.837435e-05
102	0xb959b3bf	-0.00020761693
103	0xb823e494	-3.907511e-05
104	0x3829ccf4	4.0483617e-05
105	0x388f15fa	6.822865e-05
106	0xb68de3ef	-4.2286624e-06
107	0xb83585ba	-4.3278305e-05
108	0x38163057	3.5807807e-05
109	0xba44fed9	-0.0007514782
110	0xb8356c8f	-4.3254866e-05
111	0x37677b28	1.37973475e-05
112	0x383897b8	4.4010318e-05
113	0xb78b3a4c	-1.6597238e-05
114	0xb6cf2ca5	-6.174278e-06
115	0xb991091d	-0.00027663345
116	0xb8511220	-4.9846363e-05
117	0xb904dcd5	-0.00012670767
118	0x37e836a8	2.7682006e-05
119	0x38c984d1	9.609166e-05
120	0x37d0608d	2.4840492e-05
121	0xb8767487	-5.8759495e-05
122	0xb96e5bc0	-0.00022731628
123	0xb8631fa0	-5.415047e-05
124	0xb924736f	-0.00015683261
125	0x389ba2ea	7.421321e-05
126	0xb791e18d	-1.7390377e-05
127	0x36221bf3	2.415615e-06
128	0x38a7c0e3	7.9991085e-05
129	0xb847926e	-4.758167e-05
130	0x37b8a48b	2.201113e-05
131	0x3857d5c3	5.1459076e-05
132	0x375fa9ec	1.3331399e-05
133	0xb99ae340	-0.00029542483
134	0x37cc25de	2.4336328e-05
135	0x38e5fb88	0.00010966422
136	0xb8b24190	-8.4999134e-05
137	0xbc0d83d3	-0.008637386
138	0x37a8a6d4	2.0104846e-05
139	0xb7281ce6	-1.0020309e-05
140	0xb7ef6ffe	-2.854317e-05
141	0xba0632a1	-0.00051192386
142	0xba5715d3	-0.0008204851
143	0xba14d0d9	-0.00056768727
144	0xb81499d2	-3.5429206e-05
145	0xb78bf9c6	-1.6686401e-05
146	0x378230d1	1.551994e-05
147	0xb890bace	-6.90125e-05
148	0xb82a616f	-4.06219e-05
149	0xb656f0d7	-3.2028672e-06
150	0x3847add9	4.7607205e-05
151	0x382779a8	3.9929204e-05
152	0xb8a52685	-7.874988e-05
153	0x36d7d282	6.4320056e-06
154	0x3809521c	3.2739816e-05
155	0xb8c2e793	-9.293775e-05
156	0xb9476c4e	-0.00019018466
157	0xb9413ae0	-0.00018427847
158	0xb9847153	-0.00025261435
159	0x37250821	9.836659e-06
160	0xb7edcc27	-2.8347667e-05
161	0x372c70c8	1.0278258e-05
162	0x376a0771	1.39492195e-05
163	0xb817e486	-3.6214034e-05
164	0x3958a3a1	0.00020660322
165	0xb8de1087	-0.000105888634
166	0x39a56761	0.00031548276
167	0xb7fcde54	-3.014427e-05
168	0xb7abbc87	-2.0472578e-05
169	0x377005cf	1.4306467e-05
170	0xb8161b74	-3.5788355e-05
171	0x37ce257e	2.4574572e-05
172	0x37f61a37	2.9337692e-05
173	0x39987b98	0.00029083784
174	0xb3ab2b98	-7.970738e-08
175	0xb78a2151	-1.6466396e-05
176	0x37c5569c	2.352456e-05
177	0x382a7ac8	4.0645507e-05
178	0xb7b75d77	-2.1858823e-05
179	0xb8b076ca	-8.41446e-05
180	0x375312fa	1.2580998e-05
181	0x3966a447	0.00021995707
182	0xb5edbb83	-1.7712449e-06
183	0x36eb39e5	7.0102856e-06
184	0x38097559	3.2772634e-05
185	0xb828b5f9	-4.0223797e-05
186	0xb8ad28ec	-8.256905e-05
187	0xb8b4db0e	-8.623871e-05
188	0xb7c8458a	-2.387424e-05
189	0x38a888ea	8.0363665e-05
190	0x3874e805	5.839022e-05
191	0x37b6e35a	2.180196e-05
192	0xb87ac7cc	-5.979072e-05
193	0xb797c7d8	-1.8093662e-05
194	0x38d2873a	0.00010038768
195	0x38d7d399	0.00010291412
196	0xb8f3eb9a	-0.00011631027
197	0xb78b3212	-1.6593407e-05
198	0xb8e06265	-0.0001069948
199	0x39e07dd9	0.00042818373
200	0x37ecf377	2.8246764e-05
201	0x381f9bf1	3.8053786e-05
202	0x37f98b5d	2.974801e-05
203	0xb828ce04	-4.024619e-05
204	0x3950972e	0.00019892745
205	0x3938ef44	0.00017636741
206	0x385d27c7	5.272755e-05
207	0xb72e57d7	-1.039166e-05
208	0x3911899b	0.0001387954
209	0xb8b39fb5	-8.565133e-05
210	0x37eaf610	2.8009556e-05
211	0x37e4b40b	2.7263557e-05
212	0x37ad9522	2.0692652e-05
213	0x3893559e	7.025454e-05
214	0xb7294fc5	-1.0091758e-05
215	0x3841b50c	4.61834e-05
216	0xb8216f8e	-3.8489285e-05
217	0x38c871d5	9.557946e-05
218	0xb781947b	-1.544714e-05
219	0x38fb7eee	0.00011992255
220	0xb7c87439	-2.3895978e-05
221	0x37d27cbe	2.5092038e-05
222	0x387cc402	6.026403e-05
223	0xb83785fa	-4.3755375e-05
224	0xb6adc35f	-5.178546e-06
225	0x382d23e9	4.1279858e-05
226	0x3727d565	1.00036605e-05
227	0x39b2fdc4	0.00034139876
228	0xb8086626	-3.252006e-05
229	0x3840cbf1	4.5966302e-05
230	0xb66963e9	-3.477786e-06
231	0xb6115971	-2.1658745e-06
232	0x383e6a66	4.539862e-05
233	0x39074ecf	0.00012903962
234	0xb6c145a4	-5.7599555e-06
235	0x38628523	5.4006592e-05
236	0x39aa53d1	0.00032487375
237	0xb9831945	-0.00025005094
238	0xb57e71ec	-9.478815e-07
239	0x3752e2c8	1.2569777e-05
240	0xb79df174	-1.8828294e-05
241	0xb8119e7b	-3.471829e-05
242	0x37d2952a	2.510341e-05
243	0xb94d0838	-0.00019553385
244	0xb8570e4b	-5.1273306e-05
245	0x3787f052	1.6205162e-05
246	0x375e9de9	1.32689975e-05
247	0xb7efa6fa	-2.8568775e-05
248	0xb934768d	-0.00017210301
249	0xb79005ab	-1.7168777e-05
250	0x39874e09	0.00025807347
251	0xb8c48976	-9.3716124e-05
252	0x38f75d4b	0.00011795255
253	0xb80868f7	-3.2522683e-05
254	0x36fe7829	7.5837784e-06
255	0x37a9747e	2.0200616e-05

exp_avg_sq f4 [60, 768]
0	0x34f7bdb4	4.6145362e-07
1	0x34dda261	4.1282604e-07
2	0x35002714	4.774058e-07
3	0x34a601e9	3.09213e-07
4	0x35ecab08	1.7633147e-06
5	0x34908a47	2.69227e-07
6	0x35a52e8f	1.2307008e-06
7	0x3731b546	1.0592228e-05
8	0x34e25661	4.215863e-07
9	0x34717141	2.2486076e-07
10	0x34472f40	1.8550509e-07
11	0x35897251	1.0240566e-06
12	0x34303b56	1.6412864e-07
13	0x356ee606	8.899664e-07
14	0x35d55aff	1.589622e-06
15	0x350d1646	5.2559005e-07
16	0x35135abd	5.489381e-07
17	0x365b7b88	3.2705448e-06
18	0x377194d0	1.43993675e-05
19	0x3441d930	1.8053538e-07
20	0x345edac6	2.075495e-07
21	0x3579be80	9.303694e-07
22	0x3513da9a	5.5079875e-07
23	0x340b6e66	1.2985547e-07
24	0x359a62d7	1.150266e-06
25	0x3548b7d4	7.477331e-07
26	0x3512a2ec	5.462632e-07
27	0x34cc8422	3.80941e-07
28	0x351bcc5d	5.803939e-07
29	0x3735bf1a	1.0832935e-05
30	0x3434c3fa	1.6835102e-07
31	0x388c8001	6.699563e-05
32	0x379e175e	1.8845949e-05
33	0x37176285	9.02324e-06
34	0x3490b5f6	2.6954484e-07
35	0x35041e40	4.921785e-07
36	0x34870528	2.514946e-07
37	0x358636b6	9.999701e-07
38	0x372223e3	9.664308e-06
39	0x353480da	6.724273e-07
40	0x34b42080	3.355126e-07
41	0x34bae538	3.4811978e-07
42	0x3690ce23	4.315532e-06
43	0x3468071d	2.1609272e-07
44	0x3539876f	6.911495e-07
45	0x34d0298b	3.8773246e-07
46	0x35247a6c	6.127291e-07
47	0x358700d0	1.005852e-06
48	0x34d855d5	4.0295586e-07
49	0x34cb3a16	3.785396e-07
50	0x348a4e8e	2.576166e-07
51	0x349ab8c8	2.881918e-07
52	0x35c92741	1.4987091e-06
53	0x3508f540	5.1020834e-07
54	0x3526ea6c	6.218095e-07
55	0x35f44b08	1.8201254e-06
56	0x370d42f9	8.419848e-06
57	0x34ebdb9b	4.3931945e-07
58	0x3534bd20	6.733044e-07
59	0x3517fd21	5.6620235e-07
60	0x35372b62	6.823594e-07
61	0x36decffd	6.6403286e-06
62	0x3829e96a	4.0510124e-05
63	0x35882199	1.0142568e-06
64	0x34b6e888	3.406933e-07
65	0x36fe94fe	7.587135e-06
66	0x360f5967	2.13607e-06
67	0x386c5c23	5.6352594e-05
68	0x384a6de8	4.826291e-05
69	0x33c70e39	9.269247e-08
70	0x382b62a2	4.0861436e-05
71	0x37ba7ce8	2.2231092e-05
72	0x3590c035	1.0784776e-06
73	0x35134a40	5.4869815e-07
74	0x3621a20a	2.4085189e-06
75	0x34b22d11	3.3187874e-07
76	0x35161332	5.590729e-07
77	0x34181528	1.41638e-07
78	0x3680c850	3.8380167e-06
79	0x36ef8492	7.1381883e-06
80	0x3482a75d	2.433616e-07
81	0x3702ad98	7.789022e-06
82	0x352b40ba	6.3796654e-07
83	0x34661e78	2.1431504e-07
84	0x3734fcae	1.0787668e-05
85	0x35afa010	1.30851e-06
86	0x359eb4db	1.1824553e-06
87	0x3581fc40	9.684663e-07
88	0x34df4f1c	4.1594546e-07
89	0x353fd886	7.146813e-07
90	0x37fb6806	2.9969971e-05
91	0x3493671f	2.7455914e-07
92	0x3501350b	4.813343e-07
93	0x35228b61	6.0552526e-07
94	0x34873b7b	2.5188987e-07
95	0x372f6ecc	1.045661e-05
96	0x3566c6a5	8.597074e-07
97	0x34ab03bd	3.1853952e-07
98	0x3593d5ed	1.1014614e-06
99	0x37ad4c70	2.0658801e-05
100	0x35014b56	4.8165873e-07
101	0x351e701a	5.9022716e-07
102	0x35b5b26a	1.3537476e-06
103	0x33e453ab	1.06322965e-07
104	0x34d08fe8	3.8847725e-07
105	0x34a64d6c	3.097624e-07
106	0x34cb3850	3.785267e-07
107	0x357c285b	9.393604e-07
108	0x34153ab6	1.3898065e-07
109	0x38940d99	7.059723e-05
110	0x3512e8f6	5.472824e-07
111	0x356234de	8.426849e-07
112	0x37f5c39c	2.9297364e-05
113	0x353c0731	7.004592e-07
114	0x34ceb0f5	3.8499243e-07
115	0x380033ea	3.0565927e-05
116	0x35c34d57	1.4551141e-06
117	0x355ae341	8.1542026e-07
118	0x34bf5f88	3.564603e-07
119	0x353bff41	7.003437e-07
120	0x348abd1f	2.5842107e-07
121	0x34e5c83e	4.280027e-07
122	0x35ac9780	1.2859091e-06
123	0x34c05b70	3.5829316e-07
124	0x3898015d	7.248179e-05
125	0x384fa8ee	4.9509974e-05
126	0x3462fb07	2.1139213e-07
127	0x34929ea3	2.7310043e-07
128	0x35fc7850	1.8810479e-06
129	0x3534f1ed	6.7407274e-07
130	0x34e681ed	4.2935372e-07
131	0x36b0a1b1	5.264032e-06
132	0x34b2c0d0	3.3295373e-07
133	0x361af2d9	2.3089144e-06
134	0x34ddbdcf	4.1302562e-07
135	0x35a807eb	1.251928e-06
136	0x379bf330	1.8590683e-05
137	0x391fbb74	0.00015233253
138	0x34c43987	3.6549702e-07
139	0x34e6da8d	4.2999855e-07
140	0x352ce54d	6.440867e-07
141	0x3818e939	3.645683e-05
142	0x38ab2dda	8.162456e-05
143	0x37593c1f	1.2948206e-05
144	0x3533d6de	6.699537e-07
145	0x348463cc	2.4659528e-07
146	0x34e11192	4.19223e-07
147	0x351a3124	5.744098e-07
148	0x34a18ddd	3.0091806e-07
149	0x35220fda	6.037277e-07
150	0x35c3723d	1.456188e-06
151	0x3639c23c	2.7680207e-06
152	0x35a7f4b1	1.2513684e-06
153	0x33d2689f	9.7979175e-08
154	0x3659e094	3.2466241e-06
155	0x35a8b848	1.2570608e-06
156	0x36217747	2.4060298e-06
157	0x36b52103	5.3980634e-06
158	0x367d3bd6	3.7734767e-06
159	0x358d0082	1.0505466e-06
160	0x36fa66fc	7.4625696e-06
161	0x3542a4c0	7.2510375e-07
162	0x34e2f3b4	4.2273098e-07
163	0x348d3bd2	2.6306822e-07
164	0x3636ecf4	2.7258038e-06
165	0x34e3087c	4.2288218e-07
166	0x36c0e860	5.749098e-06
167	0x34cf79e8	3.8645453e-07
168	0x347ac39d	2.3354228e-07
169	0x346a8ccd	2.1844171e-07
170	0x3546750a	7.393106e-07
171	0x344e4679	1.9210883e-07
172	0x36ea299b	6.978587e-06
173	0x36d40cc8	6.3195803e-06
174	0x36f07640	7.1663235e-06
175	0x34009895	1.1976438e-07
176	0x35752d5d	9.1335625e-07
177	0x358888a1	1.0172554e-06
178	0x3476d9ff	2.2989842e-07
179	0x34fa2b2d	4.6597543e-07
180	0x34937de7	2.747249e-07
181	0x36472b73	2.9678602e-06
182	0x3486ddce	2.512083e-07
183	0x35249ecf	6.132586e-07
184	0x35ae25e8	1.2975042e-06
185	0x355bba5c	8.1855046e-07
186	0x3626d9c9	2.4862695e-06
187	0x36341bf6	2.6838366e-06
188	0x361f5610	2.3742941e-06
189	0x35308e0c	6.5771815e-07
190	0x35c67b99	1.4788121e-06
191	0x3452fb41	1.964918e-07
192	0x355924f0	8.089255e-07
193	0x35532258	7.86536e-07
194	0x36727f8b	3.613505e-06
195	0x34ac51d5	3.2097037e-07
196	0x35c809f2	1.4904056e-06
197	0x3517f94b	5.661465e-07
198	0x35009f41	4.791546e-07
199	0x3871c70e	5.764426e-05
200	0x349f22b7	2.9641316e-07
201	0x36546c2a	3.1653422e-06
202	0x34b36fef	3.342279e-07
203	0x3495ae71	2.7880336e-07
204	0x365f07b8	3.3234082e-06
205	0x36a3f2f6	4.886063e-06
206	0x3482c8f2	2.4360594e-07
207	0x34953230	2.778993e-07
208	0x366b4a1c	3.5060866e-06
209	0x359ebd12	1.1826944e-06
210	0x348acaca	2.5852052e-07
211	0x33ea9c45	1.09248994e-07
212	0x35501285	7.751299e-07
213	0x35067aba	5.009748e-07
214	0x35011c05	4.809702e-07
215	0x34bb7a6f	3.4920546e-07
216	0x351c13db	5.814342e-07
217	0x342b14cc	1.5933182e-07
218	0x372aa50e	1.0171219e-05
219	0x36421a72	2.8923646e-06
220	0x351071c7	5.380975e-07
221	0x34b39c24	3.3454955e-07
222	0x34cf2139	3.8580927e-07
223	0x3513679b	5.4912533e-07
224	0x34826320	2.428651e-07
225	0x3642b3cd	2.901291e-06
226	0x3520f8e8	5.996685e-07
227	0x368de114	4.22833e-06
228	0x36ac11f0	5.1280877e-06
229	0x37124d55	8.720283e-06
230	0x3627a10e	2.4978685e-06
231	0x343c57e1	1.7540835e-07
232	0x3439cfbd	1.7305042e-07
233	0x358c39aa	1.0447595e-06
234	0x3741044c	1.1504697e-05
235	0x34ec1649	4.397464e-07
236	0x3747b40b	1.1903244e-05
237	0x3720f2dc	9.593288e-06
238	0x34837b17	2.449021e-07
239	0x355f7547	8.3244635e-07
240	0x3490e1fa	2.698651e-07
241	0x35309f3b	6.579682e-07
242	0x3413c353	1.37615e-07
243	0x351272cb	5.4556284e-07
244	0x34c86b61	3.7331031e-07
245	0x3521ff1f	6.0348424e-07
246	0x34d8252e	4.0260187e-07
247	0x34f14e40	4.4946682e-07
248	0x35bed35e	1.4217619e-06
249	0x3489b8c6	2.565268e-07
250	0x37c86569	2.388908e-05
251	0x350cc4e7	5.2440595e-07
252	0x3520cf8c	5.9906665e-07
253	0x357039eb	8.949125e-07
254	0x36b7ea2f	5.4810876e-06
255	0x3396f191	7.02886e-08
