SmallD_SDD_InProgress/out_step5_ipc15_s2_tf_adamlr.pth (torch, 279032 bytes, 3 tensors)

module.data.weight f4 [30, 768]
000000 99 fd aa bc 51 8b 01 bc 8a 94 df bb 17 6b 55 bd
       -0.020872878 -0.007906751 -0.006823127 -0.052104082
000010 7f a3 ee 3a 1d c0 6a 3d f3 5d 55 bd 73 96 48 3b
       0.0018206685 0.05731212 -0.05209155 0.0030607253
000020 f9 70 a9 bb 9c c5 7d bd 02 25 8e b9 07 d4 de bb
       -0.005170938 -0.061956033 -0.00027111924 -0.006800178
000030 30 4b 30 bd 81 05 11 3d 14 80 42 3d c1 79 db bc
       -0.043040454 0.03540564 0.047485426 -0.026791455
000040 20 b1 0e bd a5 02 0c bd 59 0a ba bc 6f 08 22 3d
       -0.03483689 -0.03418221 -0.022710012 0.039558824
000050 fb 4a 6e 3b eb f7 5a bc 18 a0 d2 38 68 cb 96 bb
       0.003636061 -0.013364772 0.000100434 -0.0046018846
000060 2d ff 2b 3c c0 3a 8e bc 84 21 ee 3c 1e 61 c0 3c
       0.01049785 -0.017361999 0.029068716 0.02348381
000070 0a 48 97 3d d7 28 60 bc 59 af 80 3d b9 20 1d bd
       0.07386787 -0.013681612 0.06283445 -0.038361285
000080 e3 6f f2 3c 2f c2 4d bd 6e be 10 bd db 9b 0e 3c
       0.029594367 -0.050234016 -0.035337858 0.008704151
000090 97 e6 e4 3c 57 05 c9 bc a8 17 f3 3c e7 e4 3b bc
       0.027941985 -0.024538679 0.029674366 -0.011468149
0000a0 54 6c 26 3d b8 22 f0 3b 96 c7 81 bd b6 56 12 bd
       0.040630654 0.0073283575 -0.06336896 -0.035727225
0000b0 7a 0e 83 3c bb 5e 98 3b c3 b0 81 bd f1 05 58 bc
       0.015998114 0.0046499646 -0.06332543 -0.01318501
0000c0 f6 a1 56 bc 55 55 3d 3d 5b e4 0c 3d 15 44 91 3d
       -0.013100138 0.046223957 0.034397464 0.07093064
0000d0 17 f9 45 bd 88 cf 31 3c bb 0f ff 3c 40 06 a5 3c
       -0.048333254 0.010852702 0.03113543 0.020144582
0000e0 fd 9b dd b9 2a b3 c0 3b 63 36 c3 3d a7 7a dc 3d
       -0.00042268625 0.005880733 0.09531858 0.107655816
0000f0 2c 74 31 bc 28 74 42 bd a2 55 bb 3d 55 01 a1 bb
       -0.01083092 -0.047474056 0.091471925 -0.004913489
000100 5d 8b 47 bd 80 ce 85 3c 27 22 7c 3d 7e b7 a5 3b
       -0.04871689 0.016333818 0.061556008 0.0050572744
000110 d2 7c ae 3c 2d 70 7e 3d 3a 31 9a 3c 8f 2e f2 3c
       0.021299753 0.062118698 0.018822301 0.029563216
000120 27 37 c6 bd 6c 9d 87 bc 1b e1 92 bc 27 49 f7 bc
       -0.09678488 -0.016554557 -0.017929604 -0.030186249
000130 e8 74 8d bd 21 6e 79 3d ec b7 23 3d 6c 45 3e 3d
       -0.06907064 0.060896043 0.039970323 0.046452925
000140 a3 88 cf 3c 89 82 30 3d 22 e3 83 3c d3 7c d8 3c
       0.025333708 0.043093238 0.016099516 0.026426708
000150 46 2e 93 bc bb 32 df bc 6f a8 35 3d d2 93 91 3d
       -0.0179664 -0.02724587 0.044350084 0.071082726
000160 77 37 93 3b 90 96 84 3d c4 ac 98 bd 37 d4 2a bc
       0.004492696 0.0647403 -0.074548274 -0.0104265725
000170 93 50 da bc cb 1e 33 bd df 6d f2 3c 26 3e af 3c
       -0.026649749 -0.04373054 0.029593406 0.02139194
000180 5d 2b 55 3d 7a 9d 19 bd 74 53 e7 3a 95 69 51 3d
       0.052043308 -0.037503697 0.0017648772 0.05112608
000190 a1 a1 8c bd 93 ea b9 bc e8 53 84 3b a5 0a 13 3d
       -0.06866766 -0.022694862 0.0040383227 0.035898823
0001a0 87 41 8e 3c 05 d4 a0 3c ea b4 1c 3d 88 29 39 3d
       0.01736523 0.019632349 0.03825847 0.045205623
0001b0 8c e1 1d 3d 7e 83 4f bd b6 6b c4 3d d9 b9 62 bd
       0.038545176 -0.05066251 0.09590857 -0.05535302
0001c0 6b 96 33 3d 04 79 8e bd 85 68 e3 3c 58 44 8a bd
       0.04384462 -0.06956676 0.0277598 -0.06751317
0001d0 1c ba 8d 3d 57 2d 14 3d 15 e8 dd bc 4a 90 1f 3c
       0.06920263 0.036176052 -0.027088204 0.009738991
0001e0 87 dc ce 3c b0 e9 58 3c 69 73 77 3c d0 b3 5c bc
       0.02525164 0.013239309 0.0151031995 -0.013470605
0001f0 23 7d 4d 3c 26 4f 0e 3d f6 99 c7 3c 04 05 75 3c
       0.012542042 0.03474345 0.024365406 0.014954809
000200 51 9f 9c 39 38 4b d4 bc d6 71 cd b9 db db 8a 3c
       0.0002987334 -0.025914773 -0.0003918546 0.016950538
000210 d6 cb 97 3c 71 85 81 bb 4b 2e 8e 3d f1 2f 63 bc
       0.018529814 -0.003952675 0.069424234 -0.013866411
000220 38 9a b8 bc b6 3b b2 3d b1 c2 a7 3b bb 53 a3 ba
       -0.022534475 0.08702795 0.0051196446 -0.0012460867
000230 5c 97 3a 3d ad b3 dc bc a4 ac c4 3c 6b bc 35 3b
       0.045554504 -0.026941145 0.024008103 0.0027730714
000240 08 ce 8e 3c d9 21 4a 3d dd 3d a3 3c b7 ef 89 3d
       0.017432228 0.049348686 0.01992696 0.06735175
000250 ea da b5 bb c4 4d 53 3d 09 9c 11 bd 05 45 4b bc
       -0.005549778 0.051587835 -0.035549197 -0.012406592
000260 5c 99 c2 3c 04 0c 18 3c 53 41 84 bd 98 f5 15 3d
       0.023754768 0.0092802085 -0.06457772 0.03661117
000270 2c 60 83 bc d1 56 eb 3b f8 d2 0b bb 1d 00 f3 b9
       -0.01603707 0.00718198 -0.0021335464 -0.00046348656
000280 16 0d 4c 3d fb c9 1e bd bc ff a0 3d a0 2b 9e bd
       0.049817167 -0.038766842 0.078612775 -0.077231646
000290 29 7e 3b bc 97 2c 04 3d 8b 5e 24 3d 88 99 08 3d
       -0.011443653 0.032269087 0.040129226 0.033349544
0002a0 c1 15 df 3c 1c 97 1f bd 73 97 c1 3c 4e f9 66 bd
       0.027232053 -0.03896247 0.023631787 -0.0563901
0002b0 ec 4a db 3c bf f8 85 bd a8 77 ab bc a5 7e 3b bd
       0.026769124 -0.06541585 -0.02093108 -0.045775075
0002c0 cc 43 b3 bb c4 17 6b bd c2 c8 8e bd 55 0f d8 bc
       -0.0054707285 -0.05739571 -0.06971885 -0.026374498
0002d0 2d 6f 37 3d 17 23 cb 3c 9c e0 39 3d 16 a0 f9 bc
       0.04478376 0.024797006 0.04538022 -0.030471843
0002e0 1c 3e c6 bd e4 1f 5d bd 3a b3 ba 3d 42 5e 4f 3d
       -0.09679815 -0.05398549 0.09116216 0.050627
0002f0 1a 0f bf 3b b1 5d d0 3c f1 45 84 bd d1 98 c0 bd
       0.0058306577 0.0254353 -0.06458653 -0.094041474
000300 91 2d f8 3b d0 11 73 3d 7e 48 08 ba 56 02 4b bc
       0.0075737913 0.05934316 -0.00051987905 -0.012390694
000310 fe 79 13 bd f0 a2 65 3d d8 09 6a bc 77 b9 a9 3d
       -0.036005013 0.056063592 -0.0142845735 0.08287328
000320 a6 44 87 bd 2b 07 7e bd fb e3 01 3d 8d 15 fa ba
       -0.066048905 -0.062018555 0.03171156 -0.0019079909
000330 4c 9d d5 bb 94 53 5f bd 13 8c 97 3c d9 e3 cd 3a
       -0.0065189954 -0.054523066 0.01849941 0.0015708163
000340 40 93 fc 3c 25 f2 82 3c 11 d5 0a bd 50 19 19 3d
       0.030831933 0.015984604 -0.033894602 0.037377656
000350 d8 c1 a7 bd d3 6f 4d 3d 5d 87 04 bd 3a ed 9d bd
       -0.0819127 0.050155472 -0.032355655 -0.07711263
000360 11 e9 60 3d 4d ea af 3c f0 a7 e1 3a d6 93 58 3c
       0.05490977 0.021474028 0.0017216187 0.013218841
000370 dc b6 a6 3d 23 58 8a bd b2 bb 05 bd 3b 96 b4 bb
       0.081403464 -0.06755092 -0.032649703 -0.005511073
000380 2b 85 96 bc 23 9a 21 3d bb c8 ed bc c0 e9 11 bd
       -0.018374046 0.039453637 -0.02902638 -0.035623312
000390 31 f2 13 bc 67 08 08 bc ff 2a 56 3c 26 02 80 bd
       -0.009029911 -0.0083027845 0.0130717745 -0.0625041
0003a0 f5 ec 94 3c c2 b8 72 bd a2 7f 4d bd 71 06 84 bc
       0.018179396 -0.05925823 -0.05017055 -0.016116353
0003b0 bf 55 d9 bc 1d 20 79 bd c0 ab 9d bc b4 74 5c 3a
       -0.026530145 -0.06082164 -0.019246936 0.0008409724
0003c0 f9 92 7e bd 3a d6 b1 bd d9 87 c3 3c 2e f9 00 bc
       -0.062151883 -0.086834386 0.023868488 -0.007871909
0003d0 e7 e1 b4 ba b9 69 b2 3c ad fd 06 3d 0d ee 95 3b
       -0.0013800234 0.021778928 0.032956768 0.004575497
0003e0 0c b7 c8 3c 75 08 09 3d d8 f3 6d 3d f5 c0 c1 bc
       0.024501346 0.03345533 0.058093876 -0.02365158
0003f0 5c 52 1a bd e8 6a 21 bc ec e6 20 3d 2c e6 2c 3d
       -0.0376762 -0.009852149 0.039282724 0.042211697

exp_avg f4 [30, 768]
000000 b1 33 a4 3c db 67 b1 bb 48 1c 97 3c f5 a6 c3 3b
       0.02004418 -0.005413992 0.018446103 0.0059708306
000010 36 ea 31 3c 45 4e ff bb f4 84 b5 bc c2 3c 48 ba
       0.010859063 -0.007791313 -0.022158124 -0.0007638448
000020 72 8b e3 bb 13 9c ac bc 2e 5a 6f 39 ac ba 00 3b
       -0.0069441134 -0.021070516 0.0002282641 0.0019642515
000030 16 1c 31 bc 31 ec 0d 3a d7 01 77 bc 25 31 ac 3b
       -0.010809919 0.00054139184 -0.015076122 0.005254882
000040 81 29 8f 3b 68 ed 4c 3b 4f c5 93 ba 61 60 cb 3b
       0.0043689613 0.0031269435 -0.0011274013 0.0062065576
000050 18 6e 7c bc aa de fc bb 9c c8 8a bb 77 a9 83 bc
       -0.015407108 -0.0077169733 -0.0042353403 -0.016072018
000060 14 73 d0 bb 41 e6 d6 3b b3 c8 8e bc 92 c1 47 3c
       -0.0063613746 0.00655821 -0.017429685 0.012192147
000070 af 24 42 3c 56 63 0c 3c d0 75 b2 bc 3a 2e 85 3c
       0.011849566 0.008568605 -0.021784693 0.016257394
000080 31 46 02 3c 90 22 e3 bb 57 3b 8b 3a 38 09 05 ba
       0.007951305 -0.0069316104 0.0010622543 -0.0005074921
000090 8a 3a 96 bc 0b 47 4b bc ea 9b 84 3c b9 2b 8d bc
       -0.01833846 -0.012407075 0.016187627 -0.017232763
0000a0 d7 b9 70 bc 59 4e fb 3a 7f 52 30 bc 7c 76 c8 3c
       -0.014692745 0.001917313 -0.010761856 0.02447056
0000b0 b9 87 33 3c 70 d0 89 3c f0 d0 90 3c d1 16 86 3b
       0.010957652 0.016823024 0.017677754 0.0040920754
0000c0 c3 aa 2f 3c 20 b1 17 3c 58 67 15 3c 1a 61 18 3c
       0.010721865 0.0092585385 0.009118877 0.009300495
0000d0 33 a9 41 bc a4 07 a5 3b 43 4d c6 3c 2e e8 15 bc
       -0.011820125 0.005036311 0.024206763 -0.009149594
0000e0 84 3d 64 bc aa 1a 21 bc 96 81 31 bb 13 06 7d bb
       -0.013930682 -0.009833017 -0.0027085296 -0.0038608357
0000f0 ea 25 d0 bc c7 55 97 ba e4 91 75 3b 50 54 fa bc
       -0.025408704 -0.0011545949 0.003747099 -0.030557781
000100 b5 3b ef 3a ac 92 3e bc 38 c2 3d bc 21 18 ad 3b
       0.0018252047 -0.011631649 -0.01158195 0.0052824174
000110 2b 03 0c 3c 86 d1 c9 bb 38 49 9c 3c 87 19 df 3b
       0.008545677 -0.0061590103 0.019077882 0.006808463
000120 5e 15 85 bc 06 37 1a bc 04 96 6d 3b a0 06 14 3c
       -0.01624554 -0.009412533 0.0036252746 0.009034783
000130 53 ea 15 3c 29 eb e5 3b 0e 90 da bb 19 02 4b bc
       0.0091501055 0.0070165587 -0.0066700047 -0.012390637
000140 9c 4e 01 3c c8 16 09 3a 8a 64 bf bb 1c db 09 bc
       0.007892277 0.000522953 -0.0058408426 -0.008414056
000150 4e c1 a3 bc e8 df 3d 3c eb 98 fa 3b b8 dc ca ba
       -0.019989636 0.011589028 0.007647624 -0.0015477156
000160 43 7e 91 3c f0 8e 15 3c 71 6a 9f bc a4 ff dc 3c
       0.017760402 0.009128317 -0.019459935 0.026977368
000170 4d 6e e4 3a 20 3e 4c bc 2e d7 be bb 8d 46 9d ba
       0.0017427892 -0.012465984 -0.0058239913 -0.0011999175
000180 ea ee a5 b9 26 4d 31 3a a3 4c 2f ba 38 8b 81 bb
       -0.00031649257 0.000676351 -0.000668714 -0.0039533637
000190 5f e6 50 3a bf 27 53 39 df d1 97 bc d2 37 76 3b
       0.0007968898 0.00020137335 -0.018532692 0.0037569893
0001a0 ee fa 4d 3c 55 27 00 3c cb 00 02 bc 43 66 93 bb
       0.012572033 0.0078218775 -0.007934759 -0.0044982745
0001b0 5a b1 00 bb 98 76 85 3c a7 83 fa bc 9f 41 84 bb
       -0.001963696 0.016291901 -0.030580355 -0.004036143
0001c0 cc 76 b5 3b 2d c1 db bb 6f 20 b4 bb 45 44 42 3b
       0.0055378433 -0.006706378 -0.0054970304 0.0029642743
0001d0 f7 ee 93 3b 62 24 b2 bb 9a a1 96 3b 51 e6 f2 3b
       0.004514571 -0.005436466 0.004596901 0.0074127098
0001e0 a8 41 a0 3a 35 01 8f 3b a6 c6 0f ba 20 ac c8 b8
       0.0012226598 0.0043641576 -0.0005484618 -9.568804e-05
0001f0 25 fe 09 bc 3d 2d 90 3c f5 f3 09 bc cc 88 86 bc
       -0.008422409 0.017599696 -0.00841998 -0.016422652
000200 dd aa 0c bc 3c bd 45 3b 7f d0 02 bb d8 52 cc 3c
       -0.008585659 0.0030172607 -0.00199607 0.024941847
000210 46 12 cb ba ff ac 45 bb 8c e7 0e 3c 3a 6f 79 bb
       -0.0015493117 -0.0030162928 0.008722197 -0.003806068
000220 a8 1d 43 ba ff 8b b3 3b 41 d5 9a bc f7 ec 8e 3c
       -0.0007443079 0.0054793353 -0.018900516 0.017446978
000230 11 6b 67 3c 65 0b 75 bc 71 4a d2 bb ec b0 8f 3c
       0.014124648 -0.01495633 -0.0064175655 0.017540418
000240 b5 ac 1c 3c 65 91 58 3b 7c 84 29 bc 1a bb 26 bb
       0.009562661 0.0033045646 -0.010346528 -0.002544111
000250 2c f4 d1 3b 8d 4c ae ba 2b 11 62 bc 80 55 00 3c
       0.0064072814 -0.001329796 -0.0137980385 0.007832885
000260 e6 80 a8 3c d8 7f 49 3c 42 96 b8 bb 02 9e 69 bb
       0.020569276 0.012298547 -0.0056331465 -0.0035647159
000270 ee 16 5e 3b 17 b8 00 3c d6 ac 38 3c ad 51 a6 3b
       0.003388818 0.00785639 0.011271676 0.0050756545
000280 b8 21 02 3c 6c a3 21 bc e3 8f 05 39 6e b9 f0 bb
       0.0079426095 -0.009865623 0.0001273747 -0.0073463237
000290 c5 63 e3 3b c0 a0 65 3b 5d 99 9d 3c e4 c7 48 3c
       0.0069393837 0.0035038441 0.019238168 0.012254689
0002a0 1a 10 9a 3c fd 4f 5e 3c 15 c1 4d bc 9e e3 e1 bb
       0.018806506 0.013568875 -0.012558241 -0.006893589
0002b0 85 68 0e bc cd 54 26 3c f6 94 58 bb c1 38 88 bb
       -0.008691912 0.010152054 -0.0033047772 -0.004157156
0002c0 07 da b7 3c 99 e7 f9 3a 29 1f be bb d6 44 05 3c
       0.02244283 0.0019066214 -0.0058020544 0.008134088
0002d0 df 88 7c 3c a8 02 60 3c 2b 6d 8f 3c bd 5e 53 bb
       0.015413492 0.013672508 0.01750811 -0.0032252513
0002e0 93 8e dc 3c 62 a3 86 3b 80 a0 aa 3c 9a 3c fe 3c
       0.026923453 0.004108832 0.020828485 0.031034756
0002f0 98 70 8b bc 21 a6 b5 3a a6 4c b1 bb 81 02 8d 3b
       -0.017021462 0.0013858714 -0.0054107485 0.004303277
000300 05 6f 9f 3c da d7 4c ba 0e 3b 6e 3c 24 c8 35 3c
       0.019462118 -0.0007814147 0.014540447 0.0110950805
000310 bd e3 93 3b cc 49 a2 bb bc aa ad bc 97 9e 2d bb
       0.0045132325 -0.004952645 -0.021199577 -0.0026492232
000320 8d a5 14 bc 3d 00 9d bc 06 61 b7 bb 5a 10 0e 3b
       -0.0090726735 -0.019165153 -0.005596283 0.0021677227
000330 8c f3 03 bb 18 96 fc 38 f2 77 43 bc be ce cb 3b
       -0.002013418 0.000120442535 -0.011930453 0.006219714
000340 d9 a3 b2 3b bc aa b4 3b 03 d9 89 3a 86 c8 37 3c
       0.005451661 0.005513517 0.0010516945 0.011217242
000350 42 69 4d bc 6e 94 25 bc 8f e8 17 bb 0c 64 30 bc
       -0.012537302 -0.010106189 -0.0023179387 -0.0107660405
000360 7f e9 4a bb d8 74 3c 3b ec b3 98 bc a2 8e fb 3b
       -0.0030961928 0.0028756168 -0.018640481 0.0076769153
000370 99 02 7d bb b9 87 b9 3b 68 cf a8 bc 91 80 7c 3c
       -0.0038606285 0.0056619314 -0.020606712 0.015411512
000380 ac 11 5f 3c dd ca cd bb 0e 8d 81 3b 64 2f ce b8
       0.013615053 -0.0062802867 0.0039535826 -9.831673e-05
000390 d4 c6 a3 bc 58 82 03 bc d9 0b 6a 3c 6e 35 98 bc
       -0.01999227 -0.008026682 0.014285051 -0.018580165
0003a0 20 21 82 bc fc 77 bd 3b 15 d6 be bb 69 13 b0 3c
       -0.015884936 0.0057821255 -0.0058238604 0.02149363
0003b0 0a 8e a2 3b 2d d3 7c 3c a9 5b d3 3c 71 12 f7 bb
       0.00496078 0.015431208 0.025800543 -0.00754004
0003c0 62 b5 7b 3c 28 74 c0 3b 1e d5 48 3b 75 9e 8f 3b
       0.015363069 0.005873222 0.0030644606 0.004382903
0003d0 d0 61 d1 bb 4e 0e 8d b7 fe 5b af 3c ef f0 98 bb
       -0.006389834 -1.6815171e-05 0.02140617 -0.0046673934
0003e0 28 08 8e bc 5e c5 bb 3a b4 8e 9d 3b da a7 f9 bb
       -0.017337874 0.0014325788 0.0048082713 -0.0076188864
0003f0 24 81 62 bc 4b 88 80 3b 88 16 49 bb 26 bc f1 bc
       -0.013824735 0.0039224974 -0.0030683596 -0.029508661

exp_avg_sq f4 [30, 768]
000000 6e eb ec 3a 94 9e a7 3a 96 72 fc 3a 38 e2 8b 3b
       0.0018075535 0.0012788349 0.0019260223 0.0042689107
000010 2b 4f 55 3b 6e f0 03 3b 9a de b8 3a ac 43 58 3b
       0.0032548408 0.002013232 0.0014104426 0.003299932
000020 30 bb 3d 3b 5c d8 f0 3a 74 67 50 3b b3 ed c1 3b
       0.0028950684 0.0018375027 0.0031799944 0.0059182285
000030 71 83 04 3b ac 7e 56 3b f3 d9 3d 3b da d4 4d 3b
       0.0020219947 0.003272931 0.002896902 0.0031407387
000040 6a bb 68 3b 2f 76 51 3b 97 eb 01 3b 49 b2 c0 3a
       0.0035512098 0.0031961312 0.001982426 0.0014701571
000050 f7 dd f1 3a 0d da 08 3b c8 7b 8b 3b 11 ac 1a 3b
       0.0018452991 0.0020881922 0.0042566992 0.0023601095
000060 0e 2e ba 3b a1 2c f7 3a b6 74 cc 3a 56 0e d4 3a
       0.0056817597 0.0018857905 0.0015598747 0.0016178589
000070 45 b0 d4 3a b9 f7 19 3b 7b 39 ad 3a da b3 26 3b
       0.0016226849 0.0023493601 0.0013215983 0.002543679
000080 69 45 76 3a f2 ca c1 3a 3e 75 10 3b 3c bc d5 3a
       0.0009394498 0.0014785214 0.0022042538 0.0016306709
000090 b2 61 72 3a a5 79 44 3a 15 e7 ec 3a aa bd ee 3a
       0.0009246125 0.0007494933 0.0018074239 0.0018214483
0000a0 f5 b2 93 3b 02 de 18 3b 80 fa fd 3a 8f a5 6f 3b
       0.0045074173 0.0023325686 0.0019377023 0.0036567186
0000b0 37 c5 de 3b 67 fb e3 3a 3e 38 e3 3a 94 86 ca 3a
       0.006798412 0.0017393649 0.0017335487 0.0015451484
0000c0 bd ad a6 3a 96 47 27 3b b0 46 a1 3a 15 38 4b 3b
       0.0012716573 0.0025524846 0.0012304392 0.003100877
0000d0 bf 6d c0 3a a8 75 b0 3a b3 10 1d 3b 9f d6 0f 3b
       0.0014681144 0.0013462799 0.0023966252 0.0021947992
0000e0 6e a9 11 3b 20 fe 29 3b 0c 53 4b 3b 3a f2 b4 3a
       0.0022226232 0.0025938824 0.0031024842 0.0013805099
0000f0 4f e6 f0 3a 52 f9 9d 3a 52 ac 8d 3a 73 ad 9a 3b
       0.0018379184 0.0012052453 0.0010808802 0.004720384
000100 3b 72 a3 3a b3 dc 08 3b 9d 7a ef 3a b2 e5 63 3b
       0.0012469956 0.00208835 0.0018270795 0.003477436
000110 14 f7 13 3b 98 64 f1 3a b9 d8 d1 3b be 33 26 3b
       0.002257769 0.001841682 0.006404009 0.002536043
000120 8a 2e e0 3a 5f 48 8f 3a 8a 84 7b 3a 4f 28 9a 3a
       0.0017103713 0.0010931602 0.000959464 0.001176128
000130 7e 2b d7 3a 62 20 aa 3a a6 74 b2 3b f6 d4 a2 3a
       0.001641616 0.0012979622 0.0054460345 0.0012423086
000140 62 86 ca 3a 38 21 47 3b a2 e4 cb 3a 2f 78 28 3b
       0.0015451426 0.003038479 0.0015555809 0.00257064
000150 d5 41 da 3a 53 f1 91 3a f2 c5 1b 3b 82 61 90 3a
       0.00166517 0.0011134542 0.0023769108 0.0011015388
000160 b5 79 02 3b 4e e3 8d 3b 84 22 fb 3a 03 e9 e5 3a
       0.0019908969 0.0043300753 0.0019160067 0.0017540756
000170 f2 f6 f6 3a f4 e6 6a 3a 91 d8 29 3a ff 0e 2d 3b
       0.0018841906 0.00089608063 0.0006479109 0.0026406643
000180 88 f5 2d 3b 8a a7 a1 3a 53 84 0e 3b d6 a2 cf 3b
       0.0026544053 0.0012333256 0.0021746352 0.00633655
000190 48 82 74 3a 5c 52 b5 3a f7 15 d4 3a 04 72 d9 3b
       0.0009327275 0.0013833749 0.0016180862 0.006635906
0001a0 88 84 42 3b 7f a3 58 3b a5 6f 80 3b 56 4f 1c 3b
       0.0029681046 0.0033056436 0.003919559 0.0023851
0001b0 09 20 a6 3a 53 5b 0c 3b 6b 88 ab 3b 9e 4d 81 3b
       0.0012674342 0.0021416738 0.005234768 0.0039460203
0001c0 57 10 82 3a 77 c1 d0 3a a6 5e 9f 3a 56 33 1a 3b
       0.0009923083 0.0015926798 0.0012158945 0.0023529134
0001d0 1c cc 8c 3b b1 d3 2c 3b 53 09 40 3b 5c c4 07 3b
       0.0042967927 0.0026371295 0.0029302433 0.0020716405
0001e0 0e 2e eb 3b 29 5f 08 3b 31 d1 22 3b 78 a7 1d 3b
       0.007177121 0.0020808673 0.0024843926 0.0024056118
0001f0 4f cf 18 3b 99 4b 37 3b ba 2d 9b 3b 32 91 76 3b
       0.0023316925 0.0027968644 0.0047356756 0.0037623164
000200 b0 5b ca 3a da 77 bc 3a 4e 8b 9a 3a 6b bb 36 3b
       0.0015438702 0.001437898 0.0011790784 0.0027882706
000210 db bd a3 3b a0 40 63 3b 6d 85 95 3a a6 47 95 3b
       0.004996998 0.003467597 0.0011407562 0.0045556603
000220 f0 df 96 3a 04 c9 46 3b 82 d9 6d 3b c5 93 b0 3a
       0.001151083 0.0030332217 0.0036292975 0.0013471773
000230 c7 ce 06 3b b3 dc 3f 3b 84 5a bd 3a 97 b6 6d 3a
       0.0020570026 0.0029275834 0.0014446531 0.00090680405
000240 03 fd c9 3a e9 8c 24 3b c7 ec 5a 3b a2 59 74 3b
       0.0015410486 0.0025108403 0.003340529 0.003728487
000250 c6 b7 6f 3b c9 d9 02 3b 42 c7 17 3b 52 50 83 3a
       0.0036578043 0.0019966236 0.0023159538 0.0010018444
000260 e9 43 0e 3b ea d7 1c 3b d7 52 53 3b 10 5d bd 3a
       0.0021707958 0.0023932406 0.0032245421 0.001444729
000270 7a b8 13 3b fa 66 57 3a ec 65 40 3b 74 2c 42 3b
       0.0022540377 0.0008216944 0.0029357625 0.0029628547
000280 ef 91 ef 3a fe 82 12 3b a3 87 a0 3a 43 73 ab 3b
       0.0018277745 0.002235591 0.0012247454 0.005232246
000290 4c 47 1e 3b d2 bd 59 3b d1 64 34 3b 2f 32 e0 3a
       0.0024151383 0.0033224714 0.0027525912 0.00171048
0002a0 63 27 c7 3b 6c 08 b8 3a 31 0d 93 3b 94 6d a7 3a
       0.0060776933 0.0014040596 0.0044876565 0.0012773746
0002b0 98 45 87 3b 89 1c c9 3a 9c cb e8 3a e5 30 96 3a
       0.0041281693 0.0015343587 0.0017760876 0.0011458664
0002c0 3d 79 06 3b 7c 2f 2c 3b cb f5 e5 3a af 29 30 3b
       0.002051904 0.002627342 0.0017544565 0.0026880314
0002d0 8c 77 07 3b 9b a3 62 3b c5 48 00 3b 9a 34 93 3a
       0.002067062 0.003458238 0.0019574624 0.0011230886
0002e0 98 f2 18 3b 66 2b 76 3a b1 f5 92 3a af 1e 9d 3b
       0.0023337957 0.0009390622 0.0011212138 0.0047949175
0002f0 67 ff d4 3a 86 a1 38 3b d6 59 a7 3a 0e 7f 08 3b
       0.0016250432 0.0028172447 0.0012767862 0.0020827684
000300 92 9a eb 3a 4c 9d 66 3a 4c 90 8a 3a 65 6f 2d 3b
       0.0017975143 0.0008797243 0.0010571568 0.0026464101
000310 b3 1d ca 3a b1 ae ec 3a 18 8d bf 3a ad 80 3c 3b
       0.0015420228 0.0018057433 0.0014614193 0.002876322
000320 9e fa c4 3a b5 37 b2 3a 0a 89 40 3b 2b a9 98 3b
       0.0015028303 0.0013596924 0.0029378557 0.0046588383
000330 84 c4 e4 3a 9f 89 fa 3a 4e 8d ff 3a 97 d0 06 3b
       0.0017453586 0.0019114501 0.0019497068 0.0020571107
000340 92 82 0b 3b b3 ee 6a 3b bc 2d 0a 3b ba e0 c6 3a
       0.0021287543 0.0035847842 0.0021084389 0.0015173175
000350 ea 34 d2 3a 16 71 a8 3a 23 95 09 3b 08 1b dd 3a
       0.0016037498 0.0012851085 0.0020993433 0.0016869018
000360 e4 9b 53 3b ba ed ea 3a c2 01 aa 3a 72 3f bc 3a
       0.0032288963 0.0017923631 0.0012970495 0.001436217
000370 3d 0c 83 3a c2 3f 2d 3b 91 fc 5c 3a 97 b2 07 3b
       0.0009998154 0.0026435708 0.00084299693 0.0020705813
000380 e3 91 92 3a c4 38 84 3a cf 83 bf 3a 32 17 8c 3a
       0.0011182394 0.0010087718 0.0014611426 0.0010688065
000390 70 a1 35 3a d6 e9 3d 3a 7c 45 88 3a bb 62 88 3a
       0.0006928658 0.0007244622 0.0010396685 0.00104054
0003a0 c6 59 b0 3b b1 1e 2d 3b db 1b a0 3a e8 22 81 3b
       0.0053817956 0.0026415999 0.0012215333 0.0039409287
0003b0 67 f4 86 3b a8 c4 ce 3a 69 3f 9d 3a 62 d3 bc 3a
       0.0041184905 0.0015775161 0.0011997047 0.0014406259
0003c0 19 35 a6 3a 43 c1 8b 3b 1c 38 36 3a 11 bd 44 3b
       0.0012680619 0.004264982 0.000695111 0.003001992
0003d0 3f f7 63 3a 7b 5c d1 3a dc 0c 08 3b 09 a1 07 3b
       0.00086962053 0.0015972996 0.0020759618 0.002069535
0003e0 ce 45 db 3a 1b 6d 4a 3b e1 c0 04 3b 69 91 a5 3a
       0.0016729177 0.0030887786 0.0020256566 0.0012631837
0003f0 9b 1c aa 3a 7a bc 65 3a 14 f5 c6 3a 3c 79 3f 3b
       0.0012978496 0.0008763742 0.001517924 0.0029216548
