SmallD_SDD_InProgress/out_step5_debug_ipc15_beta0.pth (torch, 279024 bytes, 3 tensors)

module.data.weight f4 [30, 768]
0.011071494 -0.06324863 0.0030758171 -0.033701822 0.0753979 0.039175045 0.013434689 -0.034498926
-0.0014745379 -0.049374197 -0.020637969 0.013260101 -0.006333793 0.026761213 0.029489135 -0.056061283
-0.094675705 -0.08750629 0.010531901 -0.004994177 0.01930051 -0.03204927 -0.0012695232 0.028497264
0.0353917 -0.035302848 -0.007197344 0.053931843 0.084152214 0.053548664 0.026454689 -0.03953916
-0.020358186 0.0026531976 -0.028751276 0.01741631 0.026321936 0.007427256 -0.013341163 0.04834127
0.028113846 0.054758098 -0.056110237 -0.001807323 0.008305622 0.0782152 -0.040934674 -0.02611766
-0.0016074134 0.031889733 0.032947645 -0.042323172 0.0023194395 0.07798427 0.0011446055 -0.046227057
-0.034879442 -0.0077829584 0.058878813 0.120448016 -0.043769654 -0.013817716 0.12471433 -0.03035484
0.0063306033 0.03340355 -0.014228266 0.050256584 -0.0702184 0.12561949 -0.021612896 -0.0417446
-0.010798233 -0.0071869874 -0.041060757 -0.033649255 -0.06650113 0.08097283 -0.026123818 -0.010079192
-0.03198051 0.08466896 -0.040389128 0.079933636 0.04078864 -0.021255944 0.025472717 0.022325728
0.0007427704 0.113443464 -0.08128131 -0.010084632 -0.009028879 -0.0073412545 0.030703273 -0.0071020215
0.077141814 -0.052492347 -0.03259889 0.011807116 -0.10739796 -0.07307089 -0.066328146 -0.018581199
0.033968944 0.007180319 0.002586547 0.025124898 0.01724643 -0.027432438 -0.039796006 -0.02477894
-0.057962406 -0.092308 0.038027056 0.0018151528 0.05902048 -0.016198896 -0.031483155 -0.028637886
-0.009381895 -0.038163286 0.05675453 -0.048659436 0.026109476 0.062952414 -0.030597791 0.019159732
-0.03464333 -0.02155422 -0.035812106 0.03776939 -0.0036633147 -0.012458384 0.07208433 -0.07161457
0.016496995 0.0035656283 -0.016360043 -0.05309102 -0.009796022 -0.021812381 -0.010902211 0.0057182116
-0.0015423638 0.020663803 0.02174759 -0.001577408 -0.00048625548 0.024643134 -0.020478666 0.008105366
0.032384407 -0.06139733 -0.09686593 0.020573739 -0.023189064 -0.038846537 -0.010168944 0.047882933
0.03656617 -0.044067822 0.014571164 -0.014595813 0.027846778 -0.035556115 0.050954264 -0.010426546
-0.017011523 -0.008135749 -0.022620915 -0.037223786 0.02168161 -0.05459496 0.021504136 -0.008362884
0.016088873 -0.044642985 -0.041916233 -0.0070946417 0.047888044 -0.011405403 0.062567204 0.05416809
-0.013955598 -0.05528821 0.070833355 0.0031086607 0.0054865927 -0.006201237 -0.02013498 -0.09768824
0.019118043 0.003684591 0.025567265 -0.027984064 0.03344626 0.05005186 0.0263979 0.013758206
-0.002357404 -0.03503206 0.008428106 0.02720759 0.022319112 -0.053914204 0.007693423 -0.066281766
0.028768092 -0.039064392 0.029455373 0.00050699647 -0.051320106 0.042345766 -0.011311663 -0.08311877
0.03702797 0.04377086 -0.016043557 0.018145366 0.013180959 0.003173227 -0.03796367 -0.014372359
-0.031427763 0.044268716 0.022328874 0.009674655 0.011386119 0.023314502 -0.03351156 -0.02264969
0.014578523 -0.0057400446 -0.07049096 0.014363067 -0.04764624 0.055639174 0.049350698 -0.03281715
-0.035971783 -0.06942706 0.008009559 -0.06368521 0.08452859 0.028817408 7.970168e-06 -0.025805736
0.019903583 0.033031 0.04061964 0.03119259 -0.014302551 0.048022628 0.11188692 -0.02606413
00000000: 3665 353c 7f88 81bd a693 493b ec0a 0abd
00000010: 376a 9a3d 0376 203d 2b1d 5c3c bf4e 0dbd
00000020: 4845 c1ba 993c 4abd f510 a9bc e540 593c
00000030: b58b cfbb 553a db3c 3393 f13c 84a0 65bd
00000040: 56e5 c1bd 7f36 b3bd ff8d 2c3c 31a6 a3bb
00000050: 1a1c 9e3c 1846 03bd 2166 a6ba 1873 e93c
00000060: e3f6 103d b899 10bd b3d7 ebbb a3e7 5c3d
00000070: ff57 ac3d d855 5b3d 81b7 d83c d0f3 21bd
00000080: 36c6 a6bc 45e1 2d3b cc87 ebbc a6ac 8e3c
00000090: 1aa1 d73c 5760 f33b e594 5abc 7f01 463d
000000a0: 024f e63c 074a 603d d9d3 65bd b2e3 ecba
000000b0: 4e14 083c 4a2f a03d 1eab 27bd b4f4 d5bc
000000c0: d8af d2ba cf9e 023d 1cf4 063d 105b 2dbd
000000d0: bd01 183b 38b6 9f3d 9606 963a 9558 3dbd
000000e0: bfdd 0ebd 3008 ffbb e92a 713d 73ad f63d
000000f0: cf47 33bd b463 62bc 3a6a ff3d b7aa f8bc
00000100: f370 cf3b 29d2 083d ac1d 69bc d9d9 4d3d
00000110: aace 8fbd 65a2 003e 870d b1bc 63fc 2abd
00000120: 12eb 30bc d280 ebbb 532f 28bd cdd3 09bd
00000130: bf31 88bd 15d5 a53d 9e01 d6bc 3223 25bc
00000140: fffd 02bd eb66 ad3d 126f 25bd 3fb4 a33d
00000150: fd11 273d f220 aebc 29ac d03c 72e4 b63c
00000160: 7ab6 423a 0c55 e83d d176 a6bd 033a 25bc
00000170: dded 13bc e88e f0bb 6e85 fb3c 13b8 e8bb
00000180: 87fc 9d3d 3702 57bd 6a86 05bd a272 413c
00000190: 76f3 dbbd 31a6 95bd 0dd7 87bd 9937 98bc
000001a0: 0523 0b3d e248 eb3b 0f83 293b bbd2 cd3c
000001b0: 6348 8d3c feb9 e0bc 2301 23bd 34fd cabc
000001c0: fd69 6dbd fa0b bdbd 42c2 1b3d 6cea ed3a
000001d0: 75bf 713d 8cb3 84bc 7bf4 00bd 009a eabc
000001e0: 85b6 19bc 1b51 1cbd 7077 683d 1e4f 47bd
000001f0: 8ae3 d53c 32ed 803d 38a8 fabc dff4 9c3c
00000200: 2ae6 0dbd 7a92 b0bc b7af 12bd 13b4 1a3d
00000210: 3914 70bb 401e 4cbc f3a0 933d a9aa 92bd
00000220: b524 873c 51ad 693b 7f05 86bc f875 59bd
00000230: 7f7f 20bc e1af b2bc 309f 32bc d65f bb3b
00000240: 2429 caba 2347 a93c 0028 b23c 08c1 ceba
00000250: 1bf0 feb9 66e0 c93c e0c2 a7bc 5ecc 043c
00000260: 83a5 043d c47b 7bbd a561 c6bd 428a a83c
00000270: fef6 bdbc 8c1d 1fbd a49b 26bc e520 443d
00000280: 69c6 153d 7680 34bd e4bb 6e3c 4723 6fbc
00000290: ed1e e43c 4aa3 11bd 6bb5 503d 1bd4 2abc
000002a0: c05b 8bbc ce4b 05bc 7f4f b9bc f877 18bd
000002b0: a29d b13c f79e 5fbd 7129 b03c 7a04 09bc
000002c0: d0cc 833c 90db 36bd 5bb0 2bbd 2b7a e8bb
000002d0: 4126 443d badd 3abc 3c23 803d 5cdf 5d3d
000002e0: 05a6 64bc e475 62bd 1411 913d acba 4b3b
000002f0: e0c8 b33b bf33 cbbb 1df2 a4bc c610 c8bd
00000300: 719d 9c3c 2e79 713b 7172 d13c d63e e5bc
00000310: f2fe 083d 2e03 4d3d 6940 d83c 196a 613c
00000320: ad7e 1abb c77d 0fbd 0a16 0a3c 74e2 de3c
00000330: 92d6 b63c 24d5 5cbd 1c19 fc3b bcbe 87bd
00000340: 10ab eb3c fc01 20bd 654c f13c f5e7 043a
00000350: 0835 52bd c172 2d3d 8e54 39bc 2c3a aabd
00000360: a4aa 173d 1349 333d c76d 83bc 97a5 943c
00000370: f3f4 573c eaf5 4f3b cb7f 1bbd 0b7a 6bbc
00000380: 66ba 00bd 1d53 353d 0beb b63c 7282 1e3c
00000390: d88c 3a3c 0efe be3c 6b43 09bd d88b b9bc
000003a0: c2da 6e3c fc16 bcbb 905d 90bd 1253 6b3c
000003b0: b428 43bd e7e5 633d f523 4a3d 476b 06bd
000003c0: 2657 13bd c62f 8ebd 863a 033c 646d 82bd
000003d0: 531d ad3d 7c12 ec3c 9cb7 0537 8d66 d3bc
000003e0: d70c a33c 844b 073d c860 263d 9a87 ff3c
000003f0: 3f55 6abc 60b3 443d f824 e53d 7184 d5bc

exp_avg f4 [30, 768]
0.0008350807 -0.061587535 0.03642436 0.019743087 0.0241894 -0.009281443 0.010113802 -0.001107099
-0.016166393 -0.00508214 0.014861828 0.034787223 -0.038070634 0.008116307 -0.007761878 0.05631905
-0.005932041 -4.587679e-06 0.017391244 -0.019326292 -0.020775924 -0.022278903 -0.027384797 -0.019817038
-0.045104988 0.032869566 -0.015891008 0.0062054843 -0.006039325 -0.023355078 0.023467531 -0.005740999
-0.019338941 -0.0023322657 0.024692845 -0.008294147 -0.006610782 -0.014081707 -0.002129026 -0.017337348
0.0105721345 -0.01324243 0.0047426345 -0.016417021 0.044621214 -0.0075100823 0.03607364 0.037802603
0.03264241 -0.030366879 -0.0280083 0.0026842128 -0.0113230655 -0.002301833 0.006285426 0.003036488
0.041518267 0.020097222 0.0028707637 -0.008005663 -0.0020973932 -0.029650895 0.0005627281 -0.016811304
-0.016419122 -0.047343146 -0.028499033 -0.016675325 0.013527927 -0.037504416 0.0034149901 -0.008751302
-0.009738368 0.015566223 -0.021189136 0.0135058025 -0.013933616 0.0050355117 -0.026309399 0.016564047
0.02462949 0.04454352 -0.007103265 0.010027946 0.0056026424 0.018113276 0.009318666 -0.0068621645
-0.01964794 -0.01019404 -0.011551592 0.026754832 -0.01029808 -0.050515067 0.019965816 -0.00067504245
0.0020218573 0.01036875 0.0037608398 -0.008227589 0.00040427234 -0.0053635035 -0.02636173 0.008866349
-0.0035049247 -0.015651096 -0.024944864 -0.0420877 -0.027216844 -0.030734029 -0.04407515 -0.015486462
0.009897498 -0.015372181 0.004456795 0.0037806628 0.0029438254 -0.010993747 -0.023502406 0.027525207
-0.034300257 -0.023454592 0.0015208108 -0.013174093 0.010944812 -0.020404281 -0.006092359 0.003273615
-0.004182205 0.0180326 -0.0010676502 -0.037197236 -0.012472713 0.014080927 -0.014905094 0.013781566
0.005353919 -0.01117366 0.005120769 0.009504202 -0.03548048 -0.00063313555 -0.012046902 -0.0025901005
0.0031118444 0.021561569 -0.0080743255 -0.0007886304 -0.0005466663 0.015552401 -0.027738413 0.013990919
0.0028976805 0.027221002 -0.0045827073 -0.02021191 -0.0024869172 0.007341002 -0.008386895 0.0051815226
-0.03825535 0.01993115 0.0074890777 0.016193075 -0.011727143 -0.037671186 0.03390345 -0.006586661
0.0052106967 -0.01671697 0.012077981 -0.004354106 -0.016234428 0.028635487 -0.0007235893 0.01034426
0.0040922454 -0.032230977 0.02234676 0.031876337 -0.027140547 -0.00815794 0.028472126 -0.021856736
-0.007637086 0.014357149 0.013698557 0.016499715 -0.0049713575 0.009294987 -0.034258097 0.0058176555
-0.005003698 -0.045869555 0.010523203 0.02571919 0.018355213 0.0029351304 0.010921198 0.0030759156
-0.041283946 0.0043095383 0.016195502 0.02216915 -0.046740763 0.008187997 0.0005395516 0.056675784
-0.029013114 0.01544417 0.01637266 -0.016883992 -0.013523358 -0.0034146248 -0.017306816 -0.0039473735
-0.031737246 0.02985935 -0.021882886 0.01703329 0.032449536 -0.01531241 0.028430805 -0.006739142
-0.015164475 -0.00505676 0.018469065 -0.029396307 -0.016849354 -0.015505505 -0.0039048044 0.0053118146
0.009804337 -0.0067594512 0.012409033 -0.014583979 0.037483234 -0.02755626 0.020273067 0.03449191
0.023927392 -0.035197172 -0.02279732 0.001597964 -0.017299864 -0.0040907315 0.01255454 0.025455372
0.03109041 -0.0009119625 0.022809926 -0.013882039 -0.0019569967 -0.013077427 -0.0010896063 -0.014442812
00000000: 51e9 5a3a 3643 7cbd b631 153d 41bc a13c
00000010: d928 c63c 3211 18bc 5cb4 253c 141c 91ba
00000020: 626f 84bc 1588 a6bb 067f 733c 0c7d 0e3d
00000030: f4ef 1bbd 42fa 043c 5a57 febb ceae 663d
00000040: 9161 c2bb ddef 99b6 1578 8e3c 2c52 9ebc
00000050: 4532 aabc 3f82 b6bc 1556 e0bc 5757 a2bc
00000060: 02c0 38bd 3da2 063d dc2d 82bc 6057 cb3b
00000070: 88e5 c5bb 2653 bfbc fb3e c03c fd1e bcbb
00000080: b36c 9ebc edd8 18bb a648 ca3c 2de4 07bc
00000090: 429f d8bb f6b6 66bc 2187 0bbb 0e07 8ebc
000000a0: bf36 2d3c c7f6 58bc 1a68 9b3b fd7c 86bc
000000b0: bcc4 363d 2317 f6bb f4c1 133d e7d6 1a3d
000000c0: 0cb4 053d f6c3 f8bc aa71 e5bc 9ee9 2f3b
000000d0: 6184 39bc 59da 16bb faf5 cd3b d1ff 463b
000000e0: 0f0f 2a3d eea2 a43c 6c23 3c3b 2f2a 03bc
000000f0: 6b74 09bb 6fe6 f2bc 0b84 133a dcb7 89bc
00000100: 6581 86bc e3ea 41bd ce76 e9bc b19a 88bc
00000110: 3da4 5d3c 3b9e 19bd 07ce 5f3b 9f61 0fbc
00000120: ad8d 1fbc 7909 7f3c d794 adbc 7147 5d3c
00000130: d249 64bc ef00 a53b cf86 d7bc 53b1 873c
00000140: c9c3 c93c 4473 363d 81c2 e8bb 414c 243c
00000150: 5f96 b73b 4b62 943c 51ad 183c 02dc e0bb
00000160: b7f4 a0bc e704 27bc e342 3dbc f32c db3c
00000170: 47b9 28bc e3e8 4ebd 5a8f a33c 55f5 30ba
00000180: 2381 043b b1e1 293c 6c78 763b 02cd 06bc
00000190: 84f4 d339 54c0 afbb 8ef4 d7bc 2a44 113c
000001a0: e1b2 65bb ba36 80bc 2c59 ccbc 2764 2cbd
000001b0: dcf5 debc eec5 fbbc 2588 34bd eeba 7dbc
000001c0: 1e29 223c 9adb 7bbc 4e0a 923b ffc4 773b
000001d0: 32ed 403b 1e1f 34bc 1e88 c0bc 8b7c e13c
000001e0: 6d7e 0cbd d823 c0bc f155 c73a 27d8 57bc
000001f0: de51 333c e126 a7bc 69a2 c7bb 258a 563b
00000200: e10a 89bb 1ab9 933c 65f0 8bba 215c 18bd
00000210: 5a5a 4cbc b0b3 663c 7f34 74bc 14cc 613c
00000220: ee6f af3b ba11 37bc 20cc a73b 83b7 1b3c
00000230: fb53 11bd 02f9 25ba 5f60 45bc adbe 29bb
00000240: 16f0 4b3b e3a1 b03c 2d4a 04bc 17bc 4eba
00000250: 284e 0fba 7fcf 7e3c ab3b e3bc 2b3a 653c
00000260: 03e7 3d3b 94fe de3c 892a 96bb 7393 a5bc
00000270: 8cfb 22bb ca8c f03b 3069 09bc c3c9 a93b
00000280: a4b1 1cbd a746 a33c f066 f53b 57a7 843c
00000290: 3423 40bc 1a4d 1abd 58de 0a3d ebd4 d7bb
000002a0: 7ebe aa3b 07f2 88bc b9e2 453c e3ac 8ebb
000002b0: 10fe 84bc f894 ea3c 42af 3dba f97a 293c
000002c0: 3e18 863b a104 04bd 8d10 b73c c390 023d
000002d0: da55 debc e1a8 05bc 603e e93c e60c b3bc
000002e0: 8540 fabb 3f3a 6b3c ea6f 603c 692a 873c
000002f0: c5e6 a2bb 004a 183c 3852 0cbd 08a2 be3b
00000300: 10f6 a3bb b7e1 3bbd 8369 2c3c 0db1 d23c
00000310: ac5d 963c 515b 403b d3ee 323c 4d95 493b
00000320: 5b19 29bd 0737 8d3b 6eac 843c 149c b53c
00000330: 3e73 3fbd f326 063c b270 0d3a de24 683d
00000340: e9ac edbc 8b09 7d3c f51f 863c 4c50 8abc
00000350: 1391 5dbc e6c7 5fbb 06c7 8dbc f858 81bb
00000360: eafe 01bd 989b f43c bd43 b3bc 6689 8b3c
00000370: cee9 043d e7e0 7abc b8e7 e83c 05d4 dcbb
00000380: 6b74 78bc 2db3 a5bb 704c 973c 86d0 f0bc
00000390: a807 8abc cd0a 7ebc bfe7 7fbb bb0e ae3b
000003a0: 5fa2 203c 637e ddbb 424f 4b3c a4f1 6ebc
000003b0: 0588 193d aabd e1bc b413 a63c 6447 0d3d
000003c0: 6103 c43c e92a 10bd 72c1 babc c672 d13a
000003d0: 72b8 8dbc 8b0b 86bb 8fb1 4d3c c987 d03c
000003e0: 51b1 fe3c c410 6fba e2db ba3c 7e71 63bc
000003f0: f540 00bb b442 56bc 1fd1 8eba 8ba1 6cbc

exp_avg_sq f4 [30, 768]
0.0016467698 0.0033544365 0.0026801918 0.0020659666 0.0026136949 0.0012985407 0.0013162004 0.006685097
0.0029416617 0.0027025293 0.0030211855 0.0017076085 0.0068499683 0.007109883 0.0019744479 0.0040490553
0.0017290476 0.0015351094 0.001447448 0.0016445743 0.0014699245 0.0045785927 0.0039258106 0.0020545754
0.003986684 0.0026860249 0.001876369 0.0016978148 0.0014537481 0.0013397572 0.0020173814 0.0017496067
0.0024046942 0.0011076916 0.002602001 0.0011462112 0.0013521832 0.0016783089 0.0021708382 0.0015516103
0.0023766917 0.0046819556 0.0015791841 0.0017718279 0.0035738822 0.0032871848 0.003859607 0.0024591195
0.0022653998 0.0027016276 0.0020263018 0.003813866 0.0013283389 0.0010385587 0.001346316 0.001933467
0.003122697 0.0021975522 0.0012404418 0.0021195328 0.0024180603 0.0036334954 0.0033332962 0.0023462267
0.0015983718 0.0034296582 0.0042374525 0.0020184617 0.0016716623 0.0026204141 0.0037607274 0.0013530033
0.0025690983 0.0013778612 0.0011789754 0.0022941693 0.0017946288 0.0022711707 0.0032282157 0.0014599115
0.0021641825 0.0035081815 0.001626194 0.0019221455 0.0017383526 0.0043868553 0.002910761 0.0028835326
0.0038393005 0.004793736 0.0029515284 0.0015310929 0.0017080264 0.0022068236 0.0012994634 0.0020823432
0.0026383796 0.0021400508 0.0016020646 0.0011751406 0.0015926431 0.0034905337 0.0016674666 0.0022057397
0.0024217681 0.0018836878 0.0013530814 0.0027148873 0.0041364064 0.0015540827 0.0030452914 0.0018323503
0.003960814 0.0018636109 0.0023657253 0.0041145654 0.0015408109 0.0041012885 0.0063076667 0.0030758681
0.0021295429 0.0014696154 0.0019341259 0.0038617302 0.0020690977 0.005457883 0.001489135 0.002700564
0.0017709602 0.002489694 0.0023847993 0.00585092 0.0031923626 0.0017306381 0.0020871349 0.0016777276
0.0014811984 0.0014539043 0.002789838 0.0031903824 0.0031164063 0.0020922201 0.0046373247 0.0013694542
0.003699294 0.0024773492 0.0017135909 0.0022347998 0.003437863 0.0014426816 0.004630564 0.001896582
0.002732675 0.0050777164 0.0023985028 0.0022980948 0.0029462373 0.0015965211 0.0013694245 0.002744311
0.00395689 0.0023434951 0.0015844103 0.002116402 0.0026431629 0.0020455562 0.004803079 0.0015169078
0.0025302218 0.0038151937 0.0026003923 0.0013266599 0.0023969533 0.0040746876 0.0033661735 0.002651547
0.0029166841 0.0053746765 0.0013747952 0.0022560004 0.0023025759 0.0017802325 0.0024146917 0.002516613
0.0020197819 0.0017701852 0.002360502 0.003997712 0.002996352 0.0026487366 0.002843497 0.0021407928
0.000817999 0.0021174387 0.0013248367 0.0010323081 0.002329107 0.0012746318 0.0010036174 0.0033767857
0.0018731409 0.0030085638 0.001985714 0.001190306 0.0036521675 0.0052583585 0.0015654549 0.0033973716
0.002581971 0.0012053236 0.0009860351 0.0010369347 0.001044987 0.0018360307 0.0040903008 0.0018584152
0.0029496283 0.0011750951 0.0017210494 0.0014317574 0.0016261039 0.00096223893 0.002211131 0.001826674
0.0018797675 0.0010418394 0.0019398438 0.001313966 0.0012248298 0.001580985 0.0021961106 0.0018951625
0.0028213132 0.0030950133 0.0012825434 0.001594265 0.0028920847 0.0017299736 0.0017643477 0.0023439475
0.0014423917 0.0026185485 0.0010809981 0.002021203 0.0011348098 0.0009742006 0.0011725082 0.0021872963
0.0020826512 0.0014770611 0.0016633627 0.0015454347 0.0026846924 0.0018569466 0.0024356009 0.0018654529
00000000: 6dd8 d73a 1bd6 5b3b 28a6 2f3b 2b65 073b
00000010: 864a 2b3b cc33 aa3a 5b84 ac3a a80e db3b
00000020: e5c8 403b eb1c 313b 15ff 453b d5d1 df3a
00000030: b375 e03b 05fa e83b bd65 013b f0ad 843b
00000040: 36a1 e23a b935 c93a 4cb8 bd3a c28e d73a
00000050: 7baa c03a 0508 963b 16a4 803b 0ea6 063b
00000060: bba2 823b 0508 303b 7ff0 f53a 3689 de3a
00000070: b18b be3a cb9a af3a 0b36 043b 0f53 e53a
00000080: 1398 1d3b f62f 913a 5586 2a3b 773c 963a
00000090: bd3b b13a b4fa db3a 9f44 0e3b 675f cb3a
000000a0: 45c2 1b3b 176b 993b a0fc ce3a ae3c e83a
000000b0: cb37 6a3b cf6d 573b 76f1 7c3b 2e29 213b
000000c0: 1a77 143b ca0d 313b b4cb 043b 0ef2 793b
000000d0: a81b ae3a 3f20 883a de76 b03a 636c fd3a
000000e0: 29a6 4c3b cf04 103b 5296 a23a dce7 0a3b
000000f0: 5278 1e3b f01f 6e3b 6e73 5a3b 27c3 193b
00000100: 7580 d13a 1ec4 603b 54da 8a3b 2b48 043b
00000110: ae1b db3a 41bb 2b3b 8976 763b 4257 b13a
00000120: 515e 283b 5a99 b43a da87 9a3a c659 163b
00000130: c039 eb3a ecd7 143b 7990 533b 805a bf3a
00000140: f5d4 0d3b 85e9 653b 0426 d53a 80f0 fb3a
00000150: 6fd9 e33a 9cbf 8f3b 77c2 3e3b a6f9 3c3b
00000160: c69c 7b3b c614 9d3b 6e6e 413b f4ae c83a
00000170: dbdf df3a 5ba0 103b c252 aa3a ec77 083b
00000180: aae8 2c3b 1840 0c3b 5efc d13a 2d07 9a3a
00000190: 3cc0 d03a 70c1 643b e58e da3a 2c8e 103b
000001a0: 87b6 1e3b 13e6 f63a e159 b13a 40ec 313b
000001b0: b18a 873b 5db2 cb3a 8393 473b 792b f03a
000001c0: b7c9 813b 6844 f43a 490a 1b3b 7ad3 863b
000001d0: 09f5 c93a 1a64 863b 8bb0 ce3b 8194 493b
000001e0: cd8f 0b3b 1ca0 c03a 7f82 fd3a 1515 7d3b
000001f0: b399 073b 0ad8 b23b 142f c33a f2fb 303b
00000200: 901f e83a 222a 233b 4b4a 1c3b 13b9 bf3b
00000210: f536 513b 94d6 e23a 50c8 083b 32e7 db3a
00000220: c524 c23a ef90 be3a b7d5 363b bc15 513b
00000230: 9f3c 4c3b a11d 093b b3f4 973b 427f b33a
00000240: db6f 723b 065b 223b 929a e03a b875 123b
00000250: c54d 613b 5d18 bd3a fcbb 973b bb96 f83a
00000260: ae16 333b f962 a63b 3330 1d3b a29b 163b
00000270: a915 413b 5c42 d13a 437e b33a e6d9 333b
00000280: cda8 813b 5395 193b fdab cf3a 55b3 0a3b
00000290: ea38 2d3b bd0e 063b 2663 9d3b fbd2 c63a
000002a0: 14d2 253b 5408 7a3b 586b 2a3b 52e3 ad3a
000002b0: 3416 1d3b f584 853b 059b 5c3b 94c5 2d3b
000002c0: d725 3f3b 0e1e b03b 7932 b43a 68d9 133b
000002d0: d0e6 163b b156 e93a ce3f 1e3b c3ed 243b
000002e0: 515e 043b 8f05 e83a a7b2 1a3b 3dff 823b
000002f0: 725e 443b 6d96 2d3b f759 3a3b 8b4c 0c3b
00000300: fc6e 563a bac4 0a3b 25a6 ad3a 834e 873a
00000310: eea3 183b 8c11 a73a d08b 833a 104d 5d3b
00000320: 2e84 f53a 532b 453b c122 023b 0b04 9c3a
00000330: 3459 6f3b 4f4e ac3b f32f cd3a 70a6 5e3b
00000340: 4936 293b f3fb 9d3a d93d 813a c1e9 873a
00000350: f2f7 883a f8a6 f03a ee07 863b 1196 f33a
00000360: 8d4e 413b a605 9a3a d694 e13a cea9 bb3a
00000370: fe22 d53a c33e 7c3a 9fe8 103b 026d ef3a
00000380: 8862 f63a 548e 883a 5b42 fe3a 6239 ac3a
00000390: 788a a03a 0e39 cf3a 9fec 0f3b 1a67 f83a
000003a0: c8e5 383b b5d5 4a3b 041b a83a a8f6 d03a
000003b0: 2189 3d3b 48c0 e23a af41 e73a ea9c 193b
000003c0: a20e bd3a f49b 2b3b 47b0 8d3a 2976 043b
000003d0: e6bd 943a 7f61 7f3a d9ae 993a be58 0f3b
000003e0: 177d 083b f299 c13a 3105 da3a 2f90 ca3a
000003f0: aaf1 2f3b ca64 f33a 9a9e 1f3b 3682 f43a
