SmallD_SDD_InProgress/out_step5_mrpc_mlp_ipc5_boost0.pth (torch, 94728 bytes, 3 tensors)

module.data.weight f4 [10, 768]
00000000: 5dad 4bbd 81e2 18bd 707c 02bd ae73 8f3b
00000010: 3459 413d eaf4 8a3a 0021 48bc 62ee 63bd
00000020: 53e5 9abc 9108 033d d9e9 45bd cd8b cfbc
00000030: 19c9 78bd e272 163c 3d55 0b3d 993c 203d
00000040: 2328 853b c6e4 63bd 1ac0 0d3c ed5b 41bd
00000050: ec7b 3cbc bdce 92bd 7739 843c 458e 5c3d
00000060: 8e6d 443c 7e21 f6bd 1a5f 013c b0ff f33c
00000070: a8c0 5b3b 6368 a53d d9bd 72bc 0415 37bd
00000080: 5745 a83c ab7a 20bc 3a70 b7bc a7cb 0f3d
00000090: 3120 063d ba60 bf3c d886 c73c b178 2a3d
000000a0: 94ef d03c 99e1 8b3c 468f 96bd def3 1a3d
000000b0: 8049 56bc 7f3f f93d 58a4 f2bc 1756 b5bc
000000c0: 494a 22bd ab78 d23d 3dce cb3d a3e8 f53b
000000d0: 327b bfbc b64e de3c abbb 173d 3218 7bbd
000000e0: 33d3 2abb ff49 4abd 13a4 1f3d 5d37 363d
000000f0: 286e 6abd 2b57 893b 3cec 2b3d 0d95 273b
00000100: 3836 1dbd 7a18 0c3d 86b9 ba3b abc9 7a3d
00000110: 1728 9fbc 62db 83bc fa35 0abd 4899 253d
00000120: 71b5 99bd 92b3 2bbd f513 11bc 6d49 12bd
00000130: 6c5f 8abc c6f7 503d 9e3b f8ba 504e a93c
00000140: ac1f 31bc b393 483d b0ab dbbc df93 f8bc
00000150: 2f8b 253d 809e 3bbc e3d2 163c 163a 32bc
00000160: 2eef 4fbc 7294 aa3d e9a4 d0bd e17e 70bd
00000170: b1b3 64bc 26a7 a9bd ecfd cbbc 8225 4a3d
00000180: c89c 693d f973 aebd b38d c9bc 9f1c 643c
00000190: 2aee a4bd 6912 2dbd ccd1 08bb 87e4 033d
000001a0: ff1f 2bbd 872e b6bc 9e6b 0cbc afff 2f3d
000001b0: 9e41 97bc 2a78 47bd 2780 183c 3959 1cbb
000001c0: 316a d7bb 216f aabd aafd 0a3d 8623 70bc
000001d0: a54d a23d 7370 9a3c 5f35 0fbd 0a70 6bbc
000001e0: 4356 99bb 972b 1abd 4f74 b73d 2a39 a0bc
000001f0: e1e7 143c 9017 c33c 223f 443d 029f b73b
00000200: d2b9 61bd 77f6 3e3b f249 e8bc 1338 e3bc
00000210: 03b2 0fbd 81fd 323d 95d7 faba f485 20bd
00000220: e41e d8bc 23fa acbc 101f 363c 0e73 5fbc
00000230: 4dcb 20bd cea5 fdbc d012 3abc fa4c f43c
00000240: 8881 9d3c 8abd 563c 6592 893c 295a b23d
00000250: ea30 84bc 5483 55bb f3c1 0cbd 27aa 37bb
00000260: 3b8e 04bd cf4b 81bd 396f 9dbd d226 9b3d
00000270: 3343 fdbd b53a fbbc 87e4 743c 24eb f03c
00000280: d10a 323d f88e 403b 145a 283d 8285 30bd
00000290: 443c 6f3d ef5f 1dbd 03ca 5a3d d2be 5a3d
000002a0: ded0 7bbd 2ed4 e33c 6cc1 b13c 120b 5b3d
000002b0: c663 b9bc e2ca 2cbd 3663 a23c 2bb4 4cbd
000002c0: 60c2 e53c a730 10bc 8aba 4c3c 3c87 eabb
000002d0: 36c9 d63c 901b 083c e39a 433d b14c 3e3d
000002e0: d373 b5bc 13b2 44ba f83f fa3c 575f e33b
000002f0: 112c 143b 93a6 55bd 0ccc 6cbd f81f 7fbd
00000300: e567 8fbd eae5 32bd 3c27 d33c 2605 6cbb
00000310: 8dad 173d 6cbd 433d 2cf1 27bd 6ae2 1b3d
00000320: 8f1b 05bd 0c5d 9cbc ab3b 353d 854f 323d
00000330: a603 eb3c c5d8 82bd 2df5 f33c 4aa0 ab3c
00000340: c094 233c 1efd 4a3c ca16 96bb 0a39 71bc
00000350: b0a6 9abd 289e 4f3d ac73 0bbd 90a3 463c
00000360: 8b43 8b3d 8de2 133d 0344 07bd a7b4 b53c
00000370: 762f 9bbc 06e4 b9bc 873f 04bd 59d1 053d
00000380: 83a0 92bc defd 943d 6b4f 323c 3859 cfbb
00000390: a170 0f3c 6a03 c83d 7df5 03bd 8004 9fbc
000003a0: 6741 2cbd 560f 94bd b87b a23b ed0c ba3d
000003b0: 46c0 b7bc 155c 923b 4394 0dbd b523 a0bc
000003c0: 5190 2b3c 50c0 97bd 2ea1 733c 43e5 afbd
000003d0: 9b9e be3d 7804 20bd ec49 5d3c 3b59 9ebd
000003e0: 15f2 69bc 8a86 003d 80da 013d b0a4 4b3d
000003f0: 8a55 15bd 39f8 a1ba 044a b13d 4890 2c3d
-0.04972588 -0.037325386 -0.031856954 0.0043778038 0.04720421 0.0010601555 -0.012214899 -0.05564726
-0.018908178 0.03199059 -0.048318718 -0.025335217 -0.060738657 0.009182664 0.034016836 0.03912029
0.0040636226 -0.055638097 0.008651758 -0.047206808 -0.011504155 -0.071683384 0.016140683 0.053846616
0.0119890105 -0.12018107 0.007896209 0.029785007 0.003353158 0.08076551 -0.014815771 -0.044697776
0.020540876 -0.009794871 -0.022392381 0.035106327 0.032745544 0.023361553 0.02435629 0.041619007
0.025504865 0.017075347 -0.07351546 0.037830226 -0.013079047 0.12170314 -0.02961938 -0.022135777
-0.039621625 0.10276922 0.09951446 0.007504539 -0.023374174 0.027137142 0.03704421 -0.06130237
-0.0026065826 -0.049386974 0.038974833 0.044486392 -0.05723396 0.0041912994 0.041973338 0.002557102
-0.038381785 0.03420303 0.0056983856 0.06122748 -0.019428296 -0.01609582 -0.033742882 0.040429384
-0.0750531 -0.0419193 -0.008854856 -0.035714556 -0.016891204 0.051017545 -0.0018938666 0.020667225
-0.010810774 0.048968982 -0.026815265 -0.030343948 0.04041594 -0.011451364 0.009205553 -0.010878107
-0.012691302 0.08329095 -0.10187704 -0.05871475 -0.013958857 -0.08283834 -0.024901353 0.049352176
0.057034284 -0.08518214 -0.0246037 0.013922839 -0.08053239 -0.042253885 -0.0020877002 0.032200363
-0.04177856 -0.022238983 -0.00857058 0.04296845 -0.018463906 -0.04869858 0.009307898 -0.0023856892
-0.0065739383 -0.083219774 0.03393332 -0.014656907 0.07924966 0.018852448 -0.034963008 -0.014369974
-0.0046794727 -0.037639227 0.08957731 -0.019558508 0.009088487 0.023814946 0.04791177 0.005603672
-0.055108853 0.0029138604 -0.028355572 -0.0277367 -0.035081875 0.04369879 -0.0019137735 -0.039190248
-0.026381917 -0.021115368 0.011115804 -0.013638271 -0.039256383 -0.03096285 -0.011357024 0.029821862
0.019226804 0.013106713 0.01679344 0.08708603 -0.016136605 -0.0032579498 -0.034364652 -0.0028025003
-0.032362204 -0.063132875 -0.0768723 0.07575764 -0.12366333 -0.030667642 0.014947063 0.029408999
0.043467347 0.002938209 0.04110153 -0.043096073 0.058407083 -0.038421568 0.05341531 0.053404637
-0.06147849 0.027811136 0.021698676 0.053477354 -0.022630583 -0.04218567 0.019822698 -0.04997651
0.028046787 -0.008800662 0.012495646 -0.0071572345 0.026218992 0.008307353 0.047755133 0.046459857
-0.022149956 -0.0007503342 0.03054808 0.0069388556 0.0022609273 -0.05216081 -0.05781178 -0.062286347
-0.07002238 -0.043676294 0.025775544 -0.003601381 0.037030745 0.04778807 -0.041001484 0.038057722
-0.032496985 -0.019087337 0.044246357 0.043532867 0.028688263 -0.06389002 0.029779995 0.020950455
0.009984195 0.012389449 -0.0045803534 -0.014723072 -0.07551324 0.05068794 -0.03404586 0.012123957
0.06799992 0.036104728 -0.033023845 0.022180868 -0.01894353 -0.022691738 -0.032287147 0.032670353
-0.017898804 0.07274984 0.0108831925 -0.0063277744 0.00875488 0.09766276 -0.032216538 -0.019411325
-0.04205456 -0.072294876 0.004958596 0.09084497 -0.02243055 0.0044665434 -0.03456522 -0.019548276
0.010471419 -0.074097276 0.014869971 -0.0858865 0.09307595 -0.03906676 0.013506394 -0.07731863
-0.014278908 0.031378306 0.03170252 0.049717605 -0.03645853 -0.0012357301 0.086566955 0.042129785

exp_avg f4 [10, 768]
00000000: f7b3 0539 6483 d1b8 93e1 7539 4528 9139
00000010: aae7 e339 d445 9ab9 8e66 6d3a a170 b4b9
00000020: f8f2 8cb9 8a49 0039 22bb 12b8 3bee 163a
00000030: 5851 6cb8 2482 b93a a435 bd39 60ee 3138
00000040: 253d 4cb8 b485 f2b8 1473 e43a 62cc 80b8
00000050: 5d3d 5f39 6db6 8d3a 7ff2 13b8 5b2d 5bb7
00000060: ad1f b238 e953 0c38 cca1 4c3a 9517 9939
00000070: 0fa0 2139 70d8 2a39 5988 a2b8 7440 823a
00000080: 39bd 3a38 1ac6 bc39 533b e2b8 e3ea 4fb9
00000090: f1fd dd39 bddb 75b9 aaac 14b9 ef43 58b9
000000a0: 0d90 b238 d4a9 483a ee00 383a f4bf 2e39
000000b0: e243 18b7 67b1 a7b9 78b2 6139 119d 2fbb
000000c0: 610a 8837 0461 92b9 8627 8e39 6b08 5239
000000d0: 799d 72b9 6865 78b9 d3b7 fc37 202c c2bb
000000e0: 596d 11bb 8891 32b9 3f6c a5b8 1c1d adb9
000000f0: e83f 67b9 ce1e a238 a0d9 deb9 0350 373a
00000100: 340a 2a36 112e e2ba 015b 253a 96c6 b8ba
00000110: b457 133a ff8f bc37 795f b1ba 3847 ad38
00000120: be5a 4239 57f5 5cb5 b21e c139 1981 19b8
00000130: 1d94 b1b9 dd12 1eb9 3eef 273a c7d0 18b9
00000140: aa1f e439 de2f 1cba 768e 63b7 1dee 81b8
00000150: e774 28b9 254a 9bb8 1972 7339 9622 ca39
00000160: e5a9 34b9 478b 46b9 dca7 3a3a a268 9337
00000170: f759 b0b8 001b 70b8 3530 3cb8 f88a a53a
00000180: 1e2c fab8 6f33 efb9 85e0 08b7 58b8 c5b9
00000190: f861 63b9 7d35 a6b9 75f2 84b9 f79a cd38
000001a0: 65a2 f2b8 c09a 0e39 373d be39 9a57 133a
000001b0: 8a90 38b9 9aa9 2c38 cfb2 be38 11da 37b7
000001c0: 1213 a63a 4488 5638 f0ea 7f39 f025 2b39
000001d0: cf4a 7f3a 40d8 c63a 18ff 37b7 706c 7db8
000001e0: 1094 9c39 3fb3 0bb9 1e7f 1c3a b745 84b9
000001f0: 5a41 f53a 61ac beb9 4c54 fdb8 d8b8 8a38
00000200: a22c 183b e52b 34bb 6e20 453a a135 19b9
00000210: 73a8 74b7 40cc d73a 1971 1fb9 825a d2b8
00000220: e12b bfba ad31 d938 89db d038 77e1 6a37
00000230: 50f7 4c38 fe7f b43a 4710 343a 2c58 ba38
00000240: cf5f 86b9 d44a 94b9 2540 cab8 6d35 ed38
00000250: 24df bab8 7e7c 79b9 a945 6f3a 4e5b f73a
00000260: b890 a2b9 f872 8437 6a72 96b6 9c3b 5db9
00000270: 860e 38b8 a9c5 1bbb 3b9f b53a 7462 0d37
00000280: 425a d539 cf98 dab7 a1ea 9239 715e 52b9
00000290: b4eb 533b 0805 eeba 72de a53a f4e1 d7b9
000002a0: 4efa 6eb7 536b 17b9 2c70 9b39 9b4b a238
000002b0: eb46 d2ba 3580 9639 14fd edb9 3887 2fb9
000002c0: b3f2 473a b4e0 fe37 7c81 ab38 09b6 3539
000002d0: b7be 9739 3f73 e539 a989 1a39 d2aa 93b9
000002e0: 01de 0cba 55a6 41ba aea5 7dba 16e4 21b9
000002f0: 41dd b4b9 f4a7 8eb9 80db 6e3a 30f5 4738
00000300: fb5a 44b8 a133 f4b9 eaeb 82b9 8d95 93b9
00000310: 358f 423a b81d 8dba 1bee 13ba 8dda aeba
00000320: 5207 3f36 12f8 1839 5ddc adba e6d5 01b9
00000330: b6c3 ec38 a53b feb9 b7ca db39 b2f6 4c39
00000340: 629d f6b6 ec41 1b3a 0fc4 a938 2e35 fbb6
00000350: 8ec9 cab8 7e2c 1639 081f e5b8 0226 f9b8
00000360: 560b 4d38 ab0d 84b7 0fa3 0539 736f 9e3a
00000370: d938 2c39 f056 06b9 2de2 263a 3513 09b5
00000380: 2ebf c1b8 fa11 57ba 654e ce38 7782 a5b9
00000390: 7dd9 e339 f1ef 6339 a31d 69b9 95ce 38b8
000003a0: 9d9f 7239 f914 09b9 6a58 3e3a 6d88 51b9
000003b0: 8aba 8e3a 777f 2bba 342d 4ab9 00c9 4eb9
000003c0: 26a0 5d39 8142 58b9 9bd5 5a38 73ae 30ba
000003d0: 40c5 e5b9 441a f139 0e96 7438 63eb 0438
000003e0: 1d6e 86b9 d0ea 0537 1026 e439 9ea5 08ba
000003f0: aece 193a 52e2 1f3a d7db cdb8 6ca8 bc36
0.0001275091 -9.99037e-05 0.00023449054 0.00027686558 0.00043469417 -0.00029425195 0.00090561144 -0.0003441619
-0.00026883907 0.00012234427 -3.4983394e-05 0.0005757545 -5.6342542e-05 0.0014153165 0.00036088855 4.2422093e-05
-4.8694335e-05 -0.000115643634 0.0017429315 -6.141585e-05 0.00021289797 0.0010811813 -3.5273373e-05 -1.3063977e-05
8.4936015e-05 3.345675e-05 0.0007806092 0.00029200004 0.00015413783 0.00016293093 -7.750159e-05 0.0009937421
4.4522083e-05 0.00036005751 -0.0001078757 -0.0001982856 0.00042341606 -0.0002344688 -0.00014178702 -0.00020624672
8.514533e-05 0.0007654701 0.00070191815 0.00016665441 -9.075711e-06 -0.00031984897 0.00021524157 -0.00267965
1.6217296e-05 -0.00027919572 0.00027113798 0.00020030297 -0.00023137582 -0.000236889 3.012634e-05 -0.0059256703
-0.002219042 -0.00017029617 -7.8879755e-05 -0.0003301882 -0.00022053684 7.7305e-05 -0.00042505283 0.00069928187
2.5337913e-06 -0.001725616 0.0006307811 -0.0014097269 0.0005620674 2.24784e-05 -0.0013532481 8.262548e-05
0.00018535086 -8.2313403e-07 0.00036834698 -3.6598274e-05 -0.00033870424 -0.00015075081 0.00064061943 -0.00014573625
0.0004351114 -0.00059580605 -1.3563424e-05 -6.1955514e-05 -0.00016065278 -7.4047864e-05 0.0002321679 0.0003855421
-0.00017229428 -0.00018934636 0.000712035 1.7572489e-05 -8.409091e-05 -5.7245605e-05 -4.486759e-05 0.0012629917
-0.000119291464 -0.00045623953 -8.158507e-06 -0.00037712115 -0.00021684903 -0.0003170184 -0.00025357647 9.804026e-05
-0.000115697076 0.00013599824 0.00036285233 0.00056206586 -0.00017601452 4.116595e-05 9.093212e-05 -1.09584225e-05
0.0012670478 5.1148483e-05 0.00024406216 0.00016321964 0.00097386254 0.0015170649 -1.0967044e-05 -6.042089e-05
0.00029864954 -0.00013322847 0.00059698697 -0.00025228944 0.0018711493 -0.00036368056 -0.000120796816 6.6147826e-05
0.0023219963 -0.0027491983 0.0007519786 -0.00014611195 -1.45827535e-05 0.001646407 -0.00015205554 -0.00010030439
-0.001458522 0.00010356619 9.9591045e-05 1.3999982e-05 4.8867718e-05 0.0013771055 0.00068688806 8.8855944e-05
-0.00025629855 -0.0002828451 -9.6440584e-05 0.00011310992 -8.910734e-05 -0.00023792867 0.00091275066 0.0018871815
-0.00031006872 1.5789163e-05 -4.483668e-06 -0.00021098409 -4.3882545e-05 -0.0023768938 0.0013856658 8.427178e-06
0.00040693773 -2.6058782e-05 0.00028022102 -0.00020062343 0.0032336535 -0.0018159458 0.0012654795 -0.00041176344
-1.4244184e-05 -0.00014440464 0.00029647478 7.7388446e-05 -0.0016042864 0.0002870575 -0.0004539272 -0.00016739673
0.00076274126 3.0383795e-05 8.178034e-05 0.00017329319 0.00028943058 0.0004376415 0.00014737867 -0.00028165296
-0.00053736573 -0.0007387151 -0.0009675872 -0.00015439125 -0.00034497122 -0.00027209485 0.00091116875 4.7673646e-05
-4.6814774e-05 -0.00046577773 -0.00024971302 -0.0002814945 0.0007421852 -0.0010766303 -0.00056430855 -0.001334028
2.8465479e-06 0.00014588263 -0.0013264526 -0.00012382082 0.00011289811 -0.00048491094 0.0004192197 0.00019546857
-7.349693e-06 0.0005922604 8.095067e-05 -7.486574e-06 -9.669653e-05 0.0001432169 -0.00010925351 -0.00011880325
4.8886366e-05 -1.574199e-05 0.00012744612 0.0012087658 0.00016424376 -0.00012811623 0.00063661 -5.1064427e-07
-9.238567e-05 -0.0008204278 9.8374476e-05 -0.00031568456 0.00043458855 0.00021737792 -0.00022231652 -4.4061413e-05
0.00023138379 -0.00013073151 0.00072610995 -0.00019982616 0.0010889333 -0.0006542126 -0.0001928106 -0.00019720569
0.00021135862 -0.0002062414 5.2174186e-05 -0.0006739862 -0.00043825246 0.00045986671 5.8313883e-05 3.1690473e-05
-0.00025640512 7.982089e-06 0.00043515908 -0.0005212667 0.00058672845 0.0006099093 -9.81611e-05 5.6224435e-06

exp_avg_sq f4 [10, 768]
00000000: df43 0a37 77b8 b436 fc9f 8838 bab2 9637
00000010: 4976 033a ca9c 0938 88e1 9238 ef24 8138
00000020: 9aad 8337 b11c 1037 0560 0339 4a5e aa38
00000030: ef13 1936 6ad9 cc39 fdeb 8b39 ca9d 1937
00000040: 301a b936 5a1d 3d36 ec57 4e39 ab36 1f36
00000050: 592a 9236 a66f 8339 d4b9 b536 06a6 2a36
00000060: d0e2 bb37 a007 c936 a0ad 5937 7ca7 a937
00000070: 434d 9b37 1128 0936 0fd4 9136 71fc 7239
00000080: 23fa 8c38 858e 7538 35fd 2c37 81ec f236
00000090: 1eac 7e39 d02a 3737 a0de 8339 e90d dc36
000000a0: f7c7 fe37 69f3 4337 2caa b338 fe79 6c36
000000b0: e400 9036 6d27 6938 f082 1137 cf8b 9e36
000000c0: 1ba3 9137 b944 9937 1ac3 7b37 9052 2c38
000000d0: fd95 6538 b8de 7138 1b31 5037 bdf2 0639
000000e0: e96a b639 7a9c ce36 26bf a136 4585 3539
000000f0: 816b 5437 51a5 3838 b024 1e38 cc8b 2638
00000100: 0efa fa35 7daf f638 40ee 2038 e847 a03a
00000110: 4be7 6c39 10b0 7c36 7e34 793a 1cbb 1238
00000120: 4632 253b ea58 3b36 58d1 fe37 bc57 5336
00000130: b6a3 2438 f1b1 3737 d039 ea37 dc4e 3139
00000140: 7a5a 9636 0fb1 a03a f2b7 5436 ce7c 9136
00000150: 46dc 2338 4996 6037 8fe1 8938 b6de a038
00000160: ba9a c336 e3dc ff36 7e56 0438 ed60 2536
00000170: c2b7 1d36 7226 7036 ed80 8e36 b264 3738
00000180: c11c db36 73d2 b537 2363 be36 5aa4 0038
00000190: 07f8 6636 935d 7037 e1a0 0539 cc61 e037
000001a0: 36af 7b36 471c 3a38 0cc9 d837 a2b0 1c3a
000001b0: d596 4037 98c8 163a e465 7136 aa3e 2937
000001c0: 21b2 0c3b 2213 8c37 8a05 1e37 fa90 3139
000001d0: 0bf5 0b39 9e5c 553a d25f e936 91bb 6037
000001e0: dc9a a236 9329 0138 6be1 b638 e7c5 a437
000001f0: ddfc 4e3a c946 1b3a 7eb7 8f37 6244 6a36
00000200: 3eed 5c3a 83f1 673a a41f bd38 26af 4338
00000210: 6098 8436 e73a b33a 33d1 b736 761a 1238
00000220: 0717 063a 03d9 9e37 9a33 ac36 bc34 ad36
00000230: 1d44 9538 7257 2e3a 0f03 233b c509 3a39
00000240: 688b 3d38 5678 7e38 ddd4 d436 dd57 6937
00000250: f29e db36 31e8 1038 2bea c638 2f74 033a
00000260: 1d0f 3f39 2585 6936 cf50 4d36 85d0 2637
00000270: 4e45 7f36 d591 3c39 c9f2 1f39 f458 2237
00000280: 01ae 7c3a a533 4836 7ac4 f237 22ff ce36
00000290: c4da 583a cb60 003b 7b5e 1739 cc64 fd36
000002a0: dd4c ff36 5be6 d136 bd23 7139 338a 3036
000002b0: d39d 5e39 5294 eb38 a584 3738 ce07 3936
000002c0: ba88 7338 24dc 3e37 ae55 9036 181e dc39
000002d0: 0004 8b37 c283 8638 22ed 5c36 91de 8d37
000002e0: aaa1 0239 ea14 4139 88a6 c439 bcab 3938
000002f0: bb37 5438 60fa c237 da31 5739 ded9 dd37
00000300: 79bb 8436 efc6 8737 922e 4d39 0993 8c36
00000310: e70a a938 67cb c038 cf9e bb38 5228 ee39
00000320: 771f 8c37 4506 4838 95f1 7b38 f25a 1c37
00000330: 6200 1e36 fadf 1737 9b79 dc36 19b8 b238
00000340: 5515 1a38 0471 c738 55eb b636 0d68 0737
00000350: 84c4 1437 a141 a238 7f1e 0637 b6ba c536
00000360: bc06 0a38 aa7e 7636 6495 1b3a 2f1b 9139
00000370: 95e4 8f37 e544 b536 97a7 4339 f2a0 3b38
00000380: 76b3 2b36 87d5 e038 11eb b237 461f 7c38
00000390: 5588 1939 7f76 a536 6d31 a438 e4fd d136
000003a0: 3e89 ad37 0489 0d37 3559 9538 b300 9937
000003b0: 61a2 8f3a 0311 943a 23a6 5237 0fe7 d637
000003c0: f583 aa36 d84a 1637 8e6b 9637 2778 3637
000003d0: 228d ed37 0f99 e637 d460 1837 6be8 1136
000003e0: 15d8 6e37 4694 5236 c0ea 153a c86c 0639
000003f0: 6083 8837 9a63 cf38 bdc3 5f37 0aa9 9936
8.241243e-06 5.3858926e-06 6.514785e-05 1.796462e-05 0.0005014879 3.2809367e-05 7.003831e-05 6.158079e-05
1.5697256e-05 8.589749e-06 0.00012528904 8.1237944e-05 2.281038e-06 0.00039071898 0.0002668797 9.156249e-06
5.5164783e-06 2.818028e-06 0.00019678444 2.3724667e-06 4.356069e-06 0.00025069452 5.4158536e-06 2.5428612e-06
2.2397755e-05 5.9911545e-06 1.2974633e-05 2.0224361e-05 1.8513418e-05 2.0437913e-06 4.3460236e-06 0.0002317296
6.722312e-05 5.8545284e-05 1.0310953e-05 7.2396947e-06 0.00024287446 1.0917618e-05 0.00025152136 6.5581303e-06
3.0372275e-05 1.1679579e-05 8.567082e-05 3.523775e-06 4.291638e-06 5.5588247e-05 8.67316e-06 4.725043e-06
1.7361299e-05 1.8271023e-05 1.50061915e-05 4.1084888e-05 5.4737542e-05 5.76663e-05 1.2409199e-05 0.00012869663
0.000347934 6.1574947e-06 4.8204265e-06 0.00017311152 1.2661215e-05 4.402298e-05 3.7704303e-05 3.970768e-05
1.8699227e-06 0.00011762881 3.836886e-05 0.0012228461 0.00022592877 3.7653408e-06 0.0009506418 3.498337e-05
0.0025206967 2.7916926e-06 3.0376643e-05 3.1492518e-06 3.9253115e-05 1.094908e-05 2.7921895e-05 0.00016909413
4.480881e-06 0.0012259799 3.1697532e-06 4.335866e-06 3.9067374e-05 1.3386431e-05 6.5746826e-05 7.670878e-05
5.8294654e-06 7.625307e-06 3.1551805e-05 2.4643334e-06 2.3501784e-06 3.5785165e-06 4.2469387e-06 4.372438e-05
6.530056e-06 2.167488e-05 5.6739823e-06 3.0670642e-05 3.4417042e-06 1.4326902e-05 0.000127438 2.6748421e-05
3.75039e-06 4.437219e-05 2.5842826e-05 0.0005977248 1.147921e-05 0.00057519367 3.5971107e-06 1.0087775e-05
0.0021468478 1.669821e-05 9.4188235e-06 0.00016934043 0.00013347359 0.0008139106 6.955096e-06 1.3395112e-05
4.8460042e-06 3.0794716e-05 8.720424e-05 1.9642479e-05 0.0007895956 0.00059233286 1.7132374e-05 3.4908521e-06
0.0008427686 0.0008847939 9.018116e-05 4.6654743e-05 3.9516453e-06 0.001367417 5.478179e-06 3.4833756e-05
0.00051151257 1.8936122e-05 5.1320067e-06 5.161941e-06 7.117561e-05 0.00066506036 0.002487365 0.00017741982
4.5190944e-05 6.067039e-05 6.342873e-06 1.39083395e-05 6.5452123e-06 3.454852e-05 9.484993e-05 0.0005014566
0.0001822081 3.4797206e-06 3.0594417e-06 9.942921e-06 3.8038302e-06 0.00017983404 0.00015253866 9.6766635e-06
0.0009638966 2.9832383e-06 2.894014e-05 6.16898e-06 0.0008272345 0.0019588943 0.00014435679 7.551722e-06
7.6085403e-06 6.2555023e-06 0.00022996865 2.6306486e-06 0.00021230364 0.000112333 4.3754135e-05 2.757169e-06
5.806305e-05 1.1376138e-05 4.301509e-06 0.00041984092 1.6571954e-05 6.41416e-05 3.2920584e-06 1.691215e-05
0.0001245799 0.00018413705 0.0003750811 4.4267377e-05 5.059664e-05 2.3243192e-05 0.00020522569 2.6446705e-05
3.9557312e-06 1.618589e-05 0.00019567672 4.1894423e-06 8.060579e-05 9.19316e-05 8.946435e-05 0.00045424938
1.6703952e-05 4.7689555e-05 6.0068054e-05 9.319499e-06 2.3544058e-06 9.05245e-06 6.5706677e-06 8.521992e-05
3.673633e-05 9.51011e-05 5.451419e-06 8.070853e-06 8.867242e-06 7.736986e-05 7.994123e-06 5.8927935e-06
3.2908036e-05 3.6730585e-06 0.00059350417 0.00027676809 1.715337e-05 5.4022407e-06 0.00018659081 4.4734166e-05
2.5585446e-06 0.00010720925 2.1328715e-05 6.0110608e-05 0.00014642005 4.931178e-06 7.829336e-05 6.258242e-06
2.0687115e-05 8.436156e-06 7.12149e-05 1.8239347e-05 0.0010958427 0.0011296574 1.2555657e-05 2.5618383e-05
5.0817566e-06 8.958123e-06 1.7931477e-05 1.08760205e-05 2.8318322e-05 2.748941e-05 9.082451e-06 2.1741969e-06
1.4236216e-05 3.1378745e-06 0.00057188794 0.0001281976 1.627364e-05 9.8890814e-05 1.333741e-05 4.579434e-06
