SmallD_SDD_InProgress/out_step5_mrpc_tf_ipc5_try2.pth (torch, 94704 bytes, 3 tensors)

module.data.weight f4 [10, 768]
0.0020419233 -0.08366109 0.0022855524 -0.060140684 0.054975364 0.0626901 -0.0005021454 -0.0540852
-0.035821505 -0.014515437 0.015214566 0.012617993 0.031491958 0.028387474 0.062179018 0.020167628
-0.11582604 -0.078160726 -0.010710328 0.038087115 -0.013034108 -0.07033158 -0.015130262 0.040483665
0.0063242116 0.017817412 -0.031741604 0.036023024 0.09882231 0.06556034 0.029294908 -0.0691114
-0.001662587 -0.051343296 0.04056529 -0.055047102 0.02616401 0.032891963 -0.0071729943 -0.015421105
0.023472255 0.04590657 -0.06842755 0.01362093 0.073859416 0.0622745 -0.06648708 -0.080552064
-0.039822124 0.03634142 0.0115419915 0.05244782 0.023579009 -0.0014642096 0.0018469382 -0.026850065
-0.04184802 -0.02845059 0.042737734 0.06798251 -0.043423984 -0.022674792 0.10572195 -0.051042464
-0.0107548395 0.027586136 0.06970497 0.09882355 -0.036713984 0.09338539 0.012944126 -0.0061953203
-0.051088415 0.018399281 -0.050432153 -0.010501456 -0.012888356 0.05879416 -0.039714545 -0.0028861137
-0.0051405733 0.08684359 -0.015298669 0.022874646 0.08866244 0.005457634 0.05127334 0.041646626
-0.033020947 0.08386599 -0.09550292 -0.050477646 0.006438007 0.01691237 0.049075846 0.035386186
0.040620305 -0.063666254 -0.008593589 0.01554352 -0.072541416 -0.027388904 0.041857537 0.046286535
0.034806114 -0.01862846 0.031683683 0.04035384 0.009040604 -0.021994479 -0.016460272 -0.06051517
0.0251031 -0.06169563 0.01493821 -0.066557646 0.014693649 -0.016622493 0.011066996 -0.018017378
0.064124815 -0.014871521 0.09692474 -0.032723513 -0.0010237822 0.097134225 -0.0060387156 0.011334861
-0.00048152247 -0.047382716 -0.015827378 0.0025121646 0.04653369 -0.03468165 0.041553065 -0.010505309
-0.017658008 0.04034359 -0.03359978 -0.0445844 0.02264017 -0.018690677 0.027736872 -0.035680223
-0.016981129 -0.004221766 0.03170738 0.061275892 0.06444426 -0.00033582243 -0.021363374 0.040199153
-0.035593588 -0.010590644 -0.023957454 0.05345439 -0.0314781 -0.04519219 -0.006023877 0.025812523
0.076116964 -0.010939865 -0.019081786 0.014145531 0.020445678 -0.03143251 -0.0026028475 0.03973234
0.0008337865 -0.033452936 -0.018387228 0.041655187 -0.021069506 -0.032644685 -0.00440506 -0.019967975
-0.0012483741 -0.033544853 -0.11991465 0.0007464255 0.004363527 -0.013466927 0.053728182 0.011713589
-0.020501813 0.015271808 0.024614466 -0.021404762 -0.0066366107 -0.0055721435 -0.011967143 0.013428371
0.014987565 -0.022885712 0.02037097 -0.031591795 0.025447695 0.065069795 -0.02185995 0.056975517
-0.020469243 -0.0058952905 0.041992225 0.018326199 0.027844647 -0.06232797 0.052057847 -0.018737491
0.038205758 -0.0013745608 -0.016174499 0.03567679 -0.06344581 0.023852883 -0.028712468 -0.060116217
0.020104293 0.08552887 -0.054883156 0.05318061 0.053360812 0.0021524066 -0.020771246 -0.04545082
0.049066376 0.00063082244 0.068137474 -0.012842066 0.0066529308 0.045224585 -0.03665337 -0.053746067
-0.0048295367 0.010622975 -0.054345608 0.03673676 0.0063707535 0.019278418 0.0029672969 -0.07824513
-0.06770537 -0.055248927 -0.016457597 0.01120576 0.072479025 0.02016001 0.0043773963 -0.018596914
-0.0003068461 0.013452102 0.0102206 -0.056903895 -0.031026632 -0.0018415161 0.13163124 -0.012230653
00000000: cad1 053b 8156 abbd 35c9 153b 1456 76bd
00000010: d92d 613d ab63 803d 68a2 03ba 7188 5dbd
00000020: 92b9 12bd 28d2 6dbc 8446 793c b3bb 4e3c
00000030: b6fd 003d d98c e83c 6daf 7e3d 9536 a53c
00000040: 3436 edbd bb12 a0bd 5f7a 2fbc 3c01 1c3d
00000050: 038d 55bc 010a 90bd ebe4 77bc 33d2 253d
00000060: 553b cf3b d2f5 913c 7c03 02bd e18c 133d
00000070: 5a63 ca3d 8044 863d e0fb ef3c 478a 8dbd
00000080: 2aeb d9ba 594d 52bd ca27 263d 1279 61bd
00000090: e855 d63c b9b9 063d 700b ebbb cda8 7cbc
000000a0: e348 c03c 8708 3c3d be23 8cbd 522a 5f3c
000000b0: 9b43 973d 8c13 7f3d 612a 88bd 7bf8 a4bd
000000c0: 861c 23bd beda 143d 9f1a 3d3c 86d3 563d
000000d0: c428 c13c b9ea bfba f614 f23a abf4 dbbc
000000e0: d468 2bbd 3611 e9bc c30d 2f3d 6a3a 8b3d
000000f0: 59dd 31bd 7cc0 b9bc c084 d83d e711 51bd
00000100: 1135 30bc 52fc e13c 7bc1 8e3d 0064 ca3d
00000110: 6761 16bd d740 bf3d 9913 543c 1d02 cbbb
00000120: 1642 51bd 17ba 963c f291 4ebd 4d0e 2cbc
00000130: af29 53bc 25d2 703d b8ab 22bd f424 3dbb
00000140: 4172 a8bb 0ddb b13d 45a7 7abc 9c63 bb3c
00000150: a794 b53d f4d5 b23b fe03 523d a795 2a3d
00000160: f940 07bd efc1 ab3d 0997 c3bd a6c1 4ebd
00000170: ebf5 d23b d08b 8a3c c103 493d 1bf1 103d
00000180: 7a61 263d 7463 82bd 20cc 0cbc 40aa 7e3c
00000190: 9890 94bd b25e e0bc cf72 2b3d f396 3d3d
000001a0: db90 0e3d b69a 98bc c0c6 013d 114a 253d
000001b0: 0b1f 143c c42d b4bc b1d7 86bc c1de 77bd
000001c0: 04a5 cd3c 8fb4 7cbd 65bf 743c 604f 88bd
000001d0: a1bd 703c e52b 88bc 5852 353c 2e99 93bc
000001e0: df53 833d aea7 73bc 7a80 c63d 1709 06bd
000001f0: 6e30 86ba 4fee c63d 6be0 c5bb dab5 393c
00000200: da74 fcb9 6114 42bd 6ba8 81bc 21a3 243b
00000210: 1c9a 3e3d 590e 0ebd 8c33 2a3d 761e 2cbc
00000220: 87a7 90bc 523f 253d ec9f 09bd 229e 36bd
00000230: e177 b93c 311d 99bc 7038 e33c 6d25 12bd
00000240: 021c 8bbc bd56 8abb 99df 013d 6efc 7a3d
00000250: 5afb 833d 5311 b0b9 3e02 afbc dea7 243d
00000260: 95ca 11bd 6184 2dbc 6c42 c4bc fef2 5a3d
00000270: 2eef 00bd 721b 39bd f163 c5bb c974 d33c
00000280: 36e3 9b3d 1f3d 33bc 6851 9cbc a8c2 673c
00000290: b27d a73c 60bf 00bd 8994 2abb 61be 223d
000002a0: 7792 5a3a f205 09bd d0a0 96bc a19e 2a3d
000002b0: f599 acbc 6fb6 05bd 5258 90bb e193 a3bc
000002c0: 7ca0 a3ba 5466 09bd d095 f5bd c4ab 433a
000002d0: ebfb 8e3b 63a4 5cbc 1512 5c3d 5aea 3f3c
000002e0: 6bf3 a7bc 9b36 7a3c 47a4 c93c 0a59 afbc
000002f0: ed77 d9bb 8796 b6bb d611 44bc ac02 5c3c
00000300: 678e 753c d17a bbbc 05e1 a63c 6666 01bd
00000310: af77 d03c 5043 853d a313 b3bc 295f 693d
00000320: 1daf a7bc 482d c1bb 0a00 2c3d d320 963c
00000330: 751a e43c 9d4b 7fbd 9c3a 553d 5e7f 99bc
00000340: a47d 1c3d 9b2a b4ba 6280 84bc d321 123d
00000350: e0ef 81bd 1f67 c33c 6936 ebbc 6c3c 76bd
00000360: c2b1 a43c c329 af3d 29cd 60bd e9d3 593d
00000370: de90 5a3d 640f 0d3b 7628 aabc a42a 3abd
00000380: d3f9 483d c75d 253a a98b 8b3d 8767 52bc
00000390: d400 da3b 6a3d 393d d821 16bd d624 5cbd
000003a0: 1741 9ebb fd0b 2e3c 8099 5ebd 4979 163d
000003b0: c1c1 d03b c6ed 9d3c fb76 423b fc3e a0bd
000003c0: 1da9 8abd b34c 62bd 15d2 86bc 5d98 373c
000003d0: e26f 943d 9b26 a53c 4370 8f3b 8e58 98bc
000003e0: 30e0 a0b9 3566 5c3c 4e74 273c 0f14 69bd
000003f0: 902b febc 075f f1ba 57ca 063e 1463 48bc

exp_avg f4 [10, 768]
0.0030758467 -0.008183513 0.009457868 0.01200806 0.0045943693 0.0051498427 -0.0009867584 -0.013920721
0.0009969694 0.0060929256 0.0330254 0.008051224 -0.016240431 -0.017839765 -0.004352998 0.014488961
-0.0036598805 -0.0072719697 -0.007006326 0.0042255768 0.00737908 0.023745662 0.03853319 0.008217132
-0.01470679 -0.018279547 -0.011293983 0.02131953 -0.03303303 0.011681039 0.008898192 -0.026023742
-0.017201418 0.02823115 -0.034155678 -0.018737473 -0.03572615 -0.010648882 -0.0047488934 -0.008099585
-0.024379916 -0.014241036 -0.0025089984 0.013818386 0.0066892235 -0.019877663 0.04833979 0.0076450645
-0.0053170524 0.0024508494 -0.02769913 -0.0035303016 0.012441488 -0.01826574 0.009274479 -0.0045610345
0.009383552 0.0023981303 -0.01307647 -0.03189954 -0.0051403376 -0.013007945 -0.00587384 0.02871017
0.009068425 -0.008972886 0.016022507 -0.015128942 0.022867851 -0.013512221 0.012485249 -0.013215808
-0.036822308 -0.009131273 0.0033959767 0.018687842 -0.0010273753 -0.0047813924 -0.013091869 -0.0036745733
-0.009775559 0.0018213615 0.03003088 0.0053237574 0.0060726334 0.0020193895 0.019222988 0.0050642868
-0.0021009408 -0.013617078 0.020190341 0.012574101 0.006954424 -0.030166252 3.4400286e-06 0.018619128
-0.0119659845 0.015580491 0.011622383 -0.026582446 -0.003290386 -0.008472702 -0.016834548 -0.010533713
-0.00393289 0.00690392 -0.0107855415 -2.8822922e-05 0.0015726355 0.016371546 -0.007266338 -0.011484458
0.009600552 -0.012091571 -0.0012844522 0.004995108 0.0019371925 -0.023705 -0.0059473533 -0.024540273
-0.016334698 -0.029005643 -0.047721706 0.008987887 0.022369362 0.013363264 -0.0008171791 0.0045624794
-0.013057029 -0.011488913 0.02138044 -0.028052015 -0.023020407 0.01761531 -0.0184068 0.009583113
-0.02506064 -0.006215504 0.0073725292 -0.020245139 0.025215847 0.02317757 0.0091116 0.0047562704
-0.0020090116 -0.017683765 -0.012785925 -0.0053746104 -0.0051744613 0.04095842 0.019161869 0.03293952
-0.010334764 0.02107502 -0.02289284 0.0025118387 0.032299563 0.0017318743 -0.02651586 0.003210057
-0.016642516 -0.024281513 -0.018809259 0.00035944738 -0.007056946 0.003545693 -0.013578953 -0.017080624
0.0073484285 -0.050392836 -0.0058195135 -0.010084451 -0.011627858 0.050906487 -0.009101404 0.011705015
0.034360975 -0.016261825 0.019268101 0.026967825 0.03506864 -0.012124223 -0.012480463 0.0076404396
0.0021911827 -0.013059359 -0.007884968 -0.0146236755 0.0034526032 -0.023486653 0.0032391397 -0.0035956914
0.0030030354 -0.020713322 -0.030868933 -0.0051791864 0.003630501 -0.0042355494 0.04238942 -0.017920166
-0.019341055 0.008418397 0.025699442 0.008829491 -0.018556781 -0.01761726 0.0018709274 -0.011419651
-0.008489674 -0.031238561 0.02164263 -0.013486583 0.020186232 0.022030167 0.019273564 0.015903773
0.00868236 -0.0020728665 -0.017068177 0.027601251 -0.047002416 0.0057991766 0.027809411 -0.042566508
-0.005209891 0.015643725 -0.017047444 -0.031583723 -0.0665751 0.0029620125 -0.0031431257 -0.0014723857
0.0022501184 -0.008386939 -0.0019020971 0.033293974 0.024790183 -0.007880856 0.028793877 0.036449727
-0.045131758 0.0015890432 -0.017278377 0.0044583483 0.0015377131 0.010185763 0.01951749 -0.008505549
0.016581777 -0.0091110915 -0.0104542235 0.010748904 -0.024015399 -0.018447736 -0.017740682 0.0026025209
00000000: 2594 493b 2414 06bc 2cf5 1a3c 74bd 443c
00000010: 5d8c 963b 03c0 a83b 1e56 81ba bc13 64bc
00000020: beac 823a 2aa7 c73b a445 073d 48e9 033c
00000030: a70a 85bc b324 92bc 98a3 8ebb 1b63 6d3c
00000040: 9bda 6fbb b449 eebb 5395 e5bb b576 8a3b
00000050: 36cc f13b 4386 c23c fad4 1d3d 26a1 063c
00000060: c0f4 70bc fdbe 95bc 660a 39bc 4ca6 ae3c
00000070: a44d 07bd d461 3f3c b9c9 113c be2f d5bc
00000080: fde9 8cbc 0345 e73c d3e6 0bbd 547f 99bc
00000090: 9555 12bd a678 2ebc 9b9c 9bbb 1fb4 04bc
000000a0: 64b8 c7bc 3c53 69bc 026e 24bb 8366 623c
000000b0: 4631 db3b 7bd6 a2bc f2ff 453d 7383 fa3b
000000c0: ab3a aebb 6e9e 203b 49e9 e2bc a25c 67bb
000000d0: 62d7 4b3c 08a2 95bc fcf3 173c bb74 95bb
000000e0: 78bd 193c f329 1d3b b13e 56bc 18a9 02bd
000000f0: 4770 a8bb 471f 55bc 5779 c0bb 9731 eb3c
00000100: bb93 143c 0303 13bc a241 833c 62df 77bc
00000110: 5c55 bb3c 5d62 5dbc ee8e 4c3c 1e87 58bc
00000120: fdd2 16bd 569b 15bc 098f 5e3b 3f17 993c
00000130: ffa8 86ba 3aad 9cbb 477f 56bc 1cd1 70bb
00000140: ab29 20bc c0ba ee3a 5203 f63c ea72 ae3b
00000150: f1fc c63b bc57 043b 8779 9d3c 51f2 a53b
00000160: f0af 09bb 2a1a 5fbc 3766 a53c 9a03 4e3c
00000170: f0e1 e33b 371f f7bc 3edb 6636 2487 983c
00000180: fa0c 44bc 5145 7f3c cf6b 3e3c 6ec3 d9bc
00000190: 84a3 57bb 16d1 0abc 9be8 89bc 9895 2cbc
000001a0: 79df 80bb 473a e23b d7b5 30bc c1c8 f1b7
000001b0: e420 ce3a 9f1d 863c 761a eebb 4f29 3cbc
000001c0: a24b 1d3c ba1b 46bc 105b a8ba 01ae a33b
000001d0: 65e9 fd3a fd30 c2bc 04e2 c2bb af08 c9bc
000001e0: 58d0 85bc 3e9d edbc d677 43bd ee41 133c
000001f0: f43f b73c 97f1 5a3c f637 56ba da80 953b
00000200: 26ed 55bc fe3b 3cbc 0826 af3c 57cd e5bc
00000210: 4b95 bcbc fc4d 903c dcc9 96bc 7d02 1d3c
00000220: f94b cdbc 6dab cbbb 4295 f13b 22d9 a5bc
00000230: 7791 ce3c e3de bd3c d248 153c 7dda 9b3b
00000240: 9fa9 03bb 8bdd 90bc 0e7c 51bc 801d b0bb
00000250: 878e a9bb 04c4 273d 5af9 9c3c 97eb 063d
00000260: 2453 29bc 85a5 ac3c c489 bbbc a99d 243b
00000270: 8c4c 043d 0f00 e33a ca37 d9bc d25f 523b
00000280: e355 88bc 06ea c6bc e015 9abc 3674 bc39
00000290: f43d e7bb db5e 683b 427a 5ebc aaec 8bbc
000002a0: 16cb f03b b868 4ebd 9eb1 bebb 4139 25bc
000002b0: c582 3ebc 5283 503d 0e1e 15bc 64c6 3f3c
000002c0: 18be 0c3d 8537 85bc 23d8 9d3c a1eb dc3c
000002d0: 22a4 0f3d ada4 46bc db7a 4cbc a75c fa3b
000002e0: f299 0f3b ecf6 55bc f42f 01bc 2498 6fbc
000002f0: 1245 623b 1567 c0bc bf47 543b b1a5 6bbb
00000300: 93ce 443b fcae a9bc d8e0 fcbc 2ab6 a9bb
00000310: b3ed 6d3b 5dca 8abb 87a0 2d3d 50cd 92bc
00000320: 2271 9ebc 51ed 093c a387 d23c 92a9 103c
00000330: 6404 98bc 1252 90bc e839 f53a 7d19 3bbc
00000340: 4618 0bbc 03e8 ffbc e34b b13c d4f6 5cbc
00000350: 995d a53c 9c78 b43c 98e3 9d3c a148 823c
00000360: 7540 0e3c eed8 07bb 90d2 8bbc 051c e23c
00000370: 9b85 40bd 0507 be3b 90d0 e33c 385a 2ebd
00000380: bcb7 aabb 4527 803c 15a7 8bbc ef5d 01bd
00000390: 8758 88bd 531e 423b e6fc 4dbb 11fd c0ba
000003a0: b976 133b 5f69 09bc ca4f f9ba 435f 083d
000003b0: c814 cb3c b51e 01bc 23e1 eb3c 4f4c 153d
000003c0: 14dc 38bd 7147 d03a 628b 8dbc 5617 923b
000003d0: 178d c93a 30e2 263c 25e3 9f3c dc5a 0bbc
000003e0: 82d6 873c b046 15bc 3148 2bbc 2c1c 303c
000003f0: f1bb c4bc b51f 97bc e854 91bc 0e8f 2a3b

exp_avg_sq f4 [10, 768]
0.28208458 6.193071 0.090787046 6.859475 0.86702985 0.26428738 0.47368097 1.5855397
0.04134823 1.3872211 0.40311065 0.8704276 0.05984798 8.340454 0.4412924 0.030247813
0.06354159 0.060344156 2.181878 0.50877136 0.08552681 3.2967575 0.05555526 1.1157694
0.089373074 2.0505054 1.462089 3.9589567 3.1602561 0.6413837 0.08020237 0.14219691
0.032336384 2.3399484 0.3608472 0.5375775 0.052186273 1.9679637 8.343401 1.8285245
0.715079 0.75803477 0.46835834 0.2652731 0.19019917 0.7526042 3.626883 0.05892044
0.030707248 0.53248715 5.6059437 4.8007045 1.2631905 1.5223826 0.07733258 0.15566613
0.55857044 4.1108274 1.8248069 1.0863271 0.6447847 0.08881005 0.54488605 2.1599276
0.5609842 0.06511911 0.095242925 0.052367978 1.4148282 0.027614756 0.021086026 0.03644187
1.184934 0.6940814 0.42738476 1.9273986 3.0429559 0.019335816 0.17084217 1.2874167
0.0744253 4.132779 0.6767919 0.5483883 0.64350307 1.0677596 3.0509868 1.0822253
7.9399276 0.6241827 3.9775343 1.066551 3.1654675 2.0582087 0.43144152 0.16684575
0.9513292 0.92445546 0.9175276 0.08062928 8.306843 2.2861133 3.7233357 0.4146543
7.7111506 2.1077077 0.11314374 5.1519566 2.2220771 1.0771111 1.3891596 6.893205
2.949386 0.7965522 0.05938653 0.31057838 0.36964712 1.2955992 0.21212026 0.045972995
0.982047 0.19643955 0.43149757 4.9098024 3.1718755 4.997671 6.954069 0.07467481
1.980155 0.69573224 0.015113451 0.7505207 1.7621603 3.567063 0.04607121 1.57476
0.23255087 0.06935505 1.5887942 0.95845306 1.7202883 0.18516488 4.340221 0.34924543
0.41604036 0.34134057 0.934054 1.7292981 1.2102244 0.040035363 2.4587843 0.48478264
1.3125615 2.282416 12.029528 1.8961395 2.1643722 6.701366 0.10899012 0.6696412
0.25013387 1.3743507 0.11273979 0.16946441 2.1292233 0.85936815 4.5681524 0.5007634
0.67119175 0.9788859 2.5054586 3.1454816 2.9105494 1.4418044 0.075401016 9.967661
1.1353698 3.8080246 0.3917365 3.1125271 0.8176048 2.4328513 0.82084733 0.25069734
0.03385798 0.043611724 0.9154243 1.2065678 0.69315296 0.08631835 1.7579969 0.056095414
0.36244616 6.344981 0.098078825 4.7519717 2.4295237 0.27964854 0.35717544 0.37682766
0.015737152 2.0278907 0.547972 0.53855246 0.042154353 10.291922 0.5009706 0.13583438
0.05263971 0.06040368 1.9871097 0.44408455 0.080994785 1.6448474 0.31060964 1.3962411
0.44175145 3.1884186 0.35916585 4.938445 2.6667643 0.05988133 0.42912096 0.41701654
0.06629425 2.0961015 0.03822165 0.07104599 0.07101088 2.0019286 9.681524 0.60883427
0.23485108 0.7631731 0.044831805 0.42641717 0.31205994 0.1667557 3.981587 0.2899779
0.26152632 0.762779 4.6190095 4.0545955 2.1755695 2.106674 0.38828814 0.42149428
0.58143854 3.9921331 1.191155 0.9491786 0.8940126 0.06470424 0.29713222 1.8839265
00000000: 646d 903e a32d c640 8fee b93d d280 db40
00000010: abf5 5d3f ad50 873e 5086 f23e f7f2 ca3f
00000020: c35c 293d 7690 b13f 8564 ce3e 58d4 5e3f
00000030: 2823 753d 8072 0541 14f1 e13e 43ca f73c
00000040: 1822 823d 6f2b 773d e4a3 0b40 d73e 023f
00000050: ae28 af3d 13fe 5240 ea8d 633d 88d1 8e3f
00000060: 3b09 b73d 7b3b 0340 bb25 bb3f 8c5f 7d40
00000070: a341 4a40 b931 243f 2441 a43d 119c 113e
00000080: 2873 043d b7c1 1540 f7c0 b83e ae9e 093f
00000090: 46c1 553d 3ce6 fb3f 927e 0541 170d ea3f
000000a0: 6b0f 373f 910e 423f aacc ef3e e0d1 873e
000000b0: 92c3 423e abaa 403f da1e 6840 8f56 713d
000000c0: c48d fb3c 1451 083f e463 b340 5f9f 9940
000000d0: 3ab0 a13f 6fdd c23f 8b60 9e3d f166 1f3e
000000e0: 79fe 0e3f e68b 8340 4693 e93f c40c 8b3f
000000f0: 9c10 253f 0be2 b53d a77d 0b3f 413c 0a40
00000100: a99c 0f3f 2b5d 853d b90e c33d ce7f 563d
00000110: 1719 b53f 5738 e23c 9abc ac3c 1244 153d
00000120: ebab 973f 52af 313f 2dd2 da3e ffb4 f63f
00000130: cabf 4240 2566 9e3c 40f1 2e3e 12ca a43f
00000140: 4b6c 983d ba3f 8440 3c42 2d3f 2d63 0c3f
00000150: 9ebc 243f 59ac 883f 5e43 4340 5c86 8a3f
00000160: e313 fe40 70ca 1f3f ec8f 7e40 be84 883f
00000170: 0597 4a40 b1b9 0340 e7e5 dc3e 9dd9 2a3e
00000180: 4f8a 733f 1da9 6c3f 17e3 6a3f f720 a53d
00000190: d4e8 0441 ae4f 1240 224b 6e40 924d d43e
000001a0: bfc1 f640 afe4 0640 e8b7 e73d d4dc a440
000001b0: 8336 0e40 c7de 893f fbcf b13f 2395 dc40
000001c0: bdc2 3c40 d8ea 4b3f 4a3f 733d 2104 9f3e
000001d0: 6342 bd3e 32d6 a53f 0e36 593e 2e4e 3c3d
000001e0: 6f67 7b3f 7327 493e 40ed dc3e 1a1d 9d40
000001f0: 0200 4b40 ecec 9f40 bc87 de40 1bef 983d
00000200: b875 fd3f 821b 323f 689e 773c 2022 403f
00000210: 788e e13f c34a 6440 2ab5 3c3d bc91 c93f
00000220: d121 6e3e 050a 8e3d 9c5d cb3f 2e5d 753f
00000230: 6832 dc3f dd9b 3d3e 17e3 8a40 4cd0 b23e
00000240: 3e03 d53e 31c4 ae3e 2a1e 6f3f a459 dd3f
00000250: a2e8 9a3f 1ffc 233d b95c 1d40 6e35 f83e
00000260: 0402 a83f 1b13 1240 f278 4041 b3b4 f23f
00000270: 1385 0a40 9771 d640 3636 df3d 9b6d 2b3f
00000280: 8c11 803e b9ea af3f 1ee4 e63d 1488 2d3e
00000290: 3245 0840 8dff 5b3f 4e2e 9240 0832 003f
000002a0: 39d3 2b3f 4498 7a3f 6f59 2040 924f 4940
000002b0: 7146 3a40 0c8d b83f d96b 9a3d 8a7b 1f41
000002c0: cc53 913f adb6 7340 b091 c83e a533 4740
000002d0: 8c4e 513f d6b3 1b40 0d23 523f 675b 803e
000002e0: aaae 0a3d 35a2 323d 3f59 6a3f d070 9a3f
000002f0: 7972 313f adc7 b03d 0b06 e13f 4ec4 653d
00000300: 8b92 b93e 160a cb40 8ddd c83d 2710 9840
00000310: 517d 1b40 182e 8f3e b3df b63e 8eef c03e
00000320: 33eb 803c f6c8 0140 e547 0c3f 93de 093f
00000330: 0baa 2c3d b6ab 2441 9c3f 003f 2b18 0b3e
00000340: bd9c 573d d969 773d 9c59 fe3f 0d5f e33e
00000350: 98e0 a53d 5c8a d23f 3a08 9f3e 07b8 b23f
00000360: 3f2d e23e 0d0f 4c40 96e4 b73e be07 9e40
00000370: 44ac 2a40 2046 753d beb5 db3e 3183 d53e
00000380: 48c5 873d 8726 0640 4e8e 1c3d 8f80 913d
00000390: 276e 913d 991f 0040 86e7 1a41 90dc 1b3f
000003a0: cd7c 703e 505f 433f 8ea1 373d 5a53 da3e
000003b0: 52c6 9f3e 02c2 2a3e 52d2 7e40 fc77 943e
000003c0: c7e6 853e 7c45 433f edce 9340 3fbf 8140
000003d0: 883c 0b40 bfd3 0640 b4cd c63e 19ce d73e
000003e0: 28d9 143f 1c7f 7f40 c477 983f 5efd 723f
000003f0: 02de 643f a883 843d b721 983e 8124 f13f
