SmallD_SDD_InProgress/out_step5_ipc20_s3_tf_adamlr.pth (torch, 371192 bytes, 3 tensors)

module.data.weight f4 [40, 768]
-0.026387563 -0.02638485 0.00797716 -0.062475637 -0.0012343135 0.046265457 -0.04378906 -0.0068702926
0.0050035953 -0.061150927 0.016256815 -0.021763181 -0.054545593 0.02947495 0.055046186 -0.033354614
-0.024110997 -0.03614607 -0.01725813 0.02825405 0.016615506 -0.007663403 0.023600783 0.0043844613
0.00344121 -0.012553793 0.025300397 0.019184966 0.074252866 -0.031765047 0.047418214 -0.035136256
0.030936545 -0.060633875 -0.036398742 0.020183725 0.02288446 0.0005054142 0.04530769 -0.022010084
0.041010108 0.025532674 -0.06081694 -0.02982787 0.010718112 0.009419957 -0.0461324 -0.02517012
0.0073687034 0.047945395 0.031942554 0.06251419 -0.042753346 0.0026515932 0.030296538 0.0063127694
0.0048482716 0.016667215 0.1165443 0.10683809 -0.03014662 -0.04218712 0.09767475 0.016101535
-0.03962634 0.029256012 0.052254505 -0.0105989305 0.0018630393 0.05616927 0.015518433 0.039949328
-0.09379871 -0.008920431 -0.025240138 -0.024084795 -0.081701614 0.07250177 0.058055848 0.048173737
0.01491094 0.049009424 -0.00030696986 0.023942448 -0.037144393 -0.0057952926 0.047365367 0.06548033
0.014846244 0.06361966 -0.08146022 -0.002426469 -0.031903625 -0.047826603 0.04101051 0.029200282
0.03962754 -0.035908215 0.010804873 0.0470447 -0.0649048 -0.027895099 -0.0011673848 0.062170047
0.039580088 0.023978764 0.029344747 0.04908746 0.018804112 -0.05430291 0.063973635 -0.0750864
0.045883164 -0.07180807 -0.01291708 -0.055763166 0.052505575 0.029376337 -0.032451786 0.013434709
0.021194242 0.015054595 0.030173397 -0.009488708 0.021082046 0.055941887 0.008191262 0.042101607
-0.00019506105 -0.021633795 0.0050398833 0.025435908 0.026420098 -0.0016740315 0.07443563 -0.033534348
-0.039377518 0.0809517 0.008349933 -0.012703264 0.062219698 -0.023214497 0.0049050082 -0.013552727
-0.008799533 0.029777305 0.014198089 0.059098434 -0.0053905556 0.05137024 -0.032722075 -0.017308548
0.0009760055 -0.009355802 -0.067273885 0.023254301 -0.017612554 -0.009353541 -0.0032202522 0.0051328717
0.05635731 -0.021946471 0.07521045 -0.08569122 -0.01463216 0.03815015 0.05261198 0.014158019
0.0056959577 -0.037575427 0.022468163 -0.053766157 0.026099544 -0.07843119 -0.015015199 -0.07256679
0.0009890571 -0.07925066 -0.05575932 -0.015700169 0.045099642 0.012274078 0.03730734 -0.033267245
-0.09364101 -0.048686408 0.0824225 0.059439927 0.017337237 0.012832061 -0.05854868 -0.08702237
-0.0005524379 0.046662703 0.0019037633 -0.020467866 -0.041658904 0.052552436 0.008705483 0.06763727
-0.05938129 -0.06451733 0.046498004 -0.008020982 -0.009529572 -0.06403724 0.021363493 0.006645849
0.04046076 0.014262529 -0.03928089 0.018737178 -0.09450019 0.06919664 -0.020091552 -0.067545496
0.057520207 0.025902573 -0.005132468 -0.008885952 0.07641006 -0.07192198 -0.052762408 -0.0034073999
-0.023171164 0.020230884 -0.027609656 -0.018409846 0.006645541 0.014688769 0.017604433 -0.07094629
0.003905158 -0.052388076 -0.051873993 -0.0075090085 -0.03569961 -0.04830265 -0.021308666 -0.009081154
-0.04177119 -0.0983568 0.03414433 -0.006985973 0.010710607 0.015104398 0.031146953 -0.0030870854
0.02559884 0.04598381 0.08383775 -0.024552824 -0.045048863 0.00018435314 0.041704606 0.070598915
00000000: bb2a d8bc 0a25 d8bc a2b2 023c 74e6 7fbd
00000010: b0c8 a1ba d980 3d3d 285c 33bd 3120 e1bb
00000020: 33f5 a33b 6579 7abd 032d 853c b348 b2bc
00000030: 336b 5fbd 7375 f13c 1c78 613d d99e 08bd
00000040: 6d84 c5bc e70d 14bd ec60 8dbc 0a75 e73c
00000050: 3e1d 883c 491d fbbb 6e56 c13c 87ab 8f3b
00000060: ec85 613b 6dae 4dbc c742 cf3c ca29 9d3c
00000070: e311 983d 111c 02bd 9a39 423d 09eb 0fbd
00000080: a36e fd3c 3a5b 78bd d916 15bd 5758 a53c
00000090: 3178 bb3c c67d 043a 8e94 393d 7e4e b4bc
000000a0: 37fa 273d e629 d13c 2f1b 79bd 9459 f4bc
000000b0: 059b 2f3c 2a56 1a3c 54f5 3cbd 9131 cebc
000000c0: 2a75 f13b 6462 443d 32d6 023d 7107 803d
000000d0: 221e 2fbd 5ac6 2d3b 7230 f83c 59db ce3b
000000e0: 40de 9e3b af89 883c c7ae ee3d eecd da3d
000000f0: 0bf6 f6bc 67cc 2cbd b309 c83d 5ee7 833c
00000100: 3b4f 22bd 4eaa ef3c d208 563d 23a7 2dbc
00000110: 3a31 f43a c011 663d 0741 7e3c e8a1 233d
00000120: 8a19 c0bd 0027 12bc 68c4 cebc 7a4d c5bc
00000130: 2d53 a7bd cf7b 943d f8cb 6d3d d351 453d
00000140: 044d 743c 1bbe 483d ccf0 a0b9 f422 c43c
00000150: b824 18bd 70e6 bdbb 3002 423d 8d1a 863d
00000160: a93d 733c 064b 823d 9ed4 a6bd 6505 1fbb
00000170: 60ad 02bd d4e5 43bd a3fa 273d 6e35 ef3c
00000180: 7d50 223d 7e14 13bd ec06 313c f1b1 403d
00000190: cfec 84bd 4384 e4bc ef02 99ba 05a6 7e3d
000001a0: bb1e 223d 1d6f c43c 6564 f03c ef0f 493d
000001b0: 150b 9a3c ba6c 5ebd 9c04 833d e6c6 99bd
000001c0: fcef 3b3d 1c10 93bd 29a2 53bc eb67 64bd
000001d0: 1610 573d a5a6 f03c 2aec 04bd 411d 5c3c
000001e0: 8c9f ad3c 8ca7 763c 332e f73c 8776 1bbc
000001f0: 41b4 ac3c 5223 653d a534 063c bc72 2c3d
00000200: 4d89 4cb9 5b39 b1bc 9b25 a53b f75e d03c
00000210: f66e d83c 2d6b dbba b571 983d 505b 09bd
00000220: 524a 21bd 01ca a53d 28ce 083c 5a21 50bc
00000230: 15da 7e3d 542c bebc 31ba a03b 420c 5ebc
00000240: eb2b 10bc 89ef f33c 1a9f 683c 3311 723d
00000250: 42a3 b0bb 9a69 523d 9507 06bd a8ca 8dbc
00000260: 9fda 7f3a 1449 19bc e4c6 89bd ce7f be3c
00000270: 3448 90bc 983f 19bc de0a 53bb a631 a83b
00000280: ecd6 663d 16c9 b3bc f007 9a3d e17e afbd
00000290: babb 6fbc 5543 1c3d a97f 573d 09f7 673c
000002a0: 28a5 ba3b b1e8 19bd 270f b83c e739 5cbd
000002b0: b6ce d53c 88a0 a0bd 4f02 76bc e69d 94bd
000002c0: 40a3 813a 2c4e a2bd e263 64bd a49d 80bc
000002d0: 67ba 383d 3719 493c 95cf 183d 3c43 08bd
000002e0: dcc6 bfbd 666b 47bd 21cd a83d 4877 733d
000002f0: d206 8e3c 913d 523c bed0 6fbd c938 b2bd
00000300: 7bd1 10ba 6421 3f3d b287 f93a 3aac a7bc
00000310: 87a2 2abd 3941 573d 71a1 0e3c 6985 8a3d
00000320: cc39 73bd a921 84bd b174 3e3d 706a 03bc
00000330: ec21 1cbc f525 83bd 7e02 af3c 6cc5 d93b
00000340: 2fba 253d 62ad 693c 00e5 20bd b67e 993c
00000350: 5189 c1bd f8b6 8d3d 0a97 a4bc 4b55 8abd
00000360: 4f9a 6b3d a231 d43c 432e a8bb 6296 11bc
00000370: e17c 9c3d d54b 93bd 651d 58bd af4e 5fbb
00000380: 74d1 bdbc 3dbb a53c a52d e2bc 3fd0 96bc
00000390: d7c2 d93b 2aa9 703c 2c37 903c 4a4c 91bd
000003a0: aeed 7f3b e194 56bd d379 54bd 210e f6bb
000003b0: c139 12bd 00d9 45bd 838f aebc 1fc9 14bc
000003c0: 4418 2bbd 4a6f c9bd edda 0b3d 97ea e4bb
000003d0: 8b7b 2f3c 7078 773c e527 ff3c b350 4abb
000003e0: a9b4 d13c 8559 3c3d 20b3 ab3d 0123 c9bc
000003f0: 2885 38bd eb4e 4139 73d2 2a3d 2a96 903d

exp_avg f4 [40, 768]
-0.0015541671 0.0071818195 0.0004171751 0.0012951763 0.0017057346 0.0013890648 0.0015114979 0.0033412594
0.0017094649 0.000500075 0.004153923 0.0025162294 -0.0006602476 0.0012251426 0.0011489964 -0.0011595063
0.0011330309 -0.0030039144 -0.0023861947 0.0049140467 0.0020263072 0.0010325356 -0.0051102517 0.0017291403
-1.5461741e-05 -0.0023879756 0.0018061146 -7.122377e-05 0.0027871907 -0.000271065 0.004946438 -0.0015916075
0.0040809624 -0.0007501441 0.00065154355 -0.0013008409 -0.0029860942 -0.0011339737 0.0030373062 -1.8547546e-05
0.0008896941 0.0011162849 -0.0008995305 0.001130361 0.001750219 -0.006250396 0.0028521197 -3.8356127e-05
0.0014787785 0.0008233724 -0.0065081576 0.00048903475 -0.00069328793 9.550938e-05 -0.0029199861 -0.0021454722
-0.0008422245 -0.0031376905 0.0016895623 4.016809e-05 -0.0029139677 -0.0056677456 0.001081284 0.0023487885
0.0018779654 -0.0021279966 -0.0069277543 -0.0028602881 0.003786288 0.005336985 0.0041697617 0.0016613137
-0.0023068534 0.00063250493 -0.003834189 0.00022756853 0.0022933714 -0.0055162725 0.000634295 -0.0026761477
0.0044686175 -0.0040928284 0.0026908342 -0.00021054795 -0.0022964694 -0.0013683168 -0.0010379017 0.008089859
0.0008697385 0.001762349 -0.0011621 0.00082404254 -0.0018778088 -0.0042079794 0.00455967 0.0017448543
0.0027594361 -0.0011838982 0.0015424964 -0.005582922 0.00012650764 0.0021011033 0.00073578756 0.0013059562
0.0002818707 0.00021516519 0.0018266379 0.0047437325 -0.0035898047 0.0014244446 0.0013983939 -0.002892901
0.0019692974 -0.0015587524 0.0017281958 0.0020514363 0.0025646493 -0.0006627667 -0.003272122 0.0016563415
-0.006164645 -0.0039663645 0.00059514603 -0.0038260869 0.0022533094 0.0007818354 -0.00081081537 0.0012394226
-0.0015324896 -0.0048322296 0.0043239472 -0.003995214 0.00029782357 0.00036487856 0.0014951018 -0.00055466633
0.0008261173 0.0025613934 -0.0026189247 0.00026159696 0.0032624297 0.0033975635 -0.002950872 0.0009523729
-0.003689399 -0.0022519433 -0.003090915 0.0010899093 -0.002948613 0.0028168678 -0.002004454 0.002343085
0.0022865536 0.0041658008 0.0008169563 -0.0042902315 -0.0019031768 0.000119740376 -0.0032632896 -0.0014832135
-0.0014278492 -0.00031973424 0.00100192 -0.0012277191 0.0022537115 -0.00084323226 0.0046552517 -0.0008396143
-0.005257438 -0.00095808774 -0.0020125317 -0.0002828891 0.0011166057 -0.003192885 -0.004021344 0.003335623
0.0023442258 -0.001979697 0.0042955815 -6.1345985e-05 0.0049971202 -0.003346119 -0.0009329527 0.019905744
-0.0013084504 0.0021752585 0.0017549272 0.0012266027 -0.00045067075 0.0020872517 -0.0045907875 0.003214748
-0.0016405024 0.005057875 -0.0010243844 0.00083280547 -0.0034157957 0.00024227402 0.0015057175 -7.559334e-05
-0.00100515 4.601307e-05 9.1752765e-05 7.3332725e-05 0.0008151521 0.0019558568 0.0022101603 0.00021045114
-0.00088428846 -0.00010788625 -0.00034732 0.0026446409 0.0029251843 -6.3578e-05 -0.0025330475 0.00405457
0.0009409272 -0.0028959832 0.0011153931 -0.00018302299 0.0014589503 0.00015110691 0.0007217046 -0.0015333736
-0.0053348755 -0.0028154016 0.0004027449 -0.0007256537 -0.0022553357 -0.0028567843 -0.0013071828 0.0035499847
-0.000108741835 0.0019829331 -0.0019152996 0.0004420023 0.0013733698 -0.0016571826 -0.00096517726 -0.0026064948
0.00026827987 0.00010272249 -0.00279118 0.0022046964 0.0021739819 3.0646315e-05 0.00026859835 -0.004478775
-0.00024005941 0.0009593117 0.0034230151 0.0011531721 -0.00037213182 -0.001834642 -0.0007951435 0.0013667897
00000000: 32b5 cbba 7855 eb3b 4bb8 da39 e8c2 a93a
00000010: f592 df3a 4811 b63a 741d c63a 08f9 5a3b
00000020: 2010 e03a 7717 033a a21d 883b 53e7 243b
00000030: 7714 2dba f794 a03a ec99 963a 93fa 97ba
00000040: 3582 943a 52dd 44bb b461 1cbb 0306 a13b
00000050: cbcb 043b 2556 873a e673 a7bb 52a4 e23a
00000060: d6b3 81b7 957f 1cbb 26bb ec3a f85d 95b8
00000070: 4da9 363b ba1d 8eb9 bb15 a23b 7c9d d0ba
00000080: 98b9 853b 52a5 44ba 59cc 2a3a fa80 aaba
00000090: 59b2 43bb d8a1 94ba 8b0d 473b 8d96 9bb7
000000a0: 5c3a 693a 4e50 923a 78ce 6bba 9f28 943a
000000b0: 9b67 e53a 1fd0 ccbb a1ea 3a3b 94e0 20b8
000000c0: 93d3 c13a 96d7 573a 6242 d5bb 9132 003a
000000d0: c4bd 35ba 354c c838 3d5d 3fbb 0d9b 0cbb
000000e0: bbc8 5cba b6a1 4dbb 4e74 dd3a 297a 2838
000000f0: 44f8 3ebb 7fb8 b9bb dfb9 8d3a 22ee 193b
00000100: 1026 f63a dc75 0bbb 3702 e3bb ac73 3bbb
00000110: 5f23 783b e0e1 ae3b 7fa2 883b 70c0 d93a
00000120: 942e 17bb b0ce 253a 0447 7bbb 769f 6e39
00000130: 634c 163b d9c1 b4bb d146 263a 4f62 2fbb
00000140: 7b6d 923b 221d 86bb b558 303b 89c6 5cb9
00000150: 5d80 16bb 1859 b3ba 340a 88ba 548b 043c
00000160: 2aff 633a 9ffe e63a 9b51 98ba 8f04 583a
00000170: cf20 f6ba 17e3 89bb 4969 953b 98b3 e43a
00000180: a8d7 343b 082d 9bba 972d ca3a f2f0 b6bb
00000190: 23a7 0439 aab2 093b dee1 403a 9e2c ab3a
000001a0: 0cc8 9339 f79d 6139 cc6b ef3a 5071 9b3b
000001b0: ee42 6bbb 6eb4 ba3a 504a b73a d396 3dbb
000001c0: 540f 013b 0d4f ccba a184 e23a 6471 063b
000001d0: ad13 283b 85bd 2dba 1971 56bb 9919 d93a
000001e0: ca00 cabb 47f8 81bb 9303 1c3a 16bf 7abb
000001f0: 42ac 133b 16f4 4c3a e68c 54ba 1f74 a23a
00000200: d1dd c8ba ae57 9ebb e6af 8d3b 49ea 82bb
00000210: 3425 9c39 2c4d bf39 4bf7 c33a 0767 11ba
00000220: cb8f 583a 0ddd 273b 44a2 2bbb f326 8939
00000230: 7dce 553b a8a9 5e3b 6b63 41bb aaa8 793a
00000240: d8c9 71bb 5795 13bb f390 4abb 4adb 8e3a
00000250: 843d 41bb 339b 383b 285d 03bb 718e 193b
00000260: 01da 153b 4581 883b 0229 563a 1295 8cbb
00000270: 0474 f9ba 201d fb38 eadc 55bb 6368 c2ba
00000280: ab26 bbba 01a2 a7b9 db52 833a 6beb a0ba
00000290: 01b3 133b 5c0c 5dba 158b 983b 9019 5cba
000002a0: 9646 acbb 2e28 7bba aee4 03bb bb50 94b9
000002b0: 125b 923a b93f 51bb 7ac5 83bb 789a 5a3b
000002c0: 95a1 193b cebd 01bb f3c1 8c3b e0a6 80b8
000002d0: e2be a33b 904a 5bbb 6591 74ba 5f11 a33c
000002e0: 4f80 abba c88e 0e3b 9605 e63a f5c5 a03a
000002f0: 0148 ecb9 46ca 083b 516e 96bb 86ae 523b
00000300: 2006 d7ba 88bc a53b a344 86ba a150 5a3a
00000310: 8bdb 5fbb f00a 7e39 7f5b c53a de87 9eb8
00000320: 3dbf 83ba 28fe 4038 646b c038 35ca 9938
00000330: eeaf 553a d52d 003b 56d8 103b 8cac 5c39
00000340: 98cf 67ba fd40 e2b8 8018 b6b9 b651 2d3b
00000350: 73b4 3f3b 2e55 85b8 7c01 26bb 33dc 843b
00000360: 8ea8 763a 89ca 3dbb 6232 923a dce9 3fb9
00000370: 403a bf3a 7472 1e39 c730 3d3a 7bfb c8ba
00000380: 2ed0 aebb 9a82 38bb 8127 d339 cc39 3eba
00000390: 41ce 13bb e338 3bbb c755 abba dca6 683b
000003a0: 540c e4b8 19f4 013b ca0a fbba 8bbc e739
000003b0: a502 b43a d235 d9ba f303 7dba bad1 2abb
000003c0: eaa7 8c39 b86c d738 3bec 36bb ab7c 103b
000003d0: 5d79 0e3b 3b8a 0038 a9d2 8c39 b0c2 92bb
000003e0: 75b8 7bb9 527a 7b3a aa54 603b 0926 973a
000003f0: b01a c3b9 5f78 f0ba 2d71 50ba da25 b33a

exp_avg_sq f4 [40, 768]
0.008684268 0.0042309724 0.009085539 0.05340411 0.0077307485 0.02455841 0.0055345804 0.012222201
0.006699083 0.01264938 0.004651213 0.034393545 0.008172001 0.016045118 0.0034802172 0.0018954173
0.0068393964 0.003288329 0.012257132 0.008256179 0.0024177912 0.023457369 0.0073468373 0.0020295144
0.010426012 0.025665965 0.049421944 0.0017768516 0.0016544431 0.013905914 0.02433805 0.0032348388
0.009443111 0.013587189 0.030933036 0.011078331 0.013181311 0.010226089 0.017295696 0.002525298
0.008632929 0.0028726775 0.0053499863 0.0014666211 0.008884569 0.0075214338 0.003652374 0.003203451
0.029578285 0.01682848 0.008920329 0.00845686 0.0066067027 0.006932992 0.0042800684 0.0034774852
0.010016962 0.003459608 0.0035451239 0.03575823 0.0032446494 0.009783634 0.0026102623 0.015846303
0.002329141 0.025898898 0.0111858975 0.010988555 0.003658932 0.005826723 0.01050471 0.0017204696
0.0041088997 0.01997671 0.016689578 0.0021683662 0.024315717 0.0057518994 0.0070129195 0.003779728
0.01194147 0.006131784 0.015534103 0.028472317 0.008277067 0.0058784154 0.0072213267 0.004704494
0.007720394 0.023044351 0.0035127166 0.0035048355 0.006620659 0.027012281 0.016564148 0.02296597
0.03352929 0.023372902 0.0008595044 0.015270943 0.019507693 0.008636593 0.0066768047 0.0024890215
0.0570059 0.0060317577 0.007479633 0.0057142745 0.0028623915 0.016582778 0.004539307 0.003080902
0.0137185585 0.0011906644 0.024673503 0.0016580872 0.006051703 0.001275819 0.0053159795 0.0038096025
0.0066722957 0.022997592 0.004152618 0.011171416 0.004489108 0.0033473682 0.0021077218 0.0053970483
0.018842017 0.015074375 0.013023247 0.013214945 0.004011577 0.0021718005 0.012643798 0.012677479
0.0023965845 0.004850029 0.0011527645 0.0259576 0.0047425427 0.002974906 0.037602358 0.013918403
0.007344329 0.022596788 0.007913448 0.0044918815 0.055285055 0.0036424184 0.005229365 0.018804189
0.029521937 0.011234187 0.0120983645 0.007503199 0.008560943 0.005155917 0.002441647 0.0030879197
0.002523935 0.0017997066 0.005938601 0.0012855255 0.007262726 0.010637981 0.0026215364 0.013217736
0.023463478 0.00680565 0.00303415 0.0015558141 0.054278832 0.013204179 0.0064442316 0.0030581485
0.022414701 0.022497566 0.013280975 0.003842978 0.044866655 0.017297875 0.018928286 0.039091848
0.004220507 0.021182537 0.02349095 0.026399966 0.0021369357 0.0065937527 0.0031570895 0.005416679
0.0054670214 0.009758338 0.0067920634 0.04415405 0.0060274834 0.019373542 0.0036031755 0.005811861
0.0079086935 0.0089646615 0.007754787 0.023392754 0.008569428 0.012236251 0.0012270316 0.0012875629
0.0115280915 0.0016660136 0.013896038 0.009100681 0.0021436329 0.023583308 0.0067798914 0.0028264597
0.0020038467 0.010968166 0.033762492 0.0013777423 0.0011214388 0.005601823 0.020336872 0.0013686162
0.0099606 0.006289583 0.036720105 0.013942388 0.009587409 0.017844697 0.033318162 0.0035061568
0.012225174 0.00076259254 0.00924077 0.0019615272 0.007829273 0.0018944584 0.005574948 0.0032531794
0.0237239 0.020832129 0.008824066 0.010052123 0.0061697676 0.01433635 0.0025712028 0.0010127234
0.0014783775 0.004558822 0.0057341247 0.0462965 0.005402914 0.008142343 0.0038743683 0.027366182
00000000: 7648 0e3c f8a3 8a3b 83db 143c 45be 5a3d
00000010: 3852 fd3b b82e c93c 6d5b b53b a03f 483c
00000020: fb83 db3b 583f 4f3c 3469 983b 3fe0 0c3d
00000030: dbe3 053c 0d71 833c 5b14 643b a76f f83a
00000040: 041d e03b 0281 573b 23d2 483c ed44 073c
00000050: ce73 1e3b ab29 c03c bdbd f03b 9a01 053b
00000060: ddd1 2a3c 6e41 d23c aa6e 4a3d 3fe5 e83a
00000070: e6d9 d83a a1d5 633c 9760 c73c 97ff 533b
00000080: 47b7 1a3c cd9c 5e3c 4767 fd3c e381 353c
00000090: 6df6 573c 538b 273c b4af 8d3c 787f 253b
000000a0: 2171 0d3c 8843 3c3b f04e af3b a33b c03a
000000b0: 9590 113c 5c76 f63b ab5c 6f3b fdf0 513b
000000c0: 294e f23c e1db 893c 9226 123c a48e 0a3c
000000d0: 0a7d d83b 272e e33b d13f 8c3b 85e6 633b
000000e0: 2f1e 243c 97ba 623b 4f55 683b 3977 123d
000000f0: 2fa4 543b 894b 203c ef10 2b3b 1bd0 813c
00000100: 80a4 183b ed29 d43c 0e45 373c 5709 343c
00000110: b1ca 6f3b 18ee be3b f21b 2c3c 6181 e13a
00000120: f3a3 863b 33a6 a33c 95b8 883c 261b 0e3b
00000130: c131 c73c 6e7a bc3b a2cc e53b 50b5 773b
00000140: 28a6 433c 22ed c83b c082 7e3c c73e e93c
00000150: 899c 073c b99f c03b e1a0 ec3b 2828 9a3b
00000160: 5cfb fc3b 82c7 bc3c 9b35 663b 62b1 653b
00000170: 1df2 d83b dc48 dd3c 89b1 873c 2123 bc3c
00000180: 0256 093d 8778 bf3c 5d50 613a fa32 7a3c
00000190: 99ce 9f3c 7f80 0d3c 19c9 da3b da1e 233b
000001a0: 057f 693d 0da6 c53b b617 f53b cf3e bb3b
000001b0: f696 3b3b 9bd8 873c 78be 943b f5e8 493b
000001c0: cec3 603c 1110 9c3a 1620 ca3c 2d54 d93a
000001d0: 5d4d c63b 6239 a73a ab31 ae3b 86aa 793b
000001e0: 46a3 da3b 7265 bc3c af12 883b 5108 373c
000001f0: 5e19 933b 855f 5b3b b421 0a3b b9d9 b03b
00000200: 935a 9a3c 83fa 763c 755f 553c 7f83 583c
00000210: 8c73 833b c454 0e3b ef27 4f3c 33b5 4f3c
00000220: 0410 1d3b feec 9e3b 5c18 973a 08a5 d43c
00000230: 5567 9b3b a4f6 423b ee04 1a3d 030a 643c
00000240: b2a8 f03b e61c b93c 68a7 013c a230 933b
00000250: 9572 623d a4b5 6e3b 185b ab3b 3e0b 9a3c
00000260: fdd7 f13c 980f 383c 3838 463c 65dd f53b
00000270: 3343 0c3c f7f2 a83b 0a04 203b b25e 4a3b
00000280: 9a68 253b 22e4 eb3a 9998 c23b 147f a83a
00000290: 29fc ed3b ed4a 2e3c 15ce 2b3b 348f 583c
000002a0: 7b36 c03c ee01 df3b 97d8 463b 75ec cb3a
000002b0: 7b53 5e3d 5756 583c 222a d33b 386b 483b
000002c0: 099f b73c d14c b83c 7298 593c 79da 7b3b
000002d0: 19c6 373d 46b4 8d3c 7e0f 9b3c c61e 203d
000002e0: 2e4c 8a3b 0087 ad3c 1870 c03c be44 d83c
000002f0: d50b 0c3b 6810 d83b 2ce7 4e3b 667e b13b
00000300: b324 b33b 70e1 1f3c f58f de3b e1da 343d
00000310: 3282 c53b 43b5 9e3c 4123 6c3b 6c71 be3b
00000320: 7793 013c 84e0 123c de1b fe3b 29a2 bf3c
00000330: c966 0c3c 8e7a 483c 59d4 a03a 71c3 a83a
00000340: 52e0 3c3c 245e da3a 35ac 633c 061b 153c
00000350: 317c 0c3b c831 c13c da29 de3b 203c 393b
00000360: f852 033b d3b3 333c 8a4a 0a3d 5c95 b43a
00000370: 3efd 923a 7f8f b73b 8399 a63c 2463 b33a
00000380: c931 233c d918 ce3b d267 163d 9d6e 643c
00000390: 8214 1d3c 0b2f 923c a078 083d 8dc7 653b
000003a0: 194c 483c b8e8 473a 9966 173c f78c 003b
000003b0: 5a46 003c 7a4f f83a 0eae b63b 4b33 553b
000003c0: a058 c23c 24a8 aa3c d192 103c a9b1 243c
000003d0: c32b ca3b 03e3 6a3c a081 283b 5cbd 843a
000003e0: 1ec6 c13a 2c62 953b 53e5 bb3b 66a1 3d3d
000003f0: ed0a b13b 7667 053c 1de9 7d3b 0b2f e03c
