SmallD_SDD_InProgress/out_step5_debug_ipc25_beta0.pth (torch, 463344 bytes, 3 tensors)

module.data.weight f4 [50, 768]
000000 36 65 35 3c 7f 88 81 bd a6 93 49 3b ec 0a 0a bd
       0.011071494 -0.06324863 0.0030758171 -0.033701822
000010 37 6a 9a 3d 03 76 20 3d 2b 1d 5c 3c bf 4e 0d bd
       0.0753979 0.039175045 0.013434689 -0.034498926
000020 48 45 c1 ba 99 3c 4a bd f5 10 a9 bc e5 40 59 3c
       -0.0014745379 -0.049374197 -0.020637969 0.013260101
000030 b5 8b cf bb 55 3a db 3c 33 93 f1 3c 84 a0 65 bd
       -0.006333793 0.026761213 0.029489135 -0.056061283
000040 56 e5 c1 bd 7f 36 b3 bd ff 8d 2c 3c 31 a6 a3 bb
       -0.094675705 -0.08750629 0.010531901 -0.004994177
000050 1a 1c 9e 3c 18 46 03 bd 21 66 a6 ba 18 73 e9 3c
       0.01930051 -0.03204927 -0.0012695232 0.028497264
000060 e3 f6 10 3d b8 99 10 bd b3 d7 eb bb a3 e7 5c 3d
       0.0353917 -0.035302848 -0.007197344 0.053931843
000070 ff 57 ac 3d d8 55 5b 3d 81 b7 d8 3c d0 f3 21 bd
       0.084152214 0.053548664 0.026454689 -0.03953916
000080 36 c6 a6 bc 45 e1 2d 3b cc 87 eb bc a6 ac 8e 3c
       -0.020358186 0.0026531976 -0.028751276 0.01741631
000090 1a a1 d7 3c 57 60 f3 3b e5 94 5a bc 7f 01 46 3d
       0.026321936 0.007427256 -0.013341163 0.04834127
0000a0 02 4f e6 3c 07 4a 60 3d d9 d3 65 bd b2 e3 ec ba
       0.028113846 0.054758098 -0.056110237 -0.001807323
0000b0 4e 14 08 3c 4a 2f a0 3d 1e ab 27 bd b4 f4 d5 bc
       0.008305622 0.0782152 -0.040934674 -0.02611766
0000c0 d8 af d2 ba cf 9e 02 3d 1c f4 06 3d 10 5b 2d bd
       -0.0016074134 0.031889733 0.032947645 -0.042323172
0000d0 bd 01 18 3b 38 b6 9f 3d 96 06 96 3a 95 58 3d bd
       0.0023194395 0.07798427 0.0011446055 -0.046227057
0000e0 bf dd 0e bd 30 08 ff bb e9 2a 71 3d 73 ad f6 3d
       -0.034879442 -0.0077829584 0.058878813 0.120448016
0000f0 cf 47 33 bd b4 63 62 bc 3a 6a ff 3d b7 aa f8 bc
       -0.043769654 -0.013817716 0.12471433 -0.03035484
000100 f3 70 cf 3b 29 d2 08 3d ac 1d 69 bc d9 d9 4d 3d
       0.0063306033 0.03340355 -0.014228266 0.050256584
000110 aa ce 8f bd 65 a2 00 3e 87 0d b1 bc 63 fc 2a bd
       -0.0702184 0.12561949 -0.021612896 -0.0417446
000120 12 eb 30 bc d2 80 eb bb 53 2f 28 bd cd d3 09 bd
       -0.010798233 -0.0071869874 -0.041060757 -0.033649255
000130 bf 31 88 bd 15 d5 a5 3d 9e 01 d6 bc 32 23 25 bc
       -0.06650113 0.08097283 -0.026123818 -0.010079192
000140 ff fd 02 bd eb 66 ad 3d 12 6f 25 bd 3f b4 a3 3d
       -0.03198051 0.08466896 -0.040389128 0.079933636
000150 fd 11 27 3d f2 20 ae bc 29 ac d0 3c 72 e4 b6 3c
       0.04078864 -0.021255944 0.025472717 0.022325728
000160 7a b6 42 3a 0c 55 e8 3d d1 76 a6 bd 03 3a 25 bc
       0.0007427704 0.113443464 -0.08128131 -0.010084632
000170 dd ed 13 bc e8 8e f0 bb 6e 85 fb 3c 13 b8 e8 bb
       -0.009028879 -0.0073412545 0.030703273 -0.0071020215
000180 87 fc 9d 3d 37 02 57 bd 6a 86 05 bd a2 72 41 3c
       0.077141814 -0.052492347 -0.03259889 0.011807116
000190 76 f3 db bd 31 a6 95 bd 0d d7 87 bd 99 37 98 bc
       -0.10739796 -0.07307089 -0.066328146 -0.018581199
0001a0 05 23 0b 3d e2 48 eb 3b 0f 83 29 3b bb d2 cd 3c
       0.033968944 0.007180319 0.002586547 0.025124898
0001b0 63 48 8d 3c fe b9 e0 bc 23 01 23 bd 34 fd ca bc
       0.01724643 -0.027432438 -0.039796006 -0.02477894
0001c0 fd 69 6d bd fa 0b bd bd 42 c2 1b 3d 6c ea ed 3a
       -0.057962406 -0.092308 0.038027056 0.0018151528
0001d0 75 bf 71 3d 8c b3 84 bc 7b f4 00 bd 00 9a ea bc
       0.05902048 -0.016198896 -0.031483155 -0.028637886
0001e0 85 b6 19 bc 1b 51 1c bd 70 77 68 3d 1e 4f 47 bd
       -0.009381895 -0.038163286 0.05675453 -0.048659436
0001f0 8a e3 d5 3c 32 ed 80 3d 38 a8 fa bc df f4 9c 3c
       0.026109476 0.062952414 -0.030597791 0.019159732
000200 2a e6 0d bd 7a 92 b0 bc b7 af 12 bd 13 b4 1a 3d
       -0.03464333 -0.02155422 -0.035812106 0.03776939
000210 39 14 70 bb 40 1e 4c bc f3 a0 93 3d a9 aa 92 bd
       -0.0036633147 -0.012458384 0.07208433 -0.07161457
000220 b5 24 87 3c 51 ad 69 3b 7f 05 86 bc f8 75 59 bd
       0.016496995 0.0035656283 -0.016360043 -0.05309102
000230 7f 7f 20 bc e1 af b2 bc 30 9f 32 bc d6 5f bb 3b
       -0.009796022 -0.021812381 -0.010902211 0.0057182116
000240 24 29 ca ba 23 47 a9 3c 00 28 b2 3c 08 c1 ce ba
       -0.0015423638 0.020663803 0.02174759 -0.001577408
000250 1b f0 fe b9 66 e0 c9 3c e0 c2 a7 bc 5e cc 04 3c
       -0.00048625548 0.024643134 -0.020478666 0.008105366
000260 83 a5 04 3d c4 7b 7b bd a5 61 c6 bd 42 8a a8 3c
       0.032384407 -0.06139733 -0.09686593 0.020573739
000270 fe f6 bd bc 8c 1d 1f bd a4 9b 26 bc e5 20 44 3d
       -0.023189064 -0.038846537 -0.010168944 0.047882933
000280 69 c6 15 3d 76 80 34 bd e4 bb 6e 3c 47 23 6f bc
       0.03656617 -0.044067822 0.014571164 -0.014595813
000290 ed 1e e4 3c 4a a3 11 bd 6b b5 50 3d 1b d4 2a bc
       0.027846778 -0.035556115 0.050954264 -0.010426546
0002a0 c0 5b 8b bc ce 4b 05 bc 7f 4f b9 bc f8 77 18 bd
       -0.017011523 -0.008135749 -0.022620915 -0.037223786
0002b0 a2 9d b1 3c f7 9e 5f bd 71 29 b0 3c 7a 04 09 bc
       0.02168161 -0.05459496 0.021504136 -0.008362884
0002c0 d0 cc 83 3c 90 db 36 bd 5b b0 2b bd 2b 7a e8 bb
       0.016088873 -0.044642985 -0.041916233 -0.0070946417
0002d0 41 26 44 3d ba dd 3a bc 3c 23 80 3d 5c df 5d 3d
       0.047888044 -0.011405403 0.062567204 0.05416809
0002e0 05 a6 64 bc e4 75 62 bd 14 11 91 3d ac ba 4b 3b
       -0.013955598 -0.05528821 0.070833355 0.0031086607
0002f0 e0 c8 b3 3b bf 33 cb bb 1d f2 a4 bc c6 10 c8 bd
       0.0054865927 -0.006201237 -0.02013498 -0.09768824
000300 71 9d 9c 3c 2e 79 71 3b 71 72 d1 3c d6 3e e5 bc
       0.019118043 0.003684591 0.025567265 -0.027984064
000310 f2 fe 08 3d 2e 03 4d 3d 69 40 d8 3c 19 6a 61 3c
       0.03344626 0.05005186 0.0263979 0.013758206
000320 ad 7e 1a bb c7 7d 0f bd 0a 16 0a 3c 74 e2 de 3c
       -0.002357404 -0.03503206 0.008428106 0.02720759
000330 92 d6 b6 3c 24 d5 5c bd 1c 19 fc 3b bc be 87 bd
       0.022319112 -0.053914204 0.007693423 -0.066281766
000340 10 ab eb 3c fc 01 20 bd 65 4c f1 3c f5 e7 04 3a
       0.028768092 -0.039064392 0.029455373 0.00050699647
000350 08 35 52 bd c1 72 2d 3d 8e 54 39 bc 2c 3a aa bd
       -0.051320106 0.042345766 -0.011311663 -0.08311877
000360 a4 aa 17 3d 13 49 33 3d c7 6d 83 bc 97 a5 94 3c
       0.03702797 0.04377086 -0.016043557 0.018145366
000370 f3 f4 57 3c ea f5 4f 3b cb 7f 1b bd 0b 7a 6b bc
       0.013180959 0.003173227 -0.03796367 -0.014372359
000380 66 ba 00 bd 1d 53 35 3d 0b eb b6 3c 72 82 1e 3c
       -0.031427763 0.044268716 0.022328874 0.009674655
000390 d8 8c 3a 3c 0e fe be 3c 6b 43 09 bd d8 8b b9 bc
       0.011386119 0.023314502 -0.03351156 -0.02264969
0003a0 c2 da 6e 3c fc 16 bc bb 90 5d 90 bd 12 53 6b 3c
       0.014578523 -0.0057400446 -0.07049096 0.014363067
0003b0 b4 28 43 bd e7 e5 63 3d f5 23 4a 3d 47 6b 06 bd
       -0.04764624 0.055639174 0.049350698 -0.03281715
0003c0 26 57 13 bd c6 2f 8e bd 86 3a 03 3c 64 6d 82 bd
       -0.035971783 -0.06942706 0.008009559 -0.06368521
0003d0 53 1d ad 3d 7c 12 ec 3c 9c b7 05 37 8d 66 d3 bc
       0.08452859 0.028817408 7.970168e-06 -0.025805736
0003e0 d7 0c a3 3c 84 4b 07 3d c8 60 26 3d 9a 87 ff 3c
       0.019903583 0.033031 0.04061964 0.03119259
0003f0 3f 55 6a bc 60 b3 44 3d f8 24 e5 3d 71 84 d5 bc
       -0.014302551 0.048022628 0.11188692 -0.02606413

exp_avg f4 [50, 768]
000000 55 bd 6f 3b 30 6c 42 bc a7 81 31 ba da 68 f0 3a
       0.0036581357 -0.011866614 -0.0006771334 0.0018341795
000010 66 4c eb ba ad 4b f9 3b 12 84 13 ba 1b 8c 90 3a
       -0.0017951846 0.007607898 -0.0005627285 0.0011028083
000020 1c 12 f1 3a 14 cf 01 bb 53 29 28 bc 95 88 b1 bb
       0.0018392238 -0.0019807266 -0.010263759 -0.005417893
000030 2b 65 8b 3a ee b8 14 bc 6c ee 57 3b fb ea 12 3b
       0.0010635009 -0.009077294 0.0032948507 0.0022417891
000040 83 32 99 39 dd 91 24 ba 37 68 c3 3a f8 ba 47 3b
       0.00029220068 -0.0006277839 0.0014908378 0.0030476432
000050 a2 36 35 bb 48 c9 75 3b 6d 70 c3 3b fa 23 b6 3b
       -0.0027650972 0.0037504006 0.00596433 0.005558488
000060 24 2f 88 3b cf 90 f3 3b 8d c0 1f 3c e2 b0 4d bb
       0.00415601 0.007433034 0.0097504975 -0.0031385948
000070 cd b0 de bb 99 cf 4e ba c9 d4 32 3b 0a a1 30 bb
       -0.0067959786 -0.0007889211 0.0027287474 -0.0026951456
000080 81 24 18 3b ca 39 dd b8 29 f4 00 3c 6e b6 56 bb
       0.0023215117 -0.00010548865 0.007870712 -0.0032762545
000090 86 05 9d 3a c7 84 98 ba 0c 1f a8 ba 72 c0 56 3b
       0.0011979796 -0.001163625 -0.0012826636 0.0032768515
0000a0 81 8f 84 3b 11 ae cc ba e2 f3 b1 b8 0c b2 a9 3b
       0.0040454273 -0.0015615841 -8.4854444e-05 0.0051786955
0000b0 08 e5 82 3b e4 7a 98 3b d0 8c 6c bb b1 84 b1 3b
       0.003994588 0.0046533216 -0.0036094673 0.0054174294
0000c0 80 0f 82 3a e3 86 46 3b f0 47 05 3c 53 69 51 3c
       0.0009922832 0.00302928 0.008134827 0.012781459
0000d0 7d 8c 0f bc 5c 2f 20 bb d6 5e 98 39 59 b7 32 3b
       -0.008761522 -0.002444229 0.00029062357 0.0027269928
0000e0 6c 09 8c 3b fd 8d 93 b9 18 8e ce 38 0a 4d 27 3b
       0.004273584 -0.00028143814 9.8493125e-05 0.0025528097
0000f0 91 b0 ec bb 0a 18 38 3c 83 a8 2d bb b7 86 bd 3b
       -0.007223197 0.0112362 -0.0026498146 0.0057838815
000100 1b d2 19 3b c2 af d0 bb 8a b7 f5 3b 47 16 5e bb
       0.002347118 -0.006368608 0.007498686 -0.003388779
000110 d5 96 b6 3b d4 02 49 3b cc 20 07 bb 1c 26 34 bb
       0.00557218 0.0030671852 -0.0020618914 -0.0027488535
000120 a3 21 e2 3b 91 ca 2e 3b 56 83 8c 3b 3d 2b a2 bb
       0.0069009825 0.0026671032 0.0042881174 -0.004949002
000130 db 87 0c bb 8f 6f be 3a fb 8c a5 3b f3 5f 35 3b
       -0.002144328 0.0014529097 0.0050522066 0.0027675598
000140 56 3e 12 3b 1e c6 b7 3b 7c b2 11 3c f8 38 e8 3b
       0.0022314987 0.005608334 0.008892652 0.0070868693
000150 5a 41 21 3c 96 14 25 bb 38 7a fc 3b 80 29 5c bb
       0.009842241 -0.0025189272 0.0077049993 -0.0033594072
000160 ed 86 f9 bb c9 c7 0d bc 90 c8 d6 3b 72 20 d1 bb
       -0.0076149614 -0.0086535895 0.0065546706 -0.0063820416
000170 01 3f c6 3b 7b c2 91 39 cc d9 ab 3b 7b 19 c1 bb
       0.006049991 0.00027801454 0.0052444693 -0.00589293
000180 29 45 42 3b 75 cc 56 3b 10 ee 45 3b 63 77 65 ba
       0.0029643273 0.0032775674 0.003020171 -0.0008753447
000190 6b a3 2b 3c 1d 99 d4 3b 84 66 36 3a 38 8e 16 3c
       0.010475974 0.006487979 0.0006958025 0.009189181
0001a0 b8 e1 f2 ba ae 11 c0 ba 27 6d c8 3a 4c 2b d7 3a
       -0.0018530404 -0.0014653706 0.0015291319 0.0016416102
0001b0 b1 00 ba b8 51 57 9d 3a 78 95 24 3b 4a fe 5a 3b
       -8.8693e-05 0.0012004172 0.0025113504 0.0033415728
0001c0 33 a6 e7 bb ec 9f 5a 3a 9a 99 98 ba 13 62 6f bb
       -0.007069373 0.000833987 -0.0011642457 -0.0036526963
0001d0 d7 d7 6b bb 9f c1 b3 3a 67 a8 15 3c 6b c2 b9 3a
       -0.0035986805 0.001371432 0.0091343885 0.0014172321
0001e0 3c ed 94 3b a7 21 56 ba da f7 0d bc 3e e6 c6 3b
       0.004544882 -0.0008168467 -0.008665049 0.0060699275
0001f0 6f 54 8d 3b 7b a3 c1 bb 61 d6 93 3a ae 3a ae bb
       0.004313044 -0.005909381 0.00112791 -0.0053170538
000200 e9 0c 48 3b 66 f7 bb 3b 1c 60 d9 3b b5 8c bf bb
       0.0030525273 0.0057362793 0.0066337716 -0.005845631
000210 67 30 b7 39 1a 2f 31 bb 13 e6 17 bc 07 ca 16 ba
       0.00034940543 -0.0027036131 -0.009271163 -0.00057521503
000220 69 2d 58 bc 47 8c 4d bb 3f 8d 6f 3b 21 89 a4 39
       -0.01319442 -0.003136413 0.0036552695 0.00031382687
000230 50 19 28 bc 1f a6 28 3b d5 bc 92 39 a9 f6 8a bb
       -0.010259941 0.0025733782 0.0002798798 -0.00424083
000240 80 65 f0 3b 47 18 8b ba 52 6a c7 36 37 f4 2a 3a
       0.0073363185 -0.0010612094 5.9430395e-06 0.0006521376
000250 54 a1 3a 3b 89 a7 cf 3a 5e 13 00 3c 21 39 93 bb
       0.0028477507 0.0015842776 0.0078171175 -0.0044928943
000260 88 b0 48 3a 21 06 4e bb ce 54 fa 3b d3 70 48 3b
       0.00076557 -0.0031436759 0.007639504 0.0030584827
000270 30 fc 17 3c a3 2c 98 3b 0c 88 e7 3b c6 be 0e ba
       0.009276435 0.004643993 0.0070657786 -0.00054452976
000280 f0 fb 09 bc 30 a8 c1 3b 16 3a 2c 3b a3 cf b9 bb
       -0.008421883 0.005909942 0.002627974 -0.005670504
000290 49 99 8f 39 3b 55 a9 3b 1f b6 03 3b b3 8c 1b 39
       0.00027389292 0.005167631 0.0020097566 0.00014834366
0002a0 6a 88 47 3b dc f4 48 3b 52 3d 01 3c 12 17 a7 38
       0.00304463 0.0030663526 0.007888155 7.967478e-05
0002b0 fa 22 56 3b 69 63 9c 3b 60 5e d0 3a 00 ad 26 3a
       0.0032674656 0.004772593 0.0015897267 0.00063581765
0002c0 8b 27 81 bb 33 9e 00 3c 56 dd c4 3b 7e 96 84 3a
       -0.0039414815 0.007850218 0.0060078306 0.0010115651
0002d0 4f 0f c8 ba dd 45 13 3b 63 c5 3a 3b 6f bb f0 3a
       -0.0015263351 0.0022472062 0.0028499 0.0018366406
0002e0 61 d9 02 3c 68 78 59 bc 48 bd 4a 3b ec 03 04 bc
       0.0079863975 -0.013273336 0.0030935574 -0.008057576
0002f0 a7 a2 4f 3b 04 4d 48 39 5a a3 b1 bb 33 b7 ee bb
       0.0031682642 0.00019102177 -0.0054210844 -0.0072850226
000300 1e a6 2e ba cc 6e 52 bb 58 d1 26 bb 70 c5 92 ba
       -0.00066623266 -0.0032109497 -0.0025454368 -0.0011197757
000310 63 cb 13 ba ab 5a f8 b9 03 e2 5c 39 82 5b ad bb
       -0.0005637912 -0.000473698 0.00021065031 -0.0052904496
000320 21 e0 b2 38 53 c7 cd 3a aa be a0 ba 1e 0f 4b ba
       8.529449e-05 0.0015699662 -0.0012263854 -0.0007746088
000330 b1 a6 1d 3b ff 31 91 bb 1c f6 e2 ba 76 9f 16 3b
       0.0024055655 -0.004431009 -0.0017315778 0.002298323
000340 bd 39 8d 3a 1c 6c a6 ba 82 53 da 3a 10 fd 5a 3b
       0.0010774654 -0.0012697014 0.0016656967 0.0033414997
000350 82 ec 17 bb 08 0b 11 3b 4a c2 98 3a 87 d7 0b 3b
       -0.002318174 0.002213182 0.0011654582 0.002133818
000360 75 f7 45 bb 76 9c 14 3b fb 62 70 3b c4 ab f6 ba
       -0.003020731 0.0022676266 0.003668009 -0.0018819501
000370 95 e9 bd ba ab 39 96 3a ce c8 6a 3b 86 5d 18 bb
       -0.0014489169 0.0011461278 0.0035825255 -0.0023249104
000380 00 69 94 3a af 8d 5a ba 6f 9a d7 39 d0 b9 ff ba
       0.0011322796 -0.00083371525 0.00041123058 -0.0019510332
000390 a6 38 20 b9 1f 36 b2 ba 00 7f 7a ba a8 57 43 3b
       -0.00015279892 -0.0013596452 -0.00095556676 0.0029806886
0003a0 b9 cd 7f b9 5b 6e 68 bb 88 b0 7a 3a c8 54 a5 b9
       -0.00024395333 -0.0035466168 0.00095630484 -0.0003153442
0003b0 37 2d eb 38 2c c3 61 3b 0c 17 44 bb aa 9a 14 3b
       0.00011214095 0.0034448607 -0.0029920964 0.0022675195
0003c0 9d 31 67 3b 76 00 03 3a 73 e1 ad 3a 74 51 68 3b
       0.0035277375 0.0004997322 0.0013266042 0.003544894
0003d0 b5 7a c3 ba fa 86 f1 39 3d 8d 9b 39 f7 32 29 ba
       -0.0014913889 0.00046067667 0.00029669135 -0.0006454433
0003e0 0f 85 d1 39 b1 60 22 bb a5 01 ac ba f8 79 c6 3a
       0.00039962723 -0.002477687 -0.0013123049 0.0015142551
0003f0 ff 98 9b ba 3d 84 0d 3b d7 78 1b bb df 47 62 3b
       -0.0011871158 0.0021593713 -0.002372315 0.0034527702

exp_avg_sq f4 [50, 768]
000000 66 61 49 3d a6 97 0a 3b f8 af 0f 3b 62 e3 a2 3b
       0.049165152 0.0021147518 0.0021924954 0.004970954
000010 0f 1c 8a 3c d8 da 90 3b ba d1 6e 3a d4 6f 61 3b
       0.016859083 0.0044206195 0.0009110231 0.003439893
000020 f8 71 21 3c d5 a8 fd 3a 6a 5a e1 3b 68 c0 91 3c
       0.009853832 0.0019352684 0.0068772333 0.017791942
000030 13 19 2d 3b 1a 12 38 3c 8f 5f 3e 3a 83 98 80 3a
       0.002641265 0.0112347845 0.0007262164 0.0009811077
000040 73 fb c0 3b 75 e4 a3 3a cf 8f da 3a ea 4a 40 3c
       0.00588935 0.0012503999 0.0016674938 0.011736611
000050 c1 9f 0a 3a e7 f7 b8 3b 79 3b 07 3c c1 48 8b 3c
       0.00052880874 0.0056447866 0.0082539255 0.017002465
000060 84 dc 9d 3c 34 2d 4d 3c 72 6b 1a 3b 82 7f 46 3c
       0.01927019 0.012522984 0.0023562578 0.012115361
000070 37 41 c7 3b c7 c4 71 3d 37 d6 0e 3b 69 ca dd 3c
       0.0060807723 0.059025552 0.0021795162 0.027074056
000080 b3 47 0b 3c 16 8a 06 3d b2 20 88 3c c0 47 9d 3c
       0.008500981 0.032846533 0.016617153 0.019199252
000090 0d 8a 7b 3b fa 0c a2 3b 7b 19 a8 3b bb 67 03 3c
       0.0038381845 0.0049453946 0.0051299906 0.008020337
0000a0 7b 9d 40 3a 56 90 15 3d 73 51 ad 3c 3f 6b 04 3c
       0.0007347685 0.036514603 0.021157002 0.00808221
0000b0 88 0e 77 3b 26 51 35 3c e2 41 c3 3a 87 b5 aa 3b
       0.003769787 0.011066711 0.0014896954 0.005209628
0000c0 81 ec 38 3b 58 64 92 3c d3 a7 cb 3c 37 2a 35 3c
       0.002821714 0.017870113 0.024860298 0.011057428
0000d0 94 0d 75 3b a5 c8 88 3b e3 f4 e4 3a 84 50 1a 3b
       0.0037392126 0.0041743093 0.0017468001 0.0023546526
0000e0 12 f8 84 3d db 30 89 3c 84 0f 96 3a de 49 8b 3c
       0.06492628 0.016746929 0.0011448716 0.017002996
0000f0 be 44 87 3c b8 a8 89 3c 6f 8b 58 3c e6 cb 97 3b
       0.016512271 0.016804084 0.013216837 0.004632461
000100 9b 9c c1 3c 85 b2 90 3b 79 e0 9c 3b 10 e1 8e 3b
       0.023634246 0.0044158124 0.0047875014 0.0043603256
000110 c9 3f 4a 3d fc 87 9c 3c 60 68 3f 3d 3c d1 38 3b
       0.049377237 0.019107811 0.0467304 0.0028200885
000120 9b 92 30 3b 5b 4a b2 3a c2 bf 26 3d 7d ac 93 3b
       0.0026942852 0.0013602482 0.04071022 0.004506646
000130 fb 42 84 3b e6 5c 37 3b 2c bb c2 3c 3d 5d b6 3a
       0.004036305 0.0027978956 0.023770891 0.0013913285
000140 a2 61 4f 3a 81 41 c4 3c e4 21 f8 3b a6 4d c0 3c
       0.0007910972 0.023957016 0.0075723995 0.023474526
000150 fc 7e 88 3c 16 92 5e 3b b7 da 8c 3c 1a 86 06 3c
       0.016662113 0.0033961586 0.017194135 0.008210683
000160 56 21 88 3b 1c cc 8a 3c f4 02 ec 3b d4 aa 87 3b
       0.0041543646 0.01694303 0.0072025005 0.0041402373
000170 90 59 67 3b 3e 0c 19 3a f5 1f 58 3d ac 5a 80 3c
       0.0035301186 0.0005838311 0.05276485 0.015668236
000180 e7 a0 b1 3b f7 92 87 3b f2 c3 81 3a ed 0d 8d 3b
       0.0054207924 0.0041373926 0.0009900315 0.0043046386
000190 7f 4b 83 3c 13 05 39 3b 01 0f 09 3b d1 b5 35 3b
       0.01602721 0.0028231784 0.0020913484 0.002772678
0001a0 aa 43 88 3c 1b 45 bc 3c a1 6b 85 3c 4a 75 88 3b
       0.016633827 0.02298217 0.016286673 0.0041643726
0001b0 d3 c7 60 3b e6 ae a4 3b 33 4c d6 3a 23 92 07 3c
       0.0034298792 0.0050257323 0.0016349613 0.008274588
0001c0 60 b1 18 3d dc 3f 36 3c 50 96 bb 3b fe 2c 4b 3b
       0.037278533 0.011123624 0.0057247058 0.003100216
0001d0 61 6c 12 3b 62 e9 97 3b f3 35 40 3b d4 39 1c 3b
       0.002234243 0.0046359757 0.0029329031 0.002383818
0001e0 6f d2 b1 3b 93 11 11 3c 57 32 b4 3c bb 11 1e 3b
       0.005426697 0.008854288 0.02199666 0.0024119455
0001f0 50 84 ff 3c 66 c5 d7 3b 40 50 8a 3b ef a9 d6 3c
       0.031191021 0.006584811 0.0042209923 0.026204078
000200 a1 77 06 3b 66 89 8d 3b 24 2a 66 3c a6 c0 a8 3c
       0.0020518082 0.0043193577 0.014048133 0.020599674
000210 bc 1f 9f 3b e5 f0 a6 3c 64 29 8d 3c ff 95 8f 3b
       0.004856078 0.02037854 0.01723165 0.0043818946
000220 2a b7 17 3c 40 1a 51 3c 9a e4 56 3c 7d 9d 4d 3b
       0.009259978 0.012762606 0.013116026 0.0031374388
000230 d6 58 b6 3a 52 55 c7 3a e8 a7 1b 3c 82 98 25 3c
       0.0013911973 0.0015207923 0.009500481 0.0101071615
000240 62 21 75 3c 10 9c cb 3a 2d 6b 5e 3a 08 8d db 3c
       0.014961572 0.0015534181 0.00084845984 0.026800647
000250 a8 1a d3 3b 61 83 c3 3b 5a d1 37 3b ca fd 70 3b
       0.0064423867 0.0059665893 0.0028048367 0.0036772364
000260 f9 a2 5c 3c b8 eb 5a 3c f9 51 c8 3c 11 7a 05 3b
       0.01346659 0.013361864 0.02445315 0.0020366947
000270 23 84 22 3d df 09 59 3c a0 25 19 3b 27 64 20 3b
       0.039676797 0.013246982 0.0023368374 0.0024473758
000280 ed 9d 32 3d c8 f9 6d 3d 36 9a 95 3c 71 73 c0 3c
       0.04360764 0.058099538 0.01826201 0.023492547
000290 42 02 a3 3c 8b 06 98 3b 90 06 89 3b 4f 4c 9a 3c
       0.019898538 0.004639452 0.0041816905 0.018835215
0002a0 46 f7 81 3c 89 60 86 3b 58 29 88 3c e2 d3 f8 3c
       0.01586498 0.0041008634 0.016621277 0.030374471
0002b0 55 60 6a 3b 08 20 c3 3c 86 74 bb 3a b1 08 80 3b
       0.0035762985 0.023818985 0.0014301694 0.003907286
0002c0 6c 86 05 3c bc 6d 2d 3c 5d c1 e2 3b bc 99 04 3c
       0.008149724 0.010585245 0.0069200234 0.008093294
0002d0 26 27 10 3b b8 09 f0 3b 8c e4 db 3a 53 df e2 3a
       0.002199599 0.0073253773 0.0016776486 0.0017308987
0002e0 9b cf bb 3b f4 e2 13 3d 40 95 92 3b 35 49 89 3c
       0.0057315356 0.03610511 0.0044733584 0.01675854
0002f0 fd 8a 84 3c f7 01 40 3c f0 36 9b 3d f2 39 c7 3b
       0.016179556 0.011719218 0.07578838 0.0060799057
000300 c6 bb d8 3c 19 c8 0e 3b e3 01 83 3a 56 fb 44 3b
       0.026456725 0.0021786748 0.0009995069 0.0030057034
000310 eb 6c 04 3c f0 e2 b4 3b 6d 20 ed 3a bd 11 80 3b
       0.008082609 0.005520217 0.0018091329 0.0039083646
000320 bd db 41 3b e7 5a 05 3b 50 71 64 3b 3e 66 c7 3c
       0.0029580437 0.0020348371 0.0034857579 0.024340745
000330 f5 f8 7e 3b d4 c1 a7 3b 21 99 80 3a 0a 81 3e 3b
       0.0038905714 0.0051195417 0.0009811261 0.0029068612
000340 4a e6 4b 3a ed dd 1f 3b 3f bf 0a 3c c4 53 e9 3b
       0.0007778151 0.0024393753 0.008468448 0.0071205813
000350 42 91 5e 3a 7e aa d7 3b 0d 04 09 3c 16 62 25 3c
       0.0008490273 0.0065816035 0.008362782 0.010094186
000360 b0 7d 81 3c 11 80 83 3c 41 b3 0a 3a 6c 51 6b 3c
       0.015807003 0.016052278 0.0005290993 0.014362674
000370 59 a4 17 3b c6 15 89 3d 3a fa 75 3b 13 d0 da 3c
       0.002313873 0.06693606 0.003753318 0.026710546
000380 8e 0d ee 3a 13 ad bd 3c 21 39 e1 3a e1 9f 98 3c
       0.0018161999 0.023153817 0.0017183163 0.018630924
000390 89 0e 61 3b e6 7e 82 3b 87 29 ab 3c 36 0e fb 3b
       0.003434094 0.0039824126 0.020893825 0.007661606
0003a0 75 fb c6 3b b5 8a c8 3c c4 09 50 3c a5 93 37 3c
       0.0060724565 0.024480203 0.012697641 0.011204635
0003b0 68 0f b5 3b a9 0e 06 3c e1 b1 67 3b 62 bc 29 3b
       0.005525518 0.008182206 0.0035353827 0.0025899638
0003c0 2f d6 d8 39 7f 43 56 3c 53 1a f6 3c 90 e9 84 3c
       0.0004135831 0.013077616 0.03004185 0.016224653
0003d0 01 e2 a3 3b 69 97 43 3b 47 57 d9 3a b7 3e 93 3b
       0.005001307 0.0029844886 0.0016581797 0.00449356
0003e0 bb 64 4d 3d 0c f9 4f 3c 23 a3 a8 3a 4f f9 7f 3c
       0.050144892 0.012693655 0.0012866001 0.015623405
0003f0 84 16 18 3d dd 5e 6d 3c 50 94 8f 3b c6 2b 43 3c
       0.037130848 0.014487949 0.004381694 0.011912292
