SmallD_SDD_InProgress/out_step5_ipc30_s5_tf_adamlr.pth (torch, 555512 bytes, 3 tensors)

module.data.weight f4 [60, 768]
000000 54 b3 2d bd 9b 5e 8a bc c8 0c aa 3c ee 46 88 bd
       -0.04240735 -0.016890815 0.020758048 -0.06654154
000010 67 57 6d bc 04 8e 19 3d 49 ff 1c bc b7 ed 1c bc
       -0.01448617 0.037488952 -0.009582349 -0.00957816
000020 1c b5 1d bc a9 52 85 bd 94 0f 41 b9 cd 03 1b bd
       -0.009625699 -0.06509907 -0.00018411718 -0.03784542
000030 18 c6 29 bd d9 1d 4d 3d 93 a7 4f 3d c1 3e 0a bd
       -0.041448683 0.050077293 0.05069692 -0.033751253
000040 c9 2d 22 bd 6b 30 1c bd c4 5d b7 bc d2 79 42 3b
       -0.039594445 -0.038132112 -0.022383578 0.0029674661
000050 2f c4 03 3d f3 10 88 bb ab 82 09 3d 8c 15 87 3c
       0.032169517 -0.004152411 0.03357188 0.016489767
000060 93 9d df 3c 0f c7 92 bc 37 1c 33 3d 19 1e 2a 3c
       0.027296817 -0.017917184 0.04372808 0.010383152
000070 bd f7 9d 3d 9e 7b da bc 31 40 5a 3d ac b4 69 bc
       0.07713268 -0.026670273 0.053283874 -0.014264267
000080 fa c8 74 3c 75 6f a6 bd 1a 22 fd bc b7 fe 17 3d
       0.014940495 -0.081267275 -0.03090005 0.03710815
000090 9c 78 58 3d 1b 94 2e bc ac 54 ad 3c fa 97 e9 3b
       0.052849397 -0.010655428 0.021158539 0.0071287127
0000a0 74 c0 fd 3c d7 18 a7 3c e0 4f 52 bd ad b3 c0 bc
       0.030975558 0.020397587 -0.051345706 -0.023523176
0000b0 05 aa 00 3c 20 27 28 3d 64 b8 73 bd 44 6b ab bc
       0.007853036 0.041052938 -0.05950202 -0.020925172
0000c0 dd 7e 0a bb 62 0a 2a 3d 67 f7 80 3d 2d 20 8f 3d
       -0.0021132745 0.041513808 0.06297188 0.06988559
0000d0 1f bb 22 bd b1 91 a2 3b a7 95 32 3d 7c 66 33 bc
       -0.039729234 0.0049612154 0.04359975 -0.010949727
0000e0 83 75 1b 3b 19 71 d0 3c 0d ac e2 3d 63 ac c8 3d
       0.0023721165 0.025444554 0.11067972 0.09798505
0000f0 60 10 20 bc 39 64 0c bd c9 2a c2 3d 8b e2 b0 bb
       -0.009769529 -0.034275267 0.09480817 -0.0053981
000100 ce 81 ed bc 5f 2d 7d bc f2 4b 65 3d 0a 9c 9a bb
       -0.02899256 -0.015452712 0.05598063 -0.0047183083
000110 28 51 0a ba 2d 7a 39 3d 08 6e 10 3b 3e de 3f 3d
       -0.00052763755 0.04528253 0.002203824 0.046842806
000120 3a d7 94 bd ef aa 4d 3c 0a c3 0a bd 2a eb 2a bd
       -0.07267614 0.012552961 -0.03387741 -0.041728176
000130 c9 55 82 bd 77 3c 93 3d f7 22 59 3d ac 37 83 3d
       -0.063640185 0.07189267 0.05301186 0.06407103
000140 2d 6a 55 3c a7 be 7b 3d 84 d9 c7 bb d2 7e 47 3d
       0.013025803 0.061461117 -0.006098928 0.04870493
000150 11 25 06 bd a4 dc 1e bd d9 02 2a 3d a4 e1 76 3d
       -0.032750193 -0.038784638 0.041506622 0.06027378
000160 20 9a 86 3c 4e fc 68 3d 0a a2 bf bd 6c db 9b bc
       0.016430914 0.05688124 -0.093570784 -0.019025527
000170 1c 83 34 bd 73 af 8d bc 44 06 9f 3c aa 13 1d 3d
       -0.04407035 -0.017295575 0.019412167 0.03834883
000180 5c a6 1e 3d 11 92 1a 3c 52 30 57 3b 6e 6f 45 3d
       0.03873287 0.009434239 0.0032835198 0.04820197
000190 42 2e 1c bd f4 16 3f bd 62 fe d9 3c 13 0d 90 3d
       -0.038130052 -0.04665275 0.026610557 0.07033744
0001a0 f6 41 1f 3d 7d 6c cb 3c b1 dc 9a 3c f5 5f 15 3d
       0.038881265 0.024832005 0.018904062 0.036468465
0001b0 25 ca 1d 3d a6 46 9a bd 51 a2 87 3d 29 13 8a bd
       0.03852286 -0.07533006 0.06622756 -0.06741936
0001c0 86 38 6a 3d e9 5c 9f bd 6b 35 6d 3c c8 c5 74 bd
       0.05718281 -0.07781393 0.014478068 -0.05975893
0001d0 53 a3 4d 3c 6e 5e 15 3d 1f bc 0b bd 6f 15 15 3d
       0.012551147 0.03646701 -0.034114953 0.036397394
0001e0 56 a3 7b 3d 35 ea 4f bb 02 17 c6 3c ba de 85 bc
       0.061435066 -0.0031725292 0.024180893 -0.016341556
0001f0 2f ea e5 3c f4 d2 5f 3d 66 61 d1 3c 1e ef 26 3d
       0.028065769 0.05464454 0.025559139 0.040755384
000200 11 f1 1c 3d 2a 0c d8 bc de 54 8b 3b 81 bc 22 3d
       0.038315836 -0.026372988 0.0042520603 0.039730553
000210 85 a7 a6 3c bb f7 1e bc f6 4e c9 3d 88 e7 6e bd
       0.020343551 -0.009702618 0.09829514 -0.058326274
000220 7a 11 18 bd d6 12 bf 3d 1b eb 8d 3b 5c eb 90 39
       -0.037126042 0.093297645 0.0043310053 0.00027641177
000230 98 a9 80 3d e1 2f 09 bd 62 68 63 3c 9c 50 56 bc
       0.062823474 -0.033492927 0.013879867 -0.013080742
000240 e4 f8 6c bc 1d 42 2c 3d 96 3a 13 3d 20 bd 9d 3d
       -0.014463637 0.042055238 0.035944544 0.07702088
000250 f2 28 7a bb ff ed 64 3d 97 10 a1 bc 83 98 35 bd
       -0.0038171378 0.055891033 -0.019661231 -0.0443349
000260 2d 8c 3d bb fb bd ee bc 03 5e a6 bd f8 a5 9b 3c
       -0.0028922663 -0.029143324 -0.081234 0.019000039
000270 8f 78 8d bc 8f ce fe bc 2d 0c 9e ba cd 42 fc 3c
       -0.0172694 -0.031104354 -0.0012058072 0.030793572
000280 b0 4c 6e 3d 17 47 9f bc 50 73 a8 3d fe 9b c8 bd
       0.058178604 -0.019443078 0.08225119 -0.09795378
000290 95 d2 07 3c da 25 12 3d 45 f2 5a 3d e9 00 4e 3c
       0.008289953 0.03568063 0.053453702 0.012573459
0002a0 a8 88 94 3c 53 e7 d8 bc 95 67 96 3c 38 7d 6c bd
       0.018131569 -0.026477491 0.018359939 -0.057736605
0002b0 9e 9b b4 3c 53 b7 a1 bd 0e 20 01 3b bf aa 8d bd
       0.02204686 -0.078962944 0.0019702944 -0.06917333
0002c0 aa 29 11 bc 14 50 95 bd e1 d8 0f bd a6 df 21 3c
       -0.008860031 -0.07290664 -0.03511894 0.009879982
0002d0 46 e5 59 3d 4e 72 73 bb 0e 2d 61 3d 49 2d e6 bc
       0.053197168 -0.0037146988 0.054974608 -0.028097766
0002e0 e1 2a b6 bd 52 9e 54 bd ed fb c7 3d 49 2e 68 3d
       -0.08894897 -0.0519088 0.09764848 0.056684766
0002f0 0e d7 09 3d 36 3f 0f 3c 3f 8f 8b bd c7 a8 e4 bd
       0.033652358 0.008743098 -0.068144314 -0.11165004
000300 10 7f 2c bb 54 a4 8f 3d 94 15 d1 3c 9e db 85 bb
       -0.0026320852 0.07013765 0.025522985 -0.0040850183
000310 3a d8 22 bd 94 c1 3d 3d 71 a2 08 3d 5c fa 81 3d
       -0.03975699 0.04632719 0.03335804 0.063465804
000320 01 7b 8f bd fd 62 62 bd d2 db a9 3c c6 68 45 bc
       -0.07005883 -0.055270184 0.020734701 -0.012048906
000330 c2 16 c7 b9 36 15 65 bd 9a 48 5e 3c e2 77 05 3c
       -0.00037973194 -0.05592843 0.013567114 0.008146258
000340 9c 0b 0f 3d 21 30 a9 3b 1b 5b 38 bd a2 27 b9 3b
       0.03492318 0.005163208 -0.04500876 0.0056504766
000350 a1 d1 a3 bd 6e d8 ae 3d 1a ce 3d bc f6 6e 1d bd
       -0.07998968 0.085373744 -0.011584783 -0.0384359
000360 c6 c4 a3 3d 35 04 a2 3c 00 67 4a bc 87 b7 8f bc
       0.07996516 0.019777397 -0.012353659 -0.017543567
000370 30 26 c9 3d 48 e7 89 bd 82 73 49 bd ce 3b eb 3c
       0.09821737 -0.067335665 -0.049182422 0.02871504
000380 55 49 b6 bc 42 61 46 3c 6e e9 01 bd 9a ec 85 bb
       -0.022251764 0.012108149 -0.031716757 -0.004087043
000390 76 99 66 3c 1e 06 29 b9 97 59 ad bc 60 cc 34 bd
       0.014074674 -0.00016119375 -0.021160884 -0.04414022
0003a0 89 03 76 bb 7c 41 84 bd 17 cc 1c bd 43 61 a0 bc
       -0.0037538728 -0.06457803 -0.038280573 -0.019577628
0003b0 28 58 52 bd 35 b0 b3 bc a5 b1 73 bc 2a 5f 56 bc
       -0.051353604 -0.021934608 -0.014873897 -0.013084212
0003c0 c3 96 75 bd 79 d7 bd bd 57 2c 56 3d ac e4 04 bc
       -0.05995823 -0.09269614 0.05228838 -0.00811116
0003d0 29 b3 e9 ba 36 6b b1 3c 56 40 4f 3d 27 dc b3 bc
       -0.0017829883 0.021657567 0.050598465 -0.021955563
0003e0 58 e7 41 3b 5b fc 2e 3d ee db 7f 3d b0 dc 19 bd
       0.0029587355 0.042721134 0.0624656 -0.03756398
0003f0 56 70 e0 bc b6 f6 3a bb 5d 70 08 3d 86 9e 58 3d
       -0.027397316 -0.0028528399 0.033310283 0.052885555

exp_avg f4 [60, 768]
000000 ff cd a0 bc c3 27 e9 bb b8 b9 8a 3c d6 63 c9 bc
       -0.019629477 -0.0071153357 0.01693426 -0.024583738
000010 39 e2 ba ba 96 f8 52 3b 01 54 77 bc 29 b1 72 bc
       -0.0014258093 0.0032191626 -0.015095712 -0.014812746
000020 b9 78 91 bb a6 d6 00 bc 95 43 29 bd 9a 7b 7d 3b
       -0.00443944 -0.007863676 -0.041324217 0.0038678409
000030 ba 86 1c bc e5 33 7b 3b e2 b2 57 3d 83 df 94 bc
       -0.009553606 0.0038330492 0.05266083 -0.018172985
000040 f3 45 85 bc 4c 2a 5e 3c 0a 7a 82 bb e0 a3 33 3c
       -0.016268706 0.013559889 -0.0039818333 0.010964364
000050 0f d7 19 bc ea 7f 4f bc ed 62 80 3c 11 c3 1b bc
       -0.009389653 -0.012664774 0.015672171 -0.009506957
000060 a7 13 7e bc 64 b6 82 38 9b 2d bf bc d7 aa 95 39
       -0.015507615 6.232856e-05 -0.023337176 0.0002854678
000070 b8 24 53 3c 48 09 d5 3b 65 2a c5 3c a6 43 ea 3b
       0.012887172 0.0065013506 0.024068067 0.0071491776
000080 6e d5 35 bc 7d 8c d1 bc 97 81 5f 3c b7 ce a6 bc
       -0.011098249 -0.025579685 0.0136417365 -0.020362241
000090 d0 a8 3d bc 47 bb 8b ba 38 ff 27 ba eb c5 60 3b
       -0.011575893 -0.0010660671 -0.0006408575 0.0034297656
0000a0 0e 2e 77 bc 80 e4 73 bc b8 56 b7 bc 15 14 06 bd
       -0.015086664 -0.014886022 -0.022380218 -0.032733995
0000b0 b1 3d b6 ba f9 33 19 bc e8 c5 96 3b 2d 1f 8d bb
       -0.0013903884 -0.00935077 0.004601229 -0.004306695
0000c0 7d 23 44 bc c2 5a 15 3c 59 24 ef bc b8 a8 c9 38
       -0.011971352 0.009115877 -0.029192137 9.615853e-05
0000d0 f0 6d 06 bb b8 5d 84 3c 73 e0 af bc 3b fb 33 3d
       -0.0020512305 0.01615797 -0.02146933 0.043940764
0000e0 b0 f5 27 3c c2 4b 0d 3b 26 f3 86 3c fd c3 a6 bc
       0.010251448 0.0021560048 0.016473364 -0.020357126
0000f0 39 f2 0c bd 6d 6d 0d bc da e5 00 3c 4b 69 b8 bb
       -0.03441069 -0.008632046 0.007867301 -0.0056277863
000100 39 8f 01 bc 6f 8a 9f bc 44 19 89 bb 3b 0d 4a 3c
       -0.007907682 -0.01947519 -0.00418392 0.012332256
000110 66 2a 60 bc 8c e2 10 bb a8 50 91 3a 1a 95 8e bc
       -0.013681984 -0.0022107689 0.001108666 -0.017405082
000120 12 f4 27 3c cb 2a e0 bc d9 3f 47 bb 07 7f 97 3c
       0.010251062 -0.027364155 -0.0030403046 0.018493189
000130 f2 23 ff 3a 8f 14 fc 3b d1 99 a0 39 53 5e 57 3c
       0.0019465669 0.0076928805 0.0003063218 0.013145047
000140 6e 11 28 bc af 87 0f 3c 3e e1 74 bc e4 e2 43 bb
       -0.010258062 0.008760377 -0.01494628 -0.0029889876
000150 79 2d ac 3c 2c 85 03 3c 00 18 cb bb a9 eb c8 ba
       0.021017777 0.008027356 -0.0061979294 -0.0015329021
000160 70 68 68 3b ad 67 82 3b 45 4e 41 3c ea 8b 05 3d
       0.003546264 0.0039796443 0.011798446 0.032604136
000170 e4 9e 81 bc a9 56 a6 3c e9 20 11 bc a3 7c 21 3c
       -0.015822835 0.020304995 -0.008857944 0.009856376
000180 06 52 b6 bc 04 60 63 3c ee 83 21 bc 53 12 71 3c
       -0.022255909 0.013877872 -0.009858115 0.0147138415
000190 95 5e cc bb fe ae 24 bb bd 74 83 3b 25 7b 24 3c
       -0.006236861 -0.0025128718 0.004011719 0.010039126
0001a0 9b df de bc 07 0c f0 3b 9f 6a 17 3c 23 27 09 3c
       -0.027206233 0.0073256525 0.009241729 0.008371147
0001b0 7d 69 73 bc 28 f5 71 3c 3c d2 62 bc 91 19 91 bc
       -0.014856693 0.014767922 -0.013844069 -0.017712386
0001c0 40 da 81 3b 7c a9 fd 3a cc 06 09 bc 31 c5 46 bc
       0.003962785 0.0019352878 -0.008363437 -0.012131975
0001d0 c8 0c c3 bc f2 f6 68 3b e4 53 56 bc 85 3d 37 bb
       -0.023809806 0.0035547582 -0.0130815245 -0.0027960252
0001e0 87 e2 88 bc 84 63 39 3b 36 e4 72 3c c3 ba df bb
       -0.01670958 0.0028288076 0.014824918 -0.0068276837
0001f0 00 d3 8f 3b 47 79 bd bb ae 51 4d bc d9 b3 82 ba
       0.004389167 -0.0057822797 -0.012531681 -0.0009971812
000200 f9 fb de 3a 50 17 53 3b d4 90 f2 b9 30 0d 09 bc
       0.001701235 0.003220994 -0.00046265742 -0.008364961
000210 68 9b b5 bb 0c ea 02 3c f7 cb a3 bc 33 7e be bb
       -0.0055422075 0.007990371 -0.019994719 -0.005813384
000220 85 b5 73 bb 79 a6 b8 ba 30 d4 2b bc c6 4c ac 3c
       -0.0037187051 -0.0014087699 -0.010487601 0.021032702
000230 c9 39 19 3c e6 6f 18 3c af ea 84 3c d8 a2 c9 bb
       0.009352156 0.009304022 0.016225187 -0.0061534457
000240 57 70 6f bc 1b c8 46 3a 9c e7 6a 3c 26 d2 36 3c
       -0.014614186 0.00075829186 0.014337447 0.011158502
000250 27 c8 b9 bc b6 4c af 3c 63 5b 69 bb c2 a7 58 3c
       -0.022678448 0.021398883 -0.003560745 0.01322359
000260 b1 7c 5d 3c 86 60 88 3c 0f 0d 80 bc a6 11 40 3d
       0.013518498 0.016647588 -0.015631227 0.04689183
000270 ef 26 14 bc 6b a6 04 bc e3 b5 56 3c 24 41 de ba
       -0.009042486 -0.008096318 0.013104889 -0.0016956669
000280 eb 54 9b 3c 60 a4 7e bc 0c 05 95 bc 67 6f 6c 3c
       0.01896139 -0.01554212 -0.018190883 0.014430857
000290 5c 81 34 3c bc f6 df 3b f4 fa 23 bc d6 d0 c2 bc
       0.01101717 0.006834833 -0.010008562 -0.023781221
0002a0 0b 3a 52 3c 10 93 59 3b 99 bf 6a bc 57 32 83 3c
       0.012831221 0.0033199228 -0.014327907 0.016015215
0002b0 53 04 26 bc 51 74 96 3c 8f 62 a3 3b 5d 95 6b 3c
       -0.010132867 0.01836601 0.0049861143 0.014378873
0002c0 22 fd ce 3a b5 de c3 3a 0d 1d 70 b8 5e 39 a5 3b
       0.0015791992 0.0014943691 -5.7247515e-05 0.005042239
0002d0 5c 9a f5 bc 25 36 a2 3b c3 8e 25 3c e3 64 63 3c
       -0.02998083 0.004950302 0.010104838 0.013879034
0002e0 2e 2b 24 3c 36 77 5c 3c b8 bf 2c bc 48 db ba bb
       0.01002006 0.0134561565 -0.010543756 -0.00570241
0002f0 50 c5 a2 bb 52 65 85 bc a5 f8 fd b9 1f 56 8d ba
       -0.004967369 -0.016283665 -0.00048441175 -0.0010783112
000300 b1 d2 8e bc 98 0a be bb 13 d9 8c 3c 0b c1 b2 bc
       -0.01743445 -0.0057996027 0.017193353 -0.021820566
000310 d5 c9 b0 bb 08 12 2b 3c 59 3a bc bc 33 e2 5b bc
       -0.005395154 0.010441311 -0.022977041 -0.013420629
000320 13 d5 d0 ba 3f 16 a6 bb af e1 26 bd f3 fd be 3b
       -0.0015932642 -0.00506857 -0.040742572 0.005828613
000330 b2 9f 39 bc ac 07 c2 3b 1f a1 69 3d 93 70 77 bc
       -0.011329578 0.0059213247 0.057038423 -0.015102523
000340 16 ea 8e bc 3d 7d 38 3c a0 4d 48 bb c3 6b 70 3c
       -0.017445605 0.011260328 -0.0030563846 0.01467413
000350 a6 2b 2b bc bf 57 70 bc 9c ae 4d 3c e3 05 56 bc
       -0.010447418 -0.014669358 0.012553837 -0.013062927
000360 b2 9d 87 bc e3 42 b2 ba b2 ff c2 bc fb d0 d3 3a
       -0.016554687 -0.0013600256 -0.023803566 0.0016160303
000370 8d 5e 44 3c 4b c8 e8 3b 20 4e cc 3c 76 17 16 3c
       0.011985433 0.007103955 0.024939597 0.009160867
000380 df a7 ac bb 8c f8 d0 bc a3 9f 19 3c 79 84 7e bc
       -0.005269035 -0.025509141 0.009376439 -0.015534514
000390 e9 22 71 bc be 39 a1 bb 93 57 78 bb 40 67 b7 3a
       -0.014717796 -0.0049202135 -0.0037893995 0.0013992563
0003a0 b0 ce 67 bc d3 d6 56 bc 40 f5 81 bc 0c 8e 03 bd
       -0.014148399 -0.0131127415 -0.015864015 -0.03211789
0003b0 15 23 e6 3a ca 94 04 bc 72 af 49 3b c6 76 4b bb
       0.0017558063 -0.008092115 0.003077474 -0.0031046136
0003c0 1a 35 77 bc 8a 23 46 3c 3b 90 e5 bc d3 61 9d bb
       -0.015088344 0.012093434 -0.028022876 -0.0048029213
0003d0 4b 77 94 bb b2 a0 3e 3c 4b 52 d5 bc d9 6f 26 3d
       -0.0045308224 0.011634992 -0.026040217 0.04063401
0003e0 7c d5 41 3c 5b d2 5c 3b 13 e6 79 3c a5 a6 a4 bc
       0.011830684 0.0033694718 0.015252608 -0.020098994
0003f0 1e 7d 13 bd 28 c6 09 bc 9f df fc 3b dd d8 8b bb
       -0.036007993 -0.008409061 0.0077170874 -0.0042677955

exp_avg_sq f4 [60, 768]
000000 a5 c7 8e 39 ec 64 10 39 ed de 51 39 49 30 51 39
       0.00027233097 0.00013770506 0.0002001484 0.00019949781
000010 1c 32 8d 39 02 a7 01 39 2e 5f 3e 39 41 a6 ea 39
       0.0002693095 0.00012364614 0.00018155269 0.00044755827
000020 d9 6b 49 39 9a 3f 3c 39 80 bd eb 39 df 7a 53 39
       0.0001920903 0.0001795277 0.0004496388 0.00020168301
000030 59 d8 23 39 77 24 3b 3a 34 f2 4b 3a d7 e7 af 3a
       0.00015625487 0.00071389176 0.00077799265 0.0013420534
000040 b0 9b 53 39 4f d4 36 39 96 ea 64 39 28 8f 0e 39
       0.00020180526 0.00017435964 0.00021831164 0.00013595505
000050 e2 fd 15 39 cb 3e e0 39 83 c2 ca 39 c3 d1 4c 39
       0.00014304326 0.00042771394 0.00038673365 0.00019533098
000060 a0 ae 79 39 a6 62 a3 39 9a 1f 4e 39 c8 9a 2a 39
       0.00023811543 0.00031163282 0.00019657463 0.00016270124
000070 e9 f3 3f 3a 9a e1 ee 38 f8 32 02 3a ee 91 d2 39
       0.0007322417 0.00011390746 0.00049667014 0.00040163047
000080 4d 87 8e 39 26 28 3a 39 8a d8 3d 39 e5 e2 39 39
       0.00027185158 0.00017753299 0.00018105112 0.000177275
000090 31 19 1d 39 5c 11 4b 39 2b bf 41 39 2b 9b 91 39
       0.00014982071 0.00019366055 0.0001847713 0.00027772164
0000a0 1b 0b 33 39 92 11 89 39 a0 97 8c 39 0b af 88 39
       0.00017074907 0.00026143767 0.0002681585 0.0002607036
0000b0 60 e6 94 39 03 20 ce 39 d4 60 3d 39 83 30 ac 39
       0.00028400403 0.00039315232 0.00018060516 0.0003284254
0000c0 79 1b 6f 39 f4 f5 10 39 c6 25 68 39 03 51 db 39
       0.0002280305 0.00013824535 0.00022139316 0.00041831293
0000d0 4b cd e5 38 fc c1 a6 39 3e ed 6a 39 8e 00 a4 39
       0.0001095781 0.00031806517 0.00022404359 0.0003128093
0000e0 51 12 53 39 51 25 57 39 06 9f 24 39 7d d5 a7 39
       0.00020129351 0.00020517899 0.000156995 0.00032011783
0000f0 1a af e0 39 da 91 aa 39 f7 42 50 39 cc 7f 71 39
       0.0004285507 0.00032533595 0.00019861372 0.00023031159
000100 ab 8c 3d 39 4d 12 9a 39 ff 39 7c 39 33 93 82 39
       0.00018076847 0.00029386804 0.00024054198 0.00024905204
000110 f3 bb 44 39 01 06 95 39 e9 b7 3f 39 a7 9d 45 39
       0.00018762033 0.00028423968 0.00018283691 0.00018846114
000120 45 17 2f 39 2d 72 5c 39 69 f7 59 39 46 03 33 39
       0.00016697969 0.00021023369 0.000207869 0.0001707199
000130 52 dc 52 39 f7 2c f5 39 a7 34 d3 38 ff 85 17 39
       0.00020109236 0.00046763543 0.00010071071 0.000144504
000140 cd 5d 2c 39 cb 10 2e 39 81 2c 31 39 ee bf 5e 39
       0.00016438142 0.00016600189 0.00016896614 0.00021243069
000150 b8 72 58 39 05 3d 86 39 47 39 a4 39 c1 5a 13 39
       0.00020642101 0.00025603935 0.00031323193 0.00014052821
000160 54 4f 59 39 62 03 a5 39 8c 83 e4 39 fa ee 8c 39
       0.00020724285 0.00031473773 0.0004358556 0.00026880932
000170 d2 24 43 39 8f 54 7c 39 41 68 8e 39 54 65 74 39
       0.00018610366 0.00024064093 0.00027162026 0.00023307401
000180 28 04 2d 39 f5 41 a4 39 a4 db a4 39 c8 e1 03 39
       0.00016500114 0.0003132966 0.00031444163 0.00012577244
000190 71 45 83 39 ed dd a6 39 c3 8a 55 39 7d f0 08 39
       0.00025038005 0.00031827335 0.00020364956 0.0001305956
0001a0 ee b8 6b 39 cd 14 15 39 dd f4 0c 39 c4 c1 46 39
       0.00022480238 0.00014217496 0.00013442659 0.00018954935
0001b0 51 bf f8 38 90 11 39 39 41 28 fc 38 ae dc 1a 39
       0.00011861197 0.00017649517 0.00012023794 0.00014768794
0001c0 ee ac 18 39 65 f9 d5 38 3b 08 38 39 ce 43 9c 39
       0.00014560271 0.00010203085 0.00017550674 0.00029805157
0001d0 ff c1 63 39 6f 05 2d 39 41 1d 9c 39 f5 98 42 39
       0.00021720676 0.0001650059 0.00029776435 0.00018558263
0001e0 95 7e 92 39 4b 6b c2 38 06 df c8 39 9a 13 2a 39
       0.000279416 9.270626e-05 0.00038313138 0.00016219766
0001f0 a8 64 53 39 2d 63 9c 39 eb 7f 32 39 f8 f6 a6 39
       0.00020160025 0.0002982853 0.00017023056 0.00031845993
000200 c8 20 0c 39 f8 52 4d 39 ea 9e 8c 39 4d 08 87 3a
       0.00013363652 0.00019581232 0.0002682128 0.0010302156
000210 19 b0 13 39 0d e7 37 39 b6 a6 93 39 6b d3 91 39
       0.00014084614 0.00017538313 0.00028162234 0.00027814074
000220 fb f6 7f 39 46 a7 12 39 1e 6f 32 39 7f 5e f5 38
       0.00024410702 0.00013985959 0.00017016797 0.00011700112
000230 bf 37 34 39 b0 d1 19 39 32 9e 9b 39 ff 32 f7 38
       0.00017186905 0.00014669332 0.00029681769 0.000117873766
000240 fb 37 2e 39 68 31 b7 39 0b 9d 0f 39 e9 f4 16 39
       0.00016614787 0.0003494129 0.00013696046 0.00014396351
000250 a0 ee 3a 39 d7 8d d8 39 8c b7 3f 39 c3 7d b8 39
       0.00017827237 0.0004130441 0.00018283556 0.00035188915
000260 c1 e0 90 39 cf ba 94 39 4e f9 24 3a b4 06 01 3a
       0.00027633275 0.00028367943 0.0006293253 0.00049219583
000270 d5 f0 26 39 44 d9 f3 38 90 3e 22 39 48 10 89 39
       0.0001592071 0.00011627612 0.0001547283 0.00026142807
000280 4b 35 80 39 37 22 6c 39 02 0b 18 39 8b 97 39 39
       0.0002445377 0.0002251946 0.0001449995 0.00017699429
000290 98 aa 1b 39 8d a3 53 39 07 1e 4c 39 b5 ed 9d 39
       0.00014845503 0.00020183455 0.00019466142 0.0003012248
0002a0 6f b1 80 39 83 94 06 3a 26 b2 17 39 3e f8 73 39
       0.0002454626 0.00051338243 0.00014466848 0.00023266763
0002b0 e7 65 2b 39 c4 70 bc 39 c5 06 81 39 c4 6a 34 39
       0.00016345792 0.0003594217 0.0002460984 0.00017205911
0002c0 b8 3d e0 39 e4 e1 aa 39 e4 ff eb 38 1f 84 e9 39
       0.00042770593 0.00032593228 0.000112533366 0.0004453966
0002d0 ea e3 c7 39 5b b1 21 39 c8 61 4e 39 7b f9 27 39
       0.00038126047 0.00015420227 0.00019682117 0.000160193
0002e0 0a 2e 8e 39 ce b6 fb 38 b8 7b 1a 39 b7 e1 55 39
       0.00027118652 0.00012002663 0.00014732673 0.00020397348
0002f0 0f 6c 99 39 02 8a 34 39 d4 4d 39 39 60 3d 39 39
       0.00029262944 0.0001721755 0.00017671968 0.00017665839
000300 4a 30 86 39 1a 81 29 39 7b 7a 20 39 5f 82 25 39
       0.0002559445 0.0001616519 0.00015304417 0.00015784193
000310 51 25 01 39 2d ac f9 38 00 17 43 39 7c 1d c3 39
       0.000123163 0.000119053155 0.00018605217 0.00037215266
000320 4c db 3a 39 46 6c 43 39 d5 e5 a1 39 f0 85 13 39
       0.00017820037 0.00018636984 0.0003087955 0.00014068908
000330 ed 8c ec 38 34 41 2b 3a e3 8f 63 3a 13 16 af 3a
       0.000112796064 0.00065328483 0.00086808036 0.0013358019
000340 8e 5a 82 39 b4 87 75 39 3b 95 51 39 16 f3 14 39
       0.00024863 0.00023415574 0.00019987386 0.00014204936
000350 3b 85 13 39 22 09 26 39 69 4e cf 39 05 ca 5a 39
       0.00014068645 0.00015834396 0.00039540537 0.00020865358
000360 9f 19 55 39 34 25 3e 39 49 c2 57 39 6e 10 04 39
       0.00020322808 0.00018133671 0.00020576375 0.00012594622
000370 6b a1 0d 3a 3c f6 b8 38 20 f7 8e 39 75 60 6d 39
       0.00054027763 8.8196684e-05 0.00027268473 0.00022638014
000380 25 aa 2d 39 7f 47 29 39 e2 74 f9 38 4d 5b 2e 39
       0.0001656195 0.0001614373 0.00011895016 0.00016627945
000390 e8 2d 16 39 ab d6 2d 39 54 fc 16 39 41 f4 27 39
       0.00014322216 0.00016578536 0.00014399114 0.00016017353
0003a0 c4 8a 33 39 38 bd 3c 39 eb 4f 49 39 6e 2d 62 39
       0.00017122464 0.00017999567 0.00019198626 0.00021569963
0003b0 c9 53 47 39 0f b9 90 39 f3 38 31 39 ab 2f 8d 39
       0.00019009331 0.000276037 0.0001690125 0.0002692913
0003c0 81 f8 41 39 5d 63 64 39 00 b0 38 39 88 84 22 39
       0.00018498489 0.0002178079 0.00017613173 0.00015498896
0003d0 9d 8e fd 38 91 77 15 39 d3 17 52 39 29 86 9a 39
       0.00012090544 0.00014254289 0.00020036036 0.00029473126
0003e0 22 15 27 39 1f 69 f9 38 ca 3e 1d 39 ef ec 91 39
       0.00015934234 0.000118928256 0.00014996078 0.00027833084
0003f0 14 08 ce 39 2c a4 39 39 76 36 10 39 25 17 8b 39
       0.000392974 0.00017704134 0.00013753198 0.0002652939
