SmallD_SDD_InProgress/out_step5_ipc10_s1_tf_adamlr.pth (torch, 186872 bytes, 3 tensors)

module.data.weight f4 [20, 768]
000000 5c c1 b0 bc 32 5e 6e bc bf ae 82 bc ff 98 20 bd
       -0.021576576 -0.014548825 -0.015952466 -0.03920841
000010 9f fe 0e 3c db cd 09 3d ea 46 34 bd 37 9b 85 3b
       0.008727699 0.033643585 -0.04401294 0.004077341
000020 b6 c0 a1 bc 83 00 7a bd 64 b7 a3 3c 2b 45 90 3b
       -0.019745212 -0.061035644 0.019984908 0.0044027767
000030 16 5f 22 bd 15 cf 2a 3d 04 87 53 3d 3a a3 03 bd
       -0.039641462 0.041701395 0.051642433 -0.032138087
000040 29 4f 5f bd 10 ea 18 bd 87 cc 3c bd 9c 3d e0 3c
       -0.054518852 -0.037332594 -0.04609349 0.027373128
000050 29 bc 26 3c 98 7c b8 bc a6 8a 7e 3b 66 20 12 bc
       0.010176697 -0.022520348 0.0038839965 -0.008918857
000060 2e 75 d3 bb 05 f1 12 bd aa 84 6e 3c aa 3c 22 3d
       -0.006453178 -0.035874385 0.014557997 0.039608635
000070 f9 a6 85 3d 04 28 91 3b 6f 6f 66 3d 73 8f d8 bc
       0.06525988 0.004429819 0.056258615 -0.02643559
000080 d9 ae ed 3c c5 87 38 bd 9c 45 0d bd 07 c5 93 3c
       0.029014038 -0.045051355 -0.034490213 0.018038286
000090 56 fe ab 3c be f5 53 bc 96 56 c4 3c f5 c1 42 bc
       0.0209953 -0.0129370075 0.023967069 -0.011887063
0000a0 65 e3 09 3d 7e 2f 1e 3c 96 f7 74 bd 7e 36 0b bd
       0.033664126 0.009654878 -0.05980643 -0.033987515
0000b0 78 00 ab bb c0 93 e7 3c 27 33 5b bd de 73 2f bc
       -0.0052185617 0.028268695 -0.05351558 -0.010708777
0000c0 96 58 cc bc 28 91 0c 3d ea 72 f0 3c 4c e8 9f 3d
       -0.024944585 0.03431812 0.02935167 0.07807979
0000d0 1f 79 18 bd a4 a8 8d 3c b8 cc 97 3c 38 ba 1c 3d
       -0.037224885 0.017292328 0.018530235 0.03826353
0000e0 af ae d2 bb ad e4 93 bb 2c a1 9b 3d ad 40 08 3e
       -0.0064295153 -0.0045133443 0.075991005 0.13305922
0000f0 36 6a 70 bc 4c 79 43 bd a0 a8 ca 3d 96 97 f9 bb
       -0.01467376 -0.0477231 0.09895444 -0.0076169474
000100 17 44 2e bd a4 43 06 3c 54 2d 84 3d 28 ff a7 bb
       -0.042545404 0.008194838 0.06453958 -0.0051268525
000110 57 86 94 3a ae 7f 5d 3d d8 fc 9b 3c 5d 97 e4 3c
       0.001133154 0.054076843 0.019041464 0.027904207
000120 be ee a1 bd 69 7a e4 3a bf f9 80 bc 67 91 6d bc
       -0.079068646 0.0017431501 -0.015744088 -0.014499999
000130 63 6d 63 bd 5f 22 61 3d 1c a4 2a 3d ac 84 1f 3d
       -0.05552424 0.05496442 0.041660413 0.038944885
000140 e3 20 df 3c 79 c5 31 3d 84 38 a2 ba a6 55 3d 3d
       0.027237361 0.043401215 -0.0012376462 0.04622426
000150 84 15 3b bb b1 a1 1d bd 8e a2 00 3d f3 7c 90 3d
       -0.002854676 -0.03848428 0.031405024 0.07055082
000160 7c 7b 7a bb df e9 74 3d 4f b2 9b bd 51 06 10 bc
       -0.0038220575 0.05979335 -0.07602369 -0.008790568
000170 ed c4 96 bc b7 3d 22 bd 63 1b 8d 3c 0b 12 33 3c
       -0.018404448 -0.039609637 0.017224973 0.010929595
000180 e5 d5 56 3d 06 c4 fe bc b5 f7 ab b9 7b 24 41 3d
       0.05245008 -0.03109933 -0.00032800218 0.04715393
000190 6f 67 8e bd 77 e1 e4 bc 6e 1b 89 bc 60 c2 e1 3c
       -0.06953322 -0.027939541 -0.016736712 0.027558506
0001a0 e9 bc ae 3c 72 4f 10 3b 06 b0 00 3d 9e 2d 72 3d
       0.021330314 0.002202001 0.03141787 0.059125535
0001b0 27 63 0d 3d 72 41 4c bd aa 3c bf 3d 9c aa 7a bd
       0.034518387 -0.0498671 0.093377426 -0.061197862
0001c0 d2 1d 25 3d fe a5 8f bd c1 95 b1 3c 7b ee a6 bd
       0.040311642 -0.07014082 0.021677854 -0.08150955
0001d0 b3 9f 53 3d 19 c3 14 3d e0 90 cc bc 54 17 04 bb
       0.051665973 0.036318872 -0.024971426 -0.0020155506
0001e0 f9 81 0d 3c 20 13 3a 3c c1 ad 24 3d d4 0b 7f bc
       0.008636945 0.011357099 0.040204767 -0.015566785
0001f0 76 17 5e 3b ed a6 48 3d a0 5a f8 3c 9a e4 80 3c
       0.0033888496 0.048987318 0.03031665 0.015734006
000200 ff f7 ef ba b3 94 43 bd 4d 3a b2 ba da bd ef ba
       -0.0018308162 -0.047749233 -0.0013597697 -0.0018290833
000210 e3 21 3b 3d c7 94 80 3c d7 2c 62 3d 15 f0 dc bc
       0.045686614 0.015695943 0.055218544 -0.026969949
000220 97 ce b6 bc 45 8b ae 3d 10 23 a0 bc b4 61 86 bc
       -0.022315307 0.08522657 -0.01954797 -0.01640401
000230 b2 00 1f 3d 5e 18 a9 bc e9 85 02 3d 24 8d 9a 3c
       0.038819022 -0.020641502 0.031865988 0.01886613
000240 b6 a0 96 3c c1 cd 38 3d 66 85 a6 3c 76 76 93 3d
       0.01838718 0.045118097 0.020327281 0.07200329
000250 7d 66 bb 3b 51 0f 26 3d 8b b1 1f bd be 12 aa bb
       0.0057190047 0.04054195 -0.038987678 -0.0051902225
000260 f6 d9 9c 3c 27 64 06 3a 45 a2 89 bd 38 21 19 3d
       0.0191469 0.0005126618 -0.067204036 0.037385195
000270 09 8e 9a bb a5 50 56 3c 71 57 a5 bc ec 48 db b9
       -0.004716639 0.013080751 -0.020183297 -0.00041825266
000280 d0 1a 0b 3d 8f dd df bc 5c 67 7a 3d c1 81 5c bd
       0.033961117 -0.027327327 0.061133727 -0.05383468
000290 a7 fc d0 bc b6 c9 12 3d 76 d4 3b 3d bb 4c 16 3d
       -0.025511099 0.035836898 0.045856915 0.03669427
0002a0 6e 86 3c 3d 68 ee 38 bd be a3 2d 3c 05 ac 40 bd
       0.04602664 -0.045149237 0.010598121 -0.04703905
0002b0 07 96 9f 3c 0d 71 7d bd a5 ca e7 bc 4c 79 6a bd
       0.019480718 -0.06187539 -0.02829487 -0.057244584
0002c0 b8 ec 4f bb 03 1f 59 bd d8 3a 94 bd 6d 45 a4 bc
       -0.0031726789 -0.05300809 -0.07237786 -0.020052636
0002d0 50 24 29 3d eb 4a af 3c 95 60 07 3d 64 6c bc bc
       0.041294396 0.021398028 0.033051092 -0.023000903
0002e0 2a 53 bd bd b1 98 42 bd c1 eb a9 3d 33 8c 23 3d
       -0.09244378 -0.0475089 0.082969196 0.039928626
0002f0 eb 7d 47 3c bd bc 54 3c e4 3a 9d bd 3f 2a b3 bd
       0.012176017 0.012984452 -0.07677248 -0.08748292
000300 d3 b8 58 3c d5 6a 40 3d 53 4b 0b bc 6b ce 19 bc
       0.013227659 0.046976883 -0.008501845 -0.009387593
000310 fa a7 15 bd 3b 99 08 3d bc ed 30 bc 57 cf b9 3d
       -0.036537148 0.033349257 -0.010798868 0.0907275
000320 94 70 97 bd 1a 2b 72 bd 69 73 1d 3d f3 1b c2 bb
       -0.073945194 -0.059123136 0.03844014 -0.005923742
000330 af 2a 3e bc 35 5b 50 bd 20 a1 fc 3c 4e 37 7d bb
       -0.011606856 -0.05086823 0.03083855 -0.00386377
000340 f9 16 06 3d 8b fe 8d 3c 33 3f 5b bd c0 34 27 3d
       0.032736752 0.01733329 -0.05352707 0.04082179
000350 4f b3 9e bd 96 a3 12 3d 46 e0 10 bd 56 2d 97 bd
       -0.07749044 0.03580054 -0.035370134 -0.07381694
000360 75 71 01 3d 91 36 60 3c 59 6d 07 bc 8a 3b 23 3d
       0.03160234 0.013684885 -0.008265817 0.039851703
000370 d8 ac 95 3d db 77 68 bd e6 0e fd bc 99 30 4a 3c
       0.07308358 -0.056754928 -0.030890893 0.012340688
000380 97 b8 40 bc ce 77 10 3d 0a bd b3 bc 18 00 a4 bc
       -0.01176276 0.035270505 -0.021940727 -0.020019576
000390 7b 89 2b bc 7f 34 13 bb a5 30 2d bc bd 09 7b bd
       -0.01046979 -0.002246171 -0.01057068 -0.061288584
0003a0 9d 37 cb 3b 32 c6 4d bd 99 b4 1f bd 2e 23 89 bc
       0.006201698 -0.050237842 -0.03899059 -0.016740408
0003b0 30 87 59 bd 07 d7 33 bd 63 28 bc bc 7e 3a a8 ba
       -0.05310744 -0.043906238 -0.022968477 -0.0012834815
0003c0 0a 48 a5 bd 70 bf d9 bd 79 ed 9b 3c 7a ed 89 3b
       -0.08070381 -0.10632217 0.019034134 0.0042092176
0003d0 dd 82 84 3c a5 9d 9b 3c fd 93 f5 3b 62 7a ac 3c
       0.016175682 0.01899607 0.007494448 0.02105445
0003e0 40 2b ba 3c 64 27 b9 3c 63 2d 64 3d 22 63 3a bb
       0.022725701 0.02260179 0.055707347 -0.0028440435
0003f0 9b d5 1a bd 95 02 1c ba 97 31 4f 3d e6 0a 13 3d
       -0.037801366 -0.00059513125 0.050584402 0.035899065

exp_avg f4 [20, 768]
000000 5e df 13 3c 90 97 cc 3a a1 d1 2d bb 6a 84 b6 bb
       0.009025423 0.0015609134 -0.0026522654 -0.005569984
000010 4d 28 c2 ba e7 28 b5 bb 24 0c ef 39 49 70 d9 bb
       -0.0014813036 -0.0055285576 0.00045594678 -0.0066357
000020 d0 77 8a bb ec 95 5c 3c af 14 2a 3b bb a5 97 bb
       -0.0042257085 0.013463479 0.002595227 -0.004627911
000030 a4 74 ca 3b c3 21 0a bc fa 76 b3 3b 8e 56 36 3b
       0.0061784554 -0.008430901 0.0054768296 0.0027822587
000040 fe f5 5b bb cf 4c f9 3a 5a e7 43 b5 1c ee 0c 3b
       -0.003356337 0.0019020083 -7.297982e-07 0.002150423
000050 c1 6d 91 bb b7 60 31 3b 50 28 23 3b 1c 5f c5 3b
       -0.0044381325 0.0027065703 0.0024895854 0.006023301
000060 c7 2f 97 3a 95 60 28 bb aa 1e 89 3b b6 06 08 3b
       0.0011534625 -0.0025692333 0.0041845636 0.0020755953
000070 e9 02 a6 ba dd 9c 0f bb b8 43 24 bb 36 eb fa 3b
       -0.0012665662 -0.0021913566 -0.0025064778 0.007657434
000080 88 23 83 bb a6 d8 20 bb 01 d0 8b 3b c9 fa 8a 3a
       -0.0040020384 -0.0024543195 0.0042667394 0.0010603304
000090 17 12 37 3b 92 aa 91 bb 07 32 94 bb 6c 8d 4f ba
       0.0027934366 -0.0044453824 -0.0045225653 -0.0007917497
0000a0 2e d5 d0 3b 1c 84 99 bb 2b 28 d4 3b 04 94 05 3c
       0.0063730692 -0.004684938 0.006474515 0.008152965
0000b0 02 94 97 bb dc b2 ef 3b bc d4 46 bb 51 ad 17 bb
       -0.004625798 0.007315023 -0.0030339202 -0.0023144076
0000c0 11 14 93 39 12 69 9e bb 70 00 88 3b 68 b5 b4 3b
       0.00028052976 -0.0048343027 0.004150443 0.0055147894
0000d0 b1 a4 c4 3b 30 c8 9b 3b 6a 16 30 ba 1c cf a4 b8
       0.006001078 0.004754089 -0.0006717207 -7.8587065e-05
0000e0 3a 2a 24 bb 43 ad b8 3b da 01 a9 ba 1f 92 2c 3b
       -0.0025049583 0.005635889 -0.0012894229 0.0026332212
0000f0 75 34 8f 3b 17 2e f1 ba db 07 89 3b 7d ad aa 3b
       0.004370267 -0.0018400577 0.0041818446 0.0052086697
000100 23 9a 09 ba 13 0a 93 bb 41 fa a9 3a d8 5b e8 3a
       -0.00052491034 -0.004487285 0.0012968258 0.0017727567
000110 cf 26 b2 bb 7f 2d f6 bb 7f 61 0d bc 39 98 b7 3a
       -0.0054367553 -0.007512748 -0.008629202 0.0014007158
000120 12 14 c8 3b 72 fa de 39 50 aa 7e ba ac 59 01 3c
       0.006105908 0.00042529736 -0.00097147096 0.007894915
000130 4c 39 5a 38 38 26 d7 3b 2f 66 5e bb 39 1f 06 3b
       5.2028612e-05 0.0065658353 -0.0033935418 0.0020465387
000140 41 94 db bb 5f ca ec 3b 1b 4b a9 3a ce 85 a5 3b
       -0.006701023 0.007226273 0.001291606 0.005051351
000150 ce 75 9f 3b 79 b2 b4 bb b4 24 00 3c 52 43 d4 3c
       0.0048663383 -0.0055144397 0.007821251 0.025911007
000160 ee 23 a6 bb c2 84 93 bb ff dd d8 bb 0b 58 85 3a
       -0.005070201 -0.00450191 -0.006618261 0.0010173334
000170 37 1d e1 3a d5 69 61 bb c5 2f 63 bb 09 ba f9 39
       0.0017174844 -0.0034395356 -0.0034665924 0.00047631588
000180 cc 42 d6 3b 10 4c d2 3b 0e 2c 4d 3b 5e bd 41 bb
       0.0065387245 0.0064177588 0.0031306776 -0.0029562335
000190 a5 3d d9 3b e7 ad aa 3a 01 87 b9 3b 02 a4 f1 3b
       0.006629663 0.0013021798 0.0056618457 0.0073742876
0001a0 ac 93 ff 3b 9e 78 7e bb 32 6d a3 3b be 02 d0 bb
       0.0077995863 -0.0038829218 0.0049873823 -0.006347983
0001b0 e4 4b ea b8 09 62 a0 bb 20 4a fb 39 2d 51 d8 3a
       -0.00011172125 -0.004894499 0.00047929678 0.0016503684
0001c0 0d 02 89 bb 59 16 b8 3b 08 e2 7b 3b e0 ee 03 ba
       -0.0041811527 0.0056178984 0.0038434286 -0.00050328486
0001d0 44 56 46 ba 17 6f 4b 3b 6c d3 29 3c 8b 12 96 3b
       -0.0007565955 0.0031041557 0.010365348 0.004579847
0001e0 4e 36 58 3b 88 33 cd ba 3c 72 ce bb 50 92 a6 3b
       0.0032991352 -0.0015655616 -0.006300239 0.00508336
0001f0 94 35 f4 bb 5e 2c 54 bb bf 32 d3 ba f0 e1 61 38
       -0.007452676 -0.0032375078 -0.0016113146 5.38546e-05
000200 9e 65 ea 3b 8b 1c a1 b9 9b a0 c3 bb 76 74 b3 bb
       0.007153227 -0.0003072958 -0.0059700734 -0.0054765297
000210 c6 d4 64 bb 99 5b e1 bb 5c 9b f4 ba 54 89 4e 3b
       -0.0034916862 -0.0068773744 -0.0018662023 0.003151496
000220 b9 ae be 3b f1 25 09 3b c3 46 db 3b 01 ba b4 3b
       0.0058191684 0.0020927156 0.006691785 0.0055153375
000230 a5 ef 10 bb b8 1e 5c bb 9e 81 1b bc 70 71 c0 ba
       -0.0022115496 -0.0033587646 -0.009491352 -0.0014682245
000240 42 1f 0f 3c 2d 8c 8f 3b 17 81 7b bb b1 23 83 38
       0.00873548 0.004380724 -0.0038376504 6.253215e-05
000250 ef dd 83 3b 91 59 93 3b 9f 9e d4 3a 55 d8 08 3a
       0.0040242593 0.004496761 0.0016221589 0.0005220224
000260 a6 cc bc ba c1 76 49 3b f6 dd 86 3b 77 00 86 b9
       -0.0014404252 0.003074095 0.0041158153 -0.00025558818
000270 d0 56 26 b9 ea 5a 0f bb 76 ea bd ba 62 85 36 bb
       -0.00015863334 -0.0021874257 -0.001448943 -0.0027850498
000280 3f 84 49 b8 3c 1d 4c bb 60 5e d5 b7 14 da 35 bc
       -4.8045298e-05 -0.0031145355 -2.5435525e-05 -0.011099357
000290 e8 a5 12 bb cd 33 ee b9 44 71 1f 3b b9 09 11 ba
       -0.002237672 -0.00045433492 0.0024328986 -0.000553276
0002a0 7a 62 ca ba 3a 9c 74 3b 9a c9 ac ba e4 aa 3b 3b
       -0.0015440725 0.0037324564 -0.001318264 0.0028635794
0002b0 d7 92 c7 3a 81 b6 13 3c dd 66 46 3c fd 76 e0 3a
       0.0015226257 0.00901568 0.012109485 0.0017125305
0002c0 f0 df ee bb a6 9a 77 3c 94 44 89 bb 3f fe 8b bb
       -0.007289879 0.015112555 -0.0041890834 -0.004272252
0002d0 79 ea 37 bc ee 73 3a ba 32 c7 03 3b 35 45 09 3c
       -0.011225336 -0.0007112612 0.0020107743 0.008378317
0002e0 8a 9f 9a 3b ca 41 86 ba 67 b5 30 3a c5 86 bc bb
       0.0047187256 -0.0010242995 0.0006740898 -0.0057533705
0002f0 c4 35 a5 3b e1 49 f7 3a a2 00 c7 bb 3f 55 88 bb
       0.0050418098 0.0018866622 -0.0060730735 -0.0041605528
000300 02 db 55 3b da 24 8c bb 42 8e 10 bb 7e a2 04 ba
       0.003263176 -0.004276854 -0.0022057449 -0.00050596136
000310 b6 79 54 3b a5 3d 48 bb c9 09 03 bb 19 c6 d8 bb
       0.0032421178 -0.003055432 -0.0019994846 -0.006615412
000320 8d 72 e2 ba 74 7d 80 3c 5d c7 cd 3b 11 38 8a bb
       -0.001727657 0.01568482 0.0062798695 -0.0042181094
000330 25 b8 80 b9 39 3b bd bb 75 4a c3 ba 95 b0 b2 39
       -0.0002455126 -0.005774882 -0.0014899509 0.0003408237
000340 30 9b 42 bb a9 da 34 3b b4 04 6e bb 24 9e 5d 3b
       -0.002969455 0.0027596152 -0.0036318721 0.0033816183
000350 88 a1 97 b9 a9 14 5d bb 80 7c 12 3b a6 79 3e 3b
       -0.00028921315 -0.0033734238 0.002235204 0.0029064207
000360 21 0f c7 bb fc 52 6d ba c8 3a 3c 3b bc a4 36 bb
       -0.0060748016 -0.0009053198 0.002872156 -0.0027869185
000370 01 14 71 3a 2e 71 96 bb ef ea 9b 3b 4b 25 01 3b
       0.0009196401 -0.004591129 0.004758231 0.0019706066
000380 2e e2 6b 3a 8d 46 71 3a bc 7e 2a 3b d7 be 72 3b
       0.0008998242 0.00092039333 0.002601548 0.003704002
000390 9d 22 90 3b 6d 5d 18 3b 31 d8 de bb 0b e4 8b bb
       0.0043986575 0.0023249045 -0.0068006744 -0.004269128
0003a0 e8 c0 ff 3a c3 d6 8d bb c2 f0 89 ba 71 67 62 3b
       0.0019512447 -0.00432858 -0.0010524022 0.003454652
0003b0 d9 8f 31 bb 1a 1d ca 3b df 1e 4d 3b 46 0e 44 3a
       -0.0027093797 0.00616802 0.0031298918 0.00074789335
0003c0 06 b5 42 bb 1a 10 16 bb bf 74 d1 3a 6c 0a 3a 3b
       -0.002970995 -0.002289778 0.0015980228 0.002838756
0003d0 16 85 4f 3b 94 d9 0d 3c f7 3a ea 39 e3 9e dd b9
       0.0031665019 0.008657832 0.0004467589 -0.00042270785
0003e0 b2 ad 71 bb 6b 4c ee 3a 33 f3 a8 bb 5e f6 5b 3b
       -0.0036877212 0.0018180733 -0.0051559447 0.0033563594
0003f0 6c 80 06 39 7c 8a 0e 36 55 4e 78 3b f3 2e 06 3c
       0.00012827077 2.1240257e-06 0.0037888486 0.0081899045

exp_avg_sq f4 [20, 768]
000000 11 3d 76 3b 71 6a 39 3b 18 2f 06 3b aa 92 69 3b
       0.003757302 0.0028292204 0.0020474847 0.0035640397
000010 9d 23 76 3b a9 3f 4a 3b d7 af 84 3b 44 e3 ab 3b
       0.0037557848 0.0030860698 0.004049282 0.005245598
000020 aa a4 5f 3b 0f 41 89 3b b9 48 47 3b 06 6f a0 3b
       0.0034125247 0.004188664 0.0030408336 0.0048960475
000030 a1 c5 1a 3c 10 fe 22 3c 27 d3 f6 3a 86 fb b4 3b
       0.009446532 0.0099482685 0.0018831239 0.005523148
000040 68 0d 4e 3b 3e ba 81 3b 81 b4 08 3b de 15 c5 3b
       0.0031441096 0.0039589694 0.0020859542 0.0060145697
000050 a8 3c 34 3b 40 b8 6c 3b 5e ae 77 3b 3f 92 22 3b
       0.0027501974 0.0036120564 0.003779314 0.0024806408
000060 5e ac 0c 3b 83 b3 20 3b 60 d0 6f 3b dd 14 39 3b
       0.0021465044 0.002452106 0.0036592707 0.0028241195
000070 6f e6 b5 3b 9b 51 3b 3b 34 f5 67 3b 35 f4 62 3b
       0.0055511515 0.0028582576 0.0035393955 0.0034630422
000080 c6 0c 3f 3b 1e 85 43 3b 52 10 33 3b 43 fa 78 3b
       0.00291519 0.0029833983 0.002732296 0.0037990964
000090 cc 9a 1a 3b 33 83 3f 3b 54 5d 56 3b 2e c4 63 3b
       0.0023590801 0.0029222488 0.0032709436 0.0034754383
0000a0 74 7c 0d 3b d1 d5 48 3b c5 1f bd 3b 2e 1f d2 3b
       0.0021589072 0.0030645023 0.0057716095 0.0064124083
0000b0 61 67 01 3b dd b3 2d 3b b6 3b 8b 3b f2 80 15 3b
       0.0019745457 0.0026504912 0.0042490615 0.0022812453
0000c0 9c f5 2c 3b be 2c 9d 3b 7a 8b 19 3b 08 b4 09 3b
       0.0026391512 0.0047965935 0.0023429082 0.0021011848
0000d0 e8 39 26 3b c4 ee 68 3b 26 f3 0e 3b 4b 78 44 3b
       0.0025364105 0.0035542706 0.0021812408 0.0029978927
0000e0 a9 42 16 3b 19 4d 92 3b 22 15 99 3b b3 92 07 3b
       0.0022927916 0.004464757 0.0046717087 0.0020686805
0000f0 56 82 53 3b df 3b 47 3b 05 5d f7 3b 29 05 3a 3b
       0.0032273731 0.0030400676 0.0075489306 0.0028384423
000100 bd 3d cb 3b da 4f b7 3b 2e 5f 42 3c e0 42 37 3b
       0.006202428 0.005594236 0.011863513 0.0027963445
000110 f5 90 72 3b 15 f5 bd 3b 54 56 57 3b 5d 9b 7c 3b
       0.003701267 0.0057970383 0.0032857852 0.0038544752
000120 3d bd 2a 3b f3 3a 89 3b b1 f1 43 3b 04 42 68 3b
       0.0026052736 0.0041879355 0.0029898698 0.003543974
000130 c7 91 4e 3b 2b 96 26 3b 76 ba 4a 3b fb 94 84 3b
       0.0031519996 0.0025419097 0.0030933893 0.00404608
000140 c1 bc 5f 3b ff 15 05 3b 8f 3a 45 3b a0 f2 04 3b
       0.0034139606 0.00203073 0.0030094718 0.0020286217
000150 6d b4 e7 3a a2 28 2a 3b 99 52 ba 3b 78 a8 fe 3b
       0.0017677672 0.002596416 0.005686116 0.007771548
000160 71 ac bd 3b d2 54 c2 3b b3 68 6f 3b 45 ff b7 3b
       0.005788379 0.0059305215 0.0036530911 0.0056151473
000170 68 85 03 3b 27 7b 40 3b 21 76 15 3c 32 71 b3 3b
       0.002006853 0.002937028 0.009122402 0.0054761404
000180 f6 06 57 3b 02 17 73 3b c4 8d da 3a 8c eb 07 3b
       0.0032810546 0.003709257 0.001667433 0.0020739762
000190 91 8d 16 3b e6 74 17 3b 6f 8b 89 3b 33 5c 0b 3b
       0.0022972564 0.0023110448 0.00419753 0.0021264672
0001a0 3e 4a 59 3b 8e 44 d0 3a fc 5d 1a 3b 52 36 80 3b
       0.0033155824 0.0015889572 0.0023554554 0.0039127255
0001b0 03 7a a0 3b 8e 43 46 3b 86 5d 7b 3b 17 74 7f 3b
       0.0048973574 0.0030252668 0.0038355305 0.0038979107
0001c0 ff ce 88 3b 27 3c 27 3b 26 dc 03 3b 5b 33 07 3b
       0.0041750665 0.0025518031 0.0020120232 0.0020629975
0001d0 d9 73 2f 3b 49 2f 17 3b a6 d8 89 3b 62 a3 4c 3b
       0.0026771931 0.0023068956 0.0042067347 0.0031225313
0001e0 ab 4b 39 3b 0f 60 25 3b 54 05 7d 3b b8 7d 54 3b
       0.0028273861 0.0025234257 0.0038607912 0.0032423567
0001f0 5d ce f6 3b 6b f5 a1 3b 4e d8 17 3b 7c 86 25 3b
       0.0075319246 0.004942586 0.00231697 0.002525716
000200 d9 13 37 3b da ae 63 3b 8c 0b 5b 3b a9 9b 0c 3c
       0.0027935414 0.003474167 0.003342363 0.008582034
000210 fc 48 6b 3b 31 dd b8 3b 65 c9 4a 3b 5d 22 9a 3b
       0.0035901656 0.0056416024 0.0030942794 0.0047038035
000220 de 3b 46 3b 14 d4 2d 3b 70 9a 89 3b a1 0f ee 3b
       0.0030248086 0.0026524113 0.0041993186 0.0072650467
000230 b7 7c 02 3b 01 f6 62 3b 49 2e c2 3b f4 b9 03 3b
       0.0019910762 0.0034631493 0.005925928 0.002009985
000240 5f 1e 94 3b 3b a4 5a 3b ca 22 7c 3b b4 81 32 3b
       0.004520222 0.003336205 0.0038472884 0.0027237954
000250 4f fd 84 3b 57 f5 0f 3b 08 03 93 3b 1c 56 0a 3b
       0.004058517 0.0021966302 0.0044864453 0.0021108454
000260 21 3b 6a 3b fa bc 32 3b dd 12 8f 3b 8f 0e 75 3b
       0.003574081 0.0027273283 0.0043662624 0.003739271
000270 0c 76 1d 3b 7f 86 fe 3b e8 2f 93 3b d9 ba 73 3b
       0.002402666 0.007767498 0.004491795 0.0037190227
000280 47 3d 3f 3b f1 21 87 3b 43 22 b3 3b da b4 7c 3b
       0.0029180811 0.004123919 0.005466731 0.0038559944
000290 da 65 99 3b 20 00 11 3b 21 6a 6d 3b 86 5a 09 3b
       0.004681331 0.0022125319 0.0036226588 0.0020958497
0002a0 21 c3 ca 3b f5 18 34 3b 23 a3 aa 3b f3 ec 21 3b
       0.006187812 0.0027480696 0.0052074357 0.0024707883
0002b0 5c 8a 22 3b 64 81 95 3b 7b d5 6b 3b ab b4 80 3b
       0.0024801707 0.0045625437 0.0035985399 0.0039277873
0002c0 9c ec 41 3b f0 3f d4 3b 69 1a 1c 3b 7f 31 ff 3a
       0.0029590493 0.0064773485 0.0023819453 0.0019469707
0002d0 c5 79 96 3b d8 0a 1d 3b c3 57 79 3b 5c 0e 44 3b
       0.004592153 0.0023962762 0.0038046695 0.0029915785
0002e0 ff 0b 35 3b c7 c7 b6 3b e2 47 88 3b f7 4c 5e 3b
       0.0027625558 0.0055780145 0.0041589597 0.0033920386
0002f0 66 6d 71 3b 3b cf 45 3b 35 19 f1 3b e1 ad 06 3b
       0.0036838888 0.0030183333 0.0073577412 0.0020550417
000300 4c d5 70 3b f1 95 08 3b 40 4a d3 3a f8 fd 36 3b
       0.0036748229 0.0020841325 0.0016120151 0.0027922373
000310 79 f4 44 3b 4c 6f 47 3b e8 70 56 3b 6c 6a 9d 3b
       0.0030052944 0.0030431328 0.0032721106 0.0048039462
000320 0d 87 25 3b 3d 3e 4e 3b 75 7f 5e 3b b9 08 83 3b
       0.0025257498 0.0031470202 0.0033950482 0.0039988426
000330 8d f5 be 3b db 34 21 3c 62 9a ef 3a f4 2c b1 3b
       0.005827612 0.009839262 0.0018280263 0.00540697
000340 bb 30 5b 3b 21 94 9a 3b 4d cc ee 3a e3 bc a9 3b
       0.0033445794 0.0047173654 0.0018218845 0.0051799878
000350 be 2d 12 3b 4a d9 2d 3b 15 db a1 3b 76 8a 37 3b
       0.0022305096 0.002652722 0.0049394467 0.0028006113
000360 c3 21 09 3b 0b 3e 33 3b a1 fb 47 3b 0f 2d 29 3b
       0.0020924665 0.0027350213 0.0030514973 0.002581421
000370 3b d0 b0 3b aa ed 42 3b df bc 25 3b 20 67 7f 3b
       0.0053959168 0.002974371 0.0025289578 0.003897138
000380 40 39 40 3b 3c 57 3a 3b 88 40 0e 3b 3a 07 62 3b
       0.0029330999 0.0028433343 0.0021705944 0.003448917
000390 ad 5b 28 3b ba 9b 10 3b 4d fa 39 3b 3a 86 4a 3b
       0.0025689409 0.0022065477 0.002837795 0.003090276
0003a0 3c c0 2e 3b 75 83 2f 3b a9 18 b8 3b 7e e7 c4 3b
       0.0026664874 0.0026781235 0.005618174 0.0060090413
0003b0 57 2e 0d 3b 10 c3 2f 3b 45 61 60 3b 63 6f 00 3b
       0.0021542513 0.0026819147 0.0034237665 0.0019597642
0003c0 b0 40 21 3b 7d 76 a1 3b 67 f2 0a 3b 5a b6 e1 3a
       0.0024605207 0.004927455 0.0021201612 0.0017220483
0003d0 d2 0a 24 3b e6 15 41 3b ad 16 29 3b 62 4c 59 3b
       0.0025030863 0.0029462515 0.002580087 0.00331571
0003e0 56 b6 d0 3a 3e ac 88 3b 88 c2 51 3b 32 c0 fc 3a
       0.0015923481 0.0041709235 0.0032006819 0.0019283353
0003f0 23 51 18 3b 3e 67 1f 3b 75 9c c2 3b 52 48 17 3b
       0.002324172 0.0024323012 0.0059390613 0.0023083878
