SmallD_SDD_InProgress/out_step5_debug_ipc10_beta0.pth (torch, 186864 bytes, 3 tensors)

module.data.weight f4 [20, 768]
00000000: 3665 353c 7f88 81bd a693 493b ec0a 0abd
00000010: 376a 9a3d 0376 203d 2b1d 5c3c bf4e 0dbd
00000020: 4845 c1ba 993c 4abd f510 a9bc e540 593c
00000030: b58b cfbb 553a db3c 3393 f13c 84a0 65bd
00000040: 56e5 c1bd 7f36 b3bd ff8d 2c3c 31a6 a3bb
00000050: 1a1c 9e3c 1846 03bd 2166 a6ba 1873 e93c
00000060: e3f6 103d b899 10bd b3d7 ebbb a3e7 5c3d
00000070: ff57 ac3d d855 5b3d 81b7 d83c d0f3 21bd
00000080: 36c6 a6bc 45e1 2d3b cc87 ebbc a6ac 8e3c
00000090: 1aa1 d73c 5760 f33b e594 5abc 7f01 463d
000000a0: 024f e63c 074a 603d d9d3 65bd b2e3 ecba
000000b0: 4e14 083c 4a2f a03d 1eab 27bd b4f4 d5bc
000000c0: d8af d2ba cf9e 023d 1cf4 063d 105b 2dbd
000000d0: bd01 183b 38b6 9f3d 9606 963a 9558 3dbd
000000e0: bfdd 0ebd 3008 ffbb e92a 713d 73ad f63d
000000f0: cf47 33bd b463 62bc 3a6a ff3d b7aa f8bc
00000100: f370 cf3b 29d2 083d ac1d 69bc d9d9 4d3d
00000110: aace 8fbd 65a2 003e 870d b1bc 63fc 2abd
00000120: 12eb 30bc d280 ebbb 532f 28bd cdd3 09bd
00000130: bf31 88bd 15d5 a53d 9e01 d6bc 3223 25bc
00000140: fffd 02bd eb66 ad3d 126f 25bd 3fb4 a33d
00000150: fd11 273d f220 aebc 29ac d03c 72e4 b63c
00000160: 7ab6 423a 0c55 e83d d176 a6bd 033a 25bc
00000170: dded 13bc e88e f0bb 6e85 fb3c 13b8 e8bb
00000180: 87fc 9d3d 3702 57bd 6a86 05bd a272 413c
00000190: 76f3 dbbd 31a6 95bd 0dd7 87bd 9937 98bc
000001a0: 0523 0b3d e248 eb3b 0f83 293b bbd2 cd3c
000001b0: 6348 8d3c feb9 e0bc 2301 23bd 34fd cabc
000001c0: fd69 6dbd fa0b bdbd 42c2 1b3d 6cea ed3a
000001d0: 75bf 713d 8cb3 84bc 7bf4 00bd 009a eabc
000001e0: 85b6 19bc 1b51 1cbd 7077 683d 1e4f 47bd
000001f0: 8ae3 d53c 32ed 803d 38a8 fabc dff4 9c3c
00000200: 2ae6 0dbd 7a92 b0bc b7af 12bd 13b4 1a3d
00000210: 3914 70bb 401e 4cbc f3a0 933d a9aa 92bd
00000220: b524 873c 51ad 693b 7f05 86bc f875 59bd
00000230: 7f7f 20bc e1af b2bc 309f 32bc d65f bb3b
00000240: 2429 caba 2347 a93c 0028 b23c 08c1 ceba
00000250: 1bf0 feb9 66e0 c93c e0c2 a7bc 5ecc 043c
00000260: 83a5 043d c47b 7bbd a561 c6bd 428a a83c
00000270: fef6 bdbc 8c1d 1fbd a49b 26bc e520 443d
00000280: 69c6 153d 7680 34bd e4bb 6e3c 4723 6fbc
00000290: ed1e e43c 4aa3 11bd 6bb5 503d 1bd4 2abc
000002a0: c05b 8bbc ce4b 05bc 7f4f b9bc f877 18bd
000002b0: a29d b13c f79e 5fbd 7129 b03c 7a04 09bc
000002c0: d0cc 833c 90db 36bd 5bb0 2bbd 2b7a e8bb
000002d0: 4126 443d badd 3abc 3c23 803d 5cdf 5d3d
000002e0: 05a6 64bc e475 62bd 1411 913d acba 4b3b
000002f0: e0c8 b33b bf33 cbbb 1df2 a4bc c610 c8bd
00000300: 719d 9c3c 2e79 713b 7172 d13c d63e e5bc
00000310: f2fe 083d 2e03 4d3d 6940 d83c 196a 613c
00000320: ad7e 1abb c77d 0fbd 0a16 0a3c 74e2 de3c
00000330: 92d6 b63c 24d5 5cbd 1c19 fc3b bcbe 87bd
00000340: 10ab eb3c fc01 20bd 654c f13c f5e7 043a
00000350: 0835 52bd c172 2d3d 8e54 39bc 2c3a aabd
00000360: a4aa 173d 1349 333d c76d 83bc 97a5 943c
00000370: f3f4 573c eaf5 4f3b cb7f 1bbd 0b7a 6bbc
00000380: 66ba 00bd 1d53 353d 0beb b63c 7282 1e3c
00000390: d88c 3a3c 0efe be3c 6b43 09bd d88b b9bc
000003a0: c2da 6e3c fc16 bcbb 905d 90bd 1253 6b3c
000003b0: b428 43bd e7e5 633d f523 4a3d 476b 06bd
000003c0: 2657 13bd c62f 8ebd 863a 033c 646d 82bd
000003d0: 531d ad3d 7c12 ec3c 9cb7 0537 8d66 d3bc
000003e0: d70c a33c 844b 073d c860 263d 9a87 ff3c
000003f0: 3f55 6abc 60b3 443d f824 e53d 7184 d5bc
0.011071494 -0.06324863 0.0030758171 -0.033701822 0.0753979 0.039175045 0.013434689 -0.034498926
-0.0014745379 -0.049374197 -0.020637969 0.013260101 -0.006333793 0.026761213 0.029489135 -0.056061283
-0.094675705 -0.08750629 0.010531901 -0.004994177 0.01930051 -0.03204927 -0.0012695232 0.028497264
0.0353917 -0.035302848 -0.007197344 0.053931843 0.084152214 0.053548664 0.026454689 -0.03953916
-0.020358186 0.0026531976 -0.028751276 0.01741631 0.026321936 0.007427256 -0.013341163 0.04834127
0.028113846 0.054758098 -0.056110237 -0.001807323 0.008305622 0.0782152 -0.040934674 -0.02611766
-0.0016074134 0.031889733 0.032947645 -0.042323172 0.0023194395 0.07798427 0.0011446055 -0.046227057
-0.034879442 -0.0077829584 0.058878813 0.120448016 -0.043769654 -0.013817716 0.12471433 -0.03035484
0.0063306033 0.03340355 -0.014228266 0.050256584 -0.0702184 0.12561949 -0.021612896 -0.0417446
-0.010798233 -0.0071869874 -0.041060757 -0.033649255 -0.06650113 0.08097283 -0.026123818 -0.010079192
-0.03198051 0.08466896 -0.040389128 0.079933636 0.04078864 -0.021255944 0.025472717 0.022325728
0.0007427704 0.113443464 -0.08128131 -0.010084632 -0.009028879 -0.0073412545 0.030703273 -0.0071020215
0.077141814 -0.052492347 -0.03259889 0.011807116 -0.10739796 -0.07307089 -0.066328146 -0.018581199
0.033968944 0.007180319 0.002586547 0.025124898 0.01724643 -0.027432438 -0.039796006 -0.02477894
-0.057962406 -0.092308 0.038027056 0.0018151528 0.05902048 -0.016198896 -0.031483155 -0.028637886
-0.009381895 -0.038163286 0.05675453 -0.048659436 0.026109476 0.062952414 -0.030597791 0.019159732
-0.03464333 -0.02155422 -0.035812106 0.03776939 -0.0036633147 -0.012458384 0.07208433 -0.07161457
0.016496995 0.0035656283 -0.016360043 -0.05309102 -0.009796022 -0.021812381 -0.010902211 0.0057182116
-0.0015423638 0.020663803 0.02174759 -0.001577408 -0.00048625548 0.024643134 -0.020478666 0.008105366
0.032384407 -0.06139733 -0.09686593 0.020573739 -0.023189064 -0.038846537 -0.010168944 0.047882933
0.03656617 -0.044067822 0.014571164 -0.014595813 0.027846778 -0.035556115 0.050954264 -0.010426546
-0.017011523 -0.008135749 -0.022620915 -0.037223786 0.02168161 -0.05459496 0.021504136 -0.008362884
0.016088873 -0.044642985 -0.041916233 -0.0070946417 0.047888044 -0.011405403 0.062567204 0.05416809
-0.013955598 -0.05528821 0.070833355 0.0031086607 0.0054865927 -0.006201237 -0.02013498 -0.09768824
0.019118043 0.003684591 0.025567265 -0.027984064 0.03344626 0.05005186 0.0263979 0.013758206
-0.002357404 -0.03503206 0.008428106 0.02720759 0.022319112 -0.053914204 0.007693423 -0.066281766
0.028768092 -0.039064392 0.029455373 0.00050699647 -0.051320106 0.042345766 -0.011311663 -0.08311877
0.03702797 0.04377086 -0.016043557 0.018145366 0.013180959 0.003173227 -0.03796367 -0.014372359
-0.031427763 0.044268716 0.022328874 0.009674655 0.011386119 0.023314502 -0.03351156 -0.02264969
0.014578523 -0.0057400446 -0.07049096 0.014363067 -0.04764624 0.055639174 0.049350698 -0.03281715
-0.035971783 -0.06942706 0.008009559 -0.06368521 0.08452859 0.028817408 7.970168e-06 -0.025805736
0.019903583 0.033031 0.04061964 0.03119259 -0.014302551 0.048022628 0.11188692 -0.02606413

exp_avg f4 [20, 768]
00000000: 1b41 d739 7a3f 2a3a bf53 173b 0479 a13a
00000010: ab24 523c a4ba 2ebc 42ac 99bc e70c fbbb
00000020: 248c 483b 06e1 d4ba 6b7d 88ba 0da8 3abb
00000030: a0ca 693c 951f 81bb b609 4d3c 502f 173c
00000040: cbb7 493c 3fc2 0a3c 45db 91ba eca8 bd3b
00000050: 2b78 443b ea44 a83c d939 2a3b 76dc 5a3c
00000060: 4fa3 33bc 047f 83bb 4695 4e3c c356 e93a
00000070: ef3d 133c c0e4 933c 1ba1 193c e51e 5c3c
00000080: 03e9 703a 0920 e53a bf58 e5bb 5cbf 4f3c
00000090: c82a 42ba 7a9d c23b 4473 3bbb 3d3f 14ba
000000a0: 2742 86ba f40a 1cbc 6b22 803b c148 35bc
000000b0: ed91 b83b 0b1b 353b 87fd 7bbc 95f6 3c3c
000000c0: c738 143b bd74 0fbb f6be cfbb 458e 03bb
000000d0: b5bb c73a d5d0 16bc 6d3d 073c 136c 22bc
000000e0: 568f acba 4a2c 09bc cef3 1ebb f151 26bc
000000f0: a56e 2a3b 3643 233c 1314 6c3c a40f cabc
00000100: 3f95 d4ba 6aba 97bb c77a 17bc b2ff 09bb
00000110: 4c9d 8d3c b329 9dbc 87f3 033b 5016 dbb9
00000120: 9f92 4cbb 5bae 063c 44ab b43c ff4b 52bb
00000130: 877b a9bb dd40 3bbc 43eb 7c39 b44c e6b9
00000140: 7da4 59bb 189e d13b 3451 b4bb 6208 da3a
00000150: f7da 8c3b 2fc1 7dbc ed61 3c3c 868e efbb
00000160: 2fc0 a5bc 6825 99bc 6bfe 5abc 7166 f63b
00000170: c225 02bb 1a1d fabb 353f 563c dcf7 39bc
00000180: 89e9 633c a73d a13b 8ff4 0dbb addb 2ebc
00000190: 146b 98bb 199c 2bbb 1c4c 093c 1f3c 1e3c
000001a0: 7c26 15bc b032 aabc 0739 433c 939f 013c
000001b0: 3943 913c f67e 90bc 98ae a4bb 3134 96bc
000001c0: 897a 77ba 65e3 4b3c 56af eb3b 92c1 37bc
000001d0: 77ae eebb 85be b83c 2157 c73c 416a 13ba
000001e0: 0610 fa3b f8c7 2e3c 9d04 023b 77d4 8bbb
000001f0: 7899 653a 0394 1fbc 5474 253c 0c32 7bbb
00000200: e394 07bb 90e0 c1b8 9725 ebbc eeca b0bb
00000210: 4396 18bc 89c5 e0bb 619c 0fb9 cd9f 05bc
00000220: d8fe 713b f3ce 163c db56 39bc 2443 893c
00000230: 9b2a b8bc 9b8b 1e3c dcb1 ac3c 1f04 9039
00000240: 505b ab3b 9d5e 5abc 9aea 643c 4937 34bc
00000250: 576d 043a 51af d7bb a5f8 533c 4fab 01bc
00000260: 3b84 8e3b 6141 f53c b63e 4b3c 7957 c53a
00000270: 75c8 4bbb 60d8 8bbb e77d 66bb d05b 9fbc
00000280: cc17 923c ce84 663c 229a afbb 07d3 67bc
00000290: 0c9e f6ba 4bbc 293c f06d e6bb 069a 90bb
000002a0: 4978 f6ba 80ad c2bc 647f 4bbc b157 86bb
000002b0: a428 a53b 91fd e8bb 9e5f 37bc 0410 95ba
000002c0: 479a dbbb 607e c83c f417 7ebb 23ba b83b
000002d0: 9023 f03b 07ba 1dbc 93f4 bfbb 9d77 c7bb
000002e0: d66a 3c3c 1013 dc3b ec87 4cbc a0b0 1ebc
000002f0: ce06 13bc 977f 2e38 3082 17bb 084f 72bc
00000300: b589 b93c 5234 9cba 20ef 69b8 e704 18bc
00000310: a72b 673c d883 2dbc 4997 d4bb ff9b f3bb
00000320: a0a6 653b 86b7 aa3b 3aea 063c 1e7c bdbb
00000330: 36d6 69bb 43fe 36bb 3a68 3a3b 9bce 393c
00000340: 1111 a53b 0e4d 9a3c 54b7 d3bb 74a2 f53b
00000350: bce2 ab3c c930 be3c 95db e8bb fdb3 63bb
00000360: f66e 10bc 9861 0c3c bf53 613b 55ac ad3b
00000370: d80b 303c 6db8 7f3c 62f5 94ba c46f 913c
00000380: 9902 5d3b 368c d9bb c107 b7bb 4355 033c
00000390: 4eb7 b43c 6e74 e83b c487 533b bd36 95b9
000003a0: 1890 823a 0b89 15bc 02ef a33b 2ee2 b5bb
000003b0: ed9e c139 ff83 8c3b 0b45 fdb9 f6af 723c
000003c0: 3d99 0b3c d5e7 29bc 75dc edbb 7321 b53b
000003d0: 7dd6 44bc 0230 fb3b ef68 5b3c a81f 953b
000003e0: 2408 edbb 1fe1 51ba d1ab 23bc bc8c 6fbb
000003f0: 00ea 4abc 9e4f 673b ddc8 523c 6158 ddbb
0.00041056503 0.0006494444 0.0023090688 0.0012319391 0.012826125 -0.010664616 -0.018758897 -0.00766145
0.0030601108 -0.0016241379 -0.0010413354 -0.0028481514 0.014269501 -0.0039405324 0.012514522 0.009227589
0.012311886 0.008469163 -0.001112797 0.0057879593 0.0029978852 0.020540673 0.0025974421 0.013358226
-0.010964229 -0.004012944 0.012608832 0.0017802346 0.008986934 0.018053412 0.009376789 0.0134351
0.0009189995 0.0017480861 -0.0069991047 0.012679901 -0.00074068876 0.005939183 -0.002860264 -0.0005655175
-0.0010243104 -0.009524096 0.003910353 -0.011064709 0.00563263 0.0027634527 -0.01538027 0.011533399
0.002261685 -0.002188965 -0.006339903 -0.0020073813 0.0015238436 -0.009205063 0.008254391 -0.009913462
-0.0013165276 -0.008372376 -0.0024254206 -0.010151372 0.002600589 0.009964755 0.014409083 -0.024665661
-0.0016218795 -0.0046303766 -0.009245581 -0.0021056947 0.017286919 -0.019184923 0.0020134167 -0.0004178756
-0.0031215323 0.0082202805 0.022054322 -0.0032088754 -0.0051721963 -0.011429039 0.00024120235 -0.00043926167
-0.0033209615 0.00639702 -0.005502844 0.0016634578 0.0042985636 -0.015487953 0.011497957 -0.0073106913
-0.020233242 -0.018694595 -0.013366322 0.007519536 -0.0019858931 -0.0076328637 0.013076593 -0.011350598
0.01391066 0.0049206796 -0.002166066 -0.010672492 -0.0046514366 -0.002618557 0.008379962 0.009657889
-0.009103414 -0.020776123 0.011915452 0.007911581 0.01773225 -0.017638665 -0.005025696 -0.018335434
-0.00094405614 0.012444352 0.0071925325 -0.011215584 -0.0072839814 0.022551784 0.024333538 -0.0005623438
0.0076313047 0.010667793 0.0019839176 -0.004267271 0.00087585254 -0.009739879 0.010098536 -0.003832939
-0.0020688109 -9.244785e-05 -0.028704448 -0.005395285 -0.009313169 -0.0068594855 -0.00013695798 -0.008155775
0.003692558 0.009204614 -0.011312212 0.016755648 -0.022481253 0.009676839 0.021080904 0.0002746889
0.005229391 -0.013328222 0.013971949 -0.010999509 0.00050516933 -0.0065821786 0.012937699 -0.007914378
0.004349259 0.029938402 0.012405088 0.0015055976 -0.0031094823 -0.0042677373 -0.0035170258 -0.01945296
0.017833613 0.014069749 -0.0053589502 -0.014149434 -0.0018815412 0.010359834 -0.0070321485 -0.0044128923
-0.0018804158 -0.023764372 -0.012420509 -0.004099809 0.005040245 -0.0071103056 -0.0111922305 -0.0011372571
-0.006701741 0.024474323 -0.0038771601 0.0056374236 0.007328458 -0.009626872 -0.005858013 -0.006087257
0.011500081 0.0067161396 -0.012483578 -0.009685665 -0.00897379 4.160366e-05 -0.002311837 -0.01478935
0.022648672 -0.0011917448 -5.577423e-05 -0.009278513 0.014109529 -0.010590516 -0.006487761 -0.0074343677
0.0035041943 0.005209866 0.008234555 -0.005782618 -0.0035680658 -0.0027922548 0.0028443472 0.0113407625
0.005037435 0.01883557 -0.0064610634 0.0074961726 0.020982139 0.023216622 -0.0071062543 -0.0034744733
-0.008815518 0.00856819 0.0034382192 0.0053000846 0.010745011 0.015607935 -0.0011364634 0.01775349
0.0033723472 -0.006639029 -0.005585641 0.008015933 0.022060063 0.0070939576 0.0032276968 -0.00028460278
0.0009961156 -0.009126912 0.005002857 -0.0055506444 0.00036930238 0.004288196 -0.0004830736 0.01481246
0.008520422 -0.0103702145 -0.0072589465 0.005527669 -0.012014029 0.007665635 0.013391717 0.004550893
-0.0072336365 -0.0008006263 -0.009989695 -0.003655239 -0.0123848915 0.0035295258 0.012865272 -0.0067549204

exp_avg_sq f4 [20, 768]
00000000: 873a 393b b847 653b 47d5 953b 49d5 913b
00000010: 315c 493b 1f32 6b3b b82f 583b 6a32 043c
00000020: f860 4e3b 6b42 703b 9124 6e3b 3645 2b3b
00000030: 3dc7 c03b 4cad 0a3c d826 043b 89d8 543b
00000040: 2eba 963b 1cbb a73b 68c2 953b 9a4e 5e3b
00000050: cc69 e13b 94f3 cc3b 01aa fb3a 57ff 3c3b
00000060: b728 b43b 8492 883b 06d0 3e3b 8207 083b
00000070: 2884 223b b1e2 8f3b af7a 543b ad4d 663b
00000080: e8aa 5c3b c721 a33b 00e4 393b 5320 3a3b
00000090: 1f99 523b 3132 3a3b 83cf 963b 82cb 553b
000000a0: 9c7f 373b 97e8 023c 1aa1 8c3b 29e8 093b
000000b0: 4ba0 463b 27c4 9a3b 8d5b 663b e2ea 993b
000000c0: 0fe9 3f3b faf9 073b 7a48 533b dc23 8f3b
000000d0: 9e51 b73b 58ee 6e3b 9b36 4e3b 5301 8b3b
000000e0: fdec 433b 9af8 b93b 336a 433b 3ca0 4a3b
000000f0: 3e9b 433b d1c7 6d3b 5700 093b c005 ba3b
00000100: bd80 1e3b 7c04 8e3b 50e4 bf3b 8632 663b
00000110: b808 473b 0fcb 453b 68b5 ae3b 3d99 623b
00000120: ee3c ad3b 2edd 943b 66df 9e3b 63be 373b
00000130: 766a 753b e53d 443b 61b2 1c3b d558 5a3b
00000140: 6c7c 273b d4f5 5c3b f842 4b3b de6e 3d3b
00000150: 9580 763b 93d0 a93b da8e 803b dc23 3f3b
00000160: b6e4 a13b eeec b23b df25 483b 7527 303b
00000170: 9387 bc3b ec7f 2e3b 6ad6 103b 5448 733b
00000180: 5fc0 753b b5cc 8b3b 8711 343b ce1f 613b
00000190: 5f08 383b 129b da3b ccc9 183b 614a 383b
000001a0: 65cd 183b 59b2 2f3b 5260 0d3b 13f1 0b3b
000001b0: d41e 843b fe0d 893b 781d 483b 1584 873b
000001c0: 233d 813b 73d8 653b 36ec 7a3b 0ee4 9a3b
000001d0: ad41 203b 9801 893b 7e01 1a3c 494c 813b
000001e0: d17e 213b 5891 413b dab4 823b d892 803b
000001f0: 8c96 423b 1dd4 ca3b c00e 683b 39ae 6f3b
00000200: 5696 4f3b e5dd 743b 9d8b 2c3b d8c9 053c
00000210: 6237 b23b 45d6 483b 646a f83a 2d53 4a3b
00000220: ab0f 233b c1ad 343b 937f 923b fdf1 bd3b
00000230: 5a78 ac3b e57a 633b d53e 663b b938 553b
00000240: fc48 b43b 4c9b 343b a6f2 b63b ab25 8b3b
00000250: 84de ab3b 0956 043b 269d ba3b 3a01 3e3b
00000260: 2e10 d63b 9fb6 5d3b 99e5 a93b d55a 393b
00000270: 3b85 303b 4f9d 3d3b ea2d 4b3b 1864 9a3b
00000280: b801 833b 4476 853b 030b 0e3b 65c6 8f3b
00000290: 367f 4f3b 4f19 803b f384 873b 1dea 593b
000002a0: c82b 933b d699 a53b 0f8d 483b e555 8c3b
000002b0: e4e3 6d3b 2358 db3b 1b0b 423b 39bb 2f3b
000002c0: 2243 713b 2f1a 053c f8b4 5c3b 8a2f 853b
000002d0: 7f9f 863b 7831 5c3b 2309 2a3b 9829 773b
000002e0: 6a07 483b 9418 713b 9fa3 3c3b fd68 a63b
000002f0: 5f5d cd3b 6d31 3d3b 0471 763b 48d6 833b
00000300: dbac 423b b553 363b ff73 5f3b 49af 4d3b
00000310: b58f 0c3b 2e58 523b 970d 1b3b b03d 9f3b
00000320: 45dd 063b 96ad 6b3b bb00 f93a 491d 2b3b
00000330: 6956 183b d5df c23b 1ce1 093b 05a7 2d3b
00000340: d78b 753b eda3 673b 0ad1 2f3b 5f49 063b
00000350: c5ea a63b 5919 8e3b b5a1 de3a e0eb 163b
00000360: b3d9 123b e700 4f3b ad4b e93a c32a fd3a
00000370: f6c2 0d3b e5d3 163b 63bb 343b 5a96 983b
00000380: 9ea2 2d3b efbc 723b c758 1e3b c959 163b
00000390: eb44 453b fdf9 1b3b 5845 673b cd7f 463b
000003a0: 1b1a 1b3b 2385 963b 8b11 5f3b a765 063b
000003b0: 3463 093b c0a8 133b 6aec 1c3b 6418 573b
000003c0: a80b 363b 80fa fe3a da6d 383b 2b5c 763b
000003d0: a3f1 993b cd6f 103b 9beb 213b ea18 723b
000003e0: ca7c 6e3b c970 3a3b 1efa 133b de74 283b
000003f0: 6012 173b 201e 133b 5712 ec3a 8b18 873b
0.0028263645 0.0034985375 0.004572544 0.0044504744 0.0030725116 0.0035888029 0.0032987427 0.00806866
0.0031490903 0.0036660682 0.0036337713 0.0026133782 0.005883126 0.008464169 0.0020164754 0.0032477698
0.004599831 0.0051187407 0.004570294 0.0033921362 0.006879067 0.0062546227 0.0019200445 0.0028838718
0.0054980177 0.0041678566 0.002911569 0.0020756428 0.002479801 0.0043910374 0.0032421758 0.0035141513
0.0033671204 0.004978392 0.0028364658 0.0028400614 0.0032134724 0.0028411264 0.004602374 0.003262252
0.0027999645 0.007990024 0.0042916657 0.002104292 0.0030307944 0.00472309 0.0035149783 0.0046971897
0.00292832 0.0020748363 0.0032239244 0.0043682884 0.0055944463 0.0036457982 0.0031465653 0.004242101
0.0029895895 0.0056753876 0.0029817938 0.003091826 0.002984717 0.003628243 0.0020904744 0.005676955
0.002418562 0.0043340307 0.0058560744 0.003512533 0.0030370187 0.0030180847 0.005331684 0.00345762
0.0052868044 0.0045429682 0.0048484085 0.0028037063 0.003744749 0.0029944119 0.0023910033 0.0033317108
0.002555634 0.003371586 0.0031015258 0.0028905193 0.0037613262 0.0051823347 0.0039232792 0.002916566
0.0049405945 0.005460373 0.003054015 0.0026878987 0.0057534664 0.002662654 0.0022100457 0.0037121968
0.0037498695 0.0042663463 0.0027476267 0.0034351232 0.0028081161 0.006671318 0.002331364 0.0028120505
0.0023315784 0.0026809184 0.0021572304 0.0021353408 0.0040319953 0.004182576 0.0030535143 0.0041356185
0.0039440556 0.003507164 0.0038287765 0.0047268933 0.0024453208 0.004181098 0.00939977 0.0039458615
0.002464224 0.0029536095 0.0039888443 0.003923755 0.0029691784 0.0061898367 0.0035409182 0.003657235
0.00316753 0.0037363705 0.0026328333 0.008165799 0.005438731 0.0030645293 0.0018952605 0.003087233
0.0024881165 0.0027569386 0.0044707744 0.0057966695 0.0052633705 0.0034710702 0.0035132666 0.003253503
0.0055018645 0.0027558384 0.005583125 0.0042464337 0.005245032 0.0020192883 0.005695003 0.002899243
0.0065326905 0.0033830774 0.005184841 0.00282829 0.002693488 0.0028932875 0.0031002709 0.004711639
0.0039980076 0.0040729363 0.0021674044 0.004387664 0.0031661517 0.003909267 0.004135722 0.0033251115
0.004491303 0.005053739 0.0030601656 0.0042827004 0.0036299163 0.0066938563 0.002960867 0.0026814474
0.0036813696 0.008123918 0.0033677202 0.004064505 0.004108369 0.0033598822 0.0025945387 0.0037714
0.0030521997 0.0036788331 0.002878405 0.0050784335 0.006267234 0.0028868571 0.0037603984 0.004023347
0.002970508 0.002782089 0.0034096239 0.0031384996 0.002144796 0.0032096016 0.0023659223 0.0048596486
0.0020578664 0.003596162 0.001899741 0.0026109985 0.0023244864 0.005947093 0.0021038717 0.0026497256
0.0037467384 0.003534551 0.0026827478 0.002049051 0.0050939047 0.004336518 0.0016985448 0.0023028776
0.002240759 0.0031586231 0.0017799042 0.0019315112 0.0021631098 0.0023014483 0.0027577512 0.004656595
0.0026494632 0.0037038883 0.0024161802 0.00229417 0.0030100893 0.0023800128 0.0035289135 0.0030288578
0.0023666683 0.004593508 0.0034037556 0.0020507367 0.002096367 0.0022531003 0.0023944625 0.0032820934
0.0027777944 0.0019453317 0.0028141649 0.0037591557 0.004697995 0.0022039295 0.0024707082 0.003694112
0.0036390298 0.0028448573 0.0022579501 0.0025704424 0.0023051724 0.0022448376 0.0018010837 0.004122799
