SmallD_SDD_InProgress/out_step5_debug_ipc30_beta0.pth (torch, 555504 bytes, 3 tensors)

module.data.weight f4 [60, 768]
000000 36 65 35 3c 7f 88 81 bd a6 93 49 3b ec 0a 0a bd
       0.011071494 -0.06324863 0.0030758171 -0.033701822
000010 37 6a 9a 3d 03 76 20 3d 2b 1d 5c 3c bf 4e 0d bd
       0.0753979 0.039175045 0.013434689 -0.034498926
000020 48 45 c1 ba 99 3c 4a bd f5 10 a9 bc e5 40 59 3c
       -0.0014745379 -0.049374197 -0.020637969 0.013260101
000030 b5 8b cf bb 55 3a db 3c 33 93 f1 3c 84 a0 65 bd
       -0.006333793 0.026761213 0.029489135 -0.056061283
000040 56 e5 c1 bd 7f 36 b3 bd ff 8d 2c 3c 31 a6 a3 bb
       -0.094675705 -0.08750629 0.010531901 -0.004994177
000050 1a 1c 9e 3c 18 46 03 bd 21 66 a6 ba 18 73 e9 3c
       0.01930051 -0.03204927 -0.0012695232 0.028497264
000060 e3 f6 10 3d b8 99 10 bd b3 d7 eb bb a3 e7 5c 3d
       0.0353917 -0.035302848 -0.007197344 0.053931843
000070 ff 57 ac 3d d8 55 5b 3d 81 b7 d8 3c d0 f3 21 bd
       0.084152214 0.053548664 0.026454689 -0.03953916
000080 36 c6 a6 bc 45 e1 2d 3b cc 87 eb bc a6 ac 8e 3c
       -0.020358186 0.0026531976 -0.028751276 0.01741631
000090 1a a1 d7 3c 57 60 f3 3b e5 94 5a bc 7f 01 46 3d
       0.026321936 0.007427256 -0.013341163 0.04834127
0000a0 02 4f e6 3c 07 4a 60 3d d9 d3 65 bd b2 e3 ec ba
       0.028113846 0.054758098 -0.056110237 -0.001807323
0000b0 4e 14 08 3c 4a 2f a0 3d 1e ab 27 bd b4 f4 d5 bc
       0.008305622 0.0782152 -0.040934674 -0.02611766
0000c0 d8 af d2 ba cf 9e 02 3d 1c f4 06 3d 10 5b 2d bd
       -0.0016074134 0.031889733 0.032947645 -0.042323172
0000d0 bd 01 18 3b 38 b6 9f 3d 96 06 96 3a 95 58 3d bd
       0.0023194395 0.07798427 0.0011446055 -0.046227057
0000e0 bf dd 0e bd 30 08 ff bb e9 2a 71 3d 73 ad f6 3d
       -0.034879442 -0.0077829584 0.058878813 0.120448016
0000f0 cf 47 33 bd b4 63 62 bc 3a 6a ff 3d b7 aa f8 bc
       -0.043769654 -0.013817716 0.12471433 -0.03035484
000100 f3 70 cf 3b 29 d2 08 3d ac 1d 69 bc d9 d9 4d 3d
       0.0063306033 0.03340355 -0.014228266 0.050256584
000110 aa ce 8f bd 65 a2 00 3e 87 0d b1 bc 63 fc 2a bd
       -0.0702184 0.12561949 -0.021612896 -0.0417446
000120 12 eb 30 bc d2 80 eb bb 53 2f 28 bd cd d3 09 bd
       -0.010798233 -0.0071869874 -0.041060757 -0.033649255
000130 bf 31 88 bd 15 d5 a5 3d 9e 01 d6 bc 32 23 25 bc
       -0.06650113 0.08097283 -0.026123818 -0.010079192
000140 ff fd 02 bd eb 66 ad 3d 12 6f 25 bd 3f b4 a3 3d
       -0.03198051 0.08466896 -0.040389128 0.079933636
000150 fd 11 27 3d f2 20 ae bc 29 ac d0 3c 72 e4 b6 3c
       0.04078864 -0.021255944 0.025472717 0.022325728
000160 7a b6 42 3a 0c 55 e8 3d d1 76 a6 bd 03 3a 25 bc
       0.0007427704 0.113443464 -0.08128131 -0.010084632
000170 dd ed 13 bc e8 8e f0 bb 6e 85 fb 3c 13 b8 e8 bb
       -0.009028879 -0.0073412545 0.030703273 -0.0071020215
000180 87 fc 9d 3d 37 02 57 bd 6a 86 05 bd a2 72 41 3c
       0.077141814 -0.052492347 -0.03259889 0.011807116
000190 76 f3 db bd 31 a6 95 bd 0d d7 87 bd 99 37 98 bc
       -0.10739796 -0.07307089 -0.066328146 -0.018581199
0001a0 05 23 0b 3d e2 48 eb 3b 0f 83 29 3b bb d2 cd 3c
       0.033968944 0.007180319 0.002586547 0.025124898
0001b0 63 48 8d 3c fe b9 e0 bc 23 01 23 bd 34 fd ca bc
       0.01724643 -0.027432438 -0.039796006 -0.02477894
0001c0 fd 69 6d bd fa 0b bd bd 42 c2 1b 3d 6c ea ed 3a
       -0.057962406 -0.092308 0.038027056 0.0018151528
0001d0 75 bf 71 3d 8c b3 84 bc 7b f4 00 bd 00 9a ea bc
       0.05902048 -0.016198896 -0.031483155 -0.028637886
0001e0 85 b6 19 bc 1b 51 1c bd 70 77 68 3d 1e 4f 47 bd
       -0.009381895 -0.038163286 0.05675453 -0.048659436
0001f0 8a e3 d5 3c 32 ed 80 3d 38 a8 fa bc df f4 9c 3c
       0.026109476 0.062952414 -0.030597791 0.019159732
000200 2a e6 0d bd 7a 92 b0 bc b7 af 12 bd 13 b4 1a 3d
       -0.03464333 -0.02155422 -0.035812106 0.03776939
000210 39 14 70 bb 40 1e 4c bc f3 a0 93 3d a9 aa 92 bd
       -0.0036633147 -0.012458384 0.07208433 -0.07161457
000220 b5 24 87 3c 51 ad 69 3b 7f 05 86 bc f8 75 59 bd
       0.016496995 0.0035656283 -0.016360043 -0.05309102
000230 7f 7f 20 bc e1 af b2 bc 30 9f 32 bc d6 5f bb 3b
       -0.009796022 -0.021812381 -0.010902211 0.0057182116
000240 24 29 ca ba 23 47 a9 3c 00 28 b2 3c 08 c1 ce ba
       -0.0015423638 0.020663803 0.02174759 -0.001577408
000250 1b f0 fe b9 66 e0 c9 3c e0 c2 a7 bc 5e cc 04 3c
       -0.00048625548 0.024643134 -0.020478666 0.008105366
000260 83 a5 04 3d c4 7b 7b bd a5 61 c6 bd 42 8a a8 3c
       0.032384407 -0.06139733 -0.09686593 0.020573739
000270 fe f6 bd bc 8c 1d 1f bd a4 9b 26 bc e5 20 44 3d
       -0.023189064 -0.038846537 -0.010168944 0.047882933
000280 69 c6 15 3d 76 80 34 bd e4 bb 6e 3c 47 23 6f bc
       0.03656617 -0.044067822 0.014571164 -0.014595813
000290 ed 1e e4 3c 4a a3 11 bd 6b b5 50 3d 1b d4 2a bc
       0.027846778 -0.035556115 0.050954264 -0.010426546
0002a0 c0 5b 8b bc ce 4b 05 bc 7f 4f b9 bc f8 77 18 bd
       -0.017011523 -0.008135749 -0.022620915 -0.037223786
0002b0 a2 9d b1 3c f7 9e 5f bd 71 29 b0 3c 7a 04 09 bc
       0.02168161 -0.05459496 0.021504136 -0.008362884
0002c0 d0 cc 83 3c 90 db 36 bd 5b b0 2b bd 2b 7a e8 bb
       0.016088873 -0.044642985 -0.041916233 -0.0070946417
0002d0 41 26 44 3d ba dd 3a bc 3c 23 80 3d 5c df 5d 3d
       0.047888044 -0.011405403 0.062567204 0.05416809
0002e0 05 a6 64 bc e4 75 62 bd 14 11 91 3d ac ba 4b 3b
       -0.013955598 -0.05528821 0.070833355 0.0031086607
0002f0 e0 c8 b3 3b bf 33 cb bb 1d f2 a4 bc c6 10 c8 bd
       0.0054865927 -0.006201237 -0.02013498 -0.09768824
000300 71 9d 9c 3c 2e 79 71 3b 71 72 d1 3c d6 3e e5 bc
       0.019118043 0.003684591 0.025567265 -0.027984064
000310 f2 fe 08 3d 2e 03 4d 3d 69 40 d8 3c 19 6a 61 3c
       0.03344626 0.05005186 0.0263979 0.013758206
000320 ad 7e 1a bb c7 7d 0f bd 0a 16 0a 3c 74 e2 de 3c
       -0.002357404 -0.03503206 0.008428106 0.02720759
000330 92 d6 b6 3c 24 d5 5c bd 1c 19 fc 3b bc be 87 bd
       0.022319112 -0.053914204 0.007693423 -0.066281766
000340 10 ab eb 3c fc 01 20 bd 65 4c f1 3c f5 e7 04 3a
       0.028768092 -0.039064392 0.029455373 0.00050699647
000350 08 35 52 bd c1 72 2d 3d 8e 54 39 bc 2c 3a aa bd
       -0.051320106 0.042345766 -0.011311663 -0.08311877
000360 a4 aa 17 3d 13 49 33 3d c7 6d 83 bc 97 a5 94 3c
       0.03702797 0.04377086 -0.016043557 0.018145366
000370 f3 f4 57 3c ea f5 4f 3b cb 7f 1b bd 0b 7a 6b bc
       0.013180959 0.003173227 -0.03796367 -0.014372359
000380 66 ba 00 bd 1d 53 35 3d 0b eb b6 3c 72 82 1e 3c
       -0.031427763 0.044268716 0.022328874 0.009674655
000390 d8 8c 3a 3c 0e fe be 3c 6b 43 09 bd d8 8b b9 bc
       0.011386119 0.023314502 -0.03351156 -0.02264969
0003a0 c2 da 6e 3c fc 16 bc bb 90 5d 90 bd 12 53 6b 3c
       0.014578523 -0.0057400446 -0.07049096 0.014363067
0003b0 b4 28 43 bd e7 e5 63 3d f5 23 4a 3d 47 6b 06 bd
       -0.04764624 0.055639174 0.049350698 -0.03281715
0003c0 26 57 13 bd c6 2f 8e bd 86 3a 03 3c 64 6d 82 bd
       -0.035971783 -0.06942706 0.008009559 -0.06368521
0003d0 53 1d ad 3d 7c 12 ec 3c 9c b7 05 37 8d 66 d3 bc
       0.08452859 0.028817408 7.970168e-06 -0.025805736
0003e0 d7 0c a3 3c 84 4b 07 3d c8 60 26 3d 9a 87 ff 3c
       0.019903583 0.033031 0.04061964 0.03119259
0003f0 3f 55 6a bc 60 b3 44 3d f8 24 e5 3d 71 84 d5 bc
       -0.014302551 0.048022628 0.11188692 -0.02606413

exp_avg f4 [60, 768]
000000 bd a6 13 bc 2f 03 6a bb 9e b1 88 bb b2 43 6c ba
       -0.0090119215 -0.0035707464 -0.0041715642 -0.0009012773
000010 82 43 81 ba aa 1d 27 bb 7d b6 0d bb 14 69 c0 bb
       -0.0009862038 -0.002549986 -0.0021623664 -0.0058719013
000020 55 95 6a bb 5d d2 93 3a 39 77 67 bb 41 12 52 3a
       -0.0035794575 0.0011277903 -0.0035318865 0.00080135843
000030 bd 48 cd 3b ae 0b 7e bb ef d8 66 39 a1 a1 a4 3b
       0.0062647746 -0.0038764286 0.00022015323 0.0050241505
000040 1d c8 6f bb 26 90 12 bb 29 cc 34 b9 31 af ab 3b
       -0.0036587783 -0.0022363751 -0.00017242193 0.0052393903
000050 a8 59 b4 39 22 dd 51 3c c9 84 84 3b 80 ba 40 3b
       0.00034399075 0.01280907 0.0040441495 0.0029408038
000060 40 ce 25 3a 00 6a 1f 3b 79 28 22 3b fa 24 4f 3b
       0.0006324984 0.0024324656 0.0024743362 0.0031607733
000070 6c 2a 37 3a 48 97 0e 3b c4 4b a2 ba 9c 28 0b b8
       0.00069872173 0.002175765 -0.0012382199 -3.3178003e-05
000080 dd 7a ae 39 cb 4d 56 3a 2e 9d 09 3b 39 2e 12 bb
       0.00033279406 0.0008175044 0.0020998227 -0.0022305383
000090 55 51 dd 3a 40 ee 77 3b b5 66 bc 3a 78 ec 03 3c
       0.0016885201 0.0037831217 0.0014373871 0.008051984
0000a0 b2 03 73 3a 26 bf a9 bb 65 e9 6a ba c1 1a 84 ba
       0.0009270265 -0.0051802574 -0.000896117 -0.0010078774
0000b0 a4 06 ed 3a f5 07 46 3b e2 a9 ac bb 6c 1e 3b 3c
       0.0018083644 0.0030217145 -0.005269275 0.011420827
0000c0 37 90 d1 3a 3d af f9 39 a8 0d 1e 3b 5a f0 4d bb
       0.0015988414 0.00047623544 0.0024117026 -0.0031423778
0000d0 b8 da 5e 3b 0e f0 ab b9 df 98 81 ba fd 1b 7f bb
       0.0034004878 -0.00032794516 -0.0009887478 -0.0038926594
0000e0 d3 e6 7a ba 98 74 06 ba 64 2e 99 b9 5d 0b 1f 3a
       -0.00095711387 -0.0005129068 -0.00029216998 0.0006067062
0000f0 41 c2 a8 3b 92 67 50 3b 54 57 0f 3b 7d 73 16 3a
       0.00515011 0.0031800014 0.002187212 0.0005739255
000100 28 ac 93 bb 28 7a 9f bb ba bb cc 3a 61 1c 7f bb
       -0.0045066066 -0.004866857 0.0015619912 -0.0038926827
000110 bb 79 7f 3b ea b8 4b bb 42 49 47 bb 02 e0 5f 3b
       0.003898247 -0.003108556 -0.0030408655 0.0034160619
000120 f9 0a 18 3b ef ea bd 3a 1b fb 5e 3b d2 78 82 bb
       0.00231999 0.0014489571 0.0034024182 -0.003981688
000130 28 b3 31 3b 5e cc 72 3b be 12 aa 3b cb 8b d2 3a
       0.0027114842 0.0037048082 0.0051902225 0.001606339
000140 21 0e ab 3a 5c 3e 65 3a 12 0f c0 3b ba 73 c6 ba
       0.0013050475 0.0008744949 0.0058611715 -0.001514069
000150 fe 10 9a 3a 3d eb 0c ba 4c c4 dd b9 7c 64 ff 39
       0.0011754332 -0.00053756294 -0.00042298657 0.00048712257
000160 63 c7 20 bb d2 1d 07 3b 64 9d 89 3b a1 24 d4 39
       -0.0024532906 0.002061714 0.0041996706 0.00040463082
000170 3f 34 97 3b 80 06 1e bb 1d 1c c3 ba a8 18 2e bb
       0.0046143825 -0.002411276 -0.0014885698 -0.002656499
000180 d8 5e c7 3b ca d2 f5 ba 75 d9 19 bb 08 bf 93 3b
       0.0060843043 -0.0018754837 -0.0023475562 0.0045088567
000190 9f ba 73 3b 15 b1 99 ba 4c 51 a2 3b e4 9a 80 3b
       0.0037190092 -0.0011725748 0.004953539 0.0039247144
0001a0 da e0 83 3b a4 46 8a 3b f8 8b 66 3b c7 c5 5d 3b
       0.004024607 0.004219847 0.0035178643 0.0033839808
0001b0 10 67 47 ba 9f 50 90 ba d6 4e 11 bb 4f 8f 95 3a
       -0.0007606605 -0.0011010355 -0.0022172234 0.0011410507
0001c0 d7 60 12 3b 91 e0 1b bb 91 6d 45 3a e4 15 08 bb
       0.0022335553 -0.0023784975 0.000753128 -0.0020765
0001d0 1a bc 21 bb 9e 60 a6 ba 0b 84 0e 3b a5 9c e0 3a
       -0.0024678768 -0.0012693589 0.0021746184 0.0017136527
0001e0 18 50 4e bb b3 0a 5e bb 55 32 3d bb c0 88 0a 3b
       -0.0031480845 -0.003388089 -0.0028869112 0.0021138638
0001f0 4a 48 45 bb f8 58 01 bc de 10 8e 3b e2 ea a4 bb
       -0.0030102902 -0.007894747 0.004335507 -0.005032883
000200 f1 40 f0 b9 a6 15 80 3b b0 83 84 bb a0 1d e7 bb
       -0.00045824752 0.0039088307 -0.0040440187 -0.007053092
000210 b2 18 94 bb 33 6c 4b bb 07 8e 85 bb 45 6a f0 b9
       -0.0045195455 -0.0031039834 -0.004075769 -0.00045855544
000220 7d 63 3b 3a e1 ac 0f ba f1 26 03 3b e3 9f 00 3b
       0.0007148309 -0.0005480778 0.0020012225 0.001962655
000230 1f b7 47 b9 bb 1c 61 ba e7 28 bc 3b 1a 59 c9 ba
       -0.00019046337 -0.000858735 0.0057421806 -0.0015361637
000240 a6 f2 fc 3a ff f5 c6 3b 57 d7 57 3b f0 71 1a 3b
       0.0019298389 0.0060718055 0.003293475 0.0023566447
000250 c4 40 b7 3b ef 33 63 bb 8d f1 6a 3b e0 e5 93 bb
       0.0055924375 -0.0034668406 0.0035849542 -0.004513487
000260 dc 3f 51 bb 13 81 89 3b 9e 85 6c 3b 1a 84 7f bb
       -0.0031928932 0.004196295 0.0036090384 -0.003898865
000270 2a 23 68 bb 29 3b 5c 3b a9 63 03 3b 1f c5 c1 b7
       -0.003542135 0.0033604598 0.0020048416 -2.3099185e-05
000280 08 f1 5e bb 1c de e0 bb 29 fc 45 3c a1 41 6b ba
       -0.0034018178 -0.006862415 0.012084045 -0.0008974318
000290 41 36 7b 3b 33 42 8d 3b 43 f7 75 bb d1 d8 72 3b
       0.0038331898 0.00431087 -0.0037531413 0.0037055502
0002a0 51 fa 2c 35 fe cd 87 38 79 43 a6 3b d7 ff 34 bb
       6.443925e-07 6.475671e-05 0.0050739613 -0.0027618313
0002b0 71 3c bd ba 3b f4 48 3b d7 e3 a0 b9 99 55 87 bb
       -0.0014437569 0.003066315 -0.00030687332 -0.004130077
0002c0 18 17 3d 3b d2 32 2b 3c 20 50 da 3a 17 a0 cc b9
       0.0028852876 0.010449128 0.0016655959 -0.00039029188
0002d0 33 01 54 bb a8 03 98 3b df 7f 11 3a 88 74 63 3b
       -0.0032349348 0.0046391077 0.00055503653 0.003470691
0002e0 15 81 28 bb 3c bf 13 bb e5 dc c6 bb f4 be 9f ba
       -0.0025711705 -0.0022544404 -0.006068813 -0.0012187646
0002f0 17 78 68 3a b1 7a f3 39 ff 9d 3a bb 7d cb bf 3b
       0.00088679924 0.00046439984 -0.002847552 0.005853115
000300 b3 54 25 bb 32 5c 5a bb 0a 67 da bb 8f ba 86 bb
       -0.0025227487 -0.0033319113 -0.0066651152 -0.004111595
000310 c3 4a 4b ba a0 7a 16 bb d1 2d 50 ba 46 e3 ec ba
       -0.0007754976 -0.0022961274 -0.00079413975 -0.0018073104
000320 27 f7 c6 b9 b6 5c 07 36 92 26 21 3b 81 ff 0a ba
       -0.00037949646 2.0170532e-06 0.002458964 -0.0005302355
000330 e6 b2 45 3b 95 19 af bb a7 2b 1d ba 74 fe 37 3b
       0.0030166446 -0.005343626 -0.00059955794 0.002807525
000340 3b b2 db bb 45 b0 c2 b9 42 a9 9f ba 8f 0e 67 3b
       -0.0067045963 -0.00037133895 -0.001218118 0.003525648
000350 1e 04 c6 ba c5 47 f9 3b 75 72 83 3b 6c b8 cd 3a
       -0.0015107428 0.0076074325 0.004011447 0.0015695221
000360 9a 66 16 39 d3 f1 01 b9 4f e9 f4 ba 80 1a 9c b9
       0.00014343337 -0.00012392485 -0.0018685254 -0.00029774383
000370 30 70 c8 3a c7 cb a4 3a 3a 21 9e bb 1f 57 1f 3b
       0.0015292224 0.0012572937 -0.0048257383 0.0024313403
000380 5c 2f 3b 3b a4 19 92 b8 4a 0b 64 3a 45 89 57 b9
       0.0028562164 -6.9665984e-05 0.0008699192 -0.00020555135
000390 56 cc 2e 38 93 6d 98 3b cb ff a0 b9 2b 6e 72 3b
       4.1675135e-05 0.004651734 -0.0003070816 0.0036991935
0003a0 d8 3a 67 ba 77 aa 3c bb f0 60 7c b9 1f d0 0b ba
       -0.0008820719 -0.0028788128 -0.00024068705 -0.00053334417
0003b0 33 7f 40 3b f2 d0 da 3a e2 54 7f ba 24 ef b0 3b
       0.0029372692 0.0016694351 -0.00097401266 0.0053996015
0003c0 c3 fe aa ba c6 29 c3 38 fc cb f9 3a a0 a8 14 3a
       -0.0013045896 9.3061055e-05 0.0019057984 0.0005670879
0003d0 85 1e 23 3b 4b 9a 03 ba 56 8f 1c 3b 5b 29 75 bb
       0.0024890017 -0.0005020245 0.0023889146 -0.0037408683
0003e0 af 05 8c 3b 88 36 28 bb 20 0d ac ba b4 2d 49 3b
       0.0042731385 -0.0025667269 -0.001312647 0.0030697407
0003f0 66 9f 15 37 81 69 33 3b e2 1d 33 3b 6f 2f 40 3a
       8.918205e-06 0.0027376118 0.0027331044 0.0007331287

exp_avg_sq f4 [60, 768]
000000 00 92 5f 3a 7a 81 77 3b 4f fa 39 3b 89 0a 9f 3a
       0.00085285306 0.0037766383 0.0028377955 0.0012133877
000010 e9 71 66 3a 9a a2 0f 3b 75 82 42 3b 38 8d 68 3b
       0.00087907776 0.0021916986 0.002967981 0.0035484564
000020 db 75 2c 3a 80 42 0d 3c f4 74 51 3a 8f 66 19 3c
       0.0006578841 0.008621812 0.00079901447 0.009362831
000030 5b a9 3e 3b 50 f6 ab 3a 0c ce 78 3b e1 5c 65 3a
       0.0029092643 0.0013119671 0.003796461 0.0008749497
000040 ef b6 96 3b d3 ba 5d 3a 18 6d 47 3b 3b bb f1 39
       0.004599444 0.000845832 0.0030430015 0.000461066
000050 c6 fb a5 3a 53 a8 6c 3a ab 18 82 3a c7 ce 53 3a
       0.0012663535 0.0009027768 0.0009925565 0.00080798235
000060 15 a4 12 3a a1 9d af 3a 10 3a 21 3c 80 8d 59 3b
       0.0005593908 0.0013398418 0.009840503 0.0033195913
000070 77 f9 40 3b a0 a5 1b 3b fb e9 ea 3a c8 38 4f 3a
       0.0029445568 0.0023749843 0.0017922515 0.00079048844
000080 4e b4 3a 3a 1d ab 0d 3b b2 49 f2 39 e6 fe c5 3b
       0.00071222044 0.0021616884 0.00046212744 0.006042349
000090 e5 33 0c 3a 77 9d eb 39 be 1f 80 3b 96 39 b0 3a
       0.0005348309 0.00044940013 0.003910034 0.0013444896
0000a0 33 20 19 3b 72 02 9f 3a a8 f4 2e 3a 5d 18 79 3b
       0.002336514 0.0012131466 0.000667403 0.0038008906
0000b0 33 d1 8a 3a 32 1d 7e 3a a1 88 78 3a 0f 50 e6 3a
       0.0010590911 0.00096936815 0.00094808085 0.0017571467
0000c0 d6 c5 a5 3b 02 5b 50 3b ce e6 f3 39 0e d9 a2 3b
       0.0050589843 0.0031792526 0.00046520535 0.0049697226
0000d0 d6 6f 84 3b c6 b8 e4 39 a9 4a 5d 3b fa 17 18 3b
       0.004041652 0.00043625216 0.0033766425 0.002320765
0000e0 fd d4 5e 3b 5a fb 05 3b f0 11 50 3a 31 02 27 3b
       0.0034001463 0.0020444007 0.0007937243 0.0025483484
0000f0 ca a8 2c 3a d0 18 29 3a 01 3d 6a 3b 2b 0c 26 3c
       0.0006586431 0.0006450536 0.0035741928 0.010134737
000100 81 4b 2c 3a 91 24 6e 3b 0b 1a 39 3a 67 03 b7 3c
       0.000657253 0.0036337713 0.00070610706 0.02234049
000110 f8 83 e0 3b 0b 07 03 3b 10 f8 08 3b 53 23 20 3b
       0.0068516694 0.0019993212 0.002089981 0.0024435117
000120 ee 1f 1c 3c 38 af 90 3a 48 49 fb 3a 91 46 f2 3a
       0.009529097 0.0011038547 0.001917162 0.0018484165
000130 74 3f bb 3a 33 5a 63 3a 12 fb 37 3a 58 ec c1 3b
       0.0014285878 0.00086728035 0.00070183084 0.005918067
000140 07 78 35 3a 94 13 33 3a 11 6f 8b 3b fc b7 17 3b
       0.00069224875 0.00068312255 0.0042551835 0.0023150435
000150 0c 5f 4e 3a 74 6b 5e 3b 34 97 39 3b f7 bb b1 3b
       0.00078724395 0.0033938559 0.0028318884 0.0054240185
000160 6a fc 23 3a af aa 8d 3a 7e a1 6a 3a 1a 5c 2b 3b
       0.0006255569 0.0010808314 0.0008950456 0.0026147426
000170 21 96 98 3a 0b 20 2d 3a 40 c9 8d 3a 86 30 1f 3b
       0.0011641422 0.0006604201 0.0010817423 0.0024290397
000180 04 a2 55 3a ae 37 17 3a 8c 71 36 3a 88 b0 a4 39
       0.00081494474 0.000576849 0.0006959669 0.00031412044
000190 10 17 ea 39 6a 9f 1d 3c 9d 02 12 3b 42 3b 19 3b
       0.0004464914 0.009620527 0.002227939 0.0023381268
0001a0 53 59 49 3b 81 c8 24 3a a7 da 55 3a fd 8a 08 3b
       0.0030723407 0.0006285981 0.0008157887 0.0020834797
0001b0 32 42 95 3a 2f d2 d6 3b c6 b6 37 3b bf 6e 85 3a
       0.0011387526 0.0065558176 0.0028032525 0.00101801
0001c0 90 e1 69 3a 3d 1d 0c 3b d5 e6 61 3b 38 c1 dc 3a
       0.0008921856 0.0021379732 0.0034469862 0.0016842252
0001d0 ce 86 b5 3a 30 40 09 3a d4 0b d4 3b 52 9f 94 3b
       0.0013849379 0.00052357 0.0064711366 0.004535594
0001e0 44 d0 85 3a 8c 35 a1 3b 19 3e 85 3b 76 b7 f1 3a
       0.0010209163 0.0049197134 0.0040662405 0.0018441516
0001f0 20 51 2e 3b ed 4e 1d 3b 4b 93 2a 3a 6e e7 e0 3b
       0.0026598647 0.0024003342 0.0006506934 0.006863526
000200 a1 37 00 3b b2 55 30 3a 78 7a 5c 3b 54 da bb 3b
       0.0019564407 0.0006726637 0.0033642333 0.005732814
000210 d1 9e a6 3a 6d 09 4d 3a ed 88 6b 3a 23 3f db 3a
       0.0012712126 0.0007821534 0.0008984942 0.001672719
000220 27 3e a5 3b c2 53 90 3c c9 dd 70 3b d6 a9 41 3b
       0.0050428095 0.017618064 0.0036753288 0.0029550693
000230 f0 73 c5 3b aa fe 14 3a 8b 81 91 3a 91 6a 08 3c
       0.0060257837 0.00056837 0.0011101229 0.008326189
000240 4e ae 7b 3a 0b d4 66 3b 97 a2 47 3a fe 59 7a 3a
       0.00096008636 0.0035221602 0.00076154753 0.0009550153
000250 14 8c 17 3b 07 b5 83 3b eb 5b 34 3a ff 3e 1f 3b
       0.0023124265 0.004019383 0.0006880152 0.0024299023
000260 9a 9c 9b 3b e9 fa c8 3a 81 53 75 3a dc 4b f0 39
       0.004748893 0.0015333566 0.00093584514 0.00045832887
000270 5a 74 96 3b 07 b9 a8 39 94 1e 2f 3b 7d 7d fb 39
       0.004591507 0.00032181313 0.0026721107 0.00047967947
000280 7c 6e 0c 3b ae 64 8f 3a 8c 55 02 3a 20 b9 48 3c
       0.0021428159 0.0010940039 0.0004971854 0.0122511685
000290 4f 24 8b 3b c3 09 95 3b af 40 1f 3b 04 ab 61 3a
       0.0042462717 0.004548283 0.002430003 0.0008608552
0002a0 40 8c 27 3c 54 92 3b 3b 95 7d 9b 3a d0 d6 df 3a
       0.010226309 0.0028621154 0.0011862988 0.0017077569
0002b0 bd 67 03 3b ec 6d 61 3a 67 38 9c 3b 4f 67 29 3c
       0.0020050847 0.00085994485 0.004767466 0.010339572
0002c0 a8 19 8c 3a 94 94 cd 3b f8 57 21 3a 78 da 23 3b
       0.0010688799 0.0062738154 0.0006154771 0.0025002044
0002d0 c5 92 9e 3b 00 8a 76 3b b4 fd c4 3a 51 9b 25 3a
       0.0048392736 0.0037618876 0.0015029223 0.00063173944
0002e0 23 7a e1 3a 1a d7 93 3a d9 aa 94 3a ad 4f 13 3a
       0.0017202537 0.0011279315 0.001134242 0.00056194776
0002f0 5c 52 44 3b 05 fd 1e 3b 51 73 a0 3b f0 d7 2f 3c
       0.0029956317 0.0024259698 0.0048965593 0.010732636
000300 d4 33 b4 39 21 57 42 3b 32 02 27 3b 35 37 4f 3a
       0.0003437089 0.0029653984 0.0025483486 0.000790465
000310 76 55 95 3a e5 26 74 3b 39 73 f3 3a d1 82 f6 3a
       0.0011393267 0.0037254628 0.0018573768 0.0018807297
000320 73 37 2b 3a d5 48 9f 3b 86 a9 d8 39 93 28 3b 3c
       0.0006531395 0.004860977 0.00041325035 0.011423248
000330 3a 62 d1 3b e6 94 d2 3a 3f 70 e6 3a 99 38 09 3b
       0.0063898833 0.0016066104 0.0017581059 0.0020938276
000340 0e 42 84 3b 1b b5 31 3a 7f 8e e7 3b 15 e7 eb 39
       0.0040361946 0.0006779001 0.0070665474 0.00044994862
000350 b8 11 bd 3a 22 3f 36 3a c6 20 06 3b 65 c1 b8 3a
       0.0014424836 0.00069521565 0.0020466312 0.0014095722
000360 8c a5 18 3a 7f c4 c8 39 87 6d 42 3c 9e 36 05 3c
       0.0005823008 0.00038293374 0.011866934 0.0081306975
000370 0f 84 67 3b e2 5f c4 3a 35 17 0d 3b a8 50 0c 3a
       0.0035326516 0.0014982189 0.0021528725 0.0005352595
000380 25 8e 4d 3a a4 05 5c 3a d6 1b ad 3a ff 38 b6 3b
       0.00078413106 0.00083931745 0.0013207148 0.0055609937
000390 f6 e5 b2 39 a8 b8 24 3a e2 6a 17 3b 23 5b c7 3a
       0.0003412214 0.00062836194 0.0023104479 0.0015209656
0003a0 90 db 0a 3b a5 79 8e 3a 96 a7 ac 39 c2 0b 99 3a
       0.0021187998 0.0010869993 0.00032931258 0.0011676478
0003b0 d8 8f 0a 3b ec 3f 01 3b 1a 19 37 3a 75 e8 29 3b
       0.0021142866 0.0019721938 0.00069846364 0.0025925909
0003c0 fe 45 58 3b 5f ea 93 3a 76 9f 25 3a 67 f1 3a 3b
       0.0033000703 0.0011285058 0.0006318012 0.0028525235
0003d0 9d af c8 3b fe 90 96 39 3b 90 1c 3b 9e b0 15 3b
       0.0061244504 0.00028718257 0.002388968 0.0022840868
0003e0 99 ed 57 3b 59 38 0c 3b 47 de 45 3a 86 0e a9 3a
       0.0032948016 0.002139589 0.00075480755 0.0012898005
0003f0 08 16 95 3a 0f 7f b3 3a a6 99 8c 3b 34 75 12 3c
       0.0011374364 0.0013694483 0.0042907773 0.008939076
