SmallD_SDD_InProgress/out_step5_ipc5_s0_tf_adamlr.pth (torch, 94704 bytes, 3 tensors)

module.data.weight f4 [10, 768]
0	0xbc646931	-0.013941095
1	0xbc7aca7b	-0.015307064
2	0xbcd235a9	-0.025660353
3	0xbd6d3ee1	-0.057921294
4	0x3cd07df0	0.025450677
5	0x3cb7a4a2	0.02241737
6	0xbd4c4a95	-0.049875814
7	0x3b2ac052	0.0026054573
8	0xbcb0b17c	-0.021569006
9	0xbd61c7a4	-0.055122033
10	0x3cad9417	0.021188779
11	0x3caa2d7e	0.020773645
12	0xbcf9ea86	-0.030507337
13	0x3d1be9ab	0.03806464
14	0x3d622481	0.055210594
15	0xbc9d3386	-0.019189607
16	0xbd1e9bce	-0.038722806
17	0xbd3589aa	-0.04432074
18	0xbd199faf	-0.0375058
19	0x3c20ed44	0.0098221935
20	0x3c2a5527	0.010396278
21	0xbcc757df	-0.024333892
22	0x3c8d38d9	0.017239021
23	0xba753cc7	-0.0009355065
24	0xbc0d92ee	-0.008640988
25	0xbd0826dd	-0.033240188
26	0x3ccabb5f	0.024747549
27	0x3d1dd8d9	0.03853688
28	0x3d8618c6	0.06547694
29	0x3cd1de5e	0.025618728
30	0x3d602048	0.054718286
31	0xbca05ea6	-0.019576382
32	0x3d23b99d	0.039971936
33	0xbd1440b1	-0.036194507
34	0xbd5b55eb	-0.053548735
35	0x3cc93c72	0.024564955
36	0x3cfbd4af	0.030741064
37	0xbce4dc9b	-0.027937224
38	0x3ce5c36a	0.028047282
39	0xbcf182a2	-0.029481236
40	0x3d29086e	0.041267805
41	0x3ba754ba	0.0051065357
42	0xbd5ba4f4	-0.05362411
43	0xbd0bc1ea	-0.034120478
44	0xbc294380	-0.010331035
45	0x3cfd3a66	0.030911636
46	0xbd70d291	-0.05879456
47	0xba59c156	-0.00083067024
48	0xbc52ec36	-0.0128737
49	0x3d384975	0.04499193
50	0x3d30effc	0.043197617
51	0x3dad3430	0.084572196
52	0xbd0a2f11	-0.033736292
53	0xbbbbe64a	-0.0057342397
54	0x3cecac50	0.028890759
55	0x3c6c6770	0.014428958
56	0xba192d1b	-0.0005843208
57	0x3c77e4ec	0.015130263
58	0x3da3a550	0.07990515
59	0x3e0ab163	0.1354423
60	0xbd2dd340	-0.04243779
61	0xbd71cc8e	-0.05903297
62	0x3dc37494	0.0954372
63	0xbc1ec4b2	-0.0096904505
64	0xbd7cfcfa	-0.061764695
65	0xbc364557	-0.01112493
66	0x3d94bd82	0.07262708
67	0xbc28db66	-0.010306215
68	0xbc443d8e	-0.011977566
69	0x3d8f97c8	0.07011372
70	0x3cae4e0c	0.02127745
71	0x3cbdc124	0.023163386
72	0xbd9f5a6d	-0.07780919
73	0xbb0705ae	-0.002060275
74	0xbc7f43e6	-0.015580153
75	0xbc46fcfe	-0.012145279
76	0xbd5de865	-0.054176707
77	0x3da48910	0.08033955
78	0x3d5d44dd	0.05402075
79	0x3d0d5938	0.034508914
80	0x3cd1ba8f	0.025601653
81	0x3d308712	0.043097563
82	0x3ba1ca4a	0.004937445
83	0x3d3ef60d	0.04662137
84	0xbab9c178	-0.0014172038
85	0xbd2d188d	-0.04225974
86	0x3cc2835a	0.023744274
87	0x3d8922d1	0.06696094
88	0x3bc37a0b	0.0059654764
89	0x3d6f5a3c	0.058435664
90	0xbda1199d	-0.078662135
91	0xbca8949b	-0.020578673
92	0xbc41c981	-0.011827827
93	0xbd540fbf	-0.05177283
94	0x3c07f458	0.008298002
95	0x393bdfaf	0.00017917038
96	0x3d7f943d	0.06239723
97	0xbd07574c	-0.033042237
98	0xba022cf0	-0.00049658027
99	0x3d194d2c	0.037427112
100	0xbda0ff21	-0.07861162
101	0xbcf9f270	-0.030511111
102	0xbbb695fd	-0.005572079
103	0x3d237636	0.039907657
104	0x3c7041c6	0.014664119
105	0xbb947314	-0.00453032
106	0x3d040914	0.03223522
107	0x3d28c592	0.041204043
108	0x3cbe2ac0	0.023213744
109	0xbd504f82	-0.050857075
110	0x3da205d3	0.07911267
111	0xbd8409f1	-0.06447209
112	0x3d5fa031	0.05459613
113	0xbd9562d6	-0.07294242
114	0x3d0e712b	0.034775894
115	0xbd87d977	-0.06633275
116	0x3d909b98	0.07060927
117	0x3d006946	0.031350397
118	0xbcb72fbf	-0.022361634
119	0x3a33959b	0.0006850601
120	0xbc2aee08	-0.010432728
121	0xba537a38	-0.0008067223
122	0x3d1017b9	0.035178874
123	0xbb1126f2	-0.0022148457
124	0xba8ec64a	-0.0010892835
125	0x3d765e1a	0.060148336
126	0x3c6db5b6	0.014508655
127	0x3b87a09d	0.0041390196
128	0xbc437e79	-0.011932009
129	0xbd583746	-0.052787088
130	0x3b5098d1	0.0031829367
131	0x3baef26c	0.0053389575
132	0x3d4abc67	0.04949608
133	0x3c2ce5cf	0.0105528375
134	0x3d4fb918	0.05071363
135	0xbc4d8711	-0.012544409
136	0xbcacdbea	-0.021100957
137	0x3da62230	0.081119895
138	0xbce7e943	-0.02830947
139	0xbc43a06a	-0.011940101
140	0x3d246596	0.040135942
141	0xbcb0a4a1	-0.021562876
142	0x3c9ead65	0.01936979
143	0x3ca89ffc	0.020584099
144	0x3cac3f3e	0.02102625
145	0x3d490e95	0.049086172
146	0x3cbdda5e	0.023175415
147	0x3d94e880	0.07270908
148	0x3c266712	0.01015641
149	0x3cb7a813	0.022419011
150	0xbd2078a5	-0.039177556
151	0xbc6552f8	-0.013996832
152	0x3c584331	0.013199613
153	0xbb87407b	-0.0041275597
154	0xbd918803	-0.0710602
155	0x3d55cfd1	0.052200142
156	0x3af172c7	0.0018421047
157	0xba8e19a5	-0.0010841383
158	0xbce52b39	-0.027974712
159	0xbb5ed56d	-0.0034001723
160	0x3d2912d5	0.041277725
161	0xbd07fce2	-0.033200152
162	0x3d52fae1	0.051508788
163	0xbd3827de	-0.044959895
164	0xbc435589	-0.011922249
165	0x3caa9987	0.02082516
166	0x3cf8db4d	0.030378008
167	0x3d2fb040	0.042892694
168	0x3d348902	0.044075973
169	0xbd39f237	-0.04539701
170	0x3bfbfeba	0.007690278
171	0xbce7eda6	-0.028311562
172	0x3c8f0600	0.017458916
173	0xbd6e799c	-0.058221444
174	0xbcb59f0b	-0.022170564
175	0xbd4a4150	-0.049378693
176	0xbc65f7d2	-0.014036136
177	0xbd3a139a	-0.04542885
178	0xbd878f0d	-0.06619082
179	0xbc897048	-0.016777173
180	0x3d372777	0.04471537
181	0x3c89b7e1	0.016811313
182	0x3d242237	0.040071692
183	0xbd05677b	-0.03256939
184	0xbd9907f4	-0.0747222
185	0xbd6bbecb	-0.057555
186	0x3d97406a	0.07385333
187	0x3d0e9ec8	0.034819394
188	0x3c3c33d5	0.011486967
189	0x3c1c1ec5	0.00952882
190	0xbd95a8ab	-0.073075615
191	0xbdc13c8b	-0.09435376
192	0x3b352015	0.002763753
193	0x3d672113	0.056428026
194	0xbc3788c8	-0.011202045
195	0xbcf4de02	-0.029891018
196	0xbc960de7	-0.018317176
197	0x3cdce49b	0.026964476
198	0xbcb8838b	-0.022523662
199	0x3dbf6368	0.09345132
200	0xbdab5c35	-0.083671965
201	0xbd6778fc	-0.056511864
202	0x3d11ff41	0.03564382
203	0x3bda6350	0.006664671
204	0xbc19388b	-0.00935186
205	0xbd617b56	-0.055049263
206	0x3cf9e870	0.030506343
207	0x3bd600e7	0.0065308693
208	0x3d2a862f	0.041631874
209	0x3c77f285	0.015133505
210	0xbd38bf9b	-0.045104604
211	0x3c740ead	0.014896077
212	0xbd89f2b5	-0.06735746
213	0x3c907535	0.017634014
214	0xbca66142	-0.020310048
215	0xbd8679f2	-0.06566228
216	0x3c692e13	0.014232176
217	0x3ceaed68	0.028677657
218	0xbc11e319	-0.008904242
219	0x3d6b7b87	0.05749085
220	0x3d9610d0	0.073274255
221	0xbce736ac	-0.028224312
222	0xbcea8338	-0.028627023
223	0x3c112420	0.0088587105
224	0xbc6f9019	-0.014621758
225	0x3d10122c	0.03517358
226	0xbce904c4	-0.028444655
227	0xbcb40e35	-0.02197943
228	0xbb63de96	-0.0034770123
229	0xbcddef80	-0.027091742
230	0xbb8d3c31	-0.004310154
231	0xbdb041a1	-0.08606268
232	0x3cd5d51b	0.026102593
233	0xbd438a56	-0.04773935
234	0xbd3168a5	-0.043312687
235	0xbc469d54	-0.012122471
236	0xbd59c259	-0.05316386
237	0xbd3c51d3	-0.04597647
238	0xbc39bd8c	-0.011336695
239	0xbbeb5664	-0.0071819294
240	0xbdaadb23	-0.08342578
241	0xbdc43087	-0.09579568
242	0x3cd1b29d	0.025597865
243	0xbb23b89d	-0.0024981864
244	0x3cb78332	0.022401426
245	0xbc2e4a05	-0.010637765
246	0x3c98c279	0.01864742
247	0x3ba81c01	0.0051302915
248	0x3c61b462	0.013775917
249	0x3ce58663	0.028018182
250	0x3d6f6254	0.058443382
251	0x3ad93f15	0.0016574586
252	0xbd6498b2	-0.055809684
253	0xbc70af1b	-0.014690186
254	0x3d2b8b3b	0.041880827
255	0x3cceef4d	0.025260592

exp_avg f4 [10, 768]
0	0x3d672159	0.056428287
1	0xbdf350b8	-0.1188063
2	0xbd21f199	-0.039537046
3	0xbc171023	-0.009220156
4	0x3cdfb27d	0.02730679
5	0xbcf7de7a	-0.030257452
6	0x3cdb8802	0.026798252
7	0x3d9b88af	0.0759443
8	0xbce2896c	-0.027653418
9	0x3cb1dd2f	0.021711914
10	0xbd340a77	-0.043955293
11	0xbd9905c0	-0.074718
12	0xbc4e3a71	-0.012587176
13	0xbc24e2f9	-0.01006388
14	0xbd49b0e3	-0.049240958
15	0x3c62fd06	0.013854271
16	0x3c3cf48b	0.011532913
17	0x3cbee25e	0.0233013
18	0x3cc97820	0.024593413
19	0x3ccde95f	0.025135694
20	0xbd3ec5ad	-0.046575237
21	0x3d870625	0.06592969
22	0xbda625dc	-0.0811269
23	0xbc9e50df	-0.019325672
24	0xbc61a524	-0.013772283
25	0xbcefc4f1	-0.029268714
26	0x3c71647b	0.014733429
27	0x3d760738	0.060065478
28	0xbd51a2a3	-0.051180493
29	0xbb996d7b	-0.0046822405
30	0xbc872d82	-0.016501192
31	0xbb7b8f33	-0.0038384914
32	0x3db91a1c	0.09038183
33	0xbd14f422	-0.036365636
34	0xbd6d8a03	-0.057992946
35	0x3c2df059	0.010616385
36	0x3d899dcf	0.06719553
37	0x3d9f5757	0.07780331
38	0xbc931822	-0.017955843
39	0x3cb42df7	0.021994574
40	0xbdac7b16	-0.08421914
41	0x3d7c7948	0.0616391
42	0x39a6df0e	0.00031828176
43	0x3d80da43	0.0629163
44	0x3d1faa41	0.038980726
45	0x3c843a10	0.016140968
46	0xbbaebd71	-0.005332642
47	0xbd8f19ad	-0.06987319
48	0x3d5e2fd3	0.054244827
49	0xbdba67b1	-0.09101809
50	0xbcdb8fee	-0.02680203
51	0xbdb0d0fd	-0.08633611
52	0xbcb85263	-0.022500223
53	0xbd810595	-0.06299893
54	0xbcd8f7ce	-0.02648535
55	0x3c2722d1	0.010201172
56	0x3d147cb2	0.03625173
57	0xbab8d23a	-0.0014100738
58	0x3c87f778	0.016597494
59	0xbd51e659	-0.051245067
60	0xbc1279d4	-0.008940179
61	0x3b8b292c	0.0042468514
62	0xbc910f89	-0.017707603
63	0xbc3e10db	-0.011600698
64	0x3d91b8f9	0.07115359
65	0x3cb65198	0.022255704
66	0xbd631e52	-0.055448838
67	0x3d8a0fb5	0.06741277
68	0x3c9bd005	0.01902009
69	0x3d426618	0.047460645
70	0x3c515760	0.0127771795
71	0xbd80ce4a	-0.062893465
72	0x3cee77b8	0.02910982
73	0xbd0284bd	-0.03186487
74	0xbd677daa	-0.056516327
75	0xbd75ec1b	-0.06003962
76	0x3c8142e3	0.015778964
77	0xbb171605	-0.0023053896
78	0xbd497662	-0.049185164
79	0x3cb2d44c	0.021829747
80	0x3d0ca911	0.03434092
81	0x3cc72da6	0.024313759
82	0xbd38502b	-0.04499833
83	0x3b330aaf	0.00273196
84	0xbc3f9716	-0.011693737
85	0x3c7f13a7	0.01556865
86	0xbc43c6a9	-0.01194922
87	0xbc28ec65	-0.010310267
88	0xbddbe36b	-0.10736736
89	0x3cbb321a	0.022851039
90	0x3bf1f0a2	0.007383422
91	0xbd2ee606	-0.042699836
92	0xbc69b800	-0.01426506
93	0x3d64ce3d	0.055860747
94	0x3c8dfdc7	0.017332925
95	0x3c5810fb	0.013187642
96	0xbd2ce773	-0.042212915
97	0xbc21aad2	-0.009867387
98	0xbd01f977	-0.03173205
99	0x3c9dffa0	0.01928693
100	0x3c199bf5	0.009375562
101	0xbc20d1bf	-0.009815632
102	0xbd533a77	-0.05156943
103	0xbc64f985	-0.013975506
104	0xbd179ec2	-0.037016638
105	0xbc11f85c	-0.008909311
106	0x3c2e6aee	0.010645611
107	0x3af11d7c	0.0018395628
108	0xbd20cd62	-0.03925837
109	0x3d0e1792	0.034690447
110	0xbc98f8c7	-0.018673314
111	0xbd4f496d	-0.050607134
112	0xbd6bbd56	-0.05755361
113	0x3d09cf05	0.033644695
114	0xbda507d9	-0.080581374
115	0x3d06ea91	0.032938544
116	0xb936684d	-0.00017395728
117	0xbcf69034	-0.030098058
118	0x3d25974a	0.040427484
119	0x3b911533	0.004427576
120	0x3c11aa5d	0.008890715
121	0xbc72a0e6	-0.014808869
122	0x3d924657	0.071423225
123	0xbd3b6fe8	-0.04576102
124	0xbca2412b	-0.019806465
125	0x3bc3c7c3	0.005974741
126	0x3b288aca	0.002571749
127	0xbcc40f13	-0.02393297
128	0xbdb5122e	-0.08841358
129	0xbc2a2f26	-0.010387218
130	0xbaeae5b6	-0.0017921242
131	0x3d16a26c	0.03677599
132	0xbd0bc1f3	-0.03412051
133	0xbc620d16	-0.013797065
134	0x3a1b4c60	0.00059241615
135	0xbc6b100a	-0.014347086
136	0x3d1301ce	0.035890393
137	0x3d142ec0	0.036177397
138	0x3c1f0d42	0.009707751
139	0x3c00f883	0.00787175
140	0xbc0209f2	-0.007936941
141	0xbd62487f	-0.05524492
142	0x3d265144	0.040604845
143	0xbc947ee7	-0.018126918
144	0xbd9f267d	-0.07771013
145	0xbd06a471	-0.032871667
146	0x3cc4709f	0.023979483
147	0xbbbe5744	-0.0058087427
148	0x3af04b59	0.0018333002
149	0xbba360f8	-0.004985925
150	0x3bb58627	0.005539674
151	0x3c0bff53	0.008544761
152	0xbd83fc67	-0.06444626
153	0x3bf3c0ff	0.0074387784
154	0x3d19e30a	0.037570037
155	0xbd531a9a	-0.05153904
156	0x3d00c95a	0.031442024
157	0xbd73ff86	-0.059569858
158	0x3d65415a	0.055970527
159	0x3def7368	0.11691934
160	0xbde2c176	-0.11072056
161	0xbcfa3e61	-0.030547323
162	0x3d5dfdf2	0.05419726
163	0xbadf1f07	-0.0017022797
164	0x3d656f42	0.056014307
165	0xbca155e7	-0.019694282
166	0x3cdabbbe	0.02670085
167	0xbd9f8162	-0.0778835
168	0xbd964228	-0.07336837
169	0x3df0140a	0.11722572
170	0xbbb46dac	-0.005506238
171	0x3c648378	0.01394736
172	0xbd98d5da	-0.07462664
173	0x3d716802	0.05893708
174	0x3c574cae	0.01314084
175	0x3b69fdd7	0.003570428
176	0xbcb30b7c	-0.021856062
177	0xbd016169	-0.03158704
178	0xbd8900a7	-0.066895775
179	0xbd167412	-0.036731787
180	0xbd0a8f52	-0.033828087
181	0x3dcd8287	0.10034662
182	0xbdf11dbc	-0.117732495
183	0xbc5a970d	-0.013341677
184	0x3d37abdb	0.04484163
185	0x3d0736ec	0.033011362
186	0x3b283be4	0.0025670463
187	0xbb8c85da	-0.0042884173
188	0x3d0ba94d	0.034097005
189	0xbd8d80f4	-0.069093615
190	0x3cdf4992	0.02725676
191	0x3d9b73ba	0.075904325
192	0x3d70586a	0.05867807
193	0xbe1b8b94	-0.15189964
194	0xbd33173e	-0.043723337
195	0x3ad54fd6	0.0016274403
196	0x3d1e7bbe	0.03869223
197	0xbcab5968	-0.020916656
198	0x3c5e4f2c	0.013568681
199	0x3d101a48	0.035181314
200	0xbc831b7b	-0.016004315
201	0x3d09b187	0.03361657
202	0xbd800020	-0.06250024
203	0xbd759d9e	-0.05996477
204	0xbca4c9a3	-0.02011568
205	0x3c96bf55	0.018401781
206	0xbd7489e9	-0.059701834
207	0x3c4a70bb	0.012355979
208	0xbb30811c	-0.0026932424
209	0x3c3a0d8a	0.011355767
210	0x3c5a39f8	0.013319485
211	0x3d5b5a78	0.053553075
212	0xbd1d0e6b	-0.03834383
213	0x3d81db26	0.06340627
214	0xbd86fbc0	-0.06590986
215	0xbccdcab4	-0.02512107
216	0xbcfd48a6	-0.03091843
217	0xbc114c7f	-0.008868336
218	0x3d2670da	0.040634967
219	0x3ce3d7da	0.027812887
220	0xbd916544	-0.07099393
221	0xbbee51b7	-0.0072729248
222	0xbcd6ca80	-0.026219606
223	0xbd156ebf	-0.03648257
224	0x3db2aa17	0.08723848
225	0xbd5905dd	-0.052984107
226	0xbcf5fd07	-0.03002788
227	0x3c115a45	0.00887162
228	0x3d8c8e1b	0.06863042
229	0x3d8dce9d	0.06924174
230	0xbc3162b8	-0.010826759
231	0x3d175227	0.03694358
232	0xbd66eec8	-0.056380063
233	0x3d833a46	0.06407599
234	0xbd124aee	-0.03571599
235	0x3d4d8a31	0.050180618
236	0x3d253dd7	0.04034218
237	0x3cd9a227	0.026566578
238	0x3c161e4c	0.009162497
239	0xbd6c801f	-0.057739373
240	0x3d68d16d	0.05684035
241	0xbd8e72b1	-0.069554694
242	0xbd469718	-0.048483938
243	0xbd8e314a	-0.06942995
244	0xbc88dc8e	-0.016706731
245	0xbd593eb0	-0.0530383
246	0x3b1ab2a3	0.002360501
247	0x3caced89	0.02110936
248	0x3cc2f881	0.023800137
249	0xbba339d3	-0.0049812584
250	0xbb0a4e19	-0.0021103679
251	0xbcee585c	-0.029094867
252	0xbc063c51	-0.0081930915
253	0x3b91eefa	0.004453537
254	0xbbc1e716	-0.00591744
255	0xbc96972d	-0.018382633

exp_avg_sq f4 [10, 768]
0	0x3dd37fe8	0.103271306
1	0x3de43241	0.11142398
2	0x3d78e897	0.06076869
3	0x3cfc6a0e	0.03081229
4	0x3d3bd799	0.045859907
5	0x3e1ad268	0.15119326
6	0x3cecf724	0.02892644
7	0x3dbe7572	0.09299745
8	0x3d447cff	0.047970768
9	0x3f02f49c	0.51154494
10	0x3e1a5e0e	0.15074942
11	0x3dca3999	0.09874267
12	0x3e3b182b	0.18270938
13	0x3d3a6c64	0.045513526
14	0x3df2f8c6	0.11863856
15	0x3c2a70aa	0.010402838
16	0x3ebeb404	0.37246716
17	0x3cd3997f	0.025830029
18	0x3e81a077	0.25317737
19	0x3eb16426	0.3464672
20	0x3da9e2cd	0.08295212
21	0x3d951e94	0.07281223
22	0x3d0d1e0e	0.03445249
23	0x3dacdc8e	0.08440505
24	0x3d575cc1	0.05257869
25	0x3d8313e5	0.06400279
26	0x3dcffa0f	0.10155117
27	0x3e41bd7c	0.18919939
28	0x3cb283df	0.021791397
29	0x3ec45771	0.38347962
30	0x3e81b7a8	0.2533543
31	0x3d234c49	0.039867673
32	0x3df2eae2	0.118612066
33	0x3d029e01	0.031888966
34	0x3db4037b	0.08789726
35	0x3d6c5295	0.057695944
36	0x3deba114	0.115053326
37	0x3dd55a56	0.10417621
38	0x3d020b92	0.031749316
39	0x3ce4570f	0.027873544
40	0x3d884e4d	0.0665556
41	0x3eab77a2	0.3348971
42	0x3ce8519f	0.028359232
43	0x3d954a98	0.07289618
44	0x3d016315	0.031588633
45	0x3d589d6e	0.05288451
46	0x3ca57ecf	0.020202069
47	0x3e1247b5	0.14285167
48	0x3d5eef26	0.05442729
49	0x3d56f476	0.05247923
50	0x3ced2535	0.028948406
51	0x3d4ed004	0.050491348
52	0x3d88eb21	0.06685472
53	0x3d3fc6f0	0.04682058
54	0x407c7beb	3.9450634
55	0x3dfa1358	0.12210721
56	0x3d6b8fa4	0.057510033
57	0x3d0ae354	0.033908203
58	0x3d434e9e	0.047682397
59	0x3da62029	0.08111603
60	0x3cd64d60	0.026159942
61	0x3e411513	0.18855695
62	0x3d644f5e	0.055739753
63	0x3dfb98ff	0.12285041
64	0x3e124f9f	0.14288186
65	0x3d5ad413	0.053424906
66	0x3d94523e	0.07242249
67	0x3d589366	0.052874945
68	0x3d8a83bd	0.06763408
69	0x3d85b6c4	0.065290004
70	0x3ca1ed2f	0.019766418
71	0x3d859f34	0.06524506
72	0x3d877e33	0.066158675
73	0x3d44291d	0.04789077
74	0x3da19449	0.07889611
75	0x3da66032	0.081238165
76	0x3e2ad961	0.16684486
77	0x3da2c446	0.079475924
78	0x3cc3b674	0.023890711
79	0x3cd34211	0.025788339
80	0x3db85b3b	0.09001776
81	0x3cd649d7	0.026158256
82	0x3e5d3b4a	0.21604648
83	0x3d1feb71	0.039042894
84	0x3e3f2180	0.18665123
85	0x3e87c616	0.26518315
86	0x3ce5704a	0.028007645
87	0x3cbc3651	0.022975119
88	0x3e256c58	0.16154611
89	0x3de8fe0c	0.113765806
90	0x3e9ec415	0.31008974
91	0x3daf5ba9	0.08562405
92	0x3c95cd41	0.01828635
93	0x3e45c547	0.19313537
94	0x3dc51497	0.09623068
95	0x3ce99ec6	0.028518092
96	0x3d366eba	0.04453919
97	0x3e433767	0.19064103
98	0x3c9024e5	0.017595718
99	0x3e70d684	0.23519331
100	0x3c1a673a	0.009424025
101	0x3dafe972	0.08589448
102	0x3d80a31d	0.062811114
103	0x3dc57025	0.096405305
104	0x3cda7974	0.026669241
105	0x3d08fb49	0.03344277
106	0x3d17f0c3	0.037094843
107	0x3d6f499c	0.05841981
108	0x3cd9d951	0.026592882
109	0x3e794394	0.24342185
110	0x3cdfca43	0.027318126
111	0x3d4b9e38	0.049711436
112	0x3d9ec838	0.077530324
113	0x3da288d4	0.07936254
114	0x3e2200e5	0.15820654
115	0x3d33319e	0.04374849
116	0x3e5143cf	0.20436023
117	0x3cc48245	0.023987899
118	0x3d8f3bac	0.069938034
119	0x3e9af64a	0.3026603
120	0x3cdeed10	0.02721265
121	0x3e7545aa	0.23952356
122	0x3dd019a7	0.10161143
123	0x3caa2237	0.020768268
124	0x3da71208	0.08157736
125	0x3d9ff43d	0.07810257
126	0x3ce9eb6c	0.02855464
127	0x3d1791fd	0.03700446
128	0x3e38e198	0.18054807
129	0x3d3d1fdb	0.046172958
130	0x3de5d336	0.11221926
131	0x3e374a3a	0.17899409
132	0x3e2cd9b8	0.16879928
133	0x3deb7556	0.114969894
134	0x3db8f5ec	0.09031281
135	0x3d2d58f4	0.04232116
136	0x3d6d1c67	0.057888415
137	0x3d902215	0.07037751
138	0x3dbf5cce	0.09343873
139	0x3e3ff531	0.18745877
140	0x3d8c4f07	0.06851011
141	0x3cca9a21	0.024731698
142	0x3d11ea87	0.035624053
143	0x3d72d1fd	0.05928229
144	0x3e02bd15	0.12767442
145	0x3e30a067	0.17248689
146	0x3d0b44d5	0.03400119
147	0x3c7e3507	0.015515572
148	0x3d3c32b4	0.04594679
149	0x3cf840cb	0.030304333
150	0x3dd1865a	0.10230704
151	0x3d91a7d0	0.07112086
152	0x3d8a3379	0.06748099
153	0x3cf7c162	0.03024358
154	0x3d6efb51	0.058345143
155	0x3cf6d8b6	0.030132633
156	0x3d03401a	0.032043554
157	0x3cfc2895	0.03078107
158	0x3dc84a13	0.097797535
159	0x3dd47853	0.103745125
160	0x3e116632	0.1419914
161	0x3d414e51	0.04719383
162	0x3d3a52d1	0.045489136
163	0x3cfacaad	0.030614221
164	0x3de208de	0.110368475
165	0x3d9e12bf	0.07718419
166	0x3da183bb	0.07886454
167	0x3d9da37e	0.07697199
168	0x3d872e44	0.06600621
169	0x3d9be293	0.07611575
170	0x3d59a251	0.053133313
171	0x3d0fa013	0.035064768
172	0x3d8fd6e8	0.07023412
173	0x3dcb28f5	0.09919921
174	0x3cf8f43f	0.030389903
175	0x3d25eeac	0.04051082
176	0x3e635ca9	0.22203316
177	0x3d9b9a62	0.075978056
178	0x3d0171f5	0.03160282
179	0x3ca296ec	0.019847356
180	0x3d3c74a8	0.04600969
181	0x3e0221a0	0.1270814
182	0x3e1b9dbb	0.15196888
183	0x3d0d9c91	0.03457314
184	0x3e3e4933	0.18582611
185	0x3d1da454	0.038486794
186	0x3e6aedac	0.22942227
187	0x3d5bbc70	0.053646505
188	0x3d236620	0.039892316
189	0x3e0c9e6d	0.1373231
190	0x3c9d6c40	0.019216657
191	0x3e1fd37c	0.15608019
192	0x3e1ab87b	0.15109436
193	0x3e1e2142	0.15442374
194	0x3e05ccd6	0.1306642
195	0x3e02bd3a	0.12767497
196	0x3d868a15	0.06569306
197	0x3e44dd49	0.19225039
198	0x3c8846ed	0.016635383
199	0x3debf696	0.11521642
200	0x3df85496	0.121255085
201	0x3f3afb24	0.7303946
202	0x3eac640a	0.33670074
203	0x3e2c8f42	0.16851524
204	0x3e58d6e1	0.2117572
205	0x3d0df282	0.0346551
206	0x3e102ffa	0.14080802
207	0x3cf64e9a	0.030066777
208	0x3ef85262	0.48500353
209	0x3c9f60c3	0.01945532
210	0x3da5d2f8	0.0809688
211	0x3fb93c98	1.4471617
212	0x3e5c4154	0.21509296
213	0x3d088a85	0.033335228
214	0x3d6f5cfc	0.058438286
215	0x3cf4d9df	0.029889045
216	0x3c820f5b	0.015876463
217	0x3e04648e	0.12928984
218	0x3d387a0e	0.045038275
219	0x3e1af6f3	0.15133266
220	0x3d23a4a8	0.03995195
221	0x3e80aeec	0.25133455
222	0x3e9b2502	0.30301672
223	0x3e2a3ce3	0.16624789
224	0x3d7679f0	0.060174882
225	0x3d1a502b	0.03767411
226	0x3d3ce19b	0.04611359
227	0x3c60e863	0.01372728
228	0x3d8f4479	0.06995482
229	0x3e213df7	0.15746294
230	0x3ca11f10	0.019668132
231	0x3d440782	0.047858723
232	0x3d2cf562	0.042226203
233	0x3e806d1c	0.25083244
234	0x3dd02fcc	0.101653665
235	0x3d60e290	0.054903567
236	0x3d922795	0.07136456
237	0x3ce02dfd	0.027365679
238	0x3dafdf55	0.08587519
239	0x3e6975e0	0.22798872
240	0x3cdd7bbc	0.02703654
241	0x3dc6d419	0.09708423
242	0x3d9123a2	0.070868745
243	0x3d5293d8	0.051410526
244	0x3da289f0	0.07936466
245	0x3d6582bc	0.05603288
246	0x400e8d7d	2.2273858
247	0x3e17bedd	0.14818902
248	0x3db142c8	0.08655316
249	0x3d1249b2	0.035714813
250	0x3cd3e20a	0.02586462
251	0x3ca17e1b	0.019713452
252	0x3d18f60f	0.037344035
253	0x3dec08e3	0.115251325
254	0x3c8c9059	0.017158674
255	0x3d58c0b7	0.052918162
