SmallD_SDD_InProgress/out_step5_ipc25_s4_tf_adamlr.pth (torch, 463352 bytes, 3 tensors)

module.data.weight f4 [50, 768]
-0.03335431 -0.02773714 0.010400736 -0.07288715 0.000874792 0.046387393 -0.02418452 -0.0005357976
-0.005204705 -0.06710098 -0.0018262306 -0.021202812 -0.052571725 0.031203832 0.054095544 -0.04138241
-0.031714696 -0.031680003 -0.0073861475 0.0229105 0.022734204 -5.3920325e-05 0.018498389 0.016845122
-0.0018581818 -0.01860751 0.034012657 0.022949819 0.07058767 -0.03190036 0.04400475 -0.028002277
0.01970735 -0.06985097 -0.04037876 0.027606096 0.03830535 -0.006779559 0.044768162 -0.012801395
0.044944976 0.030819457 -0.04978387 -0.014418806 -0.0007258137 0.025126647 -0.037889726 -0.022874845
-0.003254024 0.056858953 0.034298666 0.060734995 -0.03565429 0.018016638 0.030341195 -0.01464477
0.008807453 0.025217151 0.11406598 0.09573934 -0.032065704 -0.03175757 0.09741658 0.013696458
-0.016128946 -0.0076234927 0.065482125 -0.007920913 -0.0048516532 0.051721774 0.005171616 0.052987754
-0.079126924 0.0046651964 -0.013710677 -0.029865976 -0.079981446 0.079253145 0.05599377 0.04281035
-0.003221118 0.057434797 -0.015575794 0.040763225 -0.042271975 -0.015838142 0.038137678 0.06902673
0.012810707 0.052327223 -0.0894802 -0.014594912 -0.041188348 -0.0293871 0.036191605 0.024792733
0.045021746 -0.006302448 0.0019287044 0.03270417 -0.048474632 -0.032987285 0.013971595 0.053060066
0.049500223 0.021808919 0.023386275 0.043678924 0.033878777 -0.05290481 0.06796571 -0.07832798
0.052800886 -0.08029559 0.012307605 -0.05916046 0.031996362 0.032916088 -0.02617478 0.01770148
0.048508305 0.022728428 0.031124122 -0.02059074 0.010660717 0.044561416 0.011356064 0.03509016
0.016286468 -0.03886337 0.0033534018 0.015220248 0.027694993 -0.019659493 0.08845995 -0.030263612
-0.04573797 0.08543146 -0.0016399807 -0.00069118757 0.06237496 -0.026060725 0.012077713 -0.012124199
-0.014532168 0.038955614 0.024086412 0.06492289 -0.00743299 0.055372734 -0.03229658 -0.0411036
-0.00014838915 -0.014199203 -0.08162606 0.02303487 -0.019630002 -0.01247558 -0.002619612 0.018413404
0.0404702 -0.011161128 0.0834056 -0.09733127 -0.005786964 0.0482973 0.05617018 0.015068977
0.014283418 -0.041749176 0.004141067 -0.0571651 0.014493585 -0.08815941 -0.0065655075 -0.06658308
-0.0034961917 -0.07530755 -0.056360144 -0.0010443914 0.048269127 0.013209192 0.04667434 -0.05190669
-0.07795235 -0.06109425 0.08053451 0.05184908 0.02716216 0.0014324168 -0.059351444 -0.09796122
0.005534808 0.05133342 0.009682099 -0.025975276 -0.03601154 0.060474247 0.019252824 0.0758486
-0.06323035 -0.062454887 0.024590494 -0.007186657 -0.0063085617 -0.06715991 0.015376555 0.002397258
0.03657381 0.0028860571 -0.030375557 0.0136977965 -0.08196235 0.08618418 -0.022990284 -0.049518466
0.05143051 0.017112873 -0.010095391 -0.018331029 0.092063956 -0.07255425 -0.056673057 0.01043537
-0.016892644 0.01140956 -0.035669312 -0.007652854 0.0064447015 -0.0013799383 0.0022721847 -0.065591335
0.0090371445 -0.04989365 -0.038281757 -0.008972229 -0.051642492 -0.036479313 -0.008362327 -0.013103771
-0.05128951 -0.08238462 0.02779518 -0.014084269 0.015833654 0.029597722 0.04290821 -0.018731847
0.0142333275 0.045111228 0.07733491 -0.037278917 -0.04095774 0.006132472 0.041828122 0.065781735
00000000: 879e 08bd 0039 e3bc d967 2a3c dc45 95bd
00000010: 4c52 653a b500 3e3d 9d1e c6bc c574 0cba
00000020: 3b8c aabb 3d6c 89bd 215e efba 85b1 adbc
00000030: 7355 57bd 2e9f ff3c 4a93 5d3d 9a80 29bd
00000040: 45e7 01bd e4c2 01bd 7f07 f2bb cdae bb3c
00000050: 153d ba3c 8228 62b8 ef89 973c c8fe 893c
00000060: 3c8e f3ba c76e 98bc db50 0b3d 4201 bc3c
00000070: 4590 903d f4a9 02bd 533e 343d 0865 e5bc
00000080: 4f71 a13c 060e 8fbd 3364 25bd 2e26 e23c
00000090: 12e6 1c3d 1027 debb d25e 373d f1bc 51bc
000000a0: 3918 383d 1679 fc3c 2cea 4bbd db3c 6cbc
000000b0: 8844 3eba 66d6 cd3c 4232 1bbd 0764 bbbc
000000c0: 7741 55bb efe4 683d c27c 0c3d 42c5 783d
000000d0: 3c0a 12bd a197 933c 198e f83c 9ef0 6fbc
000000e0: 234d 103c 3394 ce3c 6d9b e93d fd12 c43d
000000f0: 5457 03bd 3a14 02bd 5882 c73d 1c67 603c
00000100: da20 84bc 7ece f9bb 7e1b 863d b8c6 01bc
00000110: 9efa 9ebb 36da 533d a976 a93b b009 593d
00000120: 4c0d a2bd 81de 983b bfa2 60bc 7ea9 f4bc
00000130: 50cd a3bd 794f a23d b959 653d e859 2f3d
00000140: 6419 53bb c040 6b3d 9d31 7fbc 57f7 263d
00000150: 6125 2dbd febe 81bc 4136 1c3d e35d 8d3d
00000160: 00e4 513c 1255 563d 6541 b7bd 7f1f 6fbc
00000170: 1db5 28bd 37bd f0bc a63d 143d 211a cb3c
00000180: b968 383d c484 cebb 95cc fc3a cff4 053d
00000190: 568d 46bd ad1d 07bd 1ee9 643c 8355 593d
000001a0: bfc0 4a3d 9ea8 b23c 9394 bf3c ace8 323d
000001b0: 79c4 0a3d b7b2 58bd 9b31 8b3d 6c6a a0bd
000001c0: be45 583d 0472 a4bd d6a5 493c 3d52 72bd
000001d0: 9e0e 033d 05d3 063d 7e6c d6bc b202 913c
000001e0: a5b0 463d f830 ba3c 04f8 fe3c e9ad a8bc
000001f0: 4aaa 2e3c 0886 363d c90e 3a3c b3ba 0f3d
00000200: 336b 853c 322f 1fbd bfc4 5b3b 595e 793c
00000210: 9ce0 e23c f20c a1bc 7e2a b53d 65eb f7bc
00000220: bd57 3bbd b0f6 ae3d 9ff4 d6ba d030 35ba
00000230: e37c 7f3d 4d7d d5bc 9ae1 453c 94a4 46bc
00000240: 5518 6ebc ec8f 1f3d de50 c53c 4bf6 843d
00000250: 7090 f3bb 85ce 623d 6b49 04bd 405c 28bd
00000260: e998 1bb9 c6a3 68bc 902b a7bd a0b3 bc3c
00000270: 19cf a0bc 6066 4cbc ccad 2bbb b5d7 963c
00000280: 15c4 253d 2add 36bc 8ed0 aa3d 9e55 c7bd
00000290: 93a0 bdbb 64d3 453d b412 663d dfe3 763c
000002a0: ff04 6a3c 2f01 2bbd cab1 873b f425 6abd
000002b0: 8076 6d3c ec8c b4bd 7823 d7bb b65c 88bd
000002c0: 5d20 65bb d83a 9abd e5d9 66bd f6e3 88ba
000002d0: d9b5 453d 5e6b 583c 982d 3f3d 1c9c 54bd
000002e0: 7ba5 9fbd f73d 7abd 47ef a43d b35f 543d
000002f0: 2e83 de3c efbf bb3a 801a 73bd e49f c8bd
00000300: 565d b53b fe42 523d aba1 1e3c 1aca d4bc
00000310: d680 13bd d8b3 773d 19b8 9d3c 8356 9b3d
00000320: ea7e 81bd b2d0 7fbd 0172 c93c 0c7e ebbb
00000330: 0db8 cebb 238b 89bd f2ed 7b3c 511b 1d3b
00000340: 6bce 153d 0124 3d3b 29d6 f8bc b96c 603c
00000350: e0db a7bd 5581 b03d 1f56 bcbc e0d3 4abd
00000360: cca8 523d 4c30 8c3c 2467 25bc f42a 96bc
00000370: 078c bc3d 5397 94bd 0222 68bd 1df9 2a3c
00000380: 7162 8abc 2aef 3a3c fc19 12bd cbc4 fabb
00000390: 132e d33b 0cdf b4ba efe8 143b c054 86bd
000003a0: 8810 143c 495d 4cbd 55cd 1cbd 4200 13bc
000003b0: 1487 53bd 556b 15bd 2402 09bc 33b1 56bc
000003c0: f314 52bd 45b9 a8bd b8b2 e33c b5c1 66bc
000003d0: 94b5 813c ec76 f23c 85c0 2f3d 8873 99bc
000003e0: e732 693c 8dc6 383d c461 9e3d c7b1 18bd
000003f0: 4ec3 27bd e7f2 c83b f753 2b3d 93b8 863d

exp_avg f4 [50, 768]
0.0066949786 0.006601438 -0.0128557775 -0.00017533921 0.007933685 0.00059695187 -0.014973249 -0.015271639
-0.0041476036 -0.0037650897 0.004221238 0.0021546355 0.004455357 -0.010916758 0.0014536533 -0.0018615233
-0.004691595 -0.0021834292 -0.012797065 -0.0032098482 -0.0025783232 -0.0043003964 0.00053960964 -0.0037923406
0.0044255075 0.0010472992 -0.008627409 -0.00937287 0.000951328 0.0037669097 -0.015599081 -0.0018153335
-0.0032835894 -0.0027217853 0.007659571 -0.005707541 -0.0104973 -0.0021151989 0.010980039 -0.009122267
0.006975816 0.0073737195 -0.00021744851 -0.013336865 -0.0013945643 -0.005022277 -0.01055746 0.0028037464
0.004892591 -0.0031763066 -0.004371919 -0.006595206 0.013191712 0.0021692787 -0.00096859684 0.006814283
0.014626833 -0.005369027 0.00826247 -0.00018154897 0.0042163976 -0.010822704 0.0023261325 -0.005934344
-0.0067259497 0.0077280225 0.00083750335 -0.009241999 -0.008362702 -0.011496673 0.00043620323 0.0026563718
0.0050031166 0.013699351 0.012031506 -0.0068752905 -0.016160991 0.006513261 0.003716038 -0.0014278853
-0.004221585 0.013716215 0.014009711 -0.008053394 0.006953559 -0.01772654 0.016196208 -0.0012898364
0.0037508425 0.002083446 0.0029650584 -0.005344936 0.003936662 -0.00091433845 0.015375407 0.0017583693
0.003548198 -0.0044002603 -0.0066631143 0.0042695017 0.0009807345 -0.011596359 -0.0063503594 0.003979145
0.0116949845 0.008774048 -0.002132534 0.014932464 -0.00023124983 0.0059100213 0.015129824 -0.0045879255
-0.002234853 0.004025824 0.008215772 -0.004908919 0.0091500515 -0.005231386 -0.0027935135 -0.0019681756
0.00052191416 0.003162874 0.008810077 -0.009503828 -0.011994577 -0.0051738387 0.0024101683 0.0009253726
-0.0037187221 -0.0049643214 -0.025119403 5.654927e-05 -0.016409513 -0.00716156 -0.0004475148 0.010996808
0.0014818523 -0.01143832 0.003290424 0.004083338 0.005553908 0.0017243552 -0.011978331 0.0075858375
0.0108156055 0.004699232 0.014606849 0.0027867646 0.0069949892 -0.0148996 -0.0029519054 0.0048150397
0.004853155 0.00426861 -0.006870124 0.0070310836 -0.0072410526 0.0039531966 -0.0016576096 -0.001914634
0.007920637 0.0037613418 0.0060338937 -0.006979078 0.006823077 0.0015706843 -0.0052094124 0.009355165
0.0038519779 0.00056674436 0.0080182785 0.008483423 -0.0033444758 0.011300324 0.0041128965 -0.015034593
-0.0036471167 -0.0069934195 0.0009999352 0.0025065048 0.01897862 0.0013974145 -0.004149586 0.00024820073
-0.0013163527 0.011092709 -0.009919337 -0.0066815736 -0.0056656664 0.013606515 -0.00058202335 -0.005140511
0.008454607 0.008128975 -0.009062295 -0.004346436 0.004879755 -0.001621873 -0.0189217 -0.011918878
-0.0020459834 -8.1581624e-05 0.00832913 0.0008301257 0.0038263034 -0.010791326 -0.0035205607 -0.00256019
-0.003681845 0.0008150988 -0.01254503 -0.0041192397 -0.0027566643 -0.007172091 -0.0005849991 -0.003433447
0.0035483786 -0.0007313352 -0.011594312 -0.007058311 0.004298885 -0.0008991974 -0.009975581 0.002014263
-0.0032411148 -0.0028533246 0.0006896772 -0.0076840534 -0.00834148 -0.003981191 0.010773663 -0.0071388
0.0015579684 0.007885356 0.002019346 -0.012334203 -0.005684632 -0.0052468306 -0.00078252034 -0.001028523
0.0016777173 -0.0024318541 -0.0061518466 -0.007313912 0.014598728 0.005437529 0.00013644027 0.0066036116
0.008961339 -0.010610935 0.0034922624 -0.00022745151 0.0017338375 -0.0047293315 -0.0007946821 -0.0075574713
00000000: 8d61 db3b e050 d83b 0aa1 52bc 43db 37b9
00000010: 49fc 013c c37c 1c3a 5c52 75bc e635 7abc
00000020: 9fe8 87bb b9bf 76bb 5052 8a3b c934 0d3b
00000030: 3efe 913b 34dc 32bc 8388 be3a 5bfe f3ba
00000040: f4bb 99bb dd17 0fbb c8aa 51bc 515c 52bb
00000050: 16f9 28bb 57ea 8cbb 9774 0d3a eb88 78bb
00000060: d903 913b 8845 893a fa59 0dbc ab90 19bc
00000070: 8b62 793a 42de 763b 4a93 7fbc 7cf0 edba
00000080: 7d31 57bb fb5f 32bb 23fd fa3b 5306 bbbb
00000090: defc 2bbc 269f 0abb 9fe5 333c 9075 15bc
000000a0: 6395 e43b 3e9f f13b e402 64b9 de82 5abc
000000b0: d0c9 b6ba ea91 a4bb 32f9 2cbc 0fbf 373b
000000c0: 0752 a03b 9529 50bb 5142 8fbb 991c d8bb
000000d0: 0d22 583c 752a 0e3b 6fe9 7dba 594a df3b
000000e0: 62a5 6f3c aaee afbb 505f 073c 2e5e 3eb9
000000f0: b529 8a3b b651 31bc 0772 183b e374 c2bb
00000100: 5b65 dcbb 5a3b fd3b e68b 5b3a c16b 17bc
00000110: b703 09bc 8b5c 3cbc 35b2 e439 8616 2e3b
00000120: 2ff1 a33b 3e73 603c cb1f 453c 1e4a e1bb
00000130: 0e64 84bc 316d d53b c688 733b e127 bbba
00000140: 3955 8abb fab9 603c fd88 653c 62f2 03bc
00000150: aeda e33b 4037 91bc e9ad 843c ba0f a9ba
00000160: b2d0 753b 6c8a 083b 6d51 423b 9324 afbb
00000170: 1dff 803b 37b0 6fba 22e9 7b3c 1579 e63a
00000180: e288 683b 0f30 90bb 4156 dabb 2de7 8b3b
00000190: fd8b 803a a8fe 3dbc ad16 d0bb 7d63 823b
000001a0: 529c 3f3c 06c1 0f3c fcc1 0bbb 4ba7 743c
000001b0: a77b 72b9 daa8 c13b 15e3 773c 4f56 96bb
000001c0: 9d76 12bb 0feb 833b 729b 063c ffda a0bb
000001d0: 19ea 153c 0c6c abbb 6113 37bb 82fc 00bb
000001e0: 11d1 083a 3848 4f3b 2458 103c f2b5 1bbc
000001f0: e784 44bc 4e89 a9bb eaf3 1d3b b494 723a
00000200: ceb5 73bb bfab a2bb 35c7 cdbc 512f 6d38
00000210: 3e6d 86bc 85ab eabb 6ba0 eab9 f52b 343c
00000220: b63a c23a cb67 3bbc 27a4 573b 86cd 853b
00000230: 8ffd b53b c203 e23a c340 44bc 9e92 f83b
00000240: f033 313c 04fc 993b 9151 6f3c 27a2 363b
00000250: 3936 e53b 741d 74bc c174 41bb 7bc7 9d3b
00000260: 3707 9f3b b2df 8b3b c71e e1bb 0165 e63b
00000270: 5a46 edbb d189 813b 2644 d9ba 75f4 faba
00000280: 8fc5 013c d880 763b f8b7 c53b c0b0 e4bb
00000290: 1e94 df3b 6bdf cd3a b8b3 aabb 6846 193c
000002a0: 7771 7c3b 9291 143a 195f 033c 0efe 0a3c
000002b0: fe2e 5bbb ff24 393c 7ac5 863b a753 76bc
000002c0: 7704 6fbb 0e29 e5bb 4210 833a 2c44 243b
000002d0: 0d79 9b3c 7329 b73a 40f9 87bb f020 8239
000002e0: 7889 acba 32be 353c b784 22bc 1af1 dabb
000002f0: 0ea7 b9bb dced 5e3c ed92 18ba bb71 a8bb
00000300: 3185 0a3c 642f 053c 057a 14bc 8c6c 8ebb
00000310: 5ae6 9f3b 0795 d4ba ae01 9bbc 6647 43bc
00000320: e815 06bb cd16 abb8 e776 083c cb9c 593a
00000330: b8c2 7a3b 1ace 30bc 35b9 66bb dcc8 27bb
00000340: 1c4b 71bb 5bac 553a ab89 4dbc b0fa 86bb
00000350: 27a9 34bb dc03 ebbb a05a 19ba af03 61bb
00000360: ea8b 683b 13b7 3fba 12f6 3dbc 6749 e7bb
00000370: a9dd 8c3b 1eb8 6bba 9f70 23bc ba01 043b
00000380: e268 54bb d8fe 3abb 74cb 343a 83ca fbbb
00000390: b4aa 08bc a774 82bb 0584 303c 98ec e9bb
000003a0: bf34 cc3a 9531 013c 0157 043b 6615 4abc
000003b0: 2646 babb 9bed abbb 0d22 4dba 81cf 86ba
000003c0: dae6 db3a be5f 1fbb 6e95 c9bb 8aa9 efbb
000003d0: 812f 6f3c 4d2d b23b 6811 0f39 1c63 d83b
000003e0: 94d2 123c 7dd9 2dbc 71de 643b 0d80 6eb9
000003f0: ef41 e33a 82f8 9abb 3752 50ba aaa4 f7bb

exp_avg_sq f4 [50, 768]
0.00074839155 0.015199835 0.00046536032 0.00097415235 0.0010552012 0.0027066325 0.0015016348 0.0034642115
0.0008041429 0.0011278524 0.0023616655 0.0010373599 0.010018212 0.0015610959 0.0047498844 0.021535171
0.0018300505 0.0009642967 0.0013442757 0.00136226 0.0012549388 0.0007023363 0.0017309005 0.003476409
0.003627918 0.0014991985 0.0013568817 0.0016376673 0.0006327349 0.0008607025 0.004762039 0.007739118
0.0009729024 0.00056767225 0.0053579407 0.0023437939 0.00050268904 0.0026858868 0.0006516246 0.0006420211
0.013481983 0.000903304 0.00041983533 0.0004975785 0.00053377193 0.0007534872 0.00084538775 0.0031335782
0.0022357297 0.000442573 0.004634217 0.0014381343 0.00424448 0.0037696993 0.006257121 0.010769648
0.0004681413 0.0007571027 0.0025068542 0.007388605 0.002542221 0.000625277 0.01060854 0.0064023356
0.0010886955 0.00049697334 0.0026787794 0.010846432 0.0067533525 0.0019213889 0.005986874 0.008913388
0.0010110033 0.0009639655 0.002665613 0.0044390913 0.0012892426 0.0005976879 0.0052321143 0.0048100925
0.004031181 0.0006809093 0.005715985 0.002723233 0.0025793533 0.0033979733 0.001073664 0.00046090427
0.00068766903 0.00038289174 0.0009039271 0.0037489638 0.00116069 0.0011350607 0.00074684597 0.002649036
0.0009244889 0.00055358873 0.0056807 0.00047230045 0.0004763528 0.0047203717 0.002358671 0.0069893543
0.011501924 0.0008564915 0.006837784 0.0032480964 0.003514928 0.0007566425 0.0031824121 0.0017224397
0.003871657 0.0012053666 0.0009021538 0.00081395765 0.00045082223 0.0033812923 0.00074371765 0.0008531613
0.0008742559 0.001156038 0.0011992515 0.0007935907 0.0038217884 0.0006421824 0.00091736583 0.004748941
0.0008180572 0.0032273112 0.0030043118 0.0011394578 0.0017916345 0.0014700337 0.0009775194 0.002773417
0.003125645 0.005151808 0.0032598188 0.002615811 0.000270016 0.0018234524 0.0027721564 0.0031881812
0.0035631596 0.0010632031 0.0008256196 0.00038791538 0.0006271303 0.00093561586 0.012703211 0.0013224687
0.002388046 0.018045297 0.0014846146 0.0012934299 0.0011300946 0.00049418485 0.020589923 0.0013352472
0.0023116649 0.0035833959 0.002985146 0.004053148 0.008241711 0.0045093335 0.0012468596 0.00058719574
0.0016028201 0.0043319743 0.00089120277 0.0007044018 0.000519061 0.0037661334 0.00043394734 0.003967867
0.0041362825 0.0014813218 0.0013582556 0.0017333546 0.0031685312 0.0008822375 0.002152992 0.00085158035
0.005817801 0.0034414341 0.0025880544 0.0067301067 0.0016196726 0.002239037 0.00077395845 0.007150771
0.00083997333 0.014325235 0.00030938978 0.001808044 0.00094716327 0.0036286048 0.0014195407 0.0035144484
0.00064377766 0.0017705704 0.0011434177 0.0014163387 0.013663697 0.0010745339 0.0022711912 0.026604585
0.00987452 0.00058088586 0.0007706807 0.0015545593 0.0011818347 0.000555908 0.0011573661 0.0049655205
0.0026519431 0.0028469744 0.0031844487 0.0010359427 0.0004068479 0.00068005215 0.0029672936 0.0069817794
0.0003427614 0.00080485496 0.005533366 0.001639143 0.00071110396 0.0021753926 0.00044536058 0.00057097175
0.013239771 0.00071157207 0.00096745987 0.0013644334 0.0014649257 0.00060951966 0.0009997177 0.004990178
0.0034810447 0.0004036617 0.002835689 0.0018049263 0.0040852535 0.002410323 0.0054219817 0.007051431
0.001904941 0.0033990906 0.0048969537 0.0065280525 0.0012053887 0.00039622866 0.011313652 0.00967845
00000000: b52f 443a bb08 793c 9bfb f339 425e 7f3a
00000010: ad4e 8a3a c261 313b 81d2 c43a d307 633b
00000020: 1ecd 523a 72d4 933a 2cc6 1a3b 06f8 873a
00000030: 6d23 243c b09d cc3a eba4 9b3b 876a b03c
00000040: 4ede ef3a dbc8 7c3a 6832 b03a dc8d b23a
00000050: c27c a43a fe1c 383a 62df e23a 77d4 633b
00000060: 5dc2 6d3b c180 c43a 65d9 b13a ffa6 d63a
00000070: 1fde 253a c4a0 613a e10a 9c3b 6d98 fd3b
00000080: 600a 7f3a d7cf 143a aa91 af3b 569a 193b
00000090: e4c6 033a b405 303b c9d1 2a3a 4f4d 283a
000000a0: 89e3 5c3c b5cb 6c3a 581d dc39 ee6f 023a
000000b0: d4ec 0b3a ac85 453a 039d 5d3a b85c 4d3b
000000c0: 5285 123b 2409 e839 a1da 973b c87f bc3a
000000d0: 4715 8b3b 0f0d 773b 8908 cd3b 2d73 303c
000000e0: dd70 f539 4d78 463a 094a 243b 1c1c f23b
000000f0: 649b 263b a1e9 233a 71cf 2d3c afca d13b
00000100: 8fb2 8e3a 5147 023a 768e 2f3b 3cb5 313c
00000110: 3a4b dd3b 1dd7 fb3a 8a2d c43b 7509 123c
00000120: a483 843a a1b2 7c3a 91b1 2e3b cc75 913b
00000130: cefb a83a 28ae 1c3a 2872 ab3b fb9d 9d3b
00000140: ff17 843b 0d7f 323a 284d bb3b 4578 323b
00000150: 5e0a 293b 88b0 5e3b 30ba 8c3a 86a5 f139
00000160: b044 343a dcbe c839 85f5 6c3a 2db1 753b
00000170: 4b22 983a 51c6 943a fcc7 433a 739b 2d3b
00000180: 6659 723a b61e 113a 2a25 ba3b 189f f739
00000190: febe f939 59ad 9a3b ef93 1a3b f406 e53b
000001a0: 9172 3c3c 2c86 603a 7d0f e03b 04de 543b
000001b0: b55a 663b 6b59 463a 0490 503b 7cc3 e13a
000001c0: a0bb 7d3b 64fd 9d3a 847e 6c3a c65f 553a
000001d0: 565c ec39 ac98 5d3b 0cf6 423a b0a6 5f3a
000001e0: 522e 653a 3386 973a 3430 9d3a f808 503a
000001f0: f876 7a3b 2258 283a 617b 703a 019d 9b3b
00000200: e472 563a 4c81 533b fde3 443b dc59 953a
00000210: 47d5 ea3a 25ae c03a 1c20 803a 37c2 353b
00000220: 9fd7 4c3b 7fd0 a83b afa2 553b 076e 2b3b
00000230: ef90 8d39 e900 ef3a 11ad 353b cef0 503b
00000240: e683 693b 2d5b 8b3a 656e 583a 1f61 cb39
00000250: 0166 243a 1e44 753a 2121 503c b056 ad3a
00000260: c380 1c3b bbd3 933c 6697 c23a 4e88 a93a
00000270: af1f 943a 2f8c 013a 33ac a83c 7603 af3a
00000280: 4d7f 173b 68d7 6a3b 70a2 433b 45d0 843b
00000290: 3e08 073c 08c3 933b aa6d a33a 0aee 193a
000002a0: b815 d23a 3cf3 8d3b 9b9f 693a 9ba7 383a
000002b0: 9811 083a 3cd1 763b 6d83 e339 e104 823b
000002c0: a789 873b e928 c23a 7f07 b23a bb31 e33a
000002d0: 22a7 4f3b f545 673a 3619 0d3b 973c 5f3a
000002e0: 41a3 be3b af89 613b 599c 293b 3a88 dc3b
000002f0: 324b d43a cfbc 123b 79e3 4a3a 0451 ea3b
00000300: a831 5c3a 64b4 6a3c 9835 a239 e4fb ec3a
00000310: 0d4b 783a e3cd 6d3b e20f ba3a a952 663b
00000320: 30c3 283a 7c12 e83a bbde 953a 71a4 b93a
00000330: b3dd 5f3c 60d7 8c3a 44d8 143b dcf1 d93c
00000340: bdc8 213c 9746 183a 8207 4a3a 5bc2 cb3a
00000350: cbe7 9a3a 5bba 113a c3b2 973a ceb5 a23b
00000360: 39cc 2d3b 4e94 3a3b 2fb2 503b 78c8 873a
00000370: 334e d539 8745 323a ed76 423b 69c7 e43b
00000380: a8b4 b339 e7fc 523a 3d51 b53b 83d8 d63a
00000390: 6169 3a3a 0891 0e3b 497f e939 44ad 153a
000003a0: a0eb 583c cb88 3a3a 229d 7d3a cad6 b23a
000003b0: c002 c03a 2cc8 1f3a f608 833a a684 a33b
000003c0: 3d22 643b 8ea2 d339 f8d6 393b 4793 ec3a
000003d0: 97dd 853b 82f6 1d3b e1aa b13b b10f e73b
000003e0: 37af f93a 47c3 5e3b a076 a03b 46e9 d53b
000003f0: 22fe 9d3a e9bc cf39 e55c 393c 5d92 1e3c
