SmallD_SDD_up_to_step2/grad_save_init_IPC_1_no_curr_unroll_20mrpc_mlp_ipc1_w20_seed0.pth (torch, 21376 bytes, 3 tensors)

module.data.weight f4 [2, 768]
-0.040631153 -0.11893291 -0.14125307 0.06847244 0.07702427 -0.07671157 -0.03861559 -0.08439353
-0.035203844 0.020321898 -0.051146418 -0.009891261 0.05988398 -0.03537242 0.09135832 0.07483759
0.07279857 -0.037918366 -0.028546046 -0.020993872 0.02329739 -0.029892506 0.036967363 0.011289786
0.041103907 -0.08843647 0.064750396 -0.03597828 -0.036538497 0.044714604 -0.021970017 0.02675012
-0.03763889 0.040761795 -0.032577135 -0.02481836 -0.15599966 -0.019764263 0.04987346 0.037183907
0.03509479 0.06992325 -0.04362381 -0.014809211 -0.054232534 -0.04142352 -0.01693944 -0.04874466
-0.07702277 -0.091361195 0.08513345 -0.077672906 0.08369032 0.010112328 0.07992911 -0.08708981
0.046768535 0.050486453 0.039295558 -0.028432926 0.04547508 0.06895769 -0.099019185 0.09652245
-0.056107327 -0.05630129 -0.03366949 -0.04073384 -0.05114811 -0.0214515 0.04282718 -0.08302707
0.03584664 -0.014775299 0.07238605 -0.02346217 -0.039665475 0.03127598 0.05604946 -0.03515898
0.045088876 0.058531623 0.05161242 -0.06755112 0.017924134 0.038763776 -0.038887404 -0.11631815
0.08476331 -0.054386675 -0.044749957 -0.008763822 -0.034501486 0.0240097 -0.050007727 0.07386985
0.042206645 0.0246604 0.04130461 0.034977205 0.022218138 -0.09883869 0.018104687 0.048506957
-0.1322794 0.025835335 -0.037660778 0.040689595 -0.10117146 -0.020687388 0.12860858 0.029769951
-0.014617018 -0.05591239 0.02430919 -0.031897344 0.06552517 0.033142578 -0.07255061 0.05621317
0.053814217 -0.022723628 -0.054998446 -0.026176931 0.04922455 0.05231319 -0.1117011 -0.043151055
0.041072626 -0.06947444 0.041717123 -0.11878022 -0.05380036 -0.043183185 0.08039067 -0.05046031
0.043345224 0.050550822 0.04536657 0.07512326 -0.056996286 0.06100949 -0.022868883 0.0668842
0.10432058 0.03717736 0.03445528 0.047463626 -0.069254115 -0.02299792 0.07093249 0.07302348
-0.013579445 -0.080452874 -0.02262526 0.04478681 0.0017154103 0.036141902 -0.002187312 -0.043165274
-0.17083447 0.04095894 -0.053218193 -0.022109 -0.07031619 -0.016915228 0.10826146 0.01299324
0.045820758 0.10324411 0.08064826 0.011020647 0.018706616 -0.027902031 -0.06282892 -0.020480672
0.014768217 0.020175258 0.022147255 0.042052332 -0.05329758 -0.07754281 0.16512533 0.022803389
-0.05882298 0.037619654 0.06458135 -0.02232467 0.08888702 -0.034456868 -0.035046358 -0.02317542
0.018453857 -0.08004152 0.083415575 -0.078605086 0.09137626 -0.02522472 -0.06712071 -0.03433272
-0.07724289 0.061516352 0.03146466 -0.06646006 0.1220473 0.04320926 -0.051092714 0.05628862
-0.051750023 0.028572872 -0.06781073 -0.08498935 -0.012676231 -0.05781227 -0.022871682 0.049119875
0.046929184 0.03788864 0.02690607 -0.03124009 -0.024007384 0.019811446 0.056980003 0.029963093
-0.036894727 -0.041497342 -0.036942903 -0.046959948 -0.023622306 -0.054245524 -0.037682746 0.03393542
-0.031189442 0.13597707 0.07091777 0.056210265 0.109838225 -0.043310016 0.056448955 0.020370085
0.016570026 -0.021543473 -0.021100214 0.0510479 0.12245899 0.03442584 -0.06597003 -0.086551875
-0.10697185 0.021884264 0.022042114 0.053362146 0.02778789 -0.029143391 -0.029376252 0.032979354
00000000: da6c 26bd 1993 f3bd a5a4 10be 473b 8c3d
00000010: e7be 9d3d f51a 9dbd 622b 1ebd 84d6 acbd
00000020: e831 10bd 1c7a a63c e87e 51bd f50e 22bc
00000030: e748 753d ace2 10bd 121a bb3d 7344 993d
00000040: 6b17 953d 4a50 1bbd 66d9 e9bc 57fb abbc
00000050: 2bda be3c 21e1 f4bc 176b 173d cbf8 383c
00000060: 925c 283d 2e1e b5bd db9b 843d f65d 13bd
00000070: 64a9 15bd a926 373d 77fa b3bc 1123 db3c
00000080: 3d2b 1abd d7f5 263d 9a6f 05bd e04f cbbc
00000090: 60be 1fbe aae8 a1bc 1d48 4c3d 274e 183d
000000a0: 8ebf 0f3d ec33 8f3d e1ae 32bd 55a2 72bc
000000b0: ef22 5ebd b5ab 29bd 95c4 8abc 7ba8 47bd
000000c0: 1dbe 9dbd 941b bbbd 725a ae3d f912 9fbd
000000d0: d565 ab3d 2eae 253c e0b1 a33d 245c b2bd
000000e0: 5d90 3f3d e2ca 4e3d 61f4 203d 2bec e8bc
000000f0: 1444 3a3d b039 8d3d 92ca cabd 90ad c53d
00000100: ccd0 65bd 2e9c 66bd 05e9 09bd 87d8 26bd
00000110: ae80 51bd 0ebb afbc 8e6b 2f3d 190a aabd
00000120: edd3 123d 1814 72bc 233f 943d bd33 c0bc
00000130: 4478 22bd 3e1b 003d 1e94 653d dd02 10bd
00000140: 1daf 383d dbbe 6f3d 8b67 533d 3e58 8abd
00000150: a2d5 923c c4c6 1e3d 6648 1fbd 3638 eebd
00000160: 6398 ad3d 90c4 5ebd bb4b 37bd 2296 0fbc
00000170: 6e51 0dbd feaf c43c e7d4 4cbd 1349 973d
00000180: e0e0 2c3d 9b04 ca3c 062f 293d 4244 0f3d
00000190: d002 b63c f06b cabd 4850 943c 3baf 463d
000001a0: 4074 07be a0a4 d33c 3042 1abd 22aa 263d
000001b0: fb32 cfbd 9978 a9bc f8b1 033e 1de0 f33c
000001c0: 387c 6fbc 6404 65bd 1124 c73c caa6 02bd
000001d0: 0f32 863d 83c0 073d 6a95 94bd c83f 663d
000001e0: 4c6c 5c3d e726 babc 0d46 61bd 0171 d6bc
000001f0: af9f 493d 5b46 563d 8cc3 e4bd 29bf 30bd
00000200: c53b 283d 9d48 8ebd 93df 2a3d 0b43 f3bd
00000210: c45d 5cbd dae0 30bd dda3 a43d 78af 4ebd
00000220: c38a 313d 610e 4f3d 4cd2 393d 39da 993d
00000230: f074 69bd 16e5 793d 8657 bbbc 95fa 883d
00000240: 07a6 d53d 4a47 183d fb20 0d3d 3869 423d
00000250: 1ad5 8dbd 2266 bcbc 0e45 913d 568d 953d
00000260: 527c 5ebc 7ac4 a4bd 9c58 b9bc 6072 373d
00000270: 9ed7 e03a 8809 143d 0259 0fbb 12ce 30bd
00000280: 3bef 2ebe 90c4 273d 52fb 59bd ef1d b5bc
00000290: ef01 90bd ce91 8abc 2fb8 dd3d 99e1 543c
000002a0: 8cae 3b3d a671 d33d ea2a a53d f28f 343c
000002b0: 9e3e 993c cd92 e4bc 73ac 80bd 15c7 a7bc
000002c0: 64f6 713c 9546 a53c 296e b53c 113f 2c3d
000002d0: 904e 5abd c4ce 9ebd 9d16 293e 2cce ba3c
000002e0: 5df0 70bd 1117 1a3d 3a43 843d 3ae2 b6bc
000002f0: 660a b63d a522 0dbd c58c 0fbd 61da bdbc
00000300: 8b2c 973c cfec a3bd c9d5 aa3d b4fb a0bd
00000310: 7a23 bb3d 12a4 cebc 9576 89bd 77a0 0cbd
00000320: 8531 9ebd 92f8 7b3d 16e1 003d 361c 88bd
00000330: eff3 f93d 31fc 303d 9846 51bd e58e 663d
00000340: d5f7 53bd a811 ea3c 5ae0 8abd e50e aebd
00000350: f7af 4fbc 8fcc 6cbd 655d bbbc ec31 493d
00000360: d138 403d 1e31 1b3d 1e6a dc3c 38eb ffbc
00000370: 22ab c4bc 9d4b a23c dd63 693d 2975 f53c
00000380: ed1e 17bd 1ef9 29bd 7151 17bd 1359 40bd
00000390: 9183 c1bc 8e30 5ebd 3959 1abd deff 0a3d
000003a0: 0081 ffbc 933d 0b3e 563d 913d bc3c 663d
000003b0: ddf2 e03d d865 31bd 0537 673d 2adf a63c
000003c0: ddbd 873c f07b b0bc 5bda acbc 9a17 513d
000003d0: c7cb fa3d 1c02 0d3d 4c1b 87bd 1c42 b1bd
000003e0: 0f14 dbbd a146 b33c aa91 b43c 4492 5a3d
000003f0: 6ea3 e33c 1fbe eebc 77a6 f0bc 5c15 073d

exp_avg f4 [2, 768]
0.0003698134 6.208354e-05 -0.00010997229 0.00025233196 0.00024575947 0.00035902744 -0.0009187017 -0.00049125333
0.00014627326 4.65472e-05 -0.0001313102 0.0027383305 0.0010197258 -0.00031031575 0.0007758573 -0.00033243746
0.00042054142 0.00018385163 0.0008127328 -5.2256015e-05 0.0002758342 -0.00046376875 -0.00011419722 -0.0002855052
-0.00018021313 -0.00026392445 0.00017139703 -0.0001351493 -0.00010537194 0.000470083 -0.00013442934 -0.00079499267
-0.00018075168 -0.00014080685 0.001046124 -0.00013508806 -0.00031965764 0.00021660372 0.000548283 -0.00041187005
3.8966362e-05 -2.968277e-05 -0.00051447033 -0.00043261418 0.0002876587 5.433845e-05 0.0017731652 -0.0017287151
0.00014791742 -7.6850476e-05 0.00061039993 -0.00023394267 0.0005818041 -0.00057913596 0.00022769901 0.001619998
-0.00032379606 0.0001251582 -0.00028997686 -1.26649875e-05 5.3789252e-05 -0.0002692473 -0.00016626695 5.5367575e-05
0.0005946774 0.00022120612 0.000118945405 -0.0008417058 0.00041145386 0.0002928049 0.00040928132 -0.0005668226
-0.0005212664 -0.00015351493 0.00040055648 -0.00011716602 0.00017804491 -0.0003320514 -0.0003499553 5.8490707e-05
9.341196e-05 0.0009661072 0.00017766113 4.3596898e-05 0.0011894358 0.0008744357 0.00040569867 0.0002770996
4.0998842e-05 -0.0012020171 0.00036687433 0.0011429824 0.00019060016 -0.00034001996 0.00037799092 5.991917e-06
-0.00010051029 -0.00016205733 5.1542494e-05 -0.00015074761 -0.0003026654 -0.00017380729 -0.0017777955 0.0003599034
-1.2952814e-05 0.00014921432 0.00013290455 0.0003191651 -9.5627154e-05 -0.0007905527 4.108659e-05 0.0005701587
-0.0012842593 -0.00045140725 -0.00017476003 -0.0010525633 -0.00045456574 0.0006293144 0.0002720283 -0.0002578666
-0.00023451322 8.152233e-05 -0.0016897373 -0.0002481597 0.0006075193 0.0018442165 6.1504747e-06 0.00027740796
-0.0008644086 0.001344253 -0.00019690764 -0.00041572127 0.00027149587 0.0008383492 2.9006049e-05 -0.0010302218
-0.00033282235 -0.00041367073 -0.00039678844 -0.00073926436 -0.00014393448 0.00018464678 -0.0006607964 -0.0010747418
0.0010372153 -0.0004678914 0.0001241076 0.0002545773 0.00023357937 -0.00023789208 0.0003453869 5.3432515e-05
-2.6547914e-05 0.00028705192 -0.0008663329 0.00029650613 -0.0012926115 -0.0009418229 -0.0010102594 -0.00057907286
-1.1933375e-05 0.000107873515 -1.5139578e-05 -0.00051096914 -0.0013593887 -0.0001063355 0.0009500759 -0.0005226367
-0.00011530469 5.0498198e-05 0.00028174056 0.00042623543 -0.00094102975 -8.392087e-05 -0.00020341606 1.6027163e-05
-0.00159044 4.9435268e-05 0.0003770519 -0.00059323874 -0.00012181954 -0.0004555643 -0.00035752903 -0.00089957926
-0.0003273033 0.00051463145 0.0014841397 -0.000510306 0.00027423404 -5.6199606e-05 0.00028306348 0.0001514068
-0.0009989437 0.00025327387 -0.00030810636 -0.00023745069 0.00066165795 0.00042152952 0.00043442193 -3.853836e-05
0.00039478138 -0.0005539228 -0.0003582662 7.999026e-05 -0.00059213425 -0.00015945474 -0.00017461606 -0.00014085993
0.0006217633 -0.00042120725 0.00022320425 -9.279521e-05 -0.00042101313 -0.002313316 0.000110922505 -0.00021339662
-3.882933e-05 -0.0001809589 -0.0018364483 -0.000290009 0.0005712331 -8.828705e-05 -4.0516894e-05 -0.00023571409
-6.243771e-05 0.00021879857 0.0007695015 0.00010423063 0.0006975519 -0.00021095035 -0.00080246147 0.0003303414
0.00020519007 -0.000105215855 0.00066766085 -0.0006592484 0.0005693139 0.00044324252 0.00013059568 -0.00036057204
0.0003688232 -0.000321292 -0.0013853746 -0.00018110787 0.00025394245 9.462152e-05 9.0282076e-05 -8.1354796e-05
-0.0001449405 -0.00017701888 -0.00012094603 -6.792681e-05 -0.00025040683 -0.000206892 0.001359249 0.00023570482
00000000: 84e3 c139 d932 8238 eca0 e6b8 6c4b 8439
00000010: 47d9 8039 d93b bc39 07d5 70ba 74c7 00ba
00000020: ee60 1939 ad3b 4338 50b0 09b9 9075 333b
00000030: 52a8 853a e0b1 a2b9 e762 4b3a 004b aeb9
00000040: 1d7c dc39 4cc8 4039 930d 553a 782d 5bb8
00000050: d79d 9039 fd25 f3b9 2a7d efb8 dcaf 95b9
00000060: 98f7 3cb9 575f 8ab9 0ab9 3339 ddb6 0db9
00000070: 21fb dcb8 7975 f639 9af5 0cb9 0e67 50ba
00000080: 2988 3db9 8da5 13b9 191e 893a 6da6 0db9
00000090: b997 a7b9 1e20 6339 a6ba 0f3a 43f0 d7b9
000000a0: d06f 2338 43ff f8b7 85dd 06ba 7ed0 e2b9
000000b0: e6d0 9639 77e9 6338 8d69 e83a 0e96 e2ba
000000c0: 481a 1b39 c92a a1b8 3f03 203a 824e 75b9
000000d0: 3684 183a 28d1 17ba 7dc2 6e39 1d56 d43a
000000e0: 2cc3 a9b9 e63c 0339 0908 98b9 b57b 54b7
000000f0: c59b 6138 c329 8db9 f257 2eb9 7b3a 6838
00000100: 20e4 1b3a 91f3 6739 5472 f938 eca5 5cba
00000110: 67b8 d739 9c83 9939 cf94 d639 d296 14ba
00000120: 99a5 08ba daf8 20b9 c801 d239 07b7 f5b8
00000130: 91b1 3a39 2f17 aeb9 357a b7b9 eb53 7538
00000140: 2ae6 c338 5b42 7d3a 8c4a 3a39 d0db 3638
00000150: d8e6 9b3a 633a 653a f4b3 d439 ae47 9139
00000160: 2cf6 2b38 008d 9dba 0a59 c039 20d0 953a
00000170: d7db 4739 b544 b2b9 152d c639 2d0e c936
00000180: 0dc9 d2b8 efed 29b9 552f 5838 0112 1eb9
00000190: 10af 9eb9 0a40 36b9 eb04 e9ba 6bb1 bc39
000001a0: ea4f 59b7 6a76 1c39 4b5c 0b39 9d55 a739
000001b0: 708b c8b8 183d 4fba 6454 2c38 b476 153a
000001c0: 9754 a8ba dbaa ecb9 ca3f 37b9 2af6 89ba
000001d0: c852 eeb9 93f8 243a 059f 8e39 4532 87b9
000001e0: aae7 75b9 f8f6 aa38 2d7a ddba 6e1b 82b9
000001f0: ee41 1f3a a3b9 f13a 2d60 ce36 1171 9139
00000200: 7b99 62ba a531 b03a fe78 4eb9 2af5 d9b9
00000210: 8f57 8e39 aac4 5b3a 0452 f337 8208 87ba
00000220: a97e aeb9 f2e1 d8b9 0b08 d0b9 31cb 41ba
00000230: 1eed 16b9 be9d 4139 4c39 2dba 5ade 8cba
00000240: 2cf3 873a 524f f5b9 e122 0239 c978 8539
00000250: fcec 7439 ab72 79b9 0c15 b539 ba1c 6038
00000260: 36b3 deb7 757f 9639 9e1a 63ba 6174 9b39
00000270: d86c a9ba aae4 76ba ae6a 84ba eccc 17ba
00000280: 7535 48b7 273a e238 feff 7db7 8ff2 05ba
00000290: 842d b2ba 7000 dfb8 840e 793a 8e01 09ba
000002a0: bccf f1b8 07ce 5338 94b6 9339 5a78 df39
000002b0: 70af 76ba adfe afb8 154c 55b9 1272 8637
000002c0: 5076 d0ba b758 4f38 0daf c539 9483 1bba
000002d0: 5e79 ffb8 ced8 eeb9 bc72 bbb9 bed1 6bba
000002e0: e899 abb9 55e8 063a 7787 c23a 0ec6 05ba
000002f0: 12c7 8f39 deb7 6bb8 2368 9439 f4c2 1e39
00000300: fdee 82ba d8c9 8439 5689 a1b9 2ffc 78b9
00000310: 1d73 2d3a bc00 dd39 20c3 e339 40a4 21b8
00000320: a9fa ce39 2135 11ba add5 bbb9 72c0 a738
00000330: 7539 1bba 4e33 27b9 2419 37b9 cdb3 13b9
00000340: d4fd 223a 7bd5 dcb9 ef0b 6a39 0d9b c2b8
00000350: 6dbb dcb9 019b 17bb 119f e838 38c3 5fb9
00000360: addc 22b8 c9bf 3db9 fbb4 f0ba 590c 98b9
00000370: cebe 153a c026 b9b8 aff0 29b8 052a 77b9
00000380: fef0 82b8 4b6d 6539 5fb8 493a 6596 da38
00000390: eadb 363a 8e32 5db9 475c 52ba ac31 ad39
000003a0: 4a28 5739 55a7 dcb8 f605 2f3a 69d1 2cba
000003b0: 023e 153a 0163 e839 83f0 0839 290b bdb9
000003c0: 9d5e c139 1573 a8b9 7595 b5ba c6e7 3db9
000003d0: 9423 8539 8b6f c638 d255 bd38 069d aab8
000003e0: 2bfb 17b9 259e 39b9 68a4 fdb8 ee73 8eb8
000003f0: 0949 83b9 26f1 58b9 d428 b23a 8827 7739

exp_avg_sq f4 [2, 768]
5.88745e-05 2.676662e-05 5.32374e-05 9.892273e-06 1.0800943e-05 9.0104615e-05 8.294273e-05 0.00017391896
4.1607593e-05 0.00019511483 0.00072696595 0.00031952045 1.0976058e-05 2.9543424e-05 4.7114558e-05 1.7246068e-05
2.5078745e-05 0.0008528517 0.0008240486 4.1928794e-05 0.00056490314 0.000112103415 0.00011545852 3.4832225e-05
3.1374995e-05 7.879609e-05 4.4856435e-05 3.684168e-05 2.6770596e-05 3.874016e-05 2.157028e-05 0.00013277886
0.00037648052 0.00023684296 0.00058845634 1.6937745e-05 2.0725129e-05 2.7039046e-05 3.7837068e-05 4.8807604e-05
0.000113166156 3.5091984e-05 0.00015065128 0.008893003 1.6658967e-05 5.1715662e-05 0.00050671434 9.866887e-05
4.299316e-05 1.2979866e-05 4.072055e-05 6.954419e-05 0.00010532448 0.0010924693 9.112291e-06 0.0008170363
0.00021359444 1.6424505e-05 3.4351055e-05 4.22829e-05 5.8889727e-05 1.2950898e-05 1.5173332e-05 2.452478e-05
3.606796e-05 2.1698093e-05 1.6274782e-05 5.8018406e-05 5.7616755e-05 1.5888436e-05 8.317314e-05 2.9482806e-05
0.00014761464 1.606691e-05 1.759035e-05 2.8858567e-05 5.4660915e-05 0.00028679424 0.00033860066 5.5825378e-05
3.52014e-05 0.0004218138 4.1194387e-05 4.6574452e-05 0.00035993848 8.439456e-05 5.4826156e-05 4.3094296e-05
1.8342273e-05 0.00046664232 1.5731948e-05 1.7117207e-05 1.7007464e-05 0.0033144748 1.6262089e-05 2.1301326e-05
4.4535678e-05 0.00049995136 3.7331316e-05 0.000781121 9.004782e-05 3.43048e-05 0.0005944738 0.00013509042
4.2529526e-05 1.9288516e-05 0.00013274862 7.533225e-05 1.2899911e-05 0.0012475867 3.268613e-05 5.8805832e-05
0.003773302 4.2714495e-05 0.0014770433 8.591352e-05 3.4424567e-05 6.013337e-05 2.0597668e-05 3.3555956e-05
1.979747e-05 8.041638e-05 0.00045298494 3.8348873e-05 4.8333266e-05 0.0017936408 1.6011267e-05 4.30703e-05
9.040473e-05 0.001286183 2.1274554e-05 1.6884085e-05 2.1011312e-05 0.00010017829 2.8135602e-05 0.00023317007
6.699049e-05 3.5317567e-05 1.9983436e-05 2.6272555e-05 1.8664945e-05 4.49755e-05 0.0010816356 6.535892e-05
0.00017276748 1.7764736e-05 6.081766e-05 3.8106115e-05 9.838717e-06 0.0017839184 7.795854e-05 2.813842e-05
0.00038419614 9.831391e-06 0.00022645996 3.2224125e-05 0.0012188423 0.00021778207 0.0009559919 6.194174e-05
1.9699664e-05 1.0998294e-05 2.5730633e-05 4.9746082e-05 0.00026431386 0.0037050808 0.00011606183 0.0001541487
4.675609e-05 1.9112129e-05 3.283742e-05 2.6951326e-05 9.322686e-05 0.00017065062 3.563696e-05 3.675118e-05
0.0003215122 8.065187e-05 0.0011125258 8.0667494e-05 5.159265e-05 4.2626998e-05 2.3241713e-05 7.50661e-05
4.838579e-05 5.1775663e-05 0.00044175668 0.00010839992 4.8535832e-05 3.5108344e-05 2.1987124e-05 0.00090978085
0.0036640407 5.1213356e-05 5.5797045e-05 5.4915887e-05 4.3210992e-05 0.00027547852 0.0007664982 0.00054657453
1.9804571e-05 0.00010810786 0.000101025995 0.00034196838 5.119953e-05 0.00031005437 1.7910821e-05 1.43754805e-05
5.3983356e-05 4.6343466e-05 1.3111272e-05 3.8114624e-05 5.5794568e-05 0.010350473 1.1644544e-05 4.7548543e-05
0.000102695034 4.098725e-05 0.0010151832 0.00013496881 9.0385955e-05 0.0014913939 1.9890058e-05 0.00068011414
6.291449e-05 7.087155e-05 0.00048677495 4.6590238e-05 9.00827e-05 2.1389591e-05 5.540478e-05 1.6739039e-05
3.648237e-05 1.2821734e-05 9.9948375e-05 0.00015586766 6.476655e-05 4.575829e-05 1.5545673e-05 0.000115312185
3.3030352e-05 5.0572547e-05 0.00024654428 2.4465737e-05 3.491154e-05 4.999628e-05 1.9986826e-05 3.8319733e-05
1.6417296e-05 0.00018254344 0.0005710418 1.9020508e-05 3.4086857e-05 0.00045691465 0.00042662083 4.931799e-05
00000000: 03f0 7638 e188 e037 394b 5f38 fdf6 2537
00000010: b235 3537 8cf6 bc38 8af1 ad38 045e 3639
00000020: d083 2e38 bd97 4c39 dc91 3e3a 4f85 a739
00000030: cf25 3837 05d4 f737 df9c 4538 a6ab 9037
00000040: 3260 d237 e991 5f3a f704 583a b3dc 2f38
00000050: 0216 143a 1019 eb38 5222 f238 d118 1238
00000060: a598 0338 543f a538 3b24 3c38 7486 1a38
00000070: 6b91 e037 ee7c 2238 d3f1 b437 8e3a 0b39
00000080: 5c62 c539 0c59 7839 a342 1a3a 8815 8e37
00000090: e0da ad37 e9d1 e237 3eb3 1e38 c4b6 4c38
000000a0: 9e53 ed38 bb2f 1338 25f8 1d39 f5b3 113c
000000b0: dcbe 8b37 45e9 5838 06d5 043a 72ec ce38
000000c0: 8e53 3438 1ac4 5937 5ccb 2a38 41d8 9138
000000d0: a6e1 dc38 3031 8f3a fee0 1837 612e 563a
000000e0: 52f8 5f39 5bc7 8937 2a14 1038 eb58 3138
000000f0: 5d00 7738 af47 5937 f790 7e37 90ba cd37
00000100: ad47 1738 4d04 b637 d485 8837 ca58 7338
00000110: 85a9 7138 2848 8537 3d6d ae38 d851 f737
00000120: 01c9 1a39 6dc7 8637 fd8e 9337 4d15 f237
00000130: b643 6538 df5c 9639 3686 b139 0b26 6a38
00000140: 37a5 1338 e426 dd39 23c8 2c38 f058 4338
00000150: 20b6 bc39 fcfc b038 23f5 6538 26c0 3438
00000160: bbdd 9937 aca7 f439 1af8 8337 ec96 8f37
00000170: 40ab 8e37 a937 593b 926a 8837 40b0 b237
00000180: d2cb 3a38 2b0f 033a 3294 1c38 25c4 4c3a
00000190: 0ed8 bc38 80e2 0f38 76d6 1b3a 0fa7 0d39
000001a0: bb61 3238 c6cd a137 7032 0b39 b2fb 9d38
000001b0: b26c 5837 1086 a33a 7718 0938 48a6 7638
000001c0: 8149 773b 5728 3338 5999 c13a 782c b438
000001d0: 1963 1038 b737 7c38 28c9 ac37 6fbe 0c38
000001e0: be12 a637 37a5 a838 9c7e ed39 cad8 2038
000001f0: 73b9 4a38 9918 eb3a ef4f 8637 62a6 3438
00000200: ab97 bd38 2495 a83a c276 b237 4ca2 8d37
00000210: 7341 b037 cf16 d238 bf04 ec37 1d7f 7439
00000220: 3f7d 8c38 f321 1438 1aa2 a737 e263 dc37
00000230: aa92 9c37 13a4 3c38 abc5 8d3a 4e11 8938
00000240: eb28 3539 7b05 9537 7716 7f38 21d4 1f38
00000250: f810 2537 5ed2 e93a ac7d a338 cc0a ec37
00000260: ef6d c939 81f1 2437 e275 6d39 6428 0738
00000270: 90c1 9f3a 6e5c 6439 889b 7a3a b8e6 8138
00000280: b540 a537 5085 3837 1dd8 d737 73a6 5038
00000290: 9b93 8a39 f1d0 723b 3866 f338 faa2 2139
000002a0: f81b 4438 fc52 a037 e9ba 0938 8815 e237
000002b0: ca82 c338 adf0 3239 e578 1538 4725 1a38
000002c0: a390 a839 a523 a938 2cd2 913a 082c a938
000002d0: 3065 5838 64ca 3238 33f7 c237 ce6c 9d38
000002e0: d9f1 4a38 b229 5938 949b e739 c454 e338
000002f0: f492 4b38 4c41 1338 fd70 b837 5c7e 6e3a
00000300: 6720 703b eccd 5638 9f07 6a38 7c55 6638
00000310: 733d 3538 1a6e 9039 d3ee 483a ff47 0f3a
00000320: fe21 a637 f7b7 e238 ebdd d338 384a b339
00000330: 14bf 5638 cb8e a239 323f 9637 382e 7137
00000340: 306c 6238 eb60 4238 7cf8 5b37 44dd 1f38
00000350: f604 6a38 0895 293c f05c 4337 dc6e 4738
00000360: fa5d d738 b9e9 2b38 e50f 853a 6a86 0d39
00000370: 978d bd38 e07a c33a 93d9 a637 b049 323a
00000380: f6f0 8338 e0a0 9438 d435 ff39 e369 4338
00000390: c8ea bc38 cc6d b337 6e62 6838 d06a 8c37
000003a0: a604 1938 ee1c 5737 609b d138 6870 2339
000003b0: 47d3 8738 97ec 3f38 1468 8237 c2d3 f138
000003c0: 128a 0a38 dc1d 5438 9d42 8139 c53b cd37
000003d0: fb6d 1238 19b3 5138 62a9 a737 80b9 2038
000003e0: e0b7 8937 2269 3f39 f7b1 153a 3b8e 9f37
000003f0: 7cf8 0e38 0c8e ef39 14ac df39 cada 4e38
