SmallD_SDD_up_to_step2/grad_save_init_IPC_10_no_curr_unroll_20mrpc_mlp_ipc10_w20_seed0.pth (torch, 187280 bytes, 3 tensors)

module.data.weight f4 [20, 768]
0	0xbd85cfcf	-0.06533777
1	0xbd18cce3	-0.03730477
2	0xbd0ca163	-0.034333598
3	0x3af2e7ea	0.001853225
4	0xbc0c3b93	-0.0085591255
5	0xbc6c4838	-0.014421515
6	0x3d9d6847	0.07685905
7	0xbca1e1e2	-0.01976103
8	0xbd16611e	-0.036713712
9	0xbb2fd6a8	-0.0026830826
10	0x3d33e761	0.043921832
11	0x3c06fabf	0.008238493
12	0xbd02dfee	-0.031951837
13	0xbcee3a06	-0.029080402
14	0xbd356cb1	-0.04429311
15	0x3cd1c936	0.02560864
16	0xba3ae15a	-0.0007128917
17	0xbbbeb30a	-0.005819683
18	0x3cbc5db3	0.022993898
19	0xbbb75071	-0.005594306
20	0xbd9a3b4b	-0.075308405
21	0x3d416462	0.047214873
22	0x3d256756	0.040381752
23	0x3da558d2	0.08073582
24	0x3cee0768	0.029056266
25	0xbd4de246	-0.05026462
26	0x3c6bd00c	0.014392864
27	0xbbbf2e39	-0.0058343676
28	0xbc253a57	-0.01008471
29	0xbceaeb63	-0.028676694
30	0x3d1d64c7	0.038426187
31	0x3d4b6723	0.049658906
32	0x3d4b453b	0.04962657
33	0xbd1c479a	-0.038154222
34	0x3ceeed9d	0.029166037
35	0xbd164a36	-0.036691867
36	0x3d4007db	0.04688249
37	0xbdb25531	-0.08707655
38	0xbd76684f	-0.06015807
39	0x3d07b551	0.0331319
40	0x3cf45db1	0.029829832
41	0xbcaea4be	-0.02131879
42	0xbcc544ec	-0.024080716
43	0xbd523eae	-0.051329307
44	0xbd18250b	-0.037144702
45	0xbd711528	-0.058858067
46	0xbbbaba76	-0.0056984974
47	0xbbad2ec5	-0.0052851164
48	0xbd02eb87	-0.031962898
49	0xbcce50cf	-0.025185017
50	0x3cd2da24	0.025738783
51	0x3cd9a6b6	0.026568752
52	0x3c823e83	0.015898949
53	0xbc922d9f	-0.01784402
54	0x3c618427	0.013764418
55	0xbc068595	-0.008210559
56	0xbd245b79	-0.040126298
57	0xbd7b3b40	-0.061335802
58	0x3d48e73e	0.049048655
59	0x3d0a152a	0.03371159
60	0xbb9899d0	-0.0046570078
61	0x3d6cd1fc	0.057817444
62	0x3dd3ec42	0.10347797
63	0x3d1bfc44	0.038082376
64	0x3b60d37f	0.003430575
65	0xbccd10da	-0.02503245
66	0xbca047fd	-0.019565577
67	0xbd847cd5	-0.06469122
68	0xbddf5005	-0.109039344
69	0x3d1e0fc5	0.038589258
70	0xbc56c8c1	-0.013109387
71	0x3c7557a0	0.014974505
72	0xbd9dcd72	-0.07705201
73	0xbc883f76	-0.016631823
74	0x3d3b7762	0.04576815
75	0xbd657eed	-0.05602925
76	0x3cc7efe4	0.024406381
77	0x3c86e28a	0.016465444
78	0xbd299c9c	-0.04140912
79	0x3d2ef173	0.042710733
80	0xbce99a37	-0.028515918
81	0xbd70b59a	-0.05876694
82	0xbd04e1f4	-0.03244205
83	0xbcbf1d18	-0.023329303
84	0xbb6a9dc5	-0.0035799604
85	0x3cab815b	0.020935705
86	0xbba6fec1	-0.005096287
87	0xbd730164	-0.059327498
88	0x3b1e74cc	0.0024178503
89	0xbd10355e	-0.035207145
90	0x3d2a684c	0.04160337
91	0xbd247493	-0.040150236
92	0xbd09abe4	-0.033611193
93	0xbd088ade	-0.03333556
94	0x3cddd810	0.027080566
95	0x3d29298a	0.04129938
96	0x3d20d06e	0.039261274
97	0xbd011a69	-0.031519327
98	0xbba69764	-0.005083965
99	0xbcc057ce	-0.023479369
100	0xbd1e0ef6	-0.038588487
101	0xbc8c88e6	-0.017155122
102	0x3d8e01ec	0.0693396
103	0x3daf6bb3	0.08565464
104	0xbd4cec01	-0.05002976
105	0xbc9012a7	-0.01758702
106	0xbd2fe009	-0.042938266
107	0x3c334c7b	0.010943527
108	0x3b996d57	0.004682224
109	0x3d5a822f	0.05334681
110	0x3d87fe57	0.06640308
111	0x3d197fd1	0.03747541
112	0x3d397865	0.045280833
113	0x3d1df357	0.038562145
114	0x3c00715a	0.007839525
115	0xbe105d71	-0.14098145
116	0xbcadd59d	-0.021220023
117	0xbc7b0c6d	-0.015322787
118	0x3d86bed3	0.065793656
119	0x3d070453	0.03296311
120	0x3b47e429	0.0030500984
121	0xbc2a28df	-0.010385721
122	0x3c4854b7	0.012227229
123	0xbd0a5c47	-0.03377941
124	0x3b50791a	0.0031810463
125	0xbd48ae97	-0.048994627
126	0x3cf56c89	0.02995898
127	0x3d465805	0.048423786
128	0x3ca141e7	0.019684745
129	0xbb7a7e9a	-0.0038222433
130	0x3c383115	0.011242171
131	0x3d5c5bee	0.05379861
132	0xbd83330f	-0.06406223
133	0x3b1833f1	0.002322432
134	0x3c08fd79	0.008361214
135	0xbcd8e466	-0.026476096
136	0xbbd7ef1f	-0.0065897848
137	0xbd284303	-0.041079532
138	0x3d0dc730	0.034613788
139	0x3d8f5c72	0.070000544
140	0x3c2e5957	0.0106414175
141	0x3d029e7d	0.031889427
142	0x3d7f1f1c	0.062285528
143	0x3d65852b	0.056035202
144	0xbbe47d29	-0.006972928
145	0xbcab9cc6	-0.020948779
146	0x3d8e7b0d	0.06957064
147	0xbd76a0bc	-0.060211882
148	0xbc71f8dd	-0.014768806
149	0x3c3c6213	0.011497992
150	0x3ca37857	0.019954843
151	0xbc0d06ba	-0.008607561
152	0xbd50bf83	-0.05096389
153	0xbd345d05	-0.044034023
154	0xbd1172f1	-0.035510007
155	0x3c520db6	0.012820652
156	0x3cf9089d	0.030399615
157	0x3d6269db	0.055276733
158	0xbd54f643	-0.051992666
159	0x3ca23193	0.01979903
160	0x3c612dc5	0.013743822
161	0x3c345a7b	0.0110079
162	0x3d0e6cc4	0.034771696
163	0x3c31b579	0.010846489
164	0xbc88bc78	-0.016691431
165	0x3dc50add	0.09621213
166	0xbd473679	-0.048635934
167	0xbaa911ef	-0.0012899021
168	0x3cf46f82	0.029838327
169	0xbd12b1c9	-0.03581408
170	0x3d5027d1	0.050819222
171	0x3d5cf04b	0.0539401
172	0x3cd0bf0a	0.02548172
173	0x3d7da41e	0.061924092
174	0x3ce54c47	0.027990473
175	0xbd915ee8	-0.0709818
176	0xbcb4943e	-0.022043344
177	0x3d34d8dd	0.04415213
178	0x3d35228f	0.04422241
179	0x3db2f608	0.08738333
180	0xbdcc359c	-0.09971163
181	0x3c70a279	0.014687174
182	0xbd2e64f8	-0.04257676
183	0x3c322844	0.010873858
184	0x3ca335a6	0.019923043
185	0x3d46e62b	0.04855935
186	0x3d35f22f	0.044420417
187	0xbcb6e152	-0.022324238
188	0xbc760607	-0.0150160855
189	0x3c5c90cb	0.013462256
190	0xbd181adf	-0.037135
191	0x3d5c5a10	0.053796828
192	0x3d547120	0.051865697
193	0xbd48dbd5	-0.049037773
194	0xbd298c8b	-0.041393798
195	0x3d602f84	0.054732814
196	0x3c060142	0.008179011
197	0xbd1201c2	-0.035646208
198	0x3cf3c2f8	0.029756054
199	0xbc54b53b	-0.012982662
200	0x3c9548e2	0.01822323
201	0x3d99c255	0.07507769
202	0xbc3a166b	-0.011357884
203	0xbd77e868	-0.060524374
204	0xbd9878af	-0.074448936
205	0xbb619505	-0.0034421098
206	0x3e1921af	0.14954256
207	0x3c9cb273	0.01912806
208	0x3c90de81	0.017684223
209	0xbc321b5c	-0.010870781
210	0xbcd69dc3	-0.026198274
211	0x3c99df7f	0.018783329
212	0xbcd299e2	-0.025708143
213	0x3d4183ac	0.047244713
214	0xbd0b6e89	-0.03404096
215	0x3ccb1733	0.024791336
216	0xbcf3be6a	-0.029753882
217	0x3cc0c44e	0.023531105
218	0x3d5572e8	0.052111536
219	0xbcd0232c	-0.025407396
220	0x3d182b8e	0.037150912
221	0xbca0e1e0	-0.019638956
222	0x3c965a04	0.01835347
223	0x3cb3b024	0.021934576
224	0xbd0f5907	-0.034997012
225	0x3d1fb572	0.0389914
226	0x3d0b5fc1	0.034026865
227	0xbc965322	-0.018350188
228	0xbd5107d0	-0.05103284
229	0xbc96f4dc	-0.018427305
230	0xbc3b6e9b	-0.011439945
231	0x3d0679e2	0.03283108
232	0x3c60c714	0.013719339
233	0xbd04abde	-0.032390468
234	0x3d1e0f64	0.038588896
235	0xbcbbff62	-0.022948924
236	0xbcd1b0b5	-0.025596956
237	0xbde5bc4c	-0.112175554
238	0x3cb1ec6a	0.021719176
239	0x3c90fbaa	0.017698128
240	0x3d2b9ff4	0.04190059
241	0xbd2fd896	-0.04293116
242	0x3c1c6e25	0.009547745
243	0x3b74c525	0.0037348953
244	0x3dac60cd	0.08416901
245	0x3d36e008	0.044647247
246	0xbdad3886	-0.084580466
247	0xbdaf0c33	-0.08547249
248	0xbd81b15f	-0.06332659
249	0x3c3fdf9c	0.0117110275
250	0x3c32be7c	0.010909673
251	0xbcef5a01	-0.029217722
252	0xbd3dc0e8	-0.046326548
253	0x3d8d594b	0.06901797
254	0x3d0e42f2	0.034731813
255	0x3d0094bc	0.031391844

exp_avg f4 [20, 768]
0	0x38723b67	5.775262e-05
1	0xb8248929	-3.9228387e-05
2	0x3774fd1c	1.4602465e-05
3	0xb71acd61	-9.226934e-06
4	0x38f47b53	0.000116577976
5	0x3918b9a9	0.00014565013
6	0xb90c33dc	-0.0001337076
7	0x38205052	3.8221777e-05
8	0x382b7116	4.0874897e-05
9	0x38953518	7.114763e-05
10	0x38a65bd7	7.932603e-05
11	0xb855e50f	-5.0996485e-05
12	0x372c3723	1.0264836e-05
13	0xb9d3be78	-0.00040386966
14	0x383b7ec3	4.470233e-05
15	0x36ae1419	5.1879438e-06
16	0xb813eeeb	-3.527004e-05
17	0xb8815742	-6.1674524e-05
18	0xb8406ca7	-4.5877558e-05
19	0x3829b038	4.0456856e-05
20	0x38235dfa	3.894975e-05
21	0x384cc880	4.882412e-05
22	0x383e8b9a	4.5429544e-05
23	0x37dfabc1	2.666365e-05
24	0x3a15e2af	0.00057176774
25	0x38b2d715	8.5277636e-05
26	0x389c25b0	7.4456795e-05
27	0x38fcd0b1	0.00012055168
28	0x37c77365	2.3776383e-05
29	0x389f192b	7.586399e-05
30	0x37e87b65	2.7714015e-05
31	0xb8b65fbc	-8.696268e-05
32	0x39461b32	0.00018892883
33	0x380cdcdc	3.3584292e-05
34	0xb8147b6a	-3.5400888e-05
35	0xb80e608a	-3.3945347e-05
36	0xb904fa08	-0.00012681645
37	0x37826cb0	1.554782e-05
38	0xba109ca7	-0.0005516507
39	0xb6623a69	-3.3710623e-06
40	0x384d394e	4.8929178e-05
41	0xb7512f59	-1.2468395e-05
42	0x38af5852	8.361101e-05
43	0x3908bbfa	0.00013039997
44	0xb8770e1d	-5.8902533e-05
45	0x389854b2	7.2637005e-05
46	0x38908f3d	6.893135e-05
47	0xb7a5aeda	-1.9750954e-05
48	0xb81ca669	-3.734828e-05
49	0x38835bdc	6.263677e-05
50	0x383a5132	4.4421475e-05
51	0x38bcffee	9.012209e-05
52	0xb900a563	-0.00012268643
53	0xb946c08d	-0.00018954482
54	0xb74bffd1	-1.2159305e-05
55	0xb827915d	-3.9951283e-05
56	0xb79b5f74	-1.8521889e-05
57	0x38e07e6e	0.00010704702
58	0xb6e36cf7	-6.7778124e-06
59	0x38936291	7.027866e-05
60	0xb9dcab04	-0.00042089086
61	0x39892eca	0.00026165537
62	0xb96e4fdc	-0.00022727199
63	0xb834c921	-4.310266e-05
64	0x38430b88	4.6502362e-05
65	0xb9e54522	-0.00043729792
66	0xb82ec2f6	-4.1666404e-05
67	0x3889666b	6.551746e-05
68	0x396b73de	0.0002245451
69	0xb84989bd	-4.8050413e-05
70	0x385a1838	5.1997806e-05
71	0x3a0a899c	0.00052847876
72	0xb7fed3b9	-3.037775e-05
73	0x387b0b0d	5.9853355e-05
74	0x38cfcf47	9.9091376e-05
75	0xb8807a23	-6.126265e-05
76	0x372a6829	1.0157041e-05
77	0xb8e7831a	-0.00011039358
78	0x3807b374	3.2353637e-05
79	0xb8330cb5	-4.268876e-05
80	0xb67285fb	-3.6138797e-06
81	0x381db145	3.7596812e-05
82	0xb86358de	-5.420378e-05
83	0xb7353e36	-1.0802925e-05
84	0xb9482932	-0.00019088833
85	0x37b077bd	2.1036592e-05
86	0xb89ba08e	-7.4208816e-05
87	0x388937a9	6.5430366e-05
88	0x37dad51f	2.6086867e-05
89	0xba790298	-0.00094989827
90	0x379cac04	1.867675e-05
91	0xb6b36186	-5.345969e-06
92	0x372e6a05	1.0395893e-05
93	0x3635aaea	2.7070587e-06
94	0x37586763	1.2898675e-05
95	0x39a688c1	0.00031763877
96	0xb75912fb	-1.2938627e-05
97	0x35bb1baf	1.3940643e-06
98	0xb91ef5a4	-0.00015159562
99	0xb8799d52	-5.9512742e-05
100	0x3831e9cc	4.241783e-05
101	0xb5bbf1fe	-1.4003015e-06
102	0xb89d0705	-7.487651e-05
103	0xb7b4d7e8	-2.1558211e-05
104	0x38ae7a6b	8.319769e-05
105	0x38ce2218	9.829196e-05
106	0x38806890	6.122992e-05
107	0x39a8bead	0.00032185522
108	0xb82b8e18	-4.0901912e-05
109	0x38c998d9	9.612897e-05
110	0x387ffd5e	6.1032704e-05
111	0xb89acb8d	-7.3812065e-05
112	0x38820b5e	6.201e-05
113	0x37c8abf7	2.3921935e-05
114	0xb8398480	-4.4230837e-05
115	0xba342956	-0.00068726146
116	0xb9220674	-0.00015451928
117	0x38d694ec	0.00010232054
118	0xb8474f68	-4.751925e-05
119	0x385bbcc4	5.238947e-05
120	0x37e66834	2.746666e-05
121	0xb8b3690b	-8.554951e-05
122	0x398903d8	0.0002613354
123	0x38914a7e	6.928014e-05
124	0x38f07b82	0.00011467097
125	0x3879ce79	5.955852e-05
126	0xb8e90791	-0.00011111715
127	0x370c174a	8.350073e-06
128	0xbb2a0090	-0.0025940277
129	0xb89fc3bd	-7.61817e-05
130	0x38bdcf5a	9.0508445e-05
131	0xb94c6cd9	-0.00019495505
132	0xb7eca800	-2.8211623e-05
133	0x38c90fb7	9.587354e-05
134	0x3828dde2	4.0260966e-05
135	0x392c05c7	0.0001640535
136	0xb95c0a54	-0.00020984682
137	0xb89ae06c	-7.385094e-05
138	0xb836be7c	-4.3569584e-05
139	0x362606be	2.4739852e-06
140	0x386e0de5	5.6756562e-05
141	0x391de354	0.00015057373
142	0xb6d8cf2c	-6.4614196e-06
143	0x39f53ee4	0.000467769
144	0xb960df6c	-0.00021445536
145	0xb8f73173	-0.000117870884
146	0xb999efc0	-0.00029361062
147	0xb83a59bb	-4.4429424e-05
148	0x388b5002	6.642939e-05
149	0xb85766ae	-5.1355622e-05
150	0x374af8ed	1.2098096e-05
151	0x39f5e616	0.0004690147
152	0x38190a21	3.6487476e-05
153	0x3849c1ab	4.81025e-05
154	0xb7a2a66f	-1.9389407e-05
155	0xb8b93d04	-8.8328525e-05
156	0xb7ff4e95	-3.0434961e-05
157	0xb7d5c30b	-2.5482403e-05
158	0xb92dcce8	-0.00016574899
159	0xb9217304	-0.00015397003
160	0xb918b5ed	-0.00014563622
161	0xb8a6bf16	-7.951089e-05
162	0xb829c553	-4.0476512e-05
163	0xb84044fe	-4.584062e-05
164	0x358d1834	1.0512363e-06
165	0xbaedde65	-0.0018147944
166	0xba045316	-0.0005047781
167	0x384caf92	4.8800903e-05
168	0xb70ef78c	-8.521496e-06
169	0xb8fda62f	-0.00012094934
170	0xb7aef67f	-2.08572e-05
171	0x364653c3	2.9553055e-06
172	0xb7d8b85a	-2.5835052e-05
173	0x36a2c04a	4.8503616e-06
174	0xba17f5d1	-0.00057968224
175	0x387c8362	6.020384e-05
176	0xb92162ac	-0.00015390915
177	0xb8492ef3	-4.796586e-05
178	0xb800640c	-3.0610754e-05
179	0x35e80ac3	1.7288479e-06
180	0x38fe0b43	0.000121137615
181	0x36a1429d	4.8059287e-06
182	0xb91c2a46	-0.00014893067
183	0x37cc2683	2.4336628e-05
184	0xb90c7a22	-0.00013396938
185	0xb707c436	-8.092311e-06
186	0xba8f4ef1	-0.001093356
187	0xb8499919	-4.8064718e-05
188	0x3a294749	0.00064574607
189	0xb895f77a	-7.15097e-05
190	0x364e0a47	3.0702374e-06
191	0x38956785	7.124156e-05
192	0xb6e8d1fb	-6.9385837e-06
193	0xb84f857b	-4.947696e-05
194	0xb6bf4ef4	-5.701435e-06
195	0x3a2ad511	0.0006516735
196	0x37565ac7	1.277653e-05
197	0xb814fd3f	-3.5521804e-05
198	0x3689d9a2	4.108254e-06
199	0x38b539b5	8.641501e-05
200	0x39a96c26	0.0003231477
201	0x389e92ec	7.5613934e-05
202	0xb883ac84	-6.2787e-05
203	0xb90ac541	-0.00013234188
204	0x39d66b17	0.0004089705
205	0xba0675ed	-0.00051292666
206	0x37dbc09b	2.6196523e-05
207	0x3741af8e	1.1544571e-05
208	0xb903e741	-0.00012579282
209	0xb97e3b6b	-0.00024245463
210	0x378c2bae	1.670964e-05
211	0x3863cf69	5.4314183e-05
212	0x3946da6f	0.00018964124
213	0x3883a3ea	6.277098e-05
214	0xb8570768	-5.1266892e-05
215	0xb7104970	-8.600167e-06
216	0xb8c2a550	-9.281433e-05
217	0xb8d3d3d6	-0.000101007216
218	0xb913ee58	-0.00014107802
219	0x38c203cb	9.2513474e-05
220	0x374d526b	1.2238142e-05
221	0xb7afefef	-2.0973353e-05
222	0xb8ec940d	-0.000112809335
223	0xb837cbcc	-4.38204e-05
224	0xb7d588a6	-2.545521e-05
225	0xb92b52cf	-0.0001633868
226	0x3957c525	0.0002057744
227	0xba100a8c	-0.00054947357
228	0xb8b1d284	-8.479229e-05
229	0xb7f461e2	-2.9132647e-05
230	0x38dd25f0	0.000105451676
231	0x38c2ea9c	9.29434e-05
232	0x391f6ae9	0.00015203249
233	0xb932efe2	-0.00017064766
234	0x39bc5451	0.00035920975
235	0x388e525d	6.786429e-05
236	0xb9d69980	-0.00040931627
237	0xb85727db	-5.1297113e-05
238	0x3886fea1	6.437046e-05
239	0xb8f91bc3	-0.00011878416
240	0xb7b7fbb9	-2.1932517e-05
241	0xb797b6df	-1.8085759e-05
242	0x384bb17a	4.856426e-05
243	0x39b53ae9	0.00034566902
244	0x39e1daa8	0.00043078256
245	0xb83e1b43	-4.532492e-05
246	0xb8ddfe2c	-0.000105854444
247	0x387d8d49	6.0451483e-05
248	0x38f3775a	0.00011609374
249	0xb8b60974	-8.680197e-05
250	0xb9883eaf	-0.00025986644
251	0x36dae76c	6.5238473e-06
252	0xb7f3f4dd	-2.908188e-05
253	0x39275598	0.00015958247
254	0xba20e79a	-0.0006138027
255	0xb7c31e95	-2.3260052e-05

exp_avg_sq f4 [20, 768]
0	0x3820c9ba	3.8334845e-05
1	0x34937942	2.746911e-07
2	0x37874045	1.6123182e-05
3	0x34d6a69a	3.9981825e-07
4	0x37124972	8.7193785e-06
5	0x3786b7ab	1.6059572e-05
6	0x380f1c7d	3.412039e-05
7	0x36f96a5b	7.4331597e-06
8	0x356e2668	8.87178e-07
9	0x36207888	2.3912016e-06
10	0x36367f97	2.719438e-06
11	0x360d8e94	2.1093629e-06
12	0x356d1213	8.831568e-07
13	0x383e1b28	4.532482e-05
14	0x364591fc	2.9440262e-06
15	0x353cda9d	7.035358e-07
16	0x358eb69c	1.0632971e-06
17	0x388f3b16	6.829777e-05
18	0x37033911	7.821495e-06
19	0x36030346	1.9522427e-06
20	0x34f6a2e9	4.5939603e-07
21	0x36059f31	1.9911206e-06
22	0x344ebf9b	1.925495e-07
23	0x3575ec0f	9.161312e-07
24	0x36a8d060	5.031048e-06
25	0x36b0a550	5.2644536e-06
26	0x35e6158b	1.7142605e-06
27	0x36450d6c	2.93631e-06
28	0x3629ebf8	2.5320314e-06
29	0x36f28137	7.2272046e-06
30	0x3569e982	8.713906e-07
31	0x36a37fc4	4.8726524e-06
32	0x37fbce8e	3.0017716e-05
33	0x374c509d	1.2178117e-05
34	0x36f89aea	7.4090103e-06
35	0x360437ad	1.970194e-06
36	0x377483ff	1.4574266e-05
37	0x3545bb5a	7.366085e-07
38	0x3707eae6	8.101319e-06
39	0x351b7f00	5.792681e-07
40	0x351b4f20	5.785714e-07
41	0x361f5aa5	2.3745608e-06
42	0x37c0f714	2.3003238e-05
43	0x3604934f	1.9755278e-06
44	0x35e56019	1.7089798e-06
45	0x37128453	8.733087e-06
46	0x3704e52e	7.921173e-06
47	0x3814f659	3.551538e-05
48	0x371545d7	8.897353e-06
49	0x36939e55	4.3993737e-06
50	0x358b088b	1.0358793e-06
51	0x3532a822	6.655483e-07
52	0x3603c0c2	1.963272e-06
53	0x380a97eb	3.304325e-05
54	0x355f7d2c	8.325612e-07
55	0x384fc3da	4.9535047e-05
56	0x37346948	1.0753349e-05
57	0x35f02572	1.7892291e-06
58	0x350f7e86	5.3455767e-07
59	0x37f3caf4	2.9062365e-05
60	0x36af3068	5.2210416e-06
61	0x36ff9566	7.6169845e-06
62	0x3760c42a	1.3397113e-05
63	0x3568e04c	8.675313e-07
64	0x34e283ad	4.2191587e-07
65	0x38dbce3c	0.00010481148
66	0x36ac09d9	5.127146e-06
67	0x368e2aa7	4.236895e-06
68	0x38e1bbff	0.00010763853
69	0x35783dac	9.2476944e-07
70	0x366a3ace	3.4902946e-06
71	0x3751ffc3	1.251692e-05
72	0x36931f0b	4.3845553e-06
73	0x3595afda	1.1152545e-06
74	0x36960693	4.4711137e-06
75	0x3639d0b9	2.768864e-06
76	0x35770b0b	9.203074e-07
77	0x36dd90d5	6.603174e-06
78	0x35d19b49	1.5616907e-06
79	0x37aa0e83	2.0272337e-05
80	0x3616066d	2.2355482e-06
81	0x37580585	1.2875888e-05
82	0x36163a16	2.2385552e-06
83	0x357e5dec	9.475905e-07
84	0x37918e6f	1.7351673e-05
85	0x360fc722	2.142457e-06
86	0x379f8f19	1.9020912e-05
87	0x3689bdbf	4.1050075e-06
88	0x36025ec0	1.9426661e-06
89	0x38e183a9	0.0001075336
90	0x35857d14	9.945675e-07
91	0x35d5d989	1.5933048e-06
92	0x350bceec	5.2082646e-07
93	0x372bc6c8	1.0238677e-05
94	0x35bed634	1.4218444e-06
95	0x377c3649	1.503301e-05
96	0x34ccbb92	3.8134436e-07
97	0x361e3c34	2.3578878e-06
98	0x3501f18c	4.840774e-07
99	0x37350362	1.0789228e-05
100	0x35aa596f	1.2692016e-06
101	0x368211a4	3.8763555e-06
102	0x365679e6	3.195944e-06
103	0x35ff32ba	1.9013744e-06
104	0x35169fc7	5.611186e-07
105	0x343f0910	1.7791558e-07
106	0x355df6b6	8.268793e-07
107	0x38c2c2c3	9.286918e-05
108	0x350059bb	4.781429e-07
109	0x38ed37c7	0.0001131143
110	0x34d21592	3.9131243e-07
111	0x360f4b32	2.135243e-06
112	0x35c5bce1	1.4732615e-06
113	0x365c3cf7	3.281804e-06
114	0x35a15998	1.202151e-06
115	0x388e9954	6.799647e-05
116	0x370dc1cf	8.4493795e-06
117	0x36a83b85	5.013719e-06
118	0x35ac22d8	1.282514e-06
119	0x35681d75	8.64696e-07
120	0x34d6ca32	4.0007723e-07
121	0x36a495ae	4.905006e-06
122	0x3756382a	1.2768471e-05
123	0x34d9d438	4.057381e-07
124	0x3632452f	2.6564337e-06
125	0x36b67029	5.43708e-06
126	0x361aad22	2.3048565e-06
127	0x35566072	7.986156e-07
128	0x383064b6	4.2055464e-05
129	0x37f92f5e	2.970517e-05
130	0x361c05b6	2.3249136e-06
131	0x37194418	9.135365e-06
132	0x349c7bee	2.9147435e-07
133	0x3719cd38	9.167292e-06
134	0x35a2769f	1.2104464e-06
135	0x37373af5	1.0921377e-05
136	0x3782a5c1	1.5574393e-05
137	0x35c8f073	1.4971141e-06
138	0x34cbe5e6	3.797897e-07
139	0x35afdf25	1.310346e-06
140	0x36cc5cfa	6.0904977e-06
141	0x375b0903	1.3055515e-05
142	0x39082ca7	0.00012986605
143	0x38147389	3.539355e-05
144	0x37cba575	2.4276533e-05
145	0x366ccfb0	3.528763e-06
146	0x359f8e64	1.1887864e-06
147	0x3475ea9c	2.2902753e-07
148	0x35682206	8.6476246e-07
149	0x362d07ef	2.5783627e-06
150	0x359a1eb3	1.1482829e-06
151	0x384218f2	4.6276436e-05
152	0x36275927	2.4936833e-06
153	0x360071f0	1.9139807e-06
154	0x3611dc47	2.1734902e-06
155	0x356034ab	8.3523145e-07
156	0x36873e4a	4.030565e-06
157	0x3781d1cc	1.5475693e-05
158	0x38b35ada	8.5523076e-05
159	0x36da5a3c	6.507411e-06
160	0x364718b5	2.9667692e-06
161	0x361e421f	2.3582322e-06
162	0x35930d5a	1.0956239e-06
163	0x35bbb521	1.3985301e-06
164	0x357cd493	9.418665e-07
165	0x387195b5	5.7598303e-05
166	0x3850809d	4.9710845e-05
167	0x35e7b770	1.7264229e-06
168	0x3545d2d5	7.369502e-07
169	0x36a6e521	4.9738596e-06
170	0x363c95ed	2.8101451e-06
171	0x34b30aae	3.334912e-07
172	0x36285554	2.5083618e-06
173	0x37080edb	8.1096905e-06
174	0x37c39d5c	2.3319088e-05
175	0x348bab70	2.6015505e-07
176	0x36473e6f	2.9689652e-06
177	0x364d94de	3.0634033e-06
178	0x34a97ab9	3.1567996e-07
179	0x377956e7	1.486179e-05
180	0x3696d0ca	4.4946546e-06
181	0x365fbb8a	3.3338752e-06
182	0x383e744e	4.5407847e-05
183	0x3746f1d9	1.1858029e-05
184	0x36490ffd	2.996064e-06
185	0x34badef9	3.4807434e-07
186	0x396f7689	0.00022836974
187	0x371bcdf8	9.286676e-06
188	0x3753c849	1.2623213e-05
189	0x3667bb1d	3.4530597e-06
190	0x3644359e	2.9237485e-06
191	0x36c2e841	5.8086885e-06
192	0x360707c9	2.01211e-06
193	0x35e1cf33	1.6824109e-06
194	0x3690ccd0	4.3153777e-06
195	0x37810102	1.5378468e-05
196	0x36d5f963	6.376927e-06
197	0x35d8af27	1.614423e-06
198	0x38359cdb	4.3299846e-05
199	0x3788d1fb	1.6310243e-05
200	0x36979dc9	4.5185193e-06
201	0x360e8fe6	2.1243409e-06
202	0x367d9742	3.7787981e-06
203	0x362102e0	2.3992543e-06
204	0x386a57dd	5.5871777e-05
205	0x38dbd769	0.00010482857
206	0x35281710	6.261844e-07
207	0x3685f308	3.9920014e-06
208	0x373dd582	1.1314989e-05
209	0x37332c0b	1.0679486e-05
210	0x3463aeb2	2.1204576e-07
211	0x381cd09a	3.7387574e-05
212	0x36d4e801	6.345101e-06
213	0x34a9ebe5	3.165034e-07
214	0x356cb3be	8.817841e-07
215	0x34f443cd	4.5497873e-07
216	0x3675dcbb	3.6636327e-06
217	0x36a69ea3	4.9656533e-06
218	0x36dc4ca0	6.5654312e-06
219	0x3617587c	2.2552258e-06
220	0x361b1d71	2.3113937e-06
221	0x3612384e	2.178847e-06
222	0x3618d88e	2.2775816e-06
223	0x362cd771	2.57554e-06
224	0x3410d938	1.3490069e-07
225	0x374f0a47	1.2340554e-05
226	0x386b6c05	5.6128967e-05
227	0x378ec757	1.7020544e-05
228	0x3695d9e9	4.465914e-06
229	0x36f08b29	7.1687577e-06
230	0x3814b2c0	3.5452424e-05
231	0x360ab68c	2.0669859e-06
232	0x3581ab8d	9.661177e-07
233	0x36ac1f19	5.1296197e-06
234	0x38c4215b	9.352221e-05
235	0x3685f783	3.992523e-06
236	0x395d6387	0.00021113279
237	0x35a97868	1.2626524e-06
238	0x34c44975	3.6561292e-07
239	0x3591c857	1.0861648e-06
240	0x34d66aa1	3.993819e-07
241	0x35aa45a7	1.2686259e-06
242	0x36355ce1	2.7025164e-06
243	0x36101c20	2.1474043e-06
244	0x37946f0d	1.7694687e-05
245	0x36311d9f	2.6392297e-06
246	0x3770d6e7	1.4355151e-05
247	0x3514a6a9	5.537682e-07
248	0x35a153d8	1.2019837e-06
249	0x34ea0825	4.3591822e-07
250	0x37171fcb	9.007704e-06
251	0x36505466	3.1043542e-06
252	0x35d6bdf1	1.5999523e-06
253	0x37a0933e	1.9142051e-05
254	0x376bfff2	1.4066683e-05
255	0x35a71bf1	1.2450602e-06
