SmallD_SDD_up_to_step2/grad_save_init_IPC_5_no_curr_unroll_10mrpc_mlp_ipc5_w10_seed0.pth (torch, 95104 bytes, 3 tensors)

module.data.weight f4 [10, 768]
000000 75 56 c1 bc 79 fe 4a bd 76 72 03 bd 54 ec cf 3c
       -0.023600796 -0.04955909 -0.03209158 0.025381245
000010 84 54 43 bd f9 db 03 bd 3b 77 d7 bb c4 42 30 3c
       -0.047688022 -0.032192204 -0.0065754927 0.010758106
000020 18 c3 37 bd 2e fb 19 3d 56 9a 8c bd 0b 79 86 3c
       -0.04486379 0.03759306 -0.06865375 0.01641514
000030 cc 24 6f bc b2 20 38 bc 4d 8c e4 3d c6 02 24 3d
       -0.014596175 -0.011238264 0.11159573 0.040041707
000040 4e 1b 96 3c 81 b0 f4 bd c2 2e 65 bd 67 23 67 bd
       0.018323567 -0.11947728 -0.055952795 -0.056430247
000050 22 26 92 3c 19 a3 e3 bc 9c 25 e8 3d fb e3 36 3c
       0.017840449 -0.027787732 0.113352984 0.011162753
000060 89 fe 22 3d b5 43 11 bc 67 f8 60 3d c4 f9 ec bc
       0.039793525 -0.00886624 0.054924395 -0.028927691
000070 e8 a9 9f 3c a5 c5 b1 3c 6d d7 01 bd f5 6e 06 3d
       0.019490197 0.02170069 -0.031699587 0.03282066
000080 8e 4a d5 3c 13 97 77 bd 3d 06 86 bc 0c a5 cf 3c
       0.026036527 -0.06044681 -0.016360397 0.025347255
000090 ba f2 0b bc c6 ca 73 bd cb 35 97 3d 10 7d a8 ba
       -0.008541757 -0.05951955 0.07383307 -0.0012854654
0000a0 a1 4a 86 3c 3a 7e b8 3d 7c 35 71 bd f8 fa 7f 3d
       0.016393008 0.09008451 -0.058888897 0.0624952
0000b0 d3 24 8f bd be 16 1b bd d7 f5 ff bd 75 8b b2 3d
       -0.069894455 -0.037863486 -0.12498062 0.087180056
0000c0 18 db 27 bb cd 47 6d bc 71 dd 18 bc 5b 28 57 3c
       -0.0025612768 -0.014482451 -0.0093301395 0.01313218
0000d0 d0 46 a1 3c 3d 29 54 3d 33 63 3a 3d 1d 27 73 bc
       0.019687086 0.05179714 0.04550476 -0.014840868
0000e0 23 95 01 3e 69 52 d8 ba d8 4e f7 3c d1 ab 2f bc
       0.12654547 -0.0016504052 0.030188963 -0.010722117
0000f0 a3 9c d0 bc 0f b6 03 3d 20 a6 17 bc 6c bd ad 3d
       -0.025465315 0.032156046 -0.009255916 0.08483395
000100 2e 53 b3 bd 3a 48 43 bd ac 42 ec bc 13 35 9c bd
       -0.087561 -0.047676302 -0.028840385 -0.076273106
000110 9f 8e f8 3a e0 7e 1d bd f2 1e fb 3d 1e 07 84 bc
       0.0018963403 -0.038451076 0.12261762 -0.016116675
000120 72 0c aa bb 89 34 0f bd 20 a7 87 3c 03 5d 9c bd
       -0.005189472 -0.03496221 0.016559184 -0.07634928
000130 5b 03 9e bd 35 a9 10 3d 81 3f 24 bb 34 ea 51 bd
       -0.07715484 0.03531762 -0.0025062265 -0.051248744
000140 dd 92 95 3d a6 e3 38 3d 95 89 71 3d fd 41 01 be
       0.073034026 0.045138977 0.0589691 -0.12622829
000150 b6 f3 97 3b 5c b3 f6 bc 49 37 89 3d 6c d8 bc bd
       0.004637207 -0.030114822 0.06699998 -0.09220967
000160 9f a5 a3 3d 7f 09 e8 bc 30 e0 c1 bb 21 05 6f bc
       0.07990574 -0.02832484 -0.005916618 -0.014588625
000170 71 3c ee bc ed 2d 7b bd 3f 2d 46 bc 07 39 90 3c
       -0.029081555 -0.061323095 -0.012095748 0.017605318
000180 ca 7d 54 bd d8 2a d2 bd 85 7f 86 3c 1b ce 98 bc
       -0.051877774 -0.10262078 0.016418228 -0.018652966
000190 1e 80 a8 3c 69 8a 60 bd a4 4f 28 3d 8d 5c d8 3c
       0.020568904 -0.0548195 0.041091576 0.02641132
0001a0 2f d7 00 3c d7 fd 22 3d d0 6d d0 bd 28 72 b8 bc
       0.007863804 0.03979286 -0.10177195 -0.022515371
0001b0 ab 17 ec bc f0 15 57 bd 35 55 f8 bc 82 0b 60 bc
       -0.02881988 -0.052511156 -0.030314067 -0.013674619
0001c0 e2 04 9c 3c 6e db 8d bd f7 0e 3e 3d 2f a7 a1 bd
       0.019045297 -0.069266185 0.04640099 -0.07893216
0001d0 d9 ef 61 bb 77 a1 b2 bc 85 ba 99 3d 7f 45 25 bc
       -0.0034475236 -0.021805508 0.07506279 -0.01008737
0001e0 de 81 7c 3d ee 65 e2 bd 1d 06 57 3d 59 a4 95 bd
       0.06164729 -0.11054598 0.052496064 -0.073067375
0001f0 2c 24 6b bd d6 21 05 be 3a 9e 72 3d 07 06 7f bd
       -0.057407543 -0.13001189 0.059232928 -0.062261607
000200 39 bd 5f 3d 8e dd 61 3d 86 28 75 3d 5e 86 25 bb
       0.054623816 0.05514293 0.0598531 -0.002525709
000210 0f 57 56 bc 30 fe 77 bd 68 cd c6 bd 17 b1 42 3d
       -0.01308228 -0.060545146 -0.09707147 0.047532167
000220 40 e9 dd bd 73 36 ca 3d ff 3b c2 3d 9b f8 55 bc
       -0.108355045 0.098736666 0.094840996 -0.01305976
000230 20 17 5c 3d bd c9 46 3d 39 70 d1 3c 55 04 ce bb
       0.05373299 0.048532236 0.025566207 -0.0062871375
000240 f5 e5 5b 3d c9 89 58 3d 40 56 9b 3c b4 4c 2f bc
       0.0536861 0.052865777 0.018962026 -0.01069944
000250 55 c0 9d bd f4 1d 25 bc 6f 11 23 bc 16 cf 1b 3d
       -0.077027 -0.010077942 -0.009952887 0.03803929
000260 ca a4 c4 bd aa c2 a0 bd 36 46 e3 3c c9 51 0e 3d
       -0.096017435 -0.07849629 0.02774344 0.034745965
000270 42 14 15 3d cc c4 fb 3c 5d ce 2d bd 9f e3 1b 3d
       0.036396272 0.030733489 -0.04243313 0.038058873
000280 90 70 a9 3c a1 d4 ae 3c c0 28 13 bd 03 17 80 bd
       0.020683557 0.021341624 -0.035927534 -0.06254389
000290 fe e8 b0 3d cb ed f6 bc c5 48 22 bc 3b 08 79 3d
       0.0863819 -0.030142685 -0.009905045 0.060798865
0002a0 a6 a0 39 bd da 8d f1 bd ba 57 41 bd b3 7d 6b 3d
       -0.045319222 -0.11794634 -0.047202803 0.057492923
0002b0 0a bf a0 3c e2 1c 09 3d 94 99 a9 3d f1 51 b7 bd
       0.019622345 0.03347481 0.08281246 -0.08951176
0002c0 99 ba a9 bd cc ff 71 bc d2 10 dd 3b bf 99 5a ba
       -0.08287544 -0.014770459 0.00674639 -0.000833895
0002d0 89 d7 6e bc 0c 32 87 3c 0c 63 5b bd d8 55 16 3d
       -0.014577755 0.016503356 -0.053561255 0.03670296
0002e0 1c 8b ba bc 5a bb 3d bb 1b 48 77 bd 26 79 cf bd
       -0.02277141 -0.0028950782 -0.0603715 -0.10130529
0002f0 70 38 26 3c 43 82 ae 3b 78 a1 d5 bd 2a e2 2d bd
       0.010145292 0.005325587 -0.10431188 -0.042452015
000300 f1 61 03 3d 8c 54 5d 3d c6 49 fa bb b9 f1 f1 bd
       0.032075826 0.05403571 -0.007638189 -0.11813683
000310 74 86 a6 bc 91 cc 8e bc 25 6a ec 3c 72 60 cf 3d
       -0.020327784 -0.01743153 0.028859207 0.10125817
000320 b1 d5 1c bd 7e f7 06 bd f6 f8 4e 3d ae fb a3 3d
       -0.03828973 -0.03295087 0.050530396 0.080069885
000330 ed cf 8b bc 87 f7 74 ba 76 86 5c ba 77 1c af 3d
       -0.01706692 -0.0009344746 -0.000841237 0.08550351
000340 51 8c 54 3c e3 18 70 bd 99 16 07 bd ff 56 fd bc
       0.012972907 -0.058617484 -0.032980535 -0.030925272
000350 65 98 1c bd 7d e4 43 3d 48 a8 4a bd 2c 96 32 3d
       -0.038231272 0.047825325 -0.04947689 0.043600246
000360 6c de 04 3d 77 4e 98 bc b0 21 a1 bd 8f 96 0d bd
       0.03243868 -0.018592102 -0.078677535 -0.034567412
000370 7e f4 85 3b 01 dd a2 bd 16 9f bb 3d 1a a2 00 bc
       0.0040879836 -0.079523094 0.091612026 -0.007851148
000380 37 4a 85 bd b2 a0 d5 bd 3d ac eb ba 1c f1 0c bd
       -0.06508296 -0.10431041 -0.0017980408 -0.034409627
000390 9a ec cd bd 7d 7b de ba fe 8d a7 bd f8 91 f4 3d
       -0.10054894 -0.0016974058 -0.0818138 0.11941904
0003a0 40 72 47 bd 11 0f 97 bc 1d 3d e5 3c 6a d3 fe 3b
       -0.04869294 -0.018439801 0.027983243 0.0077766674
0003b0 4b 2d 95 3d 9d 0d 90 bc 5d 42 91 3d c2 29 f6 3d
       0.072840296 -0.017584616 0.07092736 0.120196834
0003c0 ce 6c 87 3d fa 61 8e bd f4 38 48 3d 04 ab 58 3c
       0.0661255 -0.06952281 0.04888244 0.013224367
0003d0 12 4a ba 3c af fc 8e 3d 5e a0 5f 3d b3 92 7d bd
       0.022740398 0.06981789 0.054596297 -0.06190748
0003e0 c0 01 1e 3d a5 9d f2 3c b3 b8 b7 3c bd f5 28 bd
       0.038575888 0.029616186 0.022426939 -0.04124998
0003f0 b3 d1 35 3d 31 a4 19 3d c3 c5 8e 3c 35 19 c0 3b
       0.044389438 0.0375101 0.017428285 0.00586238

exp_avg f4 [10, 768]
000000 3d 0c 81 38 30 cc 50 38 f5 49 a9 37 73 9b ca 37
       6.153479e-05 4.978123e-05 2.0180809e-05 2.4152663e-05
000010 21 25 fc b8 83 f4 11 b7 fc ca a2 36 a7 92 c5 b8
       -0.00012023212 -8.699603e-06 4.8516067e-06 -9.421008e-05
000020 fd 46 37 b7 49 ce d2 36 65 62 81 38 28 c0 24 b8
       -1.0924178e-05 6.2825025e-06 6.169527e-05 -3.9279606e-05
000030 2c 53 dd 37 b2 4f 8d b8 27 38 63 38 08 d9 1a 37
       2.6383983e-05 -6.738248e-05 5.4173313e-05 9.229647e-06
000040 0f 23 0f 39 8e 39 1a 37 84 cd f4 b9 77 9f 09 b7
       0.00013650603 9.192516e-06 -0.00046692428 -8.202965e-06
000050 18 2a 56 b8 cf 9c 8d b8 c0 63 06 36 fc 2f 83 35
       -5.106078e-05 -6.752612e-05 2.0025618e-06 9.774226e-07
000060 09 32 d3 35 c1 6f 9d 37 5a 2b 6b b5 f2 00 ac b7
       1.5735287e-06 1.8767898e-05 -8.7607407e-07 -2.0504438e-05
000070 0d d3 35 39 1d a0 97 39 d2 5f f6 37 04 86 10 ba
       0.00017340128 0.00028920258 2.9370105e-05 -0.0005513134
000080 28 39 98 38 c9 16 22 39 ea bc 98 38 7f 49 24 b9
       7.258571e-05 0.00015458012 7.283113e-05 -0.00015667638
000090 f3 84 a6 b8 c9 2d 5c 38 7b 74 6f 37 37 96 45 b9
       -7.9402605e-05 5.2494728e-05 1.427263e-05 -0.00018843343
0000a0 41 e7 3d 37 79 29 c2 37 3f 83 a9 37 c2 7b cd b8
       1.1319121e-05 2.3145914e-05 2.0207486e-05 -9.7982134e-05
0000b0 2d b3 6b 37 64 e9 bd bb 89 31 b1 36 9d 48 31 39
       1.4048809e-05 -0.0057956446 5.2807777e-06 0.00016907086
0000c0 12 53 fe b8 9c 71 3a 3a df 49 dd b8 4d 67 dc 38
       -0.00012127137 0.0007112266 -0.00010551861 0.00010509659
0000d0 ef 15 58 b9 aa 1c a0 b7 b4 5d 69 38 60 57 d2 b8
       -0.00020607536 -1.9086834e-05 5.5638797e-05 -0.00010029855
0000e0 98 31 8b b7 7e e7 67 38 a6 d4 2a ba 04 5e 80 b8
       -1.6593185e-05 5.5290286e-05 -0.00065166724 -6.1210274e-05
0000f0 b3 67 9c b9 0c 9e cb b3 df 91 8c 38 fa 15 08 b7
       -0.000298319 -9.481673e-08 6.702891e-05 -8.1113485e-06
000100 20 5a 44 b8 ae 4e e4 b6 b6 59 95 38 b8 9d 45 37
       -4.6813977e-05 -6.804089e-06 7.1215836e-05 1.1778837e-05
000110 6c d0 7e b9 93 88 65 b8 ed 0f 2d 38 d4 91 6f b6
       -0.00024300971 -5.472505e-05 4.1261246e-05 -3.5698658e-06
000120 53 ef 1f b8 ea 27 0a b8 49 1e 49 39 f3 64 e2 b7
       -3.8131442e-05 -3.2938937e-05 0.00019180136 -2.6988308e-05
000130 29 f8 24 38 e6 ad e7 36 9a c3 24 3a 5d f4 ed 37
       3.9331764e-05 6.904581e-06 0.00062852504 2.8366392e-05
000140 7d 78 4e b8 ba 4e d1 38 a2 f8 3a 38 91 20 03 b6
       -4.922644e-05 9.9805606e-05 4.4577413e-05 -1.9539477e-06
000150 34 cb a3 b9 54 92 84 b7 59 2b bc 3b a9 fa f9 37
       -0.0003124118 -1.5803766e-05 0.005742472 2.9799836e-05
000160 1d 39 9d b6 9b b0 4c 38 96 4b b7 38 70 6d 03 38
       -4.6856135e-06 4.8801867e-05 8.740199e-05 3.1334755e-05
000170 25 19 33 b7 66 c9 97 b8 4f 6e 93 37 33 f5 2b 3a
       -1.0675086e-05 -7.2377545e-05 1.7575132e-05 0.000655967
000180 08 5f 58 b8 bf 94 23 b9 d6 fe 25 39 d6 bb 80 b8
       -5.1586918e-05 -0.00015600304 0.0001583056 -6.138503e-05
000190 89 19 fc 39 4b 2d 62 39 5b 12 64 b8 06 4a 59 38
       0.0004808421 0.00021569912 -5.437653e-05 5.180577e-05
0001a0 c0 3e f7 37 5e 8b 54 37 83 76 cd b7 78 6a 86 39
       2.9473915e-05 1.2668634e-05 -2.449309e-05 0.00025637797
0001b0 ba 2e 2d 3a 6f d0 2a 38 ac d5 99 b8 de ca 94 b8
       0.0006606389 4.0725277e-05 -7.335408e-05 -7.094977e-05
0001c0 35 d6 96 b7 4c 48 99 36 8a 43 9e b6 22 a6 e5 b7
       -1.7981141e-05 4.568172e-06 -4.7166295e-06 -2.7376289e-05
0001d0 7b 87 85 b9 49 4d b3 39 30 ee 2a b8 60 50 19 b8
       -0.00025468678 0.00034199122 -4.0752988e-05 -3.6552898e-05
0001e0 e9 4a ab 37 5f 73 cb 37 dc 40 1e 38 f4 c3 85 b7
       2.0419671e-05 2.425321e-05 3.773054e-05 -1.5946083e-05
0001f0 46 75 f6 38 26 ae 31 38 2b 21 24 b8 b6 a3 ee b5
       0.00011752038 4.2362277e-05 -3.9131537e-05 -1.7780028e-06
000200 29 4f 00 b9 0f f6 ab b7 f9 a5 69 b7 2b 22 67 3b
       -0.0001223652 -2.0499368e-05 -1.3926526e-05 0.0035268168
000210 79 a1 d4 38 b8 08 a1 3a ea 71 b1 b7 6b d1 3e 37
       0.000101390244 0.0012285924 -2.115309e-05 1.1373641e-05
000220 c5 d9 6a 37 b2 54 ce b7 12 a1 a5 b7 1a 10 fe b6
       1.399819e-05 -2.4596553e-05 -1.9744537e-05 -7.5716644e-06
000230 72 31 b9 39 d3 e0 30 39 e3 97 bb 3a c4 b7 00 39
       0.0003532279 0.00016868422 0.0014312234 0.0001227549
000240 8a bf ce 37 62 17 4f b8 0c 37 1f b6 ad 21 48 37
       2.4646306e-05 -4.9374423e-05 -2.3724888e-06 1.192877e-05
000250 35 e1 39 b8 65 51 bd b7 e4 45 5e b7 3c b2 44 39
       -4.4317178e-05 -2.2568458e-05 -1.3248504e-05 0.00018758414
000260 6d 44 14 38 ef 29 2b b7 1e e8 d3 38 fe 86 bb 38
       3.5349676e-05 -1.0202158e-05 0.00010104499 8.941999e-05
000270 71 b1 37 b8 11 c6 63 36 7c ec 26 b8 86 9a 5a b8
       -4.3795855e-05 3.3940926e-06 -3.9797727e-05 -5.211916e-05
000280 2b f3 d3 b8 ff dc 6c b7 38 95 4f b9 bd da 3a 37
       -0.000101065576 -1.4118151e-05 -0.00019796647 1.1137393e-05
000290 b3 d2 d1 b7 ed 58 95 b8 4b 2d 36 b9 ff af 71 39
       -2.5012856e-05 -7.1214374e-05 -0.00017373746 0.00023049115
0002a0 5b de fd 37 a4 12 a1 3b f9 43 1a 39 88 bb f9 37
       3.0263493e-05 0.004915552 0.00014711906 2.977044e-05
0002b0 5d 4f 62 b8 d0 c8 e3 38 22 40 f0 b7 98 eb 2d 38
       -5.395651e-05 0.00010861608 -2.8640094e-05 4.1465828e-05
0002c0 5c f9 2b 38 6f a6 bd b8 16 64 49 36 c0 4f bb 38
       4.100181e-05 -9.043223e-05 3.0009592e-06 8.9317095e-05
0002d0 83 fe 53 38 4f 3d dd ba a6 ba 49 33 06 97 66 37
       5.0543353e-05 -0.0016879233 4.6968715e-08 1.3744231e-05
0002e0 1c 8f 34 37 7c 4a 62 3a 6f d2 c1 b8 12 c4 0e 39
       1.0762156e-05 0.0008632315 -9.2421535e-05 0.00013615217
0002f0 8e 00 ce 37 17 ad 92 37 6d 16 45 b8 1e f1 81 b7
       2.4557372e-05 1.7485158e-05 -4.6989346e-05 -1.5490277e-05
000300 a2 0c 5f b8 41 21 03 38 19 66 1a b6 f0 ff 02 38
       -5.317911e-05 3.1263804e-05 -2.3007217e-06 3.1232776e-05
000310 67 0c 82 38 43 e5 97 37 38 8b 99 b8 fa 5e 9f ba
       6.201193e-05 1.8107361e-05 -7.32154e-05 -0.0012159043
000320 7b 6c bf 37 44 91 fc 39 80 2b 13 3a 11 ee 77 38
       2.281949e-05 0.00048173417 0.0005614087 5.9111106e-05
000330 8d b0 0f 3a ee fc b0 b9 6c c8 8a 36 b1 62 27 b7
       0.0005481325 -0.00033757783 4.1360527e-06 -9.976954e-06
000340 5d 0c 4f b7 93 d3 24 b8 ab 87 b6 b6 58 30 7e 37
       -1.234104e-05 -3.929769e-05 -5.4398165e-06 1.5150836e-05
000350 d5 b9 0f b7 31 55 3f 3a 94 16 79 38 eb 4d 0f 38
       -8.566732e-06 0.0007298766 5.9387254e-05 3.4166424e-05
000360 bb b5 ed b7 7f bc 94 b8 03 fa ae b8 bc db cd 39
       -2.8337226e-05 -7.0923e-05 -8.343535e-05 0.00039264362
000370 d2 1a b6 39 cc db 36 3a d5 ce 27 38 e4 ab 38 b8
       0.00034733728 0.00069755013 4.000853e-05 -4.4029104e-05
000380 fa d0 76 37 59 3a fc 37 94 5f f1 38 48 f6 64 3a
       1.4711399e-05 3.0067911e-05 0.00011509578 0.00087342085
000390 cd d1 02 39 6f 0b 86 36 ef c4 91 b7 09 c7 13 38
       0.00012475923 3.9948422e-06 -1.7377051e-05 3.5232897e-05
0003a0 1e 83 02 37 0e d6 77 b7 d1 31 80 b7 88 b4 53 b7
       7.779132e-06 -1.4772186e-05 -1.5281987e-05 -1.2618613e-05
0003b0 7c 48 fa 36 cd 0f f0 39 6d 60 fa 37 fc ff 2e b8
       7.459019e-06 0.0004578814 2.9847224e-05 -4.1723237e-05
0003c0 c3 0d dd 36 cb 3a 14 b8 91 4e 07 b7 b1 85 10 37
       6.5879153e-06 -3.5340705e-05 -8.06492e-06 8.614196e-06
0003d0 2f db 89 37 08 79 d5 b7 47 d5 39 b9 87 ad 7a b8
       1.6433738e-05 -2.5447938e-05 -0.00017722427 -5.9766255e-05
0003e0 cf dd aa b9 14 09 73 b8 2e d8 61 b8 72 6d 8d b5
       -0.00032590187 -5.794417e-05 -5.3845513e-05 -1.0537171e-06
0003f0 0c 78 eb b7 35 9d e4 37 09 33 36 3a ad ce 22 b8
       -2.8070084e-05 2.7252923e-05 0.0006950354 -3.881629e-05

exp_avg_sq f4 [10, 768]
000000 2c b1 cf 35 e8 e2 b1 35 65 67 ed 35 66 19 1a 36
       1.5474266e-06 1.3253566e-06 1.7687968e-06 2.2962572e-06
000010 0e 11 84 37 e7 91 28 36 26 fa d7 36 52 dc 3d 36
       1.5743568e-05 2.5118877e-06 6.4366204e-06 2.8291438e-06
000020 7d 42 92 36 10 c4 92 36 65 b3 58 35 d8 55 d8 37
       4.3588793e-06 4.3739637e-06 8.0727324e-07 2.578918e-05
000030 98 06 28 36 86 2b cf 36 5c 6a 46 37 a0 5c 95 35
       2.503779e-06 6.1741475e-06 1.1826483e-05 1.1128323e-06
000040 aa 9b 19 36 62 68 7f 36 18 9a f6 36 65 9e 39 35
       2.2889385e-06 3.805872e-06 7.34931e-06 6.9148365e-07
000050 bf 50 d8 36 45 ad 3d 37 e0 06 13 36 e1 bf 60 35
       6.4467017e-06 1.130562e-05 2.1908709e-06 8.3725723e-07
000060 bb 11 97 35 d7 44 4b 37 4d 54 c9 35 1b f4 be 36
       1.1255537e-06 1.2115771e-05 1.5000202e-06 5.690859e-06
000070 7a 83 9b 36 4c 3c f0 37 63 04 a5 35 b9 52 1c 37
       4.634666e-06 2.8638307e-05 1.2294735e-06 9.317585e-06
000080 5c e6 b2 36 74 d1 02 38 6f a6 06 38 98 23 19 36
       5.3316307e-06 3.1189484e-05 3.2103093e-05 2.2819495e-06
000090 ef f7 50 36 bd a5 07 36 0a 5f 2e 36 f8 63 b6 36
       3.1138732e-06 2.021304e-06 2.598334e-06 5.4356606e-06
0000a0 23 ae 69 36 27 07 ce 35 a3 aa 61 36 49 02 3f 36
       3.4821066e-06 1.5350278e-06 3.3626936e-06 2.8462548e-06
0000b0 5b 6a fb 35 f3 b2 8f 38 6b 5b 65 36 4f 1b 8d 36
       1.8731911e-06 6.852103e-05 3.4176871e-06 4.2053066e-06
0000c0 be 90 0b 37 d7 f4 bc 36 82 32 20 37 bf 2e 98 37
       8.318746e-06 5.6313397e-06 9.548503e-06 1.814158e-05
0000d0 52 b0 9a 38 27 29 9d 36 38 37 4f 36 f5 0f 1b 37
       7.3761345e-05 4.6837554e-06 3.0877545e-06 9.242435e-06
0000e0 df 05 74 36 ea 78 13 36 ce 8f a6 36 9d ed f9 37
       3.636225e-06 2.1975088e-06 4.9639266e-06 2.979376e-05
0000f0 ca 49 8f 37 4b 93 8c 38 e4 d5 41 36 31 9b a1 35
       1.708129e-05 6.703156e-05 2.8883742e-06 1.2040601e-06
000100 6d e2 2b 36 f1 4d f1 35 5c c8 8d 36 15 c8 9c 36
       2.5612783e-06 1.7978583e-06 4.2254524e-06 4.672455e-06
000110 e8 44 cd 38 39 6d d1 35 2e ca 13 37 3c f3 1d 38
       9.7879965e-05 1.5603501e-06 8.808956e-06 3.7658247e-05
000120 7c b7 27 3a ff 00 1f 36 55 af dd 36 71 14 e6 35
       0.0006397886 2.3693426e-06 6.6067246e-06 1.7142285e-06
000130 ac d6 0d 36 29 7e 82 36 12 d0 58 37 f3 30 95 35
       2.1135593e-06 3.888989e-06 1.2923048e-05 1.1115611e-06
000140 ce 64 9f 36 55 0d 08 39 e0 0f 04 36 79 d1 49 36
       4.7503045e-06 0.00012974937 1.9678773e-06 3.0073263e-06
000150 6e bc ce 37 b3 87 8f 36 8a d9 b4 38 7b a4 f6 37
       2.4644858e-05 4.2775296e-06 8.623589e-05 2.9402077e-05
000160 38 65 b6 35 ad 93 da 36 46 5f 10 37 e1 4c 61 35
       1.3589515e-06 6.514098e-06 8.605251e-06 8.3930905e-07
000170 3b 1e 38 36 f6 a7 6b 38 ce 46 87 36 a7 d0 bb 36
       2.7435733e-06 5.6184792e-05 4.0315563e-06 5.5973246e-06
000180 92 64 46 37 2a b5 b7 36 90 cf cf 35 f8 a7 13 38
       1.18251355e-05 5.4749153e-06 1.548311e-06 3.5203964e-05
000190 d8 4e af 36 63 a5 0d 38 16 a3 84 36 fe 90 91 36
       5.224585e-06 3.3771048e-05 3.9528923e-06 4.338216e-06
0001a0 5a 2a 34 36 9c 00 ba 36 65 b3 83 36 37 94 49 37
       2.6846742e-06 5.543303e-06 3.9249885e-06 1.2015043e-05
0001b0 02 3b a4 36 b0 5a 68 37 70 b9 9b 36 2c c2 9c 36
       4.8944503e-06 1.3849392e-05 4.6409477e-06 4.671767e-06
0001c0 54 06 07 38 22 43 26 36 13 7d a7 35 d7 b7 9a 35
       3.21924e-05 2.4775004e-06 1.2478871e-06 1.1527399e-06
0001d0 30 b0 3d 37 07 66 ef 36 ae d9 98 35 08 b2 72 36
       1.13063e-05 7.1346326e-06 1.1388236e-06 3.6164438e-06
0001e0 e9 f8 b8 35 7d c4 ae 35 19 81 32 36 39 5b 29 35
       1.3781511e-06 1.3021196e-06 2.6599212e-06 6.309015e-07
0001f0 4d bb e7 36 5f 97 eb 35 51 ac 9e 36 61 62 d8 35
       6.906141e-06 1.7552919e-06 4.728827e-06 1.6121886e-06
000200 9d 58 c4 38 e4 30 8f 35 8e 56 95 35 3d 24 ba 38
       9.362514e-05 1.0668559e-06 1.1126556e-06 8.875921e-05
000210 bf 51 04 36 cf 44 95 39 2d dd c4 36 7c 93 74 36
       1.9717115e-06 0.0002847076 5.8670034e-06 3.644468e-06
000220 32 11 fb 36 29 eb 5f 38 13 5d 07 36 6b a9 e7 35
       7.4823847e-06 5.3386353e-05 2.0170744e-06 1.7260148e-06
000230 3a c5 8e 38 33 84 0b 38 b5 46 2b 3a 42 71 ef 37
       6.807824e-05 3.3263303e-05 0.00065336685 2.854376e-05
000240 86 36 48 37 46 af 22 36 6b 00 b5 36 c9 74 6c 37
       1.1933624e-05 2.4241904e-06 5.394269e-06 1.4093887e-05
000250 a3 a4 04 36 38 00 8c 37 b5 ac 23 35 58 45 20 37
       1.9765364e-06 1.6689402e-05 6.0973554e-07 9.5528885e-06
000260 fc c8 28 36 5a 77 90 35 15 70 1a 35 cb cb 07 36
       2.515094e-06 1.0763572e-06 5.753257e-07 2.023519e-06
000270 ad e3 4b 36 c4 fb 9a 37 87 d0 20 37 3a 53 27 38
       3.0381882e-06 1.8475468e-05 9.585295e-06 3.9893413e-05
000280 0e 39 cf 36 21 80 fc 35 d2 76 3a 37 0c 8e 33 37
       6.175723e-06 1.8812754e-06 1.1114129e-05 1.0702304e-05
000290 7a 69 ff 36 99 18 f7 36 8d f6 32 38 4e 3d 19 36
       7.6118713e-06 7.364037e-06 4.2668125e-05 2.283446e-06
0002a0 42 55 85 36 08 f6 55 38 09 ea 94 38 9f 91 df 36
       3.973634e-06 5.101229e-05 7.1007824e-05 6.6628704e-06
0002b0 16 72 f6 36 a9 21 5c 36 52 dc 99 35 23 2c f7 35
       7.3446527e-06 3.2802147e-06 1.146351e-06 1.841578e-06
0002c0 5b 55 41 35 2a 20 8a 36 15 8c 49 36 4e 5a ee 36
       7.202231e-07 4.116465e-06 3.0032872e-06 7.1034656e-06
0002d0 9d 79 a0 38 9b 13 9c 37 8a 2b 12 36 85 e5 49 36
       7.652047e-05 1.8605779e-05 2.1781038e-06 3.0084932e-06
0002e0 68 47 ed 36 07 3f 81 38 5e 5d c2 36 6b ff f8 36
       7.071463e-06 6.162939e-05 5.79252e-06 7.4207105e-06
0002f0 9c d2 c6 36 db bf f7 36 96 cd 3f 36 06 66 14 36
       5.925378e-06 7.3835085e-06 2.8580885e-06 2.2113104e-06
000300 5c 6a 9f 35 37 f2 c2 35 92 ae e5 36 69 75 4e 36
       1.1877378e-06 1.452462e-06 6.8450545e-06 3.0764734e-06
000310 b6 dc c3 37 2a 31 5c 36 5e d6 0b 37 42 8d 0a 37
       2.3348588e-05 3.2811172e-06 8.334957e-06 8.25833e-06
000320 c5 db 66 36 a7 42 65 37 11 c5 90 36 bf 2a 7f 36
       3.4400593e-06 1.3664982e-05 4.314476e-06 3.8022843e-06
000330 17 b2 5f 38 df 8f 2a 39 bd ad 07 36 18 f8 e7 36
       5.3333202e-05 0.0001626606 2.0217697e-06 6.9132184e-06
000340 58 2f 52 36 66 76 14 36 a1 65 52 35 c8 f6 48 36
       3.1319996e-06 2.2122636e-06 7.8378986e-07 2.9945968e-06
000350 3f ae ce 36 40 cb 91 38 51 31 a1 36 b8 d2 7e 36
       6.1595633e-06 6.951997e-05 4.803915e-06 3.7971604e-06
000360 56 0c cd 36 97 3c 6c 37 1c 70 fd 37 1f 8e 82 36
       6.110912e-06 1.4080803e-05 3.0212155e-05 3.890847e-06
000370 c0 97 cf 36 90 e5 06 37 31 00 9c 35 b9 1f 5c 36
       6.1867468e-06 8.040472e-06 1.1622961e-06 3.280102e-06
000380 f8 85 06 36 de 73 64 36 6a 66 82 36 ab 9b b0 38
       2.0045536e-06 3.404209e-06 3.8862245e-06 8.4213294e-05
000390 34 a4 75 37 3e 1a 8f 37 c4 bc 8a 35 f1 d9 01 36
       1.46413695e-05 1.7059148e-05 1.0336739e-06 1.9349357e-06
0003a0 be bc e0 35 af 4e b7 36 00 d3 b4 37 d1 09 96 37
       1.6744232e-06 5.462985e-06 2.1555927e-05 1.7885965e-05
0003b0 b4 3e 4c 36 d6 23 fd 38 b3 44 6e 35 e7 65 4c 36
       3.0434867e-06 0.00012070655 8.876188e-07 3.0457684e-06
0003c0 67 46 b4 35 cd 8f 67 36 19 35 82 36 d6 65 9f 36
       1.3431535e-06 3.4505385e-06 3.8804833e-06 4.7504245e-06
0003d0 84 3e 01 36 ab a3 50 36 a6 0d 4c 37 25 7d a2 35
       1.9258887e-06 3.1089683e-06 1.2162525e-05 1.2106362e-06
0003e0 8c 85 94 38 c0 70 03 36 58 11 71 36 01 5b 09 37
       7.082065e-05 1.958615e-06 3.5921894e-06 8.187025e-06
0003f0 5d 6a f7 35 6d 57 b9 37 07 39 8d 38 14 c2 47 36
       1.843389e-06 2.209443e-05 6.734026e-05 2.976628e-06
