SmallD_SDD_up_to_step2/grad_save_init_IPC_5_no_curr_unroll_20mrpc_mlp_ipc5.pth (torch, 94960 bytes, 3 tensors)

module.data.weight f4 [10, 768]
-0.016528202 -0.083369724 -0.0073706284 0.042454757 -0.085574076 -0.019504726 0.01628355 -0.01599333
-0.04071506 0.016437916 -0.07250271 -0.025329407 -0.0108745005 -0.04730225 0.11034747 0.04187334
0.08233367 -0.08447803 -0.01991204 -0.06147862 0.037166018 -0.057596605 0.044659827 -0.0111973155
-0.016206298 0.019612852 0.03897269 0.028449718 -0.030618707 -0.011471569 -0.08903826 0.04280155
-0.020823948 -0.046839956 -0.02126014 -0.00926173 0.089619555 -0.009654304 0.073787905 0.04284529
0.024013493 0.073496185 -0.0738366 0.118988484 -0.06891607 -0.031256635 -0.049289864 0.07934452
-0.028047891 0.007866799 -0.12678242 -0.018485663 0.010581833 0.005837059 0.08958734 -0.054149352
0.033771854 -0.049858265 0.07344324 -0.02252802 -0.013548444 0.059675246 -0.045958214 0.07634256
-0.11010416 -0.03375387 -0.07689487 -0.082585186 -0.014509096 -0.0448605 0.07019886 0.041624874
-0.002205281 -0.027634066 -0.002246332 -0.008090784 -0.10570242 0.0534382 -0.0056171683 -0.039402187
0.040493786 0.05802317 -0.03949862 -0.039270878 0.004751084 0.008404628 0.05225083 -0.018281225
0.11785706 -0.06739992 -0.041637488 -0.019676 -0.029598208 -0.034377318 -0.034823284 0.012462886
-0.039744847 -0.010817206 0.00739442 0.017303362 -0.036475435 -0.024291761 0.048957903 0.054628104
-0.060164712 -0.0076876264 -0.06481675 -0.03717245 -0.02978597 -0.01855574 -0.005875979 -0.018318497
0.06420363 -0.023207432 0.011314884 -0.047062073 0.020570496 -0.012275143 0.097084425 0.015910517
0.021977827 0.04673145 0.11305284 -0.058717974 -0.05631123 -0.10649999 0.029777713 0.006665424
0.042977188 0.072296344 -0.013000357 -0.008712763 -0.023971293 -0.10311254 -0.019304 0.049029645
-0.023864573 0.042865306 0.10045173 0.007735906 0.024594562 -0.002377618 0.12575053 -0.025838874
-0.042191256 0.029669276 0.0532469 0.08934173 -0.048982278 -0.029109979 -0.02640598 0.06109656
-0.06449278 -0.046999004 0.1972746 -0.054834247 -0.0035424284 0.019437592 -0.074725464 0.05666947
0.044247568 0.042277083 -0.05811429 -0.024855401 0.044225108 -0.039708342 0.019595368 0.026449637
-0.031876575 -0.18226464 -0.011785864 0.014586775 0.030165939 0.06247522 0.100219786 -0.06376704
-0.03533283 -0.048290655 -0.019334115 -0.0013079062 0.025029728 0.017800942 -0.06262232 0.036448624
0.019319741 -0.049379665 -0.06696546 -0.06645495 -0.037260152 -0.002435284 -0.029332059 0.015873117
0.07351074 0.0066499193 -0.049907006 -0.04544498 -0.09964884 -0.010242882 0.021036902 0.067700386
0.05434243 -0.026129147 0.04912275 0.03853994 -0.006820532 -0.15023632 0.05952577 0.03648054
0.009844215 -0.040712517 -0.047163647 -0.05983403 0.020647116 0.024476001 -0.083084226 0.058149558
0.0026525513 0.0014135999 -0.075739995 -0.056177717 0.10198955 -0.13079855 0.055498127 0.008021538
-0.021354914 -0.06907251 -0.01552244 -0.09574655 -0.13791984 0.010262032 -0.040493462 0.14379488
-0.018583946 -0.071529336 0.002902749 -0.005635432 0.04509564 -0.008646312 0.057516124 0.11164693
0.015528841 -0.10970678 -0.008760652 0.0061939554 0.048492055 0.030912958 0.028548628 -0.027791133
-0.025991572 0.023573391 -0.045319803 0.052633226 0.017737884 0.080473326 -0.030838506 0.027830241
00000000: 2766 87bc bfbd aabd 5085 f1bb 0ae5 2d3d
00000010: 7641 afbd 60c8 9fbc 1465 853c 7204 83bc
00000020: d6c4 26bd cfa8 863c 4d7c 94bd 9e7f cfbc
00000030: f62a 32bc 01c0 41bd dbfd e13d 6183 2b3d
00000040: 8e9e a83d d102 adbd 931e a3bc 01d1 7bbd
00000050: 653b 183d 6bea 6bbd 39ed 363d f274 37bc
00000060: 12c3 84bc 22ab a03c d4a1 1f3d 620f e93c
00000070: 15d4 fabc 3ff3 3bbc b159 b6bd ae50 2f3d
00000080: fc96 aabc 41db 3fbd bf29 aebc 83be 17bc
00000090: 758a b73d 162d 1ebc 1d1e 973d 8b7e 2f3d
000000a0: f2b7 c43c 2b85 963d a537 97bd 3cb0 f33d
000000b0: de23 8dbd f506 00bd 2be4 49bd 617f a23d
000000c0: b1c4 e5bc bfe3 003c 40d3 01be 3f6f 97bc
000000d0: 6d5f 2d3c cd44 bf3b 9179 b73d b6cb 5dbd
000000e0: 5b54 0a3d 2e38 4cbd 6969 963d af8c b8bc
000000f0: 4bfa 5dbc 086e 743d ae3e 3cbd 7d59 9c3d
00000100: 4a7e e1bd 7f41 0abd 0f7b 9dbd 6c22 a9bd
00000110: 8fb7 6dbc a5bf 37bd 6bc4 8f3d d87e 2a3d
00000120: 7a86 10bb d660 e2bc 3237 13bb 358f 04bc
00000130: 837a d8bd 04e2 5a3d 3910 b8bb 3064 21bd
00000140: d0dc 253d b4a9 6d3d 4ec9 21bd 80da 20bd
00000150: fbae 9b3b 91b3 093c f704 563d 82c2 95bc
00000160: 0b5f f13d f808 8abd 128c 2abd 902f a1bc
00000170: f177 f2bc 3bcf 0cbd dca2 0ebd 2231 4c3c
00000180: 7ecb 22bd a73a 31bc e44c f23b c8bf 8d3c
00000190: 4467 15bd 84ff c6bc 1588 483d b8c1 5f3d
000001a0: 466f 76bd 7ce8 fbbb a5be 84bd 2442 18bd
000001b0: b501 f4bc 3502 98bc 498b c0bb ac10 96bc
000001c0: 317d 833d 831d bebc 1062 393c 29c4 40bd
000001d0: 7583 a83c ae1d 49bc 33d4 c63d c656 823c
000001e0: d80a b43c 7a69 3f3d 3f88 e73d 4282 70bd
000001f0: 9ba6 66bd ab1c dabd 64f0 f33c a169 da3b
00000200: d908 303d 1b10 943d 73ff 54bc fabf 0ebc
00000210: 725f c4bc ab2c d3bd 6c23 9ebc 4fd3 483d
00000220: a37f c3bc 8893 2f3d a3b9 cd3d 7c7d fd3b
00000230: 897a c93c d0d1 1bbb bfc4 003e 0cac d3bc
00000240: bdd0 2cbd fb0c f33c 6c19 5a3d ccf8 b63d
00000250: a4a1 48bd 0d78 eebc 5b51 d8bc 6340 7a3d
00000260: ca14 84bd 0782 40bd 5a02 4a3e e099 60bd
00000270: 1628 68bb 963b 9f3c aa09 99bd 3f1e 683d
00000280: f03c 353d bc2a 2d3d 4009 6ebd 8e9d cbbc
00000290: 6325 353d 37a5 22bd 7786 a03c e9ac d83c
000002a0: 0391 02bd 95a3 3abe 7f19 41bc 5efd 6e3c
000002b0: 8f1e f73c 04e6 7f3d 0840 cd3d 4b98 82bd
000002c0: 28b9 10bd 6ccc 45bd 9462 9ebc 0d6e abba
000002d0: 250b cd3c 48d3 913c 2240 80bd 274b 153d
000002e0: 6f44 9e3c 5542 4abd 3025 89bd 8819 88bd
000002f0: 1a9e 18bd 4999 1fbb c949 f0bc 5708 823c
00000300: cd8c 963d 91e7 d93b 4a6b 4cbd 8424 3abd
00000310: b114 ccbd c3d1 27bc 9555 ac3c 80a6 8a3d
00000320: 2b96 5e3d cb0c d6bc f034 493d 0edc 1d3d
00000330: c57e dfbb 8dd7 19be 4bd1 733d 9e6c 153d
00000340: a149 213c 2bc2 26bd ab2e 41bd 8714 75bd
00000350: 2424 a93c e581 c83c 1028 aabd 3b2e 6e3d
00000360: 6dd6 2d3b 8b48 b93a 921d 9bbd 9b1a 66bd
00000370: e6df d03d 0ef0 05be 0152 633d c56c 033c
00000380: 80f0 aebc e375 8dbd d551 7ebc c416 c4bd
00000390: dc3a 0dbe 1522 283c 79dc 25bd f73e 133e
000003a0: 5c3d 98bc f97d 92bd 0c3c 3e3b 6ea9 b8bb
000003b0: 35b6 383d 43a9 0dbc 0796 6b3d 25a7 e43d
000003c0: ae6c 7e3c f3ad e0bd d688 0fbc aaf6 ca3b
000003d0: 9b9f 463d 2c3d fd3c d0de e93c 3baa e3bc
000003e0: 47ec d4bc fc1c c13c 42a1 39bd f095 573d
000003f0: 0a4f 913c 33cf a43d 09a1 fcbc 3ffc e33c

exp_avg f4 [10, 768]
0.00015094716 5.7786674e-05 0.00049246656 2.3210814e-05 0.00055212394 -1.9645373e-05 -0.00035755386 -1.3452201e-05
1.9203868e-05 -4.2622e-05 -6.78123e-05 0.00016769643 -0.00010717513 -8.98852e-05 0.00017839327 -4.6214893e-05
-0.0001009841 -0.0012026657 0.0009775126 4.37813e-05 0.00019184418 -0.00016552283 5.7483932e-05 -0.00019263237
0.00011921609 0.00018062888 0.00013173392 6.603793e-05 -2.8346767e-05 0.0008695187 5.1480234e-05 -0.0023016555
0.00018728175 0.00024674955 -0.00019700544 -0.00015553222 -0.0011861053 2.4746483e-05 -1.829028e-05 -8.128235e-05
4.9216625e-05 3.2166547e-05 7.135294e-05 4.8412344e-06 -0.000107721135 7.853172e-05 0.00011634868 0.00024783824
3.0502213e-05 1.6126403e-06 -0.00010391799 0.0018303038 7.8781966e-05 -0.00030507724 5.2302887e-05 -0.00015631483
5.0768736e-05 6.9604896e-05 -6.327439e-05 -0.00010362072 -0.00023768561 -2.7782224e-05 -0.00015035455 -7.4607924e-05
-7.683617e-05 -7.477785e-05 6.5972206e-05 -5.243322e-05 9.670927e-05 -0.00013387029 -0.00035944194 0.00016081722
-0.0028238674 3.6100304e-05 0.000325003 -4.3990094e-05 -3.81052e-06 -8.247365e-05 0.0005731621 0.00019803093
0.0007377716 3.7034068e-05 -0.0008879787 5.0706934e-05 6.671985e-05 4.8539707e-05 0.00030280318 0.0022911336
-8.6353226e-05 -7.0117516e-05 7.289726e-05 3.199808e-05 -0.0002551787 -0.00021631869 5.038084e-05 0.0003660845
0.00010178689 0.00062541116 -8.307613e-05 -0.0017019397 -8.578025e-05 -0.0005717159 -0.00013571151 -0.00012291029
1.0163283e-05 1.0356333e-05 -0.00023550903 0.00023546017 3.133872e-05 0.0002812482 -4.81548e-05 -1.3738049e-05
0.00013853205 -8.323555e-05 0.0001990224 -0.00031736906 -0.00018070833 0.00013380428 8.152776e-05 0.0009871278
-3.7243124e-05 -4.8031245e-05 -8.520728e-05 3.9209186e-05 0.00017662288 0.00024382398 -0.00021413654 2.1510274e-05
-0.0002826715 0.00013449395 0.00013736107 -0.0012392724 -3.8155416e-05 2.12003e-05 -2.2160819e-05 0.0007818942
-0.00047884576 -0.00015145622 7.853744e-05 -3.412415e-05 0.00036063793 7.0655085e-05 -0.00026184338 5.34832e-05
-0.00016439665 -7.4854885e-05 -0.00021100206 2.6178852e-05 4.245637e-05 2.3223658e-05 -0.00014820372 -5.628239e-05
-9.6421645e-05 -5.0797556e-05 -2.466685e-06 -0.00024251541 4.0771807e-05 0.00018449116 4.047123e-06 -0.00027216529
-7.227659e-05 8.847804e-05 -2.6033815e-05 -0.00012487931 0.00022675918 -0.00017265097 -7.3483476e-05 -0.0001638795
2.6011532e-05 -0.00013261229 0.00072695996 -4.62179e-05 -0.0076748584 0.00020909085 -0.00017966997 1.5882879e-05
-0.0004118235 -6.738575e-05 -0.00014283918 5.5222125e-05 0.000397965 -9.112391e-06 7.235035e-05 -0.00018256897
-0.0017153432 0.00107408 0.00018899776 0.0001861898 6.627221e-05 -0.000300895 0.0011122656 0.00010659966
1.9893105e-05 0.00013869462 0.00015313544 -0.00029622315 3.8871098e-05 0.00015695917 -0.00025331497 8.4213076e-05
4.7657064e-05 -0.0002797477 0.000117398435 -0.00016592312 6.931465e-05 0.000164554 -0.0003653206 6.635089e-05
-0.00030521234 -0.0020314644 -2.9189454e-05 4.732623e-05 -0.0003064697 0.0001573597 -0.00024793402 6.829741e-05
3.5566325e-05 -0.00021016029 0.00042522265 3.992821e-06 1.4049551e-05 -2.1689857e-05 0.00019195948 -0.00075320713
-5.876721e-05 9.2875955e-05 3.3867043e-05 0.00033864714 1.0761625e-05 2.2294407e-05 -8.012775e-06 -7.355337e-05
0.0004203834 3.833773e-06 0.00012259366 -9.7996126e-05 5.805805e-05 0.0105086425 6.2323845e-05 1.7931523e-05
-2.9543505e-06 -9.713181e-05 0.00040551077 -5.6373567e-05 1.52431e-05 -6.1230945e-05 0.00014988752 7.0802715e-05
-0.00020031013 -5.6699424e-05 -0.00014463492 -1.5268537e-05 -0.00016927526 0.00012342041 -0.0003479263 5.675839e-05
00000000: 9247 1e39 f85f 7238 df18 013a d8b4 c237
00000010: 69bc 103a 1ecc a4b7 1176 bbb9 c3b0 61b7
00000020: fe17 a137 06c5 32b8 7436 8eb8 abd7 2f39
00000030: 36c3 e0b8 c080 bcb8 140f 3b39 ddd6 41b8
00000040: 6dc7 d3b8 c4a2 9dba e11f 803a d0a1 3738
00000050: c829 4939 3290 2db9 e71a 7138 5cfd 49b9
00000060: a703 fa38 3267 3d39 0e22 0a39 d87d 8a38
00000070: 38ca edb7 6af0 633a 7bec 5738 5fd7 16bb
00000080: 1061 4439 2a5e 8139 3f93 4eb9 5d16 23b9
00000090: 1777 9bba ab96 cf37 146e 99b7 2176 aab8
000000a0: f36d 4e38 91ea 0638 51a3 9538 e371 a236
000000b0: 58e8 e1b8 65b1 a438 3900 f438 49f0 8139
000000c0: 01df ff37 e671 d835 8cee d9b8 cee6 ef3a
000000d0: bf37 a538 c6f2 9fb9 cc5f 5b38 71e8 23b9
000000e0: 84f0 5438 d8f8 9138 2eb2 84b8 f34e d9b8
000000f0: 3f3b 79b9 df0d e9b7 7ea8 1db9 d376 9cb8
00000100: 1b23 a1b8 0dd2 9cb8 8f5a 8a38 beeb 5bb8
00000110: 65d0 ca38 885f 0cb9 7b73 bcb9 0ba1 2839
00000120: a210 39bb 686a 1738 2a65 aa39 0182 38b8
00000130: 3cb8 7fb6 b4f5 acb8 4240 163a 86a6 4f39
00000140: 0467 413a 0755 1b38 3ec7 68ba 28ae 5438
00000150: f2eb 8b38 1d97 4b38 8ec1 9e39 d826 163b
00000160: 8918 b5b8 0e0c 93b8 6be0 9838 ad35 0638
00000170: 81c9 85b9 9bd3 62b9 0450 5338 08ef bf39
00000180: 6c76 d538 a2f2 233a 2839 aeb8 9f13 dfba
00000190: ece4 b3b8 34df 15ba c84d 0eb9 7be1 00b9
000001a0: f882 2a37 1dc0 2d37 f9f2 76b9 dce5 7639
000001b0: b271 0338 7f74 9339 d3f9 49b8 797c 66b7
000001c0: ea42 1139 bf8e aeb8 abb0 5039 8e64 a6b9
000001d0: 867c 3db9 d04d 0c39 e2f9 aa38 8362 813a
000001e0: 8035 1cb8 2875 49b8 4fb1 b2b8 8b74 2438
000001f0: d833 3939 00ab 7f39 d789 60b9 f670 b437
00000200: 8733 94b9 f206 0d39 9508 1039 156f a2ba
00000210: 1109 20b8 4cd7 b137 ffe5 b9b7 08f8 4c3a
00000220: 970d fbb9 38d0 1eb9 78b4 a438 8720 0fb8
00000230: 0114 bd39 a92c 9438 0648 89b9 2653 6038
00000240: e461 2cb9 69fb 9cb8 6f40 5db9 a89a db37
00000250: 2e13 3238 6dd0 c237 2267 1bb9 c210 6cb8
00000260: fa35 cab8 760f 55b8 5389 25b6 bc4b 7eb9
00000270: 6502 2b38 f873 4139 86cc 8736 68b1 8eb9
00000280: 3393 97b8 498d b938 3163 dab7 09f2 02b9
00000290: 34c6 6d39 a409 35b9 241b 9ab8 11d7 2bb9
000002a0: 5733 da37 d70d 0bb9 7591 3e3a 18da 41b8
000002b0: 617d fbbb 663f 5b39 ca65 3cb9 393c 8537
000002c0: 04ea d7b9 7351 8db8 1ac7 15b9 4e9e 6738
000002d0: f5a5 d039 6ce1 18b7 ccba 9738 fc6f 3fb9
000002e0: 5ed5 e0ba 25c8 8c3a b32d 4639 f23b 4339
000002f0: 9ffb 8a38 71c1 9db9 71c9 913a 428e df38
00000300: 1ee0 a637 8e6e 1139 fb92 2039 664e 9bb9
00000310: 8609 2338 6895 2439 5ccf 84b9 8d9b b038
00000320: 62e3 4738 1aab 92b9 ce33 f638 a6fb 2db9
00000330: 055d 9138 218c 2c39 8088 bfb9 dd25 8b38
00000340: e804 a0b9 5122 05bb e0db f4b7 2780 4638
00000350: abad a0b9 ec00 2539 24fd 81b9 e53a 8f38
00000360: 0d2d 1538 795e 5cb9 6bf0 de39 12fa 8536
00000370: 5db6 6b37 9df2 b5b7 bb48 4939 e072 45ba
00000380: d07c 76b8 66c6 c238 760c 0e38 738c b139
00000390: d48c 3437 e004 bb37 9b6e 06b7 aa40 9ab8
000003a0: e866 dc39 dca3 8036 7c8c 0039 4583 cdb8
000003b0: 5b83 7338 712c 2c3c dcb3 8238 a76b 9637
000003c0: 5b43 46b6 3eb3 cbb8 bc9a d439 a872 6cb8
000003d0: 9ebc 7f37 1d69 80b8 202b 1d39 eb7b 9438
000003e0: 570a 52b9 8bd0 6db8 24a9 17b9 ef14 80b7
000003f0: 7b7f 31b9 6a6a 0139 e169 b6b9 db0f 6e38

exp_avg_sq f4 [10, 768]
2.1535247e-06 2.4096646e-06 2.4055462e-06 1.5598533e-05 6.345973e-05 2.1898513e-06 2.6277194e-05 2.2720333e-05
8.5619695e-07 3.7990558e-06 5.806425e-06 2.0809573e-05 1.9552197e-06 2.4138735e-05 4.2176634e-05 2.7308627e-06
2.039885e-06 0.00030697533 0.00010783483 2.326049e-06 3.057553e-06 7.1987844e-05 1.6902436e-06 2.4153355e-06
7.1934537e-06 8.4351996e-05 4.539785e-06 2.0558276e-05 2.7056806e-06 0.00011298586 1.8746061e-06 1.364438e-05
3.095635e-06 4.1904746e-05 2.5013445e-05 2.169695e-06 3.9450184e-05 5.321942e-06 8.157911e-06 2.3871826e-06
2.6872258e-06 2.9475707e-06 2.5053894e-06 2.95519e-06 2.2246716e-06 7.239847e-05 4.0268465e-06 8.115336e-06
1.2975053e-05 1.30546805e-05 1.9926822e-06 9.737963e-05 2.3653143e-05 1.0550347e-05 1.5767195e-05 5.3555655e-06
6.124656e-06 3.6432223e-06 1.5317758e-06 2.8486073e-05 1.928476e-05 3.1342795e-05 3.3341657e-06 6.5029903e-06
2.6049647e-06 2.9449955e-06 4.3150444e-06 6.562309e-05 9.468571e-06 1.6446486e-06 8.0720274e-05 3.8977378e-06
0.0011619059 1.1857235e-06 2.7370435e-05 1.528335e-06 1.0825447e-06 1.2284921e-05 4.705348e-06 5.6233703e-06
3.5699316e-06 9.68997e-05 1.00611815e-05 3.037949e-06 1.9079256e-05 4.6539326e-06 5.6548186e-05 0.00054300786
2.127229e-06 6.4469928e-06 9.928612e-06 1.3148406e-06 2.0003006e-06 1.012724e-05 7.4911367e-07 3.5131947e-05
9.479385e-06 1.8846108e-06 1.9968977e-06 0.00040942707 5.3559615e-06 0.0001479263 1.0837696e-05 6.7121773e-06
1.9418783e-06 9.319614e-06 4.851209e-06 3.0263058e-05 2.5810298e-06 0.0006984151 5.1184415e-06 2.8165396e-06
6.068522e-05 2.024359e-05 2.396547e-06 2.2203092e-05 1.3445427e-05 4.016506e-06 1.3141299e-06 4.8828583e-06
1.9305896e-06 2.9743476e-06 2.5971408e-06 2.793391e-06 0.00015469255 2.3525152e-05 4.9860655e-06 1.1565971e-06
0.00025984668 2.6008208e-06 1.6878417e-06 0.00026603127 1.3005032e-06 0.00021951145 2.334414e-06 2.1935316e-06
7.2857074e-05 2.1118816e-05 1.4731568e-06 9.7484235e-06 6.082666e-05 5.1354335e-05 6.583506e-05 8.908715e-06
2.3114177e-05 3.1458987e-06 1.7735206e-06 1.19368e-06 1.4336258e-06 1.7201555e-05 1.579227e-05 1.2750726e-05
2.8450786e-06 2.1728958e-06 1.8697098e-06 6.5770246e-06 3.6644342e-05 1.878864e-05 4.8404545e-06 0.000102187936
3.239946e-06 1.0700994e-06 7.654792e-05 6.98599e-07 6.070223e-05 5.9311544e-05 1.7449616e-05 4.639068e-06
3.8047435e-06 2.6900709e-05 6.810641e-05 2.9568996e-06 1.4582234e-05 2.462879e-06 8.906588e-05 9.677489e-07
3.5568344e-06 2.167255e-06 3.1678887e-06 2.011622e-05 4.7562797e-05 3.95725e-06 1.5342666e-05 9.90489e-06
0.00020016723 0.00011181776 1.0138337e-05 1.283293e-05 1.5815334e-06 2.6549938e-05 3.5808807e-05 4.1637622e-06
2.326123e-06 1.1012762e-05 1.812472e-05 2.1164104e-05 2.6142825e-06 3.9435427e-06 5.012208e-05 7.176299e-06
5.1469115e-06 1.4839073e-05 3.2639275e-06 2.3553953e-06 0.00011135413 3.3777986e-05 5.198732e-06 3.5304074e-06
1.9727031e-05 5.8879064e-05 1.9031373e-06 1.6837249e-06 4.1365576e-05 5.2713447e-05 2.1098043e-05 2.0262992e-06
1.0090836e-05 2.8309041e-05 0.00013328649 4.5816955e-06 6.7989063e-06 2.689973e-06 0.00014745556 1.7065274e-06
1.8298555e-06 8.9923384e-07 3.5405676e-05 3.538049e-05 8.53782e-06 2.9022978e-05 2.831691e-06 1.077347e-06
4.958056e-05 1.4302808e-06 3.8521757e-06 4.2999924e-05 3.245934e-06 0.00040650132 1.9631932e-06 2.2097433e-06
2.1264111e-06 1.0281964e-06 9.709847e-06 4.9983137e-06 2.125941e-06 3.1009007e-05 6.9250586e-06 1.8562674e-06
9.595849e-05 1.2646736e-06 4.2633396e-06 1.1074693e-05 6.335659e-06 5.598078e-06 1.9346824e-05 0.00042344606
00000000: 4685 1036 b9b5 2136 f86e 2136 98d9 8237
00000010: af15 8538 5cf5 1236 d86d dc37 8b97 be37
00000020: 68d5 6535 48f3 7e36 d0d4 c236 3890 ae37
00000030: 6b36 0336 8a7d ca37 d1e6 3038 dd43 3736
00000040: f5e4 0836 88f1 a039 6225 e238 3819 1c36
00000050: 5c30 4d36 2ef8 9638 54dc e235 2617 2236
00000060: 4c5f f136 22e6 b038 7554 9836 9074 ac37
00000070: 3d93 3536 d2f2 ec38 fa9a fb35 2aea 6437
00000080: 9bbe 4f36 e1c2 2f38 f7d3 d137 149b 1136
00000090: 5077 2538 2293 b236 f6dd 0837 7c33 2036
000000a0: 3056 3436 e1ce 4536 4322 2836 c751 4636
000000b0: 914b 1536 a2d4 9738 591e 8736 1a27 0837
000000c0: 6eaf 5937 6d05 5b37 05ba 0536 4a38 cc38
000000d0: bd6a c637 6501 3137 cb43 8437 f5b3 b336
000000e0: 6582 cd36 157e 7436 6a97 cd35 60f5 ee37
000000f0: b5c5 a137 1276 0338 88c0 5f36 4334 da36
00000100: f4d0 2e36 a3a2 4536 f3c9 9036 219f 8938
00000110: 34db 1e37 b2bd dc35 5e48 a938 50c9 8236
00000120: 184b 983a 2625 9f35 9099 e537 3121 cd35
00000130: f44b 9135 551b 4e37 a2e2 9d36 62b0 bc36
00000140: f592 6f36 a136 cb38 72cc 2837 91df 4b36
00000150: 640c a037 fa28 9c36 272e 6d38 a458 0e3a
00000160: 84c1 0e36 3f53 d836 1093 2637 9479 b035
00000170: e73c 0636 2ae8 2937 b316 4935 a45a 1338
00000180: a609 1f37 bcf2 fc35 7102 0636 5fa8 d639
00000190: 5cb7 b336 aa1c 1b39 8dd3 3537 2a39 e136
000001a0: 3751 0236 705b 1c37 91c7 a236 6cdd fd37
000001b0: c135 2d36 d815 373a 14bf ab36 c803 3d36
000001c0: 4288 7e38 c7d0 a937 5dd4 2036 c740 ba37
000001d0: ab93 6137 86c5 8636 2961 b035 6fd7 a336
000001e0: 478f 0136 e79a 4736 8a4a 2e36 1876 3b36
000001f0: f734 2239 e157 c537 fa4d a736 603c 9b35
00000200: 083c 8839 c389 2e36 cd89 e235 1d7a 8b39
00000210: f38c ae35 a82c 6639 eda8 1c36 9634 1336
00000220: d8ca 9838 5028 b137 48b9 c535 298d 2337
00000230: 2120 7f38 4c65 5738 ee10 8a38 a476 1537
00000240: 51e5 c137 211e 5336 b409 ee35 8836 a035
00000250: 026b c035 0f4c 9037 a479 8437 f3eb 5537
00000260: 14ee 3e36 11d2 1136 bdf2 fa35 36b0 dc36
00000270: 90b2 1938 4c9c 9d37 306b a236 bb4d d638
00000280: d96d 5936 56a0 8f35 5a88 a038 5c87 3b35
00000290: 869a 7e38 49c5 7838 c460 9237 4aa9 9b36
000002a0: ff54 7f36 d5a8 e137 5ad4 8e38 266f 4636
000002b0: 38a6 7437 f047 2536 e1c8 ba38 99e3 8135
000002c0: f3b1 6e36 2871 1136 ea97 5436 41bf a837
000002d0: 2a7e 4738 85c8 8436 20b4 8037 2e2d 2637
000002e0: fbe3 5139 b47f ea38 d317 2a37 044d 5737
000002f0: 1345 d435 8fb7 de37 6a31 1638 72b6 8b36
00000300: 7d1a 1c36 74c3 3837 8a0a 9837 9189 b137
00000310: 0871 2f36 c652 8436 2c3a 5238 f0cb f036
00000320: a2b3 ac36 55f5 7837 d909 5b36 6211 1e36
00000330: cb86 e938 d6ac 0d38 c570 ae36 f0eb 6c36
00000340: 7a7b a537 eaf4 7638 4d6f ff35 59fc e135
00000350: f37f 2d38 a218 5d38 b4fb b037 8efb 0736
00000360: d04b 2937 3479 ed37 d2c2 0b39 77bc 9936
00000370: 2922 e436 6285 3436 4d9e 1a39 d60b e535
00000380: 5b99 f535 e162 7135 8e80 1438 8365 1438
00000390: a83d 0f37 5f76 f337 1508 3e36 5c99 9035
000003a0: b9f4 4f38 13f8 bf35 f041 8136 d15a 3438
000003b0: b9d4 5936 af1f d539 67bf 0336 1a4b 1436
000003c0: 77b3 0e36 8f00 8a35 7ae7 2237 30b7 a736
000003d0: 63ab 0e36 ab0f 0238 cd5d e836 dd24 f935
000003e0: 523d c938 dbbd a935 cf0d 8f36 72cd 3937
000003f0: e596 d436 20d7 bb36 fd4a a237 f801 de39
