SmallD_SDD_up_to_step2/grad_save_init_IPC_1_no_curr_unroll_10mrpc_mlp_ipc1_w10_seed0.pth (torch, 21376 bytes, 3 tensors)

module.data.weight f4 [2, 768]
000000 48 22 98 bc 6b 9a ae bd 09 19 a1 bd 55 1c 63 3d
       -0.018571034 -0.08525547 -0.07866103 0.05544694
000010 d8 19 41 bd 39 9d 47 bc 7f da fd bc ba 61 aa bd
       -0.047143787 -0.012183481 -0.030987976 -0.08319421
000020 22 aa c2 bc b7 4d 58 3c 59 8a 49 bd 65 1f c9 3c
       -0.023762766 0.013202122 -0.049204204 0.024551103
000030 12 c1 88 3d 48 7f 1c bd 27 5d 8a 3d 66 26 13 3d
       0.0667745 -0.038207322 0.06756049 0.03592529
000040 96 f8 02 3d cd 72 84 bd 81 22 10 3d 29 88 ab bd
       0.03197535 -0.06467209 0.035189155 -0.0837558
000050 e9 8f ad bc 64 97 17 bc ed f6 17 3c ca 8c 41 3d
       -0.021186786 -0.009252403 0.00927518 0.047253408
000060 67 a3 42 bc 50 d9 5a bd cc 05 6d 3d e3 ab 83 bd
       -0.0118797785 -0.0534299 0.057866856 -0.06429269
000070 f7 df 85 bd 4f 2b 25 3d db b8 86 bd 95 45 d7 3c
       -0.065368585 0.040324505 -0.06578227 0.026278296
000080 5c 86 7e 3b a2 d8 c5 bd 41 d2 2d 3c ac d2 5d bc
       0.0038837409 -0.0966046 0.0106092105 -0.013538998
000090 53 c9 b0 bd 40 e4 1b bd 3a af 26 3d 85 c7 3b 3d
       -0.086321495 -0.038059473 0.040694453 0.045844574
0000a0 6b 39 e7 3c 58 29 fd 3c ce 2e 93 bd 0f e6 d2 3b
       0.028225621 0.030903503 -0.07186662 0.0064361165
0000b0 84 20 57 bd 58 27 6e bd 15 81 37 bd 13 a9 bd bd
       -0.052521244 -0.05814299 -0.044800837 -0.09260764
0000c0 e4 89 0a bd 43 fb 33 bc 36 74 4b 3d 5c da b8 bc
       -0.03382291 -0.010985198 0.049671374 -0.02256506
0000d0 89 d1 99 3d 4a 4c 18 3d b0 f3 c8 bc a1 32 a7 bd
       0.07510669 0.03718213 -0.024530262 -0.081639536
0000e0 7c d9 82 3d 9b 51 e2 3c fb a8 c9 3c c4 ea a0 bc
       0.06389138 0.027626803 0.024616709 -0.019643195
0000f0 8e 15 31 3d c0 99 65 3d c4 84 1d bd 20 61 56 3d
       0.043233447 0.05605483 -0.038456693 0.05233872
000100 bb 17 f4 bc 4e 72 b7 bd c9 1b 9c bd ef 04 2e bd
       -0.029796472 -0.08957349 -0.07622487 -0.042485174
000110 6e e1 de bc cd 1e 66 bd eb 97 35 3d b1 03 8c bd
       -0.027207103 -0.056181718 0.044334333 -0.068366416
000120 d3 2d 55 3d d1 d8 a0 bc db d7 2b 3d 8b f4 0a bc
       0.052045655 -0.019634636 0.041953903 -0.008481155
000130 9c 7c 8b bc a5 72 dd 3c b1 06 74 bc 7d 1e 64 bc
       -0.017027192 0.027032206 -0.0148941735 -0.013923285
000140 03 3c f2 3c ac 6a 0b 3d ad fa 7b 3d 02 47 1e bd
       0.029569631 0.034037277 0.06151836 -0.038641937
000150 4e 1e a1 bc ce 28 14 3d 4f 51 f3 bc 51 b0 fc bd
       -0.01966777 0.036171727 -0.029701857 -0.12338317
000160 5c 78 ac 3d 8a d6 01 bc f6 f7 d8 3b 5b 2f 34 bd
       0.08421394 -0.007924685 0.006621356 -0.043990474
000170 d9 df 20 bd 10 62 50 3d 9e 25 2e bd ea 94 88 3d
       -0.039275978 0.05087477 -0.042516343 0.06669028
000180 c7 2f e8 3c 08 82 5c 3d f1 df 28 3d 4e 12 8f 3c
       0.028343095 0.053834945 0.041229192 0.017464783
000190 c7 a4 e8 3a aa ff 17 be 75 81 5b bd 1f cc 6f bd
       0.0017749303 -0.14843622 -0.053590257 -0.058544274
0001a0 87 21 d9 bd cb 8c 30 3c 98 bb 60 bc 7a cf 62 3c
       -0.10602098 0.010775755 -0.013716601 0.013843412
0001b0 29 b7 86 bd 41 80 1e bd 60 b4 a5 3d 81 33 0b be
       -0.06577904 -0.03869653 0.080910444 -0.13593866
0001c0 ef da be bc 14 6f 1e bd bc 96 5c 3c 74 4e 84 bd
       -0.023297755 -0.03868015 0.013463672 -0.06460276
0001d0 5c 24 71 3d 51 e3 bf bc a7 7d 6a 3d b9 b4 66 bd
       0.058872566 -0.023423823 0.057248738 -0.056324694
0001e0 9c 82 3e 3d fb a2 75 bd c0 d2 51 3d 04 77 5b bd
       0.046511278 -0.059969883 0.051226377 -0.0535803
0001f0 4a 42 5c bc 53 df 36 3d 05 ee d8 bd b6 2b 11 be
       -0.013443539 0.044646572 -0.105922736 -0.1417683
000200 b5 86 17 3d 44 3b 7d bd d8 06 d3 bc c7 f2 af bd
       0.0369937 -0.0618241 -0.0257601 -0.08591228
000210 8f 9a dd bd 88 cc fa bc 4c de ff 3c 35 8a f1 bc
       -0.10820495 -0.030615106 0.03123393 -0.029484848
000220 71 d7 a3 3d d4 df 79 bb 6d e8 0b 3d 5d 6a 5f 3d
       0.080000766 -0.0038127797 0.034157205 0.054544795
000230 94 c2 84 bd 64 d2 d2 3c d0 e1 bd bc f2 c3 6b 3d
       -0.06482425 0.025735088 -0.023178965 0.057559915
000240 45 47 c3 3c bb 2d 23 3d 11 86 7e bc 7a 05 b3 bd
       0.023837695 0.039838534 -0.015534894 -0.08741279
000250 b4 ed 4f bc 48 c3 2b bd 1f 78 a0 bc 5a dc b6 3c
       -0.01269095 -0.04193428 -0.019588528 0.022321869
000260 c4 01 b7 bc b5 bb d6 bc b6 da 01 3d 81 68 19 bc
       -0.02233971 -0.026212553 0.03170272 -0.009363295
000270 14 db b7 3c da d9 84 3d c7 23 4d 3d f7 07 2a bd
       0.022443332 0.064868644 0.050082948 -0.041511502
000280 59 c9 09 3d 42 4d c0 3d 2b 5b 6a 3d 02 6d 8d bd
       0.033639286 0.09389736 0.05721585 -0.06905557
000290 6e 65 22 bd a7 40 c7 bc bb de 2c 3d 37 1b 25 bc
       -0.039647512 -0.02432282 0.0422046 -0.010077289
0002a0 8f f2 c6 3d 17 d3 c9 3d e1 69 94 3d 81 a6 06 3d
       0.09714233 0.09854715 0.07246757 0.032873634
0002b0 6a 24 f3 3d 84 ff 09 bd 8a 19 9c bd d9 51 9c bc
       0.1187218 -0.033690944 -0.07622059 -0.019081997
0002c0 3c 97 8c bc df b0 0a 3d c7 9d 6f 3d f1 f0 47 3d
       -0.017161958 0.033860084 0.058500078 0.048813764
0002d0 68 ec 3a bd 70 f3 0b bd eb ff c3 3d 86 a1 37 3d
       -0.04563561 -0.034167707 0.09570297 0.044831775
0002e0 eb dd d9 3d 85 83 ec 3c 7a 3b eb 3c 4e 26 34 3d
       0.106380306 0.028871307 0.028714884 0.043981843
0002f0 4b eb 97 3d 1e 35 b7 bc f4 a3 72 bd 4b 04 3a 3d
       0.074179254 -0.022364195 -0.05923839 0.04541425
000300 46 fb 18 3d c1 f8 90 3c 56 5e 1a 3d 27 39 78 bd
       0.037349008 0.01769674 0.037687622 -0.06060138
000310 4e bc d7 3d e4 48 c2 bc d4 d8 bd 3c 6b 84 f1 bd
       0.10533963 -0.023716398 0.02317468 -0.11792835
000320 9f 0d ab bd 1a 31 eb bc 75 7d b9 bb c7 22 ca 3c
       -0.083522074 -0.028709937 -0.0056607076 0.024674786
000330 01 5e b3 3d ec 56 8c 3d 7e 51 ae bc 39 57 2e 3d
       0.08758164 0.068525165 -0.021279093 0.04256365
000340 ba 87 ce 3b 3d d6 4e bd 51 05 51 bc 3d 34 cf bd
       0.006302801 -0.050497282 -0.012757615 -0.101173855
000350 65 36 30 bd 65 d0 c5 bc 8b 40 9b bd b2 fd 95 3d
       -0.043020625 -0.024147222 -0.0758067 0.07323779
000360 9a c1 91 3d 19 e1 76 3d 0e e1 18 3d 78 28 96 3b
       0.07117005 0.060273264 0.037324004 0.004582461
000370 fc 24 87 3d d0 0f 86 3c 7b 07 eb 3c 9a eb 99 bd
       0.06598851 0.016364962 0.02869009 -0.075156406
000380 05 81 9b bc 14 77 13 bd 96 cc c9 bd eb 15 bd bd
       -0.01898242 -0.036002234 -0.09853475 -0.09232696
000390 36 74 1b bd 83 7c ed bc 79 10 86 bd 84 20 c5 3d
       -0.037952624 -0.028990036 -0.06546111 0.096253425
0003a0 3c 1e b2 bd 0a 25 ad 3d 50 f7 ab 3d 2f 3f aa 3c
       -0.08697173 0.0845433 0.083967805 0.020782081
0003b0 fb 06 95 3d 6c 49 1d bd 2e dc 94 3c 15 8b 76 3d
       0.07276722 -0.0384001 0.018171396 0.060191233
0003c0 53 e5 8f 3c fe 18 ac bc bd e1 ad 3c cb 2c d1 3d
       0.017565405 -0.021008011 0.021225804 0.10213622
0003d0 9f a3 ef 3d cf 88 df 3c a0 85 87 bd fc 70 08 3d
       0.1170113 0.027286915 -0.06617284 0.033310875
0003e0 60 cc 7a bd 8c be 90 3d bf 9a ed 3d a3 69 19 3d
       -0.061230063 0.07067594 0.11601781 0.03745426
0003f0 75 c1 04 3c b5 96 9d 3c 32 75 cc bc 0f 70 b8 3d
       0.008102764 0.019236902 -0.024958227 0.090057485

exp_avg f4 [2, 768]
000000 2f a8 7d 39 82 05 1f 39 bb 36 87 b9 08 69 03 38
       0.00024190613 0.00015165473 -0.00025789984 3.1330652e-05
000010 84 a6 d3 b9 0b f0 44 3a 49 a3 33 ba 87 06 0a 3a
       -0.0004036912 0.0007512576 -0.00068526395 0.0005265255
000020 56 a1 65 39 41 6b 37 b9 df a4 bc b9 62 d4 8d b8
       0.00021899244 -0.00017492195 -0.00035980993 -6.762963e-05
000030 84 7c 07 3a a6 ef 93 b9 2e 6d 66 39 48 9d 94 38
       0.00051683956 -0.00028216577 0.00021975182 7.086486e-05
000040 8a 46 59 39 25 e4 92 3a f7 0b c9 b8 5e b9 b5 39
       0.0002072101 0.0011206908 -9.5866555e-05 0.0003466112
000050 e0 eb 62 b9 d3 fc 9e 39 1e 39 a5 b8 55 27 06 39
       -0.0002164091 0.00030324477 -7.878452e-05 0.00012793888
000060 e3 ac 68 b9 8d 3e ab 39 bf e1 a5 b8 2a 06 8f 38
       -0.0002218965 0.00032662266 -7.9098616e-05 6.8199195e-05
000070 6f c6 29 39 9a 3f f6 39 23 92 05 ba 03 5e 84 b9
       0.00016191018 0.00046968163 -0.00050953234 -0.00025247046
000080 a6 b4 1e ba 0c 67 8d 39 97 8c 3e 3a 6b 95 e2 38
       -0.00060541404 0.00026970392 0.00072688743 0.00010804351
000090 03 1a 4a 37 ae 43 38 39 5e be 94 b9 57 c8 84 b9
       1.2046195e-05 0.0001757282 -0.00028370594 -0.00025326267
0000a0 fb 5b b0 b9 f2 3e a4 b9 ae c0 8a b9 fd e5 d4 b9
       -0.00033637867 -0.00031327415 -0.0002646497 -0.00040607146
0000b0 e9 68 6a b9 82 8c bd b9 fd d5 06 3a bc 17 27 ba
       -0.00022355061 -0.00036153576 0.0005143581 -0.0006374081
0000c0 c3 83 01 b7 ce a3 05 ba 1d b0 f3 39 cf 2c 4f ba
       -7.719677e-06 -0.0005097956 0.00046479786 -0.00079031003
0000d0 5d e6 2f 3a 2e 31 cd b6 e4 88 60 ba 13 f5 1e ba
       0.0006710047 -6.1152014e-06 -0.000856532 -0.00060637406
0000e0 85 ac b9 39 ed 51 2a b9 c9 2c e4 b9 e9 94 1d ba
       0.00035414487 -0.00016242983 -0.00043520916 -0.0006011264
0000f0 c9 8f ac b9 1a be dd b8 fc 61 32 b8 d4 1b 2e b9
       -0.00032913525 -0.000105735104 -4.2529762e-05 -0.000166043
000100 16 60 89 39 51 2e 8b 39 30 14 14 b9 7d 4e 8a b8
       0.00026202266 0.00026546654 -0.000141219 -6.5949724e-05
000110 b7 e9 35 b8 26 15 8c 39 33 56 a4 38 78 92 34 b9
       -4.3371427e-05 0.00026718638 7.836185e-05 -0.00017220702
000120 c1 31 b8 39 bc 60 a4 39 98 81 8a 38 23 65 1f ba
       0.00035132284 0.0003135259 6.6044915e-05 -0.0006080439
000130 88 75 06 b9 96 76 b3 b9 29 a5 bc 38 0c 26 18 b8
       -0.0001282302 -0.00034229894 8.995302e-05 -3.6275058e-05
000140 35 7e b0 b9 c4 43 31 3a e6 0e 6e b9 9c ef 88 39
       -0.00033663368 0.0006762112 -0.00022702999 0.00026118464
000150 ea 97 ea b7 fd af fd 39 53 24 cf b8 84 8e 6f 38
       -2.7965714e-05 0.00048387042 -9.877295e-05 5.711477e-05
000160 f5 16 7a 38 8e e3 17 3a 0d a6 4d 38 7f ba f6 38
       5.9626025e-05 0.0005794101 4.9030456e-05 0.00011764932
000170 84 bf 08 39 79 f4 0f b9 45 52 e1 37 45 4e 03 39
       0.00013041316 -0.00013728616 2.68604e-05 0.00012522291
000180 a3 06 e5 38 c4 f8 00 3a 6a c2 62 b9 17 c0 6c 3a
       0.00010920807 0.00049198815 -0.00021625464 0.0009031309
000190 2d 54 44 3b db 2d 87 39 cc 3d c3 b9 5e 30 c9 38
       0.00299574 0.00025783372 -0.0003723934 9.593436e-05
0001a0 b7 8e c4 38 6f eb ce b8 cd f1 97 39 a5 ca d8 b9
       9.372591e-05 -9.8666984e-05 0.0002898112 -0.00041349712
0001b0 cc 85 3c b9 57 32 55 39 f4 1a 9d 38 9c 59 79 39
       -0.0001797892 0.00020332016 7.491364e-05 0.00023779873
0001c0 b3 f9 ca ba 5c 1e 9d b9 87 c7 93 b7 b9 24 4e b9
       -0.0015485793 -0.00029967993 -1.7616678e-05 -0.00019659371
0001d0 2a 29 fa 38 07 1d b4 b9 3a 65 88 b9 d7 ad cb b8
       0.00011928596 -0.00034353902 -0.0002601536 -9.7121745e-05
0001e0 12 f5 60 b8 4a 8d 81 b9 75 e4 14 b9 21 d0 f1 37
       -5.3634e-05 -0.00024710066 -0.00014199487 2.8826356e-05
0001f0 b5 38 7e ba b0 fb f2 3a fa 71 b1 b8 fa 70 59 b9
       -0.0009697781 0.0018538143 -8.4612475e-05 -0.0002073682
000200 84 a8 09 ba 40 b1 02 39 e4 73 61 b8 6a 61 1d 39
       -0.0005251246 0.00012463797 -5.3752112e-05 0.00015008976
000210 32 39 54 39 d0 5f e4 39 0d 87 c5 39 dc 57 64 b9
       0.00020239202 0.00043558935 0.0003767539 -0.00021776505
000220 6a 0c e9 b9 7f 09 1c 3a 57 5b fd b8 69 3e 76 b8
       -0.00044450472 0.0005952343 -0.000120809935 -5.8709094e-05
000230 67 c6 97 39 31 dd 00 39 6b 3b 0a 3a 6c bb 13 3a
       0.00028948786 0.00012289431 0.0005273136 0.0005635533
000240 51 d8 cb b9 34 5f 42 b8 98 49 8f b8 92 5a 52 39
       -0.00038880346 -4.634187e-05 -6.832479e-05 0.000200609
000250 40 b8 53 39 3f 2d 12 3a df 88 c2 b7 c7 8c a9 b9
       0.00020191167 0.00055762 -2.3190338e-05 -0.0003233908
000260 eb c7 3c 38 f7 95 62 b9 83 f3 16 b8 5b 26 82 b9
       4.500888e-05 -0.00021608906 -3.5989575e-05 -0.0002482411
000270 ab d7 2a 39 5f e8 f6 39 63 f2 5d 38 85 57 8f b8
       0.00016292806 0.00047093906 5.2916246e-05 -6.835073e-05
000280 05 67 17 39 58 21 a9 b8 26 e5 b4 39 18 3a 8c 35
       0.0001443886 -8.064759e-05 0.00034503004 1.044772e-06
000290 f1 4c bb ba 53 5c b4 36 87 c0 45 3a 3a d7 95 39
       -0.0014289898 5.375166e-06 0.00075436424 0.0002857985
0002a0 4c 33 be b8 a7 13 c0 b9 a0 e9 a0 b8 17 16 6d 38
       -9.069461e-05 -0.00036635736 -7.6729106e-05 5.6525776e-05
0002b0 05 58 c2 b8 4e 49 8d b9 97 72 84 b9 66 1b dc 38
       -9.267036e-05 -0.00026948232 -0.00025262378 0.00010495521
0002c0 38 6e 83 39 ed 47 db b8 d5 87 67 b9 00 71 25 b9
       0.00025068386 -0.00010456131 -0.00022080478 -0.00015777722
0002d0 a8 43 41 39 04 b0 12 ba c1 89 a5 39 70 a3 e1 b9
       0.00018431118 -0.00055956864 0.00031573887 -0.00043037115
0002e0 f2 55 7e b9 57 ef e9 39 f1 12 83 3a 49 f4 a1 39
       -0.00024255345 0.00044619545 0.0010000152 0.0003089032
0002f0 36 20 33 39 b2 db df b9 51 c0 03 b9 f1 9f d0 b9
       0.0001708277 -0.0004269756 -0.00012564777 -0.00039792017
000300 97 cb 93 b9 df 5d 3e b8 79 ce 58 3a 0c 48 d6 36
       -0.0002818971 -4.5386954e-05 0.0008270513 6.3860844e-06
000310 c3 77 ec 38 33 57 82 39 72 81 1d 38 c3 4e 1a 3a
       0.00011275664 0.000248605 3.7552272e-05 0.000588637
000320 36 e5 0a b9 0d ea 63 39 c3 a9 f5 b9 aa b9 cc b9
       -0.00013246093 0.00021735598 -0.00046856524 -0.00039048243
000330 9b d4 d5 38 a5 c3 12 37 64 e6 80 39 db 95 5e 38
       0.00010196232 8.74783e-06 0.00024585717 5.306849e-05
000340 68 f6 16 3a ba 24 61 39 de 20 04 38 b5 96 00 39
       0.0005758763 0.00021471354 3.1501862e-05 0.00012263174
000350 53 14 9d b9 95 09 2e ba af 81 3d b9 1e 7e 94 b9
       -0.00029960516 -0.0006639001 -0.00018072755 -0.00028322724
000360 3a 28 4b 39 22 cf 89 b7 e8 f8 e2 39 03 61 a6 39
       0.00019374574 -1.6428126e-05 0.0004329153 0.00031734267
000370 f1 c0 73 b9 c4 00 47 37 11 33 e3 38 34 8c 44 b8
       -0.00023246162 1.1861503e-05 0.00010833715 -4.6860616e-05
000380 17 b5 52 39 c6 50 02 3a e4 2d 53 39 f3 f6 f7 b9
       0.00020094622 0.00049711426 0.00020139624 -0.00047295503
000390 ff 7f 13 b9 ad 02 8b 37 7f 5c 36 b9 a8 75 9d b9
       -0.00014066695 1.6571337e-05 -0.0001739133 -0.00030033034
0003a0 94 71 5c 38 4e cf b4 38 11 48 ae 39 25 42 dd 39
       5.2557865e-05 8.621682e-05 0.0003324156 0.00042201686
0003b0 5f 57 2b 3a ec 98 17 3a 0a 22 05 b9 7d 66 bf b9
       0.00065361516 0.000578298 -0.00012696549 -0.0003650672
0003c0 0b 90 b7 b9 62 2f d8 38 0d 7b ac 39 7d 20 35 38
       -0.000350118 0.00010308508 0.00032898076 4.318402e-05
0003d0 2f f9 dc b8 a8 aa 7e 39 e4 a4 2e b9 16 cd 6f 39
       -0.000105368315 0.00024286902 -0.0001665536 0.00022869217
0003e0 61 d2 55 b9 e0 5a bc b9 69 42 68 b8 5d 75 9c b9
       -0.00020391635 -0.0003592586 -5.537496e-05 -0.0002984208
0003f0 3f a1 61 b9 57 83 4c 37 63 39 d5 b9 5c cb 05 b9
       -0.00021517741 1.21899275e-05 -0.00040669282 -0.00012759626

exp_avg_sq f4 [2, 768]
000000 e1 91 8c 37 d9 c9 d6 36 e7 01 c0 3a 89 17 d5 36
       1.675723e-05 6.401195e-06 0.0014649004 6.3506345e-06
000010 5c d7 a8 38 ac 98 b5 37 c3 51 4f 37 31 a3 1a 38
       8.050978e-05 2.1647975e-05 1.2357198e-05 3.6868445e-05
000020 c2 3f cd 37 73 9d 31 38 ed 61 06 38 5c b6 57 39
       2.4467594e-05 4.2346725e-05 3.203929e-05 0.00020571932
000030 9d 7a 4c 37 1e 3c 0b 37 9a fc 83 39 a1 6d f5 38
       1.2187896e-05 8.299043e-06 0.0002517447 0.0001170293
000040 37 d8 ee 36 60 ec 50 3a 7a 99 13 37 15 4c a4 36
       7.1181234e-06 0.0007969793 8.797617e-06 4.896438e-06
000050 47 f8 20 38 13 4b 83 3a 60 83 69 37 51 df b7 36
       3.83782e-05 0.0010016881 1.391847e-05 5.4798224e-06
000060 5e a5 e9 37 05 7f 18 39 bd 21 3a 37 c5 22 19 36
       2.785277e-05 0.00014543168 1.1094319e-05 2.2819015e-06
000070 66 36 00 37 f1 a9 66 37 86 0b d5 36 5b ab 91 37
       7.64206e-06 1.3748636e-05 6.349236e-06 1.736514e-05
000080 0b 53 cd 39 d1 39 4b 37 b2 e9 27 3b 2c 8a f3 37
       0.0003916252 1.2113204e-05 0.002562147 2.9032199e-05
000090 b2 ff d3 36 b7 2d 05 37 26 10 d4 36 20 6c 99 36
       6.318057e-06 7.938062e-06 6.3199723e-06 4.5723427e-06
0000a0 bd f9 08 38 c8 3e 8b 36 0e 6f 67 38 ab bd a5 37
       3.2657514e-05 4.1498315e-06 5.517812e-05 1.9757854e-05
0000b0 cf 44 1c 37 ec 8f 2f 39 3e 0f 1a 38 50 4d ab 37
       9.314345e-06 0.00016742916 3.6730657e-05 2.042079e-05
0000c0 0b e0 52 38 0a e9 7e 38 57 8b b5 36 1b f2 6d 38
       5.0276558e-05 6.0775354e-05 5.4104416e-06 5.673068e-05
0000d0 1a 43 c5 39 f5 30 c2 36 8b b8 e7 36 82 a7 5e 38
       0.00037624763 5.78735e-06 6.90582e-06 5.308493e-05
0000e0 81 f4 2d 37 af 6b 71 36 44 74 c8 38 31 68 c5 38
       1.0368532e-05 3.5974479e-06 9.558399e-05 9.413099e-05
0000f0 70 6e 7a 37 ce 44 0a 37 1b 67 7c 36 82 b8 e4 36
       1.4926874e-05 8.241461e-06 3.7610941e-06 6.816409e-06
000100 bd 11 93 37 4c 86 02 37 3d cb ca 36 06 3a 04 37
       1.7532026e-05 7.779872e-06 6.043729e-06 7.881323e-06
000110 44 34 60 38 50 1b d4 36 e6 62 ad 36 71 3a 14 38
       5.3454438e-05 6.321272e-06 5.167315e-06 3.5340378e-05
000120 e0 87 01 37 60 56 8f 36 ef 6b 54 36 95 a9 29 38
       7.720635e-06 4.2717875e-06 3.1653287e-06 4.0450675e-05
000130 3e 60 c5 36 38 5e 1a 37 e7 97 b7 37 d0 df 33 37
       5.8822616e-06 9.201052e-06 2.1886035e-05 1.0721342e-05
000140 81 5a e6 36 37 20 44 39 ed be 9a 36 86 38 51 36
       6.86507e-06 0.00018704018 4.6117843e-06 3.1176328e-06
000150 de 9d cb 38 6f 74 55 39 d7 c4 d1 36 41 a6 0e 37
       9.7091994e-05 0.00020356638 6.2516006e-06 8.502569e-06
000160 42 cc 3b 37 f4 67 8b 39 ff 48 f3 38 66 85 89 36
       1.1193626e-05 0.00026589597 0.000116007395 4.098448e-06
000170 81 75 af 36 bf 87 3c 37 63 00 8e 37 82 f0 7d 36
       5.2290857e-06 1.1237279e-05 1.69279e-05 3.7839932e-06
000180 6a 06 52 38 99 07 09 37 0c 44 e7 36 35 8c ec 39
       5.0073875e-05 8.167605e-06 6.892258e-06 0.0004511789
000190 86 b0 95 39 21 21 8d 36 79 0b 9f 37 26 d7 2d 37
       0.00028551015 4.205984e-06 1.895962e-05 1.0361697e-05
0001a0 7f 9f 92 36 0a 42 15 39 52 17 7c 38 51 14 06 39
       4.369707e-06 0.00014234349 6.01032e-05 0.00012786804
0001b0 fb a9 6f 36 b6 5f 68 37 6c be 84 37 83 81 c9 36
       3.5712717e-06 1.3850562e-05 1.5824298e-05 6.005344e-06
0001c0 b1 63 fd 39 35 9f 8c 36 d7 bc bc 37 8e ae db 36
       0.00048330196 4.1908593e-06 2.2499282e-05 6.5470294e-06
0001d0 09 03 6c 36 41 a9 d7 3a ee bc 1f 37 44 8f 9f 36
       3.5168507e-06 0.001645364 9.521127e-06 4.7552476e-06
0001e0 76 d4 57 36 4c 1e 95 36 0f b8 96 37 15 be ee 36
       3.2161165e-06 4.444073e-06 1.7967102e-05 7.115081e-06
0001f0 dc d7 07 39 86 f9 3d 3a de ee 9a 36 de f3 7a 36
       0.00012955017 0.000724696 4.6173654e-06 3.7394852e-06
000200 56 a1 e0 37 fe 5e 5f 38 83 da 37 37 3b 0d 7b 36
       2.6778009e-05 5.325581e-05 1.0958526e-05 3.7409616e-06
000210 a9 57 e9 36 c4 0d 25 37 4f 9f c8 36 dd c7 ef 39
       6.954146e-06 9.837971e-06 5.9790104e-06 0.00045734542
000220 0a bf 50 37 f9 5f 33 3c 70 5d 54 37 96 72 a8 39
       1.2442246e-05 0.010948175 1.265794e-05 0.0003212883
000230 a7 75 2d 37 74 87 f7 36 8a 13 e0 3a b9 f3 fc 36
       1.0338997e-05 7.3769424e-06 0.0017095667 7.5385583e-06
000240 b7 80 e5 39 01 aa e2 36 e7 45 8d 37 c3 9d c0 36
       0.00043774184 6.755116e-06 1.684106e-05 5.740412e-06
000250 0a 92 c4 36 c4 05 d6 37 5d ee 97 38 c2 4e 88 37
       5.8582564e-06 2.5513473e-05 7.24464e-05 1.6249138e-05
000260 a2 6a 81 38 db 47 2b 3a 78 df b7 3a d8 ab 70 37
       6.171061e-05 0.00065338396 0.0014028391 1.4345125e-05
000270 73 53 16 39 e3 37 f6 36 a7 3f 22 37 de ce 24 37
       0.00014336202 7.3378774e-06 9.670773e-06 9.823327e-06
000280 63 cf e4 3a a6 9e 0c 36 7e 8f 82 39 33 db 46 37
       0.0017456826 2.0953971e-06 0.00024902442 1.1852756e-05
000290 bc 0f 3f 39 d4 4e 65 37 63 3d 42 3a eb 8c 95 36
       0.00018221041 1.3667817e-05 0.000740966 4.456951e-06
0002a0 37 84 9f 36 c3 31 80 37 c5 1e 43 37 61 fd 05 37
       4.753961e-06 1.5281961e-05 1.163007e-05 7.986412e-06
0002b0 22 1c bd 36 18 71 2f 37 08 7f 19 37 dd 3f 8f 36
       5.635914e-06 1.04571445e-05 9.149087e-06 4.2691668e-06
0002c0 cc 54 a1 37 9d 99 e5 36 aa 82 8b 37 c0 ee d8 36
       1.9232182e-05 6.8426148e-06 1.6630936e-05 6.465096e-06
0002d0 68 46 30 37 b5 61 ca 36 18 1e 36 37 ec d2 46 38
       1.050681e-05 6.0314437e-06 1.0855052e-05 4.7403315e-05
0002e0 c5 18 7e 37 da ab 84 37 5e e1 b1 39 d4 de 0d 37
       1.5145347e-05 1.581565e-05 0.00033927982 8.456136e-06
0002f0 e1 67 e7 36 5a 58 98 37 30 9d 7b 36 6f d1 c5 39
       6.8964296e-06 1.8160954e-05 3.749341e-06 0.00037730808
000300 30 a0 1c 37 79 08 3d 37 dc 67 ee 38 84 01 e8 36
       9.335621e-06 1.1267251e-05 0.0001136807 6.9143152e-06
000310 f5 ba 43 37 e9 78 86 39 e0 a9 ad 37 71 f6 98 37
       1.1666435e-05 0.00025648557 2.0702311e-05 1.823457e-05
000320 38 dc dc 36 b2 ce 34 37 36 e8 e7 38 8d b1 63 37
       6.5821478e-06 1.0776961e-05 0.00011058191 1.3571594e-05
000330 2f 1d a4 36 a5 d0 82 37 15 d8 7a 36 46 34 27 36
       4.8909783e-06 1.5594365e-05 3.737868e-06 2.4915366e-06
000340 be de a6 37 d8 7b 52 37 37 fe 20 37 55 b7 05 37
       1.9892464e-05 1.254581e-05 9.595932e-06 7.970103e-06
000350 d2 bd 86 37 1a c6 36 3a 00 09 98 36 76 39 83 36
       1.6062437e-05 0.00069722685 4.5310007e-06 3.9107936e-06
000360 49 cc 38 37 1a bf b1 36 70 65 89 37 5d f7 82 38
       1.10148185e-05 5.297258e-06 1.6378908e-05 6.244958e-05
000370 b2 7f 9f 36 41 86 64 38 9e 77 ee 36 62 b0 82 36
       4.753435e-06 5.448447e-05 7.106878e-06 3.8948356e-06
000380 23 fc bc 36 e7 3a ab 38 7c 24 04 37 66 47 2e 37
       5.632189e-06 8.164887e-05 7.876308e-06 1.0387832e-05
000390 d3 6f 76 36 cf c3 03 37 05 6e aa 36 76 b4 96 36
       3.6721947e-06 7.853799e-06 5.0792028e-06 4.491357e-06
0003a0 10 10 0b 37 d6 e5 09 37 b0 93 02 37 b2 9e 06 37
       8.2887855e-06 8.219349e-06 7.78299e-06 8.0239715e-06
0003b0 07 af 3c 37 a4 32 24 37 41 49 08 37 dd ca 46 37
       1.1246425e-05 9.786952e-06 8.123287e-06 1.1848952e-05
0003c0 50 e2 a0 37 6c a4 1e 37 c5 0b 30 38 bb 37 b1 36
       1.9178871e-05 9.455816e-06 4.197263e-05 5.281499e-06
0003d0 36 24 47 37 2c a5 d4 36 4b cb 38 39 2e 23 94 37
       1.1869755e-05 6.337321e-06 0.0001762334 1.7659357e-05
0003e0 b3 97 22 37 b2 a7 f2 36 14 06 50 37 4c 73 49 37
       9.691273e-06 7.2316843e-06 1.2399181e-05 1.2007378e-05
0003f0 46 03 8b 36 9b d3 06 3b 43 ab 0e 3b 9a c5 e5 36
       4.142904e-06 0.0020572904 0.002176956 6.8477357e-06
