SmallD_SDD_up_to_step2/grad_save_init_IPC_10_no_curr_unroll_10mrpc_mlp_ipc10_w10_seed0.pth (torch, 187280 bytes, 3 tensors)

module.data.weight f4 [20, 768]
0	0xbd450c02	-0.048107155
1	0xbda88245	-0.08227972
2	0xbc87e365	-0.016587922
3	0xbc563fc9	-0.013076731
4	0xbcbc13b6	-0.022958618
5	0xbd2666cc	-0.04062538
6	0x3d9acba4	0.075583726
7	0xbd5eb946	-0.05437591
8	0xbd474c43	-0.048656713
9	0xbcc08403	-0.023500448
10	0x3d9964d1	0.07489932
11	0x3d39d6e8	0.045370966
12	0xbd4f3d36	-0.050595485
13	0xbd37c05c	-0.044861183
14	0xbdb07c61	-0.086174734
15	0x3c850d42	0.016241673
16	0x3d8e6ca5	0.06954316
17	0xbc168740	-0.00918752
18	0x3d45aedc	0.048262462
19	0xbd29e0c9	-0.041474137
20	0xbdc4821e	-0.095951304
21	0x3da30d8d	0.07961569
22	0x3df977fd	0.12181089
23	0x3db11ddd	0.08648274
24	0x3d2e57fd	0.04256438
25	0xbd7120a0	-0.058869004
26	0x3d9eec98	0.077599704
27	0xbc9263ba	-0.017869819
28	0xbd2a5cb4	-0.041592315
29	0xbc10f866	-0.008848285
30	0x3a8184a1	0.0009881445
31	0xbc628fb1	-0.013828204
32	0x3caae1be	0.020859595
33	0xbd96e05b	-0.07367011
34	0x3d057f1f	0.032591935
35	0xbca808d3	-0.02051202
36	0x3d82ad6b	0.06380733
37	0xbd37a08c	-0.044830844
38	0xbccfb444	-0.025354512
39	0x3d65d313	0.0561095
40	0x3d70c1d8	0.058778614
41	0xbd497092	-0.04917962
42	0x3c8c8f1b	0.017158082
43	0xbc159b1f	-0.009131222
44	0xbd08d9db	-0.03341089
45	0xbdd99e68	-0.10625917
46	0xbc71e416	-0.014763853
47	0x3c4f5e94	0.0126568265
48	0x3d1bc0bd	0.038025606
49	0xbcb3fbe6	-0.0219707
50	0x3da576fd	0.08079336
51	0x3d164316	0.036685072
52	0x3dab35bf	0.08359861
53	0xbc9e32ef	-0.019311396
54	0x3c2976b0	0.010343239
55	0x3cc23b29	0.02370985
56	0xbd131722	-0.035910733
57	0x3c806a37	0.015675647
58	0x3bca977c	0.006182609
59	0x3d3dd932	0.04634971
60	0xbcf46d98	-0.029837415
61	0x3d6948a2	0.056954034
62	0x3d9e5ca9	0.07732517
63	0x3d13cff9	0.03608701
64	0xbd215238	-0.03938505
65	0xbd335a38	-0.04378721
66	0xbc0ade69	-0.008475878
67	0xbd25b60a	-0.04045681
68	0xbdc391de	-0.09549306
69	0x3cef9a45	0.029248366
70	0xbd42e81e	-0.047584645
71	0xbb07ce08	-0.002072217
72	0xbd9d4c8a	-0.07680614
73	0xbcc6261c	-0.024188094
74	0x3d7eadae	0.062177353
75	0xbd100338	-0.03515932
76	0xbc0039b3	-0.007826257
77	0x3ca6150e	0.020273712
78	0xbccf771d	-0.025325352
79	0x3d139207	0.036027934
80	0xbca9385c	-0.020656757
81	0xbd6a5bb9	-0.05721638
82	0x3ccba02c	0.02485665
83	0xbd5d2b60	-0.053996444
84	0x3cb3d1ea	0.02195068
85	0xba256a4c	-0.000631009
86	0x3cfc2136	0.030777555
87	0xbdb55459	-0.08853979
88	0x3c248c7a	0.010043258
89	0xbd1a9bfd	-0.03774642
90	0xbbb3cfa2	-0.0054873982
91	0xbd33cbd4	-0.043895558
92	0xbdbaed48	-0.09127289
93	0xbc890556	-0.016726177
94	0x3b43b555	0.002986272
95	0x3d1182a7	0.03552499
96	0x3d17ff9e	0.03710901
97	0xbc2b21e7	-0.010445095
98	0x3cbd0a7a	0.023076285
99	0xbd9bdaed	-0.07610116
100	0xbd52f30e	-0.051501326
101	0xbd2874a3	-0.04112686
102	0x3dcab795	0.09898297
103	0x3d9d0ae4	0.07668093
104	0xbd870c66	-0.06594162
105	0x3d0d8145	0.03454711
106	0xbd7f2911	-0.062295023
107	0x3d42b338	0.047534198
108	0xbb37549c	-0.0027974015
109	0xbc926c20	-0.017873824
110	0x3e19f300	0.15034103
111	0xba571e20	-0.0008206088
112	0x3d81b306	0.06332974
113	0xbcd27fdc	-0.025695734
114	0x3cb53e42	0.022124413
115	0xbe1f9674	-0.15584737
116	0xbcc03738	-0.02346383
117	0xb9b68292	-0.00034811028
118	0x3dd5854b	0.10425814
119	0x3c8db701	0.017299177
120	0x3ce77e6d	0.028258527
121	0xbb5b91cb	-0.0033503647
122	0x3de9f31a	0.11423321
123	0xbd0ca8cf	-0.034340676
124	0x3bc1b44e	0.0059113866
125	0xbd6adeed	-0.057341505
126	0x3d4e75cd	0.050405312
127	0xbc4fba73	-0.01267873
128	0x3c259005	0.010105138
129	0xbd30ed1a	-0.043194868
130	0xbc83a284	-0.016068704
131	0x3d03a995	0.032144148
132	0xbd005cc1	-0.031338457
133	0x3c3be486	0.011468058
134	0x3da14f99	0.0787651
135	0xbd312b6b	-0.043254297
136	0x3b6fc29a	0.0036584497
137	0xbd53c6d9	-0.051703308
138	0x3c6345f2	0.013871657
139	0x3d7d7667	0.061880495
140	0x3c48c3f4	0.01225375
141	0x3b9c0d89	0.0047623557
142	0x3d4b048a	0.049564876
143	0x3d6b5518	0.0574542
144	0xbcc57058	-0.024101421
145	0xbc19e971	-0.009394036
146	0x3d4f654c	0.050633714
147	0xbdb5b3fb	-0.08872219
148	0xbce4a048	-0.02790846
149	0xbbb44c8d	-0.0055022896
150	0x3d8999ab	0.06718763
151	0x3d331333	0.04371948
152	0xbd589c4e	-0.05288344
153	0xbd3a6a6f	-0.04551166
154	0x3d34f63a	0.044180132
155	0x3d2dabf3	0.04240031
156	0x3d59fda0	0.05322039
157	0x3d189d82	0.037259586
158	0xbd4d335c	-0.05009781
159	0x3c689ac0	0.0141970515
160	0x3dc02445	0.09381918
161	0x3c804909	0.015659826
162	0x3d053669	0.032522593
163	0xbd189a0f	-0.037256297
164	0xbd849083	-0.06472876
165	0x3d46e741	0.048560385
166	0xbd378bc0	-0.04481101
167	0xbd52b3b6	-0.051440917
168	0x3d8baaa3	0.06819656
169	0xbba9983d	-0.005175619
170	0x3d57895d	0.052621234
171	0x3d628728	0.055304676
172	0x3dab8cb9	0.0837645
173	0x3d1d1607	0.038351085
174	0x3dc6f328	0.09714347
175	0xbd81ac43	-0.063316844
176	0xbc71afbd	-0.014751372
177	0x3ce7e7d3	0.028308785
178	0x3cad1f76	0.021133166
179	0x3d056183	0.032563698
180	0xbca4d99d	-0.020123297
181	0xbcb5054d	-0.022097254
182	0x3ce45379	0.027871834
183	0x3b4da5d3	0.0031379357
184	0x3e00f792	0.1259444
185	0x3d810335	0.0629944
186	0x3d1732a4	0.03691353
187	0xbc461d37	-0.012091926
188	0x3cac25fb	0.021014204
189	0xbd6fba41	-0.058527235
190	0xbd191779	-0.0373759
191	0x3ce51d96	0.02796821
192	0x3db5ba83	0.08873465
193	0xbd724a20	-0.059152722
194	0x3c81d0e9	0.015846686
195	0xbb8472e0	-0.0040420145
196	0x3c9ade08	0.0189047
197	0xbdb09090	-0.08621323
198	0x3d2426f1	0.0400762
199	0xbd237980	-0.039910793
200	0xbc4c3e15	-0.012465973
201	0x3d6d4daf	0.057935413
202	0xbb8f4acc	-0.00437293
203	0xbd4041cc	-0.04693775
204	0xbd97d82e	-0.0741428
205	0x3c77584e	0.015096737
206	0x3d17d0d1	0.037064377
207	0x3c66f85b	0.0140972985
208	0xbc645dd8	-0.01393839
209	0x3c8d3ff7	0.017242415
210	0xbcfd131c	-0.030892901
211	0xbcf9eb2f	-0.030507652
212	0xbda95ea6	-0.08270006
213	0x3ce6fe9a	0.028197575
214	0xbc8c9ab9	-0.017163621
215	0x3db5b3a9	0.08872158
216	0x398d5348	0.00026955665
217	0x3d82bf17	0.06384104
218	0x3df2defb	0.118589364
219	0xbce7eb6b	-0.028310498
220	0x3d19c1fc	0.037538514
221	0xbd0f0945	-0.03492095
222	0x3cbfe4fc	0.023424618
223	0x3d3578ae	0.044304542
224	0xbd806069	-0.06268389
225	0xbce710ef	-0.028206317
226	0x3c6176b8	0.013761215
227	0xbc9ef2a1	-0.019402804
228	0xbc9bd4b3	-0.019022321
229	0x3b954b99	0.004556131
230	0x3c2edba1	0.010672481
231	0x3d1c25df	0.038122054
232	0xbd1404b8	-0.036137313
233	0x3d16cf09	0.036818538
234	0xbcaae67a	-0.020861853
235	0xbd4691fe	-0.048479073
236	0xbd680233	-0.056642722
237	0xbdc8b23b	-0.0979962
238	0x3d07df87	0.033172157
239	0xbc8d6c7b	-0.017263642
240	0x3bff3cb6	0.0077892197
241	0xbcbb1445	-0.022836814
242	0x3cd60ae3	0.026128238
243	0x3d6f8bc2	0.058482893
244	0x3d941f4a	0.072325304
245	0x3d9cec5b	0.07662269
246	0xbd8fd08a	-0.070221975
247	0xbda20bdd	-0.07912419
248	0xbda93ed1	-0.082639344
249	0x3d1ae34a	0.037814416
250	0x3c27285a	0.010202492
251	0xbc170614	-0.009217758
252	0x3bb575ff	0.005537748
253	0x3da36f93	0.079802655
254	0x3d021981	0.031762604
255	0x3d9b2ca5	0.07576875

exp_avg f4 [20, 768]
0	0xb926d2ae	-0.00015909478
1	0x3736a543	1.0886523e-05
2	0x3a3647ed	0.0006953467
3	0x38a08a60	7.655169e-05
4	0x38305cf3	4.2048236e-05
5	0x37f4f66d	2.9201818e-05
6	0xb80c5ee4	-3.3466975e-05
7	0x38dd920a	0.00010565303
8	0x382836f8	4.0105515e-05
9	0x375f1a1b	1.3297914e-05
10	0x38a65a94	7.932368e-05
11	0x379fbaab	1.9041201e-05
12	0xb6f66876	-7.343532e-06
13	0x386edaf2	5.694753e-05
14	0x37a38918	1.9494953e-05
15	0xb5c60d6f	-1.4756059e-06
16	0x377378d8	1.4512065e-05
17	0xba54ff55	-0.00081252056
18	0xba84fe9c	-0.001014668
19	0xb892be81	-6.9973066e-05
20	0x38d4cfd0	0.00010147656
21	0x3802cbb0	3.1184114e-05
22	0xb6066446	-2.0025923e-06
23	0xb8a20384	-7.725417e-05
24	0x37e7310b	2.7560183e-05
25	0xb9024e84	-0.00012427015
26	0x37438a0e	1.1655049e-05
27	0xb882a7b5	-6.230121e-05
28	0xb7f2b920	-2.8934854e-05
29	0x378c202c	1.6704282e-05
30	0x38b06dc6	8.412781e-05
31	0x37761f66	1.4670053e-05
32	0x3a8acc0a	0.0010589373
33	0xb818e4c8	-3.6452693e-05
34	0x3809fbf6	3.2898002e-05
35	0xb7e91695	-2.778628e-05
36	0x38e67615	0.00010989249
37	0xb8a60727	-7.916829e-05
38	0xb86a3203	-5.5836525e-05
39	0x37af3c81	2.08898e-05
40	0xb7d7f0a7	-2.574206e-05
41	0x37ceeaf8	2.466653e-05
42	0xb9ee6a1f	-0.00045473964
43	0x35616427	8.396477e-07
44	0xb80c2889	-3.3416352e-05
45	0x3af45dee	0.0018643716
46	0xb8f3b451	-0.000116207295
47	0x39e77fa6	0.0004415486
48	0xb86feb51	-5.7201196e-05
49	0x397186b3	0.0002303373
50	0x37d4de74	2.5375957e-05
51	0x3772017b	1.4424669e-05
52	0x38fa27fa	0.00011928375
53	0xba64d749	-0.000872959
54	0xb815d45a	-3.5722136e-05
55	0xb8decd80	-0.00010624062
56	0x39290d5c	0.00016122073
57	0x356fdfb7	8.9359986e-07
58	0xb8843de7	-6.305781e-05
59	0xb8941222	-7.0605674e-05
60	0xb90a8d3e	-0.00013213322
61	0xb8820968	-6.200635e-05
62	0xba0405a4	-0.0005036241
63	0x380a2384	3.293484e-05
64	0xb8408ea5	-4.5909215e-05
65	0x3825e1cd	3.954936e-05
66	0x39423fcc	0.00018525048
67	0x364f9e28	3.0937463e-06
68	0x3a810dd5	0.0009846041
69	0xb7bb1b81	-2.2304945e-05
70	0x39c0825a	0.00036718213
71	0x39ce26d6	0.00039320317
72	0x392a993b	0.00016269546
73	0xb651ec85	-3.12811e-06
74	0xb7a0d0f5	-1.917079e-05
75	0xb8519486	-4.9967806e-05
76	0x360626fa	1.9990243e-06
77	0xb8b76d49	-8.746476e-05
78	0x3924a0da	0.0001570018
79	0xb8272ed8	-3.985953e-05
80	0xb88c0763	-6.677096e-05
81	0x38c9361a	9.594504e-05
82	0xb80e26b8	-3.3891498e-05
83	0x38802474	6.1103055e-05
84	0xb8260ec7	-3.9591247e-05
85	0xb85d7702	-5.280134e-05
86	0xb8b66e24	-8.6989516e-05
87	0xb8de0375	-0.00010586429
88	0xb5eb2596	-1.7519803e-06
89	0xb9e5d33a	-0.0004383566
90	0x399a8ae5	0.00029476653
91	0x340da064	1.3189998e-07
92	0x384d342d	4.89244e-05
93	0x3849b1aa	4.8087597e-05
94	0x387dbaee	6.0493992e-05
95	0x3913b46f	0.00014086229
96	0x39404efa	0.00018339968
97	0x3928bcf2	0.00016092116
98	0x372c90e8	1.02857375e-05
99	0x37dfd40e	2.6682417e-05
100	0xb91880d4	-0.00014543842
101	0x386ef03e	5.6967365e-05
102	0xb98ab614	-0.0002645707
103	0xb8aea08c	-8.326871e-05
104	0xb59737a0	-1.1266566e-06
105	0x3789db49	1.6433785e-05
106	0x3695eec0	4.46834e-06
107	0x3b00fa12	0.0019680304
108	0x38ad28e9	8.256903e-05
109	0x399c4172	0.000298034
110	0xb92dd451	-0.0001657766
111	0xb95f773f	-0.0002131136
112	0xb78dca9d	-1.6902859e-05
113	0x3881de54	6.192611e-05
114	0x37ece80c	2.8241448e-05
115	0xb9d13e9f	-0.00039910243
116	0xba28f6db	-0.0006445476
117	0xb785ff48	-1.597371e-05
118	0x376ea77d	1.4224902e-05
119	0xb7b8d35e	-2.2032935e-05
120	0xb7604828	-1.3368241e-05
121	0xb8a26e83	-7.7453464e-05
122	0xb8b4daeb	-8.6238455e-05
123	0xb7198539	-9.150529e-06
124	0x3b218073	0.0024643212
125	0x3727a775	9.992965e-06
126	0x37c459cf	2.3406841e-05
127	0xb8209e2f	-3.8294293e-05
128	0xba883185	-0.0010390735
129	0xb90999ae	-0.00013122588
130	0x37f0ea93	2.8719462e-05
131	0x37a8defb	2.0130994e-05
132	0x376f6f94	1.4271489e-05
133	0x39b54342	0.0003457312
134	0x37c4cb5b	2.3459716e-05
135	0x39fee1c2	0.00048614858
136	0xb978f205	-0.00023741282
137	0xb6893be9	-4.0898926e-06
138	0xb8a473cb	-7.8416975e-05
139	0x385d3d1f	5.274743e-05
140	0x38c852ad	9.552143e-05
141	0xb818f2d1	-3.6465764e-05
142	0x3a9d9246	0.0012021742
143	0x3a284f40	0.00064205006
144	0xb8e151ed	-0.00010744096
145	0xb90ee85c	-0.00013628736
146	0xb91b769b	-0.00014826136
147	0x386598c0	5.4740114e-05
148	0x38929ed7	6.991409e-05
149	0x37d6d6f7	2.5610889e-05
150	0x31f8f7c1	7.2459163e-09
151	0x351fb516	5.949563e-07
152	0x388e14df	6.774975e-05
153	0x381782c9	3.612301e-05
154	0x371a5337	9.19849e-06
155	0x3814434c	3.5348625e-05
156	0xb7e7c633	-2.762964e-05
157	0x380ef6b9	3.4085217e-05
158	0x3719b3d2	9.161378e-06
159	0x38e76533	0.00011033788
160	0xb9f85a9e	-0.0004736976
161	0xb7d0a39e	-2.4871722e-05
162	0xb88f89ed	-6.844462e-05
163	0x37f4fb46	2.9204075e-05
164	0x3b1027aa	0.0021996298
165	0xb8917205	-6.9353766e-05
166	0xba726ae5	-0.0009247496
167	0xb82d7285	-4.135307e-05
168	0x389720a6	7.206322e-05
169	0xb82bba2e	-4.094297e-05
170	0xb8da5db5	-0.00010412504
171	0xb63bd960	-2.79917e-06
172	0xb74a4ea4	-1.2058448e-05
173	0x354c2b01	7.60585e-07
174	0xb805b23b	-3.187566e-05
175	0xb8691002	-5.5566437e-05
176	0xb9e5a561	-0.000438015
177	0x382198b8	3.852762e-05
178	0x381320c0	3.5078032e-05
179	0xb8a86bec	-8.030966e-05
180	0xb80c566d	-3.345909e-05
181	0xb71fe0f9	-9.529519e-06
182	0xb88df2a0	-6.768596e-05
183	0xb9a6c2ac	-0.0003180703
184	0x388bb72c	6.662155e-05
185	0x37c65ded	2.3647177e-05
186	0xbba9d64c	-0.005183017
187	0x39978e2f	0.000289069
188	0x37d6b657	2.5595697e-05
189	0x382b2bd1	4.0810384e-05
190	0x38927fc1	6.9856185e-05
191	0x3816699a	3.5861136e-05
192	0x388fa297	6.849056e-05
193	0xb9707219	-0.00022930688
194	0x3906af4e	0.00012844542
195	0xb884bc8a	-6.3293686e-05
196	0xb5537e8d	-7.878778e-07
197	0x3695db87	4.4661024e-06
198	0xb6cb9d61	-6.0681928e-06
199	0xb9d2d040	-0.0004020948
200	0x391517f6	0.00014218673
201	0x3aaae3d1	0.0013037865
202	0x383039aa	4.2015374e-05
203	0x38a13498	7.6868746e-05
204	0x39e72690	0.00044088485
205	0xb98d70f5	-0.00026977775
206	0xb8a324e0	-7.779314e-05
207	0x37b0836a	2.104203e-05
208	0x3742112d	1.15673e-05
209	0xb987ee0c	-0.00025926565
210	0x3784ecf6	1.584597e-05
211	0xb821d0b1	-3.857975e-05
212	0xb5d37f9c	-1.5757864e-06
213	0xb78738ff	-1.6119795e-05
214	0x37d376d8	2.5208501e-05
215	0xb81f06a2	-3.791473e-05
216	0xb6d88522	-6.4528003e-06
217	0xb94de051	-0.00019633888
218	0x35e5d8df	1.7124947e-06
219	0x393f43a4	0.00018240378
220	0x38a3352e	7.782351e-05
221	0xb88a8c22	-6.6064546e-05
222	0x34ceef2a	3.8544505e-07
223	0xb706de57	-8.03879e-06
224	0x348864d9	2.540535e-07
225	0xb7afb536	-2.0946009e-05
226	0x393c3a19	0.0001795072
227	0xb983bf27	-0.00025128687
228	0xb7e35e77	-2.7104497e-05
229	0x38a8d082	8.049702e-05
230	0xb70b25f4	-8.293882e-06
231	0xb8808a40	-6.129267e-05
232	0xb86734f9	-5.5124026e-05
233	0xb4fc6913	-4.701511e-07
234	0xb88c636b	-6.694238e-05
235	0x3b0b7cd3	0.0021284118
236	0x39f0f967	0.00045962186
237	0xb8f12af8	-0.00011499779
238	0x351b74a3	5.791173e-07
239	0xb88a098f	-6.582133e-05
240	0xb8c385b2	-9.323227e-05
241	0x35f2871c	1.8069727e-06
242	0xb82ddded	-4.14531e-05
243	0x381bde75	3.716206e-05
244	0x39dc9bce	0.00042077753
245	0x382c0e59	4.1021358e-05
246	0xb6ad1b0c	-5.1589504e-06
247	0xb895f0c0	-7.149717e-05
248	0x39067b90	0.00012825266
249	0x35993c2d	1.1416902e-06
250	0xba14ee3e	-0.0005681253
251	0xb740e14b	-1.1496547e-05
252	0x38084e97	3.249812e-05
253	0xb817576c	-3.6082623e-05
254	0xb899305b	-7.3046154e-05
255	0xb8040ab8	-3.1481235e-05

exp_avg_sq f4 [20, 768]
0	0x36c61e32	5.904375e-06
1	0x3582a54e	9.733865e-07
2	0x38015cf4	3.0842566e-05
3	0x355a0ffa	8.123458e-07
4	0x3610656b	2.1516705e-06
5	0x35fb17c1	1.8707871e-06
6	0x3695466f	4.4487456e-06
7	0x375a5f95	1.3016067e-05
8	0x35b493c4	1.345405e-06
9	0x3602db0e	1.9499016e-06
10	0x3660d2f8	3.35014e-06
11	0x353ad196	6.959539e-07
12	0x353ff561	7.151012e-07
13	0x3744c65e	1.1728696e-05
14	0x355d4be6	8.243936e-07
15	0x35db823d	1.6354676e-06
16	0x3551c46d	7.8144404e-07
17	0x381f1815	3.7930982e-05
18	0x383e386e	4.5352084e-05
19	0x3573b8b0	9.079331e-07
20	0x3620ca92	2.395977e-06
21	0x36984572	4.5380375e-06
22	0x358e9039	1.0621799e-06
23	0x35505ff9	7.7625697e-07
24	0x362c33db	2.566018e-06
25	0x3690656e	4.3033424e-06
26	0x35828b10	9.726227e-07
27	0x35832f2b	9.773988e-07
28	0x359d4d35	1.1719882e-06
29	0x3605c0d0	1.9930776e-06
30	0x35a773aa	1.2476132e-06
31	0x35794452	9.285915e-07
32	0x37f98ab3	2.97477e-05
33	0x359afb22	1.1546983e-06
34	0x368f9450	4.278998e-06
35	0x357aa248	9.336841e-07
36	0x35805a78	9.563073e-07
37	0x35696e68	8.6959926e-07
38	0x35b94fb9	1.3806776e-06
39	0x357b07c4	9.3516087e-07
40	0x3509d6e9	5.134921e-07
41	0x355ab4f5	8.1474656e-07
42	0x37601b6b	1.3357824e-05
43	0x3585714f	9.942249e-07
44	0x353ec36c	7.106489e-07
45	0x372d0811	1.0313482e-05
46	0x35dc198a	1.639871e-06
47	0x37b66a76	2.1745665e-05
48	0x362fc9bc	2.6194457e-06
49	0x36397e8e	2.7640813e-06
50	0x35a7d791	1.2505208e-06
51	0x356f6f85	8.919672e-07
52	0x359ed286	1.1833188e-06
53	0x36d2858d	6.274035e-06
54	0x355ed695	8.30137e-07
55	0x3858b7ec	5.1669704e-05
56	0x36f16e7b	7.1952213e-06
57	0x35ef504b	1.7830256e-06
58	0x35d8bd4c	1.6148347e-06
59	0x370c74e8	8.37187e-06
60	0x359f8f7b	1.1888181e-06
61	0x36e91b29	6.947103e-06
62	0x36bea57a	5.6817053e-06
63	0x3638c2fe	2.7531637e-06
64	0x35bf3e40	1.4248726e-06
65	0x36cb676b	6.061911e-06
66	0x35ccc29f	1.5255827e-06
67	0x3789ee3f	1.6442615e-05
68	0x382e1d06	4.1511863e-05
69	0x35759603	9.148791e-07
70	0x37b16ceb	2.1150763e-05
71	0x36c30820	5.8123987e-06
72	0x35b5b4fe	1.3538227e-06
73	0x350e41f4	5.2995097e-07
74	0x35866b55	1.0015016e-06
75	0x354ea42d	7.697989e-07
76	0x357e2746	9.4679524e-07
77	0x359d4196	1.17165e-06
78	0x35f9251f	1.8562749e-06
79	0x35acc526	1.2872376e-06
80	0x359e3482	1.1787199e-06
81	0x362a113c	2.5342006e-06
82	0x358d9419	1.0548421e-06
83	0x354ca5b4	7.623705e-07
84	0x36f8067c	7.391731e-06
85	0x35f678ef	1.8363625e-06
86	0x36239f74	2.4381707e-06
87	0x357b61a7	9.364689e-07
88	0x350a7920	5.1585266e-07
89	0x37ebf1ea	2.8126833e-05
90	0x36b67796	5.4379443e-06
91	0x351f35cd	5.9310406e-07
92	0x357d81e4	9.443886e-07
93	0x3573d8f2	9.084025e-07
94	0x3549b00f	7.5134534e-07
95	0x36e52a94	6.8296886e-06
96	0x3627f82c	2.5029394e-06
97	0x36bfac49	5.7123e-06
98	0x3549aceb	7.5129964e-07
99	0x3664c29b	3.4087923e-06
100	0x36e1a9c7	6.725287e-06
101	0x36176e98	2.2565127e-06
102	0x36df076a	6.646781e-06
103	0x35829e7e	9.731882e-07
104	0x3518b87d	5.689288e-07
105	0x358bbd77	1.0411449e-06
106	0x353a0123	6.9292054e-07
107	0x38259d66	3.9485654e-05
108	0x359739e2	1.1267223e-06
109	0x37805ebc	1.5302903e-05
110	0x3667bc39	3.4531242e-06
111	0x364a7a49	3.0171525e-06
112	0x362a4334	2.5371091e-06
113	0x35849ade	9.879839e-07
114	0x356f1c25	8.9075394e-07
115	0x369ca91a	4.6688483e-06
116	0x37046d15	7.893211e-06
117	0x361c8965	2.3325786e-06
118	0x354672f7	7.3928044e-07
119	0x359aceec	1.1534116e-06
120	0x356daab9	8.8537814e-07
121	0x35d63f41	1.5962652e-06
122	0x35b50498	1.3486888e-06
123	0x36314655	2.6415994e-06
124	0x37d8ea4e	2.5858313e-05
125	0x3628760f	2.510267e-06
126	0x37023c4a	7.762641e-06
127	0x3590c58e	1.0786332e-06
128	0x37d32a94	2.5172987e-05
129	0x37c8ab7f	2.3921717e-05
130	0x359703fd	1.1251537e-06
131	0x38112615	3.460616e-05
132	0x34f5b354	4.5765285e-07
133	0x3694eb83	4.438161e-06
134	0x35884662	1.0153274e-06
135	0x36ff5278	7.609193e-06
136	0x36dc540a	6.5662944e-06
137	0x35d3e1ef	1.578648e-06
138	0x35fdcd56	1.890973e-06
139	0x3651a001	3.1236561e-06
140	0x367fe7fd	3.8132996e-06
141	0x36b8cc7d	5.507433e-06
142	0x38dcef4a	0.000105349885
143	0x3702ffb0	7.808136e-06
144	0x370085d2	7.660552e-06
145	0x360eca80	2.127752e-06
146	0x3589a313	1.0254756e-06
147	0x359adffc	1.1539082e-06
148	0x35542a8d	7.9038074e-07
149	0x36d5a00d	6.366527e-06
150	0x37066b83	8.012054e-06
151	0x35b3e97b	1.3404491e-06
152	0x35c0a82f	1.4354063e-06
153	0x3561a681	8.4061327e-07
154	0x35945cd9	1.1053882e-06
155	0x3565bfae	8.558808e-07
156	0x36045f30	1.972494e-06
157	0x370332f1	7.820069e-06
158	0x35bf2c65	1.424353e-06
159	0x35eef020	1.7802267e-06
160	0x3755c84c	1.2742425e-05
161	0x353149ea	6.60452e-07
162	0x36741bb1	3.6374952e-06
163	0x35c961b7	1.5004106e-06
164	0x384d6f31	4.8979364e-05
165	0x370efb66	8.522393e-06
166	0x3819a97c	3.6635887e-05
167	0x3511a315	5.4254025e-07
168	0x3533acf8	6.69344e-07
169	0x3633d1bb	2.6795158e-06
170	0x350b506c	5.1898564e-07
171	0x35800a3c	9.539722e-07
172	0x3780e12d	1.5363645e-05
173	0x361ad81f	2.3073587e-06
174	0x366037f6	3.3411175e-06
175	0x3581092c	9.613918e-07
176	0x3688ad74	4.0733084e-06
177	0x3511854f	5.42107e-07
178	0x35729c11	9.037913e-07
179	0x358a75c8	1.031608e-06
180	0x35b0b143	1.3164612e-06
181	0x35c80350	1.4902125e-06
182	0x370d9c15	8.440596e-06
183	0x36296df9	2.5246975e-06
184	0x35222a8a	6.0411605e-07
185	0x3563b27a	8.482381e-07
186	0x38834914	6.2601786e-05
187	0x36a71b6e	4.980181e-06
188	0x35a0c7e7	1.1979108e-06
189	0x354b3cd5	7.5711915e-07
190	0x35dd5af5	1.6492255e-06
191	0x370b3584	8.297506e-06
192	0x35698127	8.6987205e-07
193	0x361c1f44	2.326401e-06
194	0x37402dbc	1.145474e-05
195	0x36b3b650	5.3558397e-06
196	0x35a2f80d	1.2142133e-06
197	0x35118ebb	5.422441e-07
198	0x3565f48c	8.566501e-07
199	0x3715408c	8.896121e-06
200	0x3591057c	1.0804938e-06
201	0x37c1878e	2.3070515e-05
202	0x35df4078	1.6633558e-06
203	0x367b6dec	3.7465898e-06
204	0x37c0c0a1	2.2977883e-05
205	0x3806d671	3.2147804e-05
206	0x35f046c3	1.7901988e-06
207	0x36197357	2.2865913e-06
208	0x3580b0f8	9.588248e-07
209	0x36a45840	4.8978545e-06
210	0x358901fb	1.0207872e-06
211	0x358f8145	1.0691953e-06
212	0x3589b357	1.025949e-06
213	0x35b7f25b	1.3705097e-06
214	0x3588e93d	1.0200671e-06
215	0x357c13cb	9.390612e-07
216	0x35c8ee8f	1.4970591e-06
217	0x36683dff	3.460678e-06
218	0x35578739	8.0290516e-07
219	0x35cdca13	1.5332502e-06
220	0x3555ed19	7.9693706e-07
221	0x35b90f33	1.3787998e-06
222	0x35a2b958	1.2123883e-06
223	0x358337f6	9.776547e-07
224	0x3559a651	8.108082e-07
225	0x362a2a89	2.5356733e-06
226	0x35dfdf9e	1.6679876e-06
227	0x390c9193	0.00013405671
228	0x3592298e	1.0889942e-06
229	0x36570c47	3.2044643e-06
230	0x36b4073e	5.365261e-06
231	0x3564a889	8.518187e-07
232	0x3597baf2	1.1304785e-06
233	0x35823191	9.70018e-07
234	0x379d7745	1.8771398e-05
235	0x37b82223	2.1950405e-05
236	0x385298d7	5.0210245e-05
237	0x36204044	2.3879265e-06
238	0x35c88ef5	1.4942767e-06
239	0x35a06fc0	1.1953452e-06
240	0x354e23ee	7.6793265e-07
241	0x353a8819	6.948845e-07
242	0x353bb814	6.99308e-07
243	0x35601ba6	8.3486736e-07
244	0x36f4c13b	7.2942616e-06
245	0x3581a887	9.660297e-07
246	0x362ea8e9	2.602634e-06
247	0x34fd7ea6	4.721707e-07
248	0x354c0a28	7.60107e-07
249	0x35ad3005	1.290348e-06
250	0x374539cb	1.1755571e-05
251	0x36b92fa9	5.518978e-06
252	0x359553fc	1.1125808e-06
253	0x35952d27	1.1114506e-06
254	0x3681ed77	3.872144e-06
255	0x35856d0e	9.941011e-07
