SmallD_SDD_up_to_step2/grad_save_init_IPC_5_no_curr_unroll_20mrpc_mlp_ipc5_w20_seed0.pth (torch, 95104 bytes, 3 tensors)

module.data.weight f4 [10, 768]
000000 0c 19 61 bd d0 a8 5a bd 74 d9 01 bd 71 a7 22 3d
       -0.054955527 -0.05338365 -0.03170152 0.039710466
000010 33 cc 15 bd 68 10 a6 bc 03 a9 b9 3c be 7f 2a 3c
       -0.036571693 -0.020271495 0.022663599 0.010406433
000020 2d 5a a5 bc c6 b5 54 3c 7e 67 9e bd c5 52 6d bb
       -0.0201846 0.012982791 -0.07734583 -0.0036212665
000030 83 71 ce bb 5c 9c 39 bd 45 41 92 3d bb 0e 87 3d
       -0.0063001527 -0.04531513 0.071413554 0.065946065
000040 2a a5 ad 3c 96 7e c4 bd 6a d3 0b bc 3b 3a 53 bd
       0.02119692 -0.09594457 -0.008534292 -0.051569205
000050 16 17 d1 3c 61 a2 e1 bc aa 41 f3 3c 69 58 e0 3c
       0.025523704 -0.027543249 0.029694397 0.027385907
000060 ba 12 d4 bc 53 ba 11 3d db 7b 84 3d 69 bc 46 3d
       -0.025887836 0.035578083 0.06468936 0.048519526
000070 10 89 27 bd 2d 4b 1f bd f4 d2 ff bc 0a c1 13 3b
       -0.040902197 -0.038890053 -0.03122852 0.002254548
000080 c0 fb 29 3c 3d c8 af bd 09 67 f1 bc 6b 8e 57 bb
       0.010374963 -0.08583114 -0.029468076 -0.0032891284
000090 89 bb 26 bd 8b 63 8f 3b b3 dc 61 3d c4 ec 51 3d
       -0.04070619 0.00437588 0.055142116 0.051251188
0000a0 28 e2 9d bb 25 a6 47 3d ee 6f 8e bc 1c dc 18 3e
       -0.0048182197 0.048742432 -0.017387357 0.14927715
0000b0 05 9a f5 bc 03 4e b6 3c bb 2c 52 bd 0f 61 c4 3d
       -0.029980669 0.022253996 -0.05131219 0.09588825
0000c0 cd 01 f3 bc 72 1f 47 bd bc 1c 24 be e1 e6 2c bc
       -0.029663945 -0.048613973 -0.16026586 -0.010553093
0000d0 0b ed 85 bc 74 b7 f3 3c 9a 4d 97 3d 52 71 17 bd
       -0.016348382 0.029750563 0.07387848 -0.036973305
0000e0 fc 27 68 3d f5 0c 8b 3d bb 47 f3 3c a2 56 67 bc
       0.056678757 0.06789581 0.02969729 -0.014119776
0000f0 b3 b5 12 bc 09 d7 99 3d 87 73 28 bd 2d a3 6c 3c
       -0.008954453 0.07511718 -0.0411258 0.014443201
000100 58 bf df bd 92 d6 d5 bc 6a 76 2f 3c ad 6a b6 bd
       -0.10925168 -0.026103292 0.010709384 -0.089070655
000110 a1 30 b7 bc 7d 8c 3a bd e0 d9 a0 3d e7 fc bd bb
       -0.022362055 -0.045544136 0.07854056 -0.0057979706
000120 9e 67 2c 3c 57 fd 52 bd f2 ef f4 bc d0 37 39 bd
       0.010522751 -0.051511135 -0.029899571 -0.045219243
000130 ef 57 c3 bc 6c ab 21 3d b3 3e 29 3c 9f 7d 05 bd
       -0.023845641 0.03947012 0.01032989 -0.032590505
000140 8b 57 db 3d bf cf 21 3d 3e f0 66 3c 0e 9b 1c bd
       0.10710057 0.039504763 0.014095364 -0.03823381
000150 ff e7 17 bd 12 54 10 bd f7 6d b2 3d 05 29 28 bd
       -0.037086483 -0.035236426 0.087123804 -0.041054744
000160 c5 01 00 3d 67 35 cb 3c 1c 5b a8 bc 2f 15 04 3d
       0.031251688 0.024805738 -0.020551257 0.032246765
000170 39 25 26 bd 86 a7 fb bc 3d a9 a3 bc 8f b5 b2 3c
       -0.040562842 -0.03071953 -0.01997816 0.02181509
000180 b2 fe d4 3b 44 0f eb bc b2 48 e7 3c a5 53 91 3c
       0.0065000886 -0.028693803 0.028232906 0.01774008
000190 1f 59 e7 3b 5c 7d 9d bc 72 9a 1c 3d 95 de 12 3c
       0.0070601846 -0.019224815 0.038233228 0.0089642005
0001a0 70 b2 06 bd e4 f3 1d 3c e4 4a da bd 3f 8d ae bc
       -0.032885015 0.009640668 -0.106588155 -0.021307586
0001b0 2a bd cc bc c0 05 8e 3c cf 9d 80 3d 8f b8 e5 3c
       -0.024992544 0.017336726 0.062800996 0.028042106
0001c0 ec 6c 8d 3d 79 76 ee bb 54 77 3e 3d 90 ed 90 bc
       0.06905541 -0.0072773066 0.04650052 -0.017691404
0001d0 2b c1 ea 3c df 49 d8 bc 5b 1f f9 3d 0a 5e 23 bd
       0.028656563 -0.026402412 0.12164184 -0.039884605
0001e0 b2 6f 64 3d 9f 03 ca bc 02 27 ba 3d 99 5b 13 bd
       0.055770583 -0.02465993 0.090894714 -0.035976026
0001f0 3a d8 24 bc c3 8e ea bd 3f 7d 0a bc 94 d9 0f bd
       -0.010061318 -0.11453011 -0.008452713 -0.035119608
000200 d8 8a d2 bb 6d 7e 60 3d f4 06 c3 3c cf 3d 17 39
       -0.006425243 0.05480807 0.023807026 0.00014423508
000210 ab aa d7 bc 0a d3 e0 bd 35 16 af bd 11 28 14 3d
       -0.026326498 -0.109777525 -0.085491575 0.036171023
000220 d7 25 f1 bc eb dd 4f 3c b9 dd 03 3d 44 2a 1c bd
       -0.029436989 0.012687187 0.032193873 -0.038126245
000230 ec d8 b5 3d fa 57 1f bc 6e a7 24 3e b0 6d ee bc
       0.08879265 -0.009725565 0.16079494 -0.029105037
000240 86 aa 0b 3d e9 cf ce bc 87 fb 8a 3d 1b 49 f7 3d
       0.03409817 -0.025245624 0.06786256 0.12074491
000250 50 44 69 bd 71 cd 2f bb 0a 8c b2 bc 19 6b e6 bc
       -0.056949914 -0.0026825333 -0.021795291 -0.02812724
000260 12 5d 1f bd 76 c6 cf bc 53 e5 d2 3c 19 89 73 bd
       -0.03890712 -0.025363188 0.025744116 -0.05945692
000270 10 54 86 b9 ce c3 8e 3d f3 d3 88 bc bd 23 47 3d
       -0.00025621103 0.069709405 -0.016702628 0.048618067
000280 92 b0 21 3d 7e 8c d1 3c 6a 68 a6 bd 0c b9 0b bd
       0.03947503 0.025579687 -0.08125384 -0.03411202
000290 85 5d 88 3d 81 f5 b9 bc 80 82 b7 bb af db 59 3c
       0.066584624 -0.022700073 -0.0056002736 0.013297006
0002a0 23 33 8e bd 4b f7 18 be 3e 0a 33 bc 91 93 06 3d
       -0.06943347 -0.14938085 -0.010927735 0.032855574
0002b0 49 68 4c 3c 73 fd ae 3d 51 2e c0 3d f0 b8 c3 bc
       0.012476035 0.08544435 0.09383834 -0.023891896
0002c0 6b 18 56 bd be d9 a6 bc 32 d8 86 3d 6d 67 18 bb
       -0.05226938 -0.0203675 0.06584205 -0.0023255006
0002d0 4a c9 9e 3d 3d 95 b1 3c 78 54 20 bd bd 92 22 bc
       0.077532366 0.021677608 -0.039143056 -0.00992268
0002e0 bb 34 c7 3c 21 1c 27 bd ca f4 bf bd db 72 1f bd
       0.024317136 -0.04079831 -0.09372862 -0.038927894
0002f0 ed 5a 99 bc 18 36 27 3d 7c b7 ca bc f8 e0 83 3c
       -0.018720115 0.040823072 -0.024745695 0.016098484
000300 bb bc d1 3c 3d 28 0a bd ab a8 9f bd ac c6 60 bd
       0.025602689 -0.03372978 -0.07795843 -0.05487697
000310 f6 a2 cb bd b4 97 cb bc 84 b9 74 bc ed 64 b1 3d
       -0.09943192 -0.024852611 -0.0149368085 0.08661828
000320 08 64 e5 3c e3 9a 85 bd d8 d7 cc 3c f7 19 66 3d
       0.0280018 -0.06523683 0.025005266 0.056177106
000330 32 dc bf bc bb d6 97 bd db aa 28 3d d5 da 1a 3d
       -0.023420427 -0.074140035 0.041178565 0.03780635
000340 d9 e7 ec 3c e2 4e c2 bb e6 7b e2 bc 41 77 85 bc
       0.028919147 -0.0059298137 -0.02764697 -0.016292216
000350 37 7b d3 bb 93 60 87 3c 6d a9 a3 bd 36 41 c5 3c
       -0.0064538973 0.016525542 -0.079913 0.024078947
000360 5d 82 2e 3d 8f c2 de 3c 43 71 76 bd dc 8f 0a bd
       0.042604793 0.027192382 -0.06016661 -0.0338286
000370 93 04 7e 3c dd dd 1b be 25 d8 8c 3c da 0b 6f 3d
       0.01550402 -0.15221353 0.01719291 0.058360912
000380 52 cb 28 bc 45 64 84 3c 25 3b 3d bc 3c 2d 60 bd
       -0.010302382 0.016161093 -0.011549746 -0.05473064
000390 e7 bd d3 bd 19 d7 ed bb a0 98 1e bd c9 37 f5 3c
       -0.103389554 -0.0072583077 -0.038719773 0.029933827
0003a0 42 bf 3e 3c eb d8 9a bd 86 c4 29 bc 43 fb 7b 3c
       0.011642279 -0.07560905 -0.010361796 0.01537973
0003b0 02 68 d3 3d 63 04 b0 bb ea 1d de 3d cf ff 7b 3d
       0.10322572 -0.0053716167 0.108455494 0.061523255
0003c0 1d e6 a4 bc e3 0d 93 bd 5a e7 0d 3c 93 a7 f5 bc
       -0.020129258 -0.07180383 0.008661116 -0.029987132
0003d0 a5 3f 5f 3d 7a ec a7 3d e1 44 eb bc 1f db e8 bc
       0.054504056 0.08199401 -0.028719367 -0.028424798
0003e0 50 45 c7 bc 00 09 d2 bb 9a 2f 7c bc 73 94 9f 3c
       -0.024325043 -0.0064097643 -0.0153922085 0.019479966
0003f0 d6 2c c4 3d 40 13 94 3d 89 e3 78 bc 3f 55 01 3d
       0.09578864 0.07230234 -0.015190967 0.031575438

exp_avg f4 [10, 768]
000000 df 5f d8 b7 56 aa 00 38 12 91 74 37 82 2f 85 b9
       -2.579385e-05 3.0676216e-05 1.457731e-05 -0.00025403133
000010 22 c8 97 3a 31 b2 a2 b8 34 96 a6 38 fc 9d 01 39
       0.001158003 -7.757953e-05 7.943474e-05 0.00012361252
000020 8c 3a 29 37 c8 cc 76 b8 a1 4f 05 b9 e8 d1 1b b9
       1.00868165e-05 -5.8841688e-05 -0.00012713532 -0.00014860148
000030 38 aa 1e b9 a7 c8 92 36 0c 4e f8 39 6f ff 83 b8
       -0.00015131466 4.374498e-06 0.00047360396 -6.294145e-05
000040 0f b2 0a bb 7a aa a1 b9 63 45 f0 39 61 b9 00 b7
       -0.002116326 -0.00030835328 0.00045828064 -7.672556e-06
000050 5a 71 2e 38 44 f2 cc b9 e7 05 ac 37 27 dd 55 b8
       4.15904e-05 -0.00039090414 2.0506746e-05 -5.098912e-05
000060 9e 80 a2 b8 90 e7 b9 38 ea 37 2c 39 5d a6 c4 39
       -7.748719e-05 8.864619e-05 0.00016424028 0.00037507984
000070 70 c4 fa b6 cc ff 5a ba 8e 4f 7b 36 ce 0c 51 b9
       -7.473449e-06 -0.0008354157 3.7448222e-06 -0.00019936563
000080 b3 5c 73 b7 75 6a 2c b9 6c 54 74 39 a5 d3 5a b9
       -1.4505512e-05 -0.00016442857 0.00023301103 -0.00020868944
000090 bb af 9d b8 10 aa 1b b9 ba 23 11 b7 a8 ad b1 b7
       -7.519076e-05 -0.00014845305 -8.650992e-06 -2.118091e-05
0000a0 29 10 8e b8 fd cf 37 38 e0 63 fa 37 f3 dc 21 b8
       -6.774098e-05 4.3824304e-05 2.984883e-05 -3.8591166e-05
0000b0 fc 49 eb b7 a8 d9 d8 b9 87 ed 68 b8 e7 cf c4 b7
       -2.8048635e-05 -0.00041360897 -5.5534325e-05 -2.3461833e-05
0000c0 33 4a db 36 6c 9e ec b8 bc 54 38 b8 23 4d cd b9
       6.5353465e-06 -0.00011282865 -4.3947934e-05 -0.00039158118
0000d0 fd c4 af 39 f3 f7 d9 37 3e fb 95 b8 95 75 16 b9
       0.0003352537 2.5983876e-05 -7.151671e-05 -0.00014348917
0000e0 78 05 e5 37 93 58 d5 36 a0 a4 b8 37 3c 43 1c b8
       2.7301474e-05 6.358206e-06 2.2011169e-05 -3.7255915e-05
0000f0 4f 3e 10 b9 a0 55 9b 38 7b 49 84 b8 c2 38 ae b8
       -0.00013756122 7.406925e-05 -6.307937e-05 -8.3075385e-05
000100 b4 e8 0c b7 54 eb 7f 39 33 f1 d6 b8 3a 99 f7 b7
       -8.398831e-06 0.00024406362 -0.00010249242 -2.9516046e-05
000110 ef 35 0b b9 da d6 34 b8 5a 53 2c b9 4a f6 b7 37
       -0.00013276165 -4.311544e-05 -0.00016434249 2.1929987e-05
000120 81 39 5e 3a 26 1d 24 b7 18 7b bf b9 45 e1 14 b8
       0.00084771967 -9.781948e-06 -0.0003652207 -3.549575e-05
000130 39 a1 93 b7 e1 70 65 38 b5 13 f1 39 d1 87 c9 b9
       -1.759884e-05 5.470298e-05 0.00045981785 -0.000384389
000140 74 6d 84 38 87 bb 47 3a 3e 66 5f b9 18 b0 e6 b7
       6.314638e-05 0.00076191913 -0.00021305025 -2.7500137e-05
000150 4f aa a6 38 da e5 c0 39 ba 8f d2 b7 4e 79 82 39
       7.947219e-05 0.00036792347 -2.5100879e-05 0.0002488591
000160 04 db c5 37 4d da 37 37 74 e7 77 b8 b8 49 33 b8
       2.3586217e-05 1.0958477e-05 -5.9104947e-05 -4.274558e-05
000170 40 9e 8a b8 cb f8 ef b7 95 8f 41 b8 da 8c c6 b8
       -6.609829e-05 -2.8606873e-05 -4.6148507e-05 -9.4676114e-05
000180 cb 9e d0 b7 0f ec c8 b5 ef 74 94 b7 00 ed 44 3b
       -2.4869476e-05 -1.4969863e-06 -1.7697426e-05 0.003004849
000190 47 56 90 b7 92 10 19 b9 07 04 76 38 75 14 58 b8
       -1.7206314e-05 -0.0001459739 5.865472e-05 -5.1517465e-05
0001a0 80 64 cd 36 b2 11 71 b7 35 1c 42 b8 cc 6b a7 b9
       6.121176e-06 -1.4368839e-05 -4.6279474e-05 -0.00031933037
0001b0 7f f8 46 37 52 9f 25 ba e7 9d 86 38 b0 8e 0c 38
       1.1859577e-05 -0.0006317991 6.4190295e-05 3.351149e-05
0001c0 a5 56 ad b9 1b 34 1b 38 d5 74 cf b6 a5 78 ad 38
       -0.00033061687 3.7003407e-05 -6.182682e-06 8.2717546e-05
0001d0 08 79 4f 37 ba 28 09 b8 35 dd f1 b7 fa e0 2e b6
       1.2366341e-05 -3.2701275e-05 -2.8832446e-05 -2.6058974e-06
0001e0 0e be 16 38 23 92 3f 38 69 8b 8b 38 e6 80 55 b8
       3.593979e-05 4.567405e-05 6.654004e-05 -5.0903203e-05
0001f0 04 d1 8c b7 2a 8b a2 38 d8 00 de 38 d3 40 1f 37
       -1.6786631e-05 7.750683e-05 0.00010585942 9.492232e-06
000200 1d 99 05 38 ab c3 a1 37 dc 50 dc 35 e8 90 f8 b9
       3.185227e-05 1.928381e-05 1.641481e-06 -0.0004741021
000210 18 9e 23 ba 12 89 a7 3a 36 a8 e0 b7 c2 ef 3d 39
       -0.00062415143 0.0012781939 -2.678121e-05 0.00018113761
000220 5b 81 8d ba 9c 5c ee 38 9e b2 08 b7 b8 a2 19 b8
       -0.0010795997 0.00011365974 -8.147819e-06 -3.6629586e-05
000230 26 13 01 b7 cc a3 bc b8 df 5a 74 b9 3c 37 24 b8
       -7.6934575e-06 -8.995048e-05 -0.00023303505 -3.9152088e-05
000240 b6 90 17 3a 3f 5b b9 39 67 38 9b b8 8b 08 55 38
       0.00057817565 0.00035353933 -7.401482e-05 5.0791114e-05
000250 f0 94 30 b8 43 85 36 37 f8 24 dc 37 f8 b3 dd b8
       -4.210038e-05 1.0879073e-05 2.6243259e-05 -0.00010571623
000260 18 0a 4d b7 23 8e 56 b8 79 db bb b8 4b 4f 49 37
       -1.2221302e-05 -5.115395e-05 -8.957735e-05 1.1998995e-05
000270 34 06 62 38 9e e5 ec b7 a6 cb 92 39 89 79 3a b8
       5.3888376e-05 -2.8240316e-05 0.0002799902 -4.4459044e-05
000280 89 fa b7 b7 5e 59 ab 37 c9 cd af 38 50 38 b0 b8
       -2.1931965e-05 2.0426403e-05 8.382981e-05 -8.402823e-05
000290 54 c9 ba b6 5f 0d 31 3a 36 df f9 b9 a9 57 92 36
       -5.5666696e-06 0.00067540066 -0.00047659286 4.361344e-06
0002a0 59 c3 84 b8 6f 5a ab 39 55 66 48 ba 9f 0f ae 37
       -6.330637e-05 0.0003268304 -0.0007644643 2.074969e-05
0002b0 5a ee 34 39 d9 9d 14 38 fb 1f 6c 38 7f c9 59 b8
       0.0001725493 3.5432957e-05 5.629657e-05 -5.192449e-05
0002c0 df 70 b0 37 e4 51 3d 38 c9 9e bb 38 70 a7 06 b9
       2.1033395e-05 4.5137378e-05 8.946431e-05 -0.00012841611
0002d0 5e d9 12 38 22 06 9d b8 d7 c8 40 b7 39 5e 0d 39
       3.501155e-05 -7.487486e-05 -1.14908535e-05 0.00013481909
0002e0 6d 8d 60 3a 2d b3 06 bb 25 6e 23 b8 cd a1 bb b9
       0.0008565996 -0.0020553574 -3.896481e-05 -0.0003578797
0002f0 8a d3 13 b8 be c6 79 38 cd 41 a3 38 c0 01 2e b8
       -3.5244542e-05 5.955132e-05 7.784702e-05 -4.1486463e-05
000300 40 20 9a 38 d7 1a 24 39 24 0a e5 b8 6e e2 ea 38
       7.349299e-05 0.00015650257 -0.0001092146 0.00011200165
000310 38 45 40 b7 01 9c 93 b7 2a 36 c5 38 77 fe 3a 39
       -1.1460208e-05 -1.759641e-05 9.403781e-05 0.00017833138
000320 6b 72 f4 36 fe 88 2e b9 01 c5 88 b8 07 82 94 b8
       7.2850867e-06 -0.00016644967 -6.52168e-05 -7.0814094e-05
000330 c7 ea 41 ba 06 77 11 3b ec 8d 63 b7 8f fa a5 38
       -0.000739735 0.0022196188 -1.3563298e-05 7.914483e-05
000340 44 36 e8 39 62 cf e5 b7 ad 48 3c b8 d3 9a 07 b8
       0.0004429092 -2.7395497e-05 -4.4890377e-05 -3.23307e-05
000350 9d 47 39 39 0c df e5 b8 b5 27 a8 37 55 ca c4 37
       0.00017669653 -0.00010961117 2.004565e-05 2.3459239e-05
000360 f1 f6 e0 37 33 53 31 b8 7e b8 84 ba 45 14 16 3a
       2.6817872e-05 -4.2277574e-05 -0.0010125784 0.00057250663
000370 3c a3 02 b9 9d 1c c7 37 3c e4 9a b8 a4 58 4a 38
       -0.00012458576 2.3735973e-05 -7.385804e-05 4.8243106e-05
000380 c2 28 97 b6 30 4d 28 38 60 8c 2d b9 ef 4c 20 3a
       -4.5048955e-06 4.0126208e-05 -0.0001655086 0.00061149796
000390 dc 24 fc b8 fa 0b 47 b8 27 4c e8 b8 1c 8d 53 b6
       -0.00012023162 -4.745645e-05 -0.000110768065 -3.1523587e-06
0003a0 ad 70 1b ba 8c c6 80 38 d9 48 14 b8 7d 35 08 b7
       -0.0005929571 6.140498e-05 -3.5353794e-05 -8.118685e-06
0003b0 d0 a0 7f 37 6d 69 71 ba d9 ad 2c 38 99 43 37 38
       1.52366265e-05 -0.000920913 4.1169904e-05 4.3693555e-05
0003c0 9d 03 12 b8 83 84 3d 38 db 78 15 b8 a2 3a c7 b9
       -3.4812478e-05 4.5184523e-05 -3.5636924e-05 -0.00037999923
0003d0 cb 66 5f 38 bb 9f 74 37 00 6b e1 38 29 47 90 b8
       5.3263077e-05 1.45807235e-05 0.00010748766 -6.87971e-05
0003e0 a3 94 48 3a ba 5b 95 37 ce 64 b5 37 7a ea 86 b7
       0.0007651543 1.7804898e-05 2.1623822e-05 -1.6083231e-05
0003f0 7b ec 5a 38 6f 0e 14 39 58 fd 7c b9 cc 97 4e b7
       5.219549e-05 0.00014119757 -0.0002412697 -1.23139e-05

exp_avg_sq f4 [10, 768]
000000 24 46 50 36 3e 82 ca 35 e9 7d 87 36 13 72 e9 36
       3.1035243e-06 1.5088078e-06 4.0379714e-06 6.957221e-06
000010 45 91 37 38 34 cf 37 36 24 a4 68 38 30 44 c1 36
       4.3765893e-05 2.7389733e-06 5.546598e-05 5.7597863e-06
000020 70 5f 45 36 93 f0 54 36 23 a2 21 37 42 95 49 37
       2.941084e-06 3.1730494e-06 9.634098e-06 1.2015285e-05
000030 52 df 4b 36 b9 7b 4a 36 c4 0b b0 37 e2 c3 29 36
       3.0379347e-06 3.0172362e-06 2.0986314e-05 2.5296981e-06
000040 90 11 29 37 7d 7c 14 39 cd 56 76 39 62 7a 3f 36
       1.0077274e-05 0.00014160755 0.00023492724 2.8532454e-06
000050 a4 d7 c8 36 b9 14 34 38 3e 4b 23 35 95 51 3c 36
       5.9855684e-06 4.2934644e-05 6.0831724e-07 2.806167e-06
000060 b5 aa 41 36 61 59 3b 39 99 fd e0 36 25 98 a0 38
       2.8858606e-06 0.00017867006 6.705243e-06 7.657734e-05
000070 09 67 a0 36 41 32 f5 38 fa 97 d0 35 8a 99 0c 39
       4.7803665e-06 0.00011691871 1.5541439e-06 0.00013408638
000080 ce 98 f0 35 27 55 8d 38 07 53 0b 38 8a 44 7a 36
       1.7925865e-06 6.739265e-05 3.3217508e-05 3.7292798e-06
000090 fd 6a 9e 37 93 17 cc 36 2b 44 16 37 54 08 05 36
       1.8884888e-05 6.082418e-06 8.956568e-06 1.9823392e-06
0000a0 44 0a 2e 36 6d e0 f7 35 23 fc 90 36 df c0 6f 36
       2.5933996e-06 1.8468251e-06 4.320887e-06 3.572604e-06
0000b0 de 7b 56 36 be 8f a3 38 a1 88 62 36 5e 5f 2a 37
       3.1960585e-06 7.79922e-05 3.3756153e-06 1.0154994e-05
0000c0 d4 1f 84 37 ec 47 a2 36 2d 61 05 36 25 bc da 38
       1.5750447e-05 4.836349e-06 1.9875108e-06 0.00010430095
0000d0 93 c6 61 38 7a 40 67 37 ed 49 d4 35 e5 f3 bc 37
       5.3829117e-05 1.3783685e-05 1.5816746e-06 2.2524919e-05
0000e0 54 97 45 36 65 f9 19 36 0a 8d 09 36 0d 81 f4 38
       2.9443372e-06 2.2943943e-06 2.0496686e-06 0.00011658864
0000f0 25 89 75 37 db 6c 0d 38 98 76 91 36 71 99 80 36
       1.4635069e-05 3.37184e-05 4.335143e-06 3.83256e-06
000100 c8 18 ff 35 d8 69 a9 36 12 cb 8d 36 2d 19 a5 36
       1.9006193e-06 5.0489143e-06 4.225768e-06 4.920314e-06
000110 58 ad ca 38 29 46 a7 35 16 58 c3 38 7f da 4d 36
       9.6643984e-05 1.2462889e-06 9.314732e-05 3.0674562e-06
000120 00 89 a1 3a b8 15 99 35 ed 2b be 37 e7 83 10 36
       0.0012324154 1.1405709e-06 2.267022e-05 2.153445e-06
000130 fd 7e 1c 36 3f 51 18 37 fe 17 3f 37 ac 35 1a 37
       2.3319728e-06 9.078823e-06 1.1390073e-05 9.191612e-06
000140 d1 cc b1 36 06 f0 64 39 69 09 66 37 9f 87 38 36
       5.298855e-06 0.0002183319 1.3711259e-05 2.7497078e-06
000150 60 94 2d 38 38 c7 f2 37 9f ed 86 38 87 d7 d0 38
       4.13846e-05 2.8941417e-05 6.433878e-05 9.958358e-05
000160 67 4c 40 36 8b 2e d2 36 3a 74 ac 37 b4 45 e2 35
       2.8654702e-06 6.263906e-06 2.055812e-05 1.6858598e-06
000170 8c 9c ad 35 b2 8c 11 37 43 1f 07 36 5f 5a 81 37
       1.2935066e-06 8.675432e-06 2.0134764e-06 1.542008e-05
000180 56 1a 1f 36 92 9a c5 35 95 cf 02 36 cb 5c 9f 39
       2.3708176e-06 1.472263e-06 1.9492338e-06 0.0003039598
000190 99 9d ea 36 c7 0f 49 37 05 39 42 37 6e 13 d8 36
       6.99209e-06 1.1984207e-05 1.1576577e-05 6.4395635e-06
0001a0 e2 5e d7 35 60 15 87 37 7b 9b 7c 37 f2 bd 1c 38
       1.6046363e-06 1.6103208e-05 1.5056571e-05 3.73702e-05
0001b0 f6 4e ea 35 cc 46 86 39 63 ac 50 36 98 9b f5 35
       1.7457339e-06 0.0002561122 3.1094758e-06 1.8299206e-06
0001c0 8d c9 35 38 44 d3 f6 36 95 d1 ac 35 df 66 a6 36
       4.334147e-05 7.355966e-06 1.2875995e-06 4.9591613e-06
0001d0 56 c2 f1 36 16 30 81 36 c1 73 1f 36 f6 ed e8 35
       7.2049834e-06 3.8500975e-06 2.3760224e-06 1.7354603e-06
0001e0 85 fe 1c 36 9e 56 ce 35 8c a0 23 36 c6 44 7c 36
       2.3393961e-06 1.5373405e-06 2.4382343e-06 3.7590958e-06
0001f0 cb e1 4a 37 1a f4 9f 37 e5 02 c3 36 63 5e 00 36
       1.209271e-05 1.9067946e-05 5.81179e-06 1.9128427e-06
000200 59 93 c4 38 de 8b 51 36 df 46 24 36 79 9c c1 39
       9.373454e-05 3.122484e-06 2.4479157e-06 0.0003692841
000210 3d 9b 38 37 82 fa b8 39 ed 93 31 36 d1 76 30 36
       1.1003399e-05 0.00035281858 2.646116e-06 2.6295204e-06
000220 a7 83 b3 39 43 51 5a 37 6f d3 c8 35 1f 81 10 36
       0.0003423963 1.3012733e-05 1.4962696e-06 2.153283e-06
000230 38 6f c9 37 a6 35 00 39 53 27 ce 37 c9 01 87 37
       2.4012857e-05 0.00012227017 2.4575425e-05 1.6094085e-05
000240 21 a5 48 39 46 35 34 38 38 70 31 36 ee 4e d7 36
       0.00019135002 4.296496e-05 2.6440375e-06 6.416688e-06
000250 f7 90 18 36 33 28 4d 37 a6 30 30 37 bb e5 5e 39
       2.2734146e-06 1.2228312e-05 1.0501744e-05 0.00021257151
000260 3c fa cf 36 26 63 70 36 67 c0 00 36 27 d2 12 37
       6.198212e-06 3.5820499e-06 1.918548e-06 8.751208e-06
000270 96 72 c3 37 d5 73 94 37 54 c6 eb 38 b4 89 ea 38
       2.329917e-05 1.7696913e-05 0.00011242615 0.00011183639
000280 66 19 99 36 aa 69 a2 35 9e 72 44 37 7d 4f cd 35
       4.562712e-06 1.2100693e-06 1.1709197e-05 1.5296824e-06
000290 96 63 ad 36 c3 91 da 39 5c 9a 53 38 1c c8 1f 36
       5.167395e-06 0.000416888 5.045008e-05 2.3809325e-06
0002a0 ca 20 3b 36 e9 23 f0 37 fb 61 8b 39 c0 2e d3 35
       2.7884257e-06 2.8626951e-05 0.00026585147 1.5734331e-06
0002b0 26 8a 31 37 84 44 db 36 03 39 c6 38 b4 46 20 36
       1.0582187e-05 6.534685e-06 9.451995e-05 2.3883013e-06
0002c0 40 c5 b2 36 95 f7 6c 36 54 16 eb 35 d3 b5 bc 37
       5.3277763e-06 3.5310852e-06 1.7515363e-06 2.2496015e-05
0002d0 d2 a6 49 36 bb 1d 56 37 00 52 85 37 e5 10 ff 36
       3.0048436e-06 1.2762316e-05 1.589302e-05 7.601559e-06
0002e0 17 91 b5 38 71 de 2a 39 8e e1 11 37 af 14 43 37
       8.657778e-05 0.00016295329 8.6951895e-06 1.16277215e-05
0002f0 73 be 24 36 04 c6 22 38 73 99 82 36 0f 26 02 36
       2.454876e-06 3.8808226e-05 3.8921658e-06 1.9393663e-06
000300 91 e4 23 37 eb 6a 57 38 93 bf 40 37 bc 8f 8b 37
       9.768774e-06 5.135957e-05 1.1488696e-05 1.6637023e-05
000310 5f 17 2a 36 25 82 8d 36 cd 74 d1 38 6d fc d1 36
       2.5345578e-06 4.2172783e-06 9.9876524e-05 6.2580716e-06
000320 53 7b ff 35 0f cf e2 36 c5 4b a6 36 eb 9f 32 36
       1.9034873e-06 6.7594297e-06 4.9560063e-06 2.6617151e-06
000330 85 e3 3f 39 c1 8e 19 39 83 39 63 36 13 55 7a 36
       0.00018299937 0.00014644397 3.3859112e-06 3.7302423e-06
000340 d8 3a a7 37 7d 48 6b 37 4d f2 b2 35 78 f5 df 35
       1.9935353e-05 1.4023969e-05 1.3332552e-06 1.6686236e-06
000350 15 c6 0d 38 67 81 f7 38 57 23 0a 37 6b fd ba 35
       3.3801498e-05 0.00011801981 8.233669e-06 1.3931834e-06
000360 b6 0e 28 36 a4 30 18 38 d5 0c 37 39 33 98 57 36
       2.5042514e-06 3.6284924e-05 0.0001745702 3.2126088e-06
000370 bf 99 b6 37 fd 15 10 36 b2 bd ba 38 19 b6 14 37
       2.1767684e-05 2.147047e-06 8.904505e-05 8.863885e-06
000380 82 56 16 36 5a 3d 10 37 8e c1 7c 37 d0 24 0a 38
       2.2402096e-06 8.597353e-06 1.5065436e-05 3.293605e-05
000390 8a f3 9a 37 a3 16 a1 38 5e 7e 79 36 dd 7e e8 35
       1.8471637e-05 7.681295e-05 3.7177447e-06 1.7322269e-06
0003a0 b8 38 a2 37 ce 7c 08 36 16 9a 52 38 b7 0f bb 38
       1.9338317e-05 2.0338225e-06 5.0211405e-05 8.919782e-05
0003b0 f3 22 8e 36 0d bf a8 39 ec e2 1d 36 4f ff 6a 36
       4.2359984e-06 0.000321858 2.352691e-06 3.5017326e-06
0003c0 78 f0 40 36 62 fa 00 36 86 9b 95 36 b0 cf 1f 37
       2.87502e-06 1.9219228e-06 4.4586513e-06 9.5254945e-06
0003d0 ec a4 00 36 33 42 c7 36 78 d3 ba 37 9b 19 ae 35
       1.9169483e-06 5.9383688e-06 2.22714e-05 1.2971462e-06
0003e0 6a 27 d4 38 84 c8 c0 35 3d 78 f4 36 71 bb 38 38
       0.00010116289 1.4363472e-06 7.2857642e-06 4.4043587e-05
0003f0 29 59 f6 35 75 7e e3 36 13 d1 ac 37 b3 9a ce 35
       1.8354377e-06 6.7798487e-06 2.0601356e-05 1.5393219e-06
