SmallD_SDD_up_to_step2/out_IPC_1_no_cu_10mrpc_mlp4_ipc1_w10.pth (torch, 21112 bytes, 3 tensors)

module.data.weight f4 [2, 768]
0	0xbd215f84	-0.03939773
1	0xbc93320c	-0.0179682
2	0xbdbc7f59	-0.09203977
3	0x3c59f7a7	0.013303674
4	0x3ce47a01	0.027890207
5	0xbd80cbaf	-0.062888496
6	0xbd1dafaf	-0.038497623
7	0xbd893c9c	-0.067010134
8	0xbd8bbcc6	-0.06823115
9	0x3c92eb2a	0.0179344
10	0xbd2457f9	-0.04012296
11	0xbcc3cd6b	-0.023901662
12	0x3da183c3	0.0788646
13	0xbc7a966a	-0.015294651
14	0x3d4163e2	0.047214396
15	0xbd7977cb	-0.06090526
16	0xbdba606b	-0.091004215
17	0xbd2eca05	-0.04267313
18	0xbd919544	-0.07108548
19	0xbd2fa110	-0.04287821
20	0x3bee83f6	0.0072789146
21	0x3d66d3de	0.056354396
22	0x3d30ccbd	0.043164004
23	0x3bdd6b88	0.0067572035
24	0xbdb07fae	-0.08618103
25	0xbd93e26c	-0.07220921
26	0x3d0463a9	0.032321606
27	0x3cbcbe7a	0.023040045
28	0xbc8aaf64	-0.016929336
29	0x3cd796f7	0.026317103
30	0xbd87cb0f	-0.06630527
31	0x3d11ef46	0.03562858
32	0x3ced8c3c	0.028997533
33	0x3cae8eec	0.021308385
34	0xbd831649	-0.06400735
35	0xbdaa255c	-0.08307907
36	0xbdacbafd	-0.08434103
37	0x3c21bae9	0.009871223
38	0x3d1320db	0.035920005
39	0x3d027b14	0.031855658
40	0xbcf00fa2	-0.02930433
41	0x3d3833aa	0.044971146
42	0xbc628ae2	-0.013827058
43	0x3cf0fa8b	0.029416343
44	0xbb8466b8	-0.0040405653
45	0xbcddeddf	-0.027090965
46	0xbd2b281a	-0.04178629
47	0xbce47f86	-0.02789284
48	0xbd8411b2	-0.064486876
49	0x3d39a1e4	0.045320407
50	0x3d444f86	0.047927402
51	0xbd0e27f2	-0.034706064
52	0x3d867e01	0.06567002
53	0x3cae2767	0.021259023
54	0x3d7cd65d	0.06172787
55	0xbdf23068	-0.11825639
56	0x3d761f35	0.060088355
57	0xbbbafa16	-0.005706082
58	0x3cd611e6	0.026131582
59	0xbc96d997	-0.018414302
60	0xbd3f7d3e	-0.0467503
61	0xbcbe106d	-0.023201192
62	0xbc18bb92	-0.009322064
63	0x3dc1201e	0.09429954
64	0xbd537d00	-0.05163288
65	0xbe2f2f81	-0.17107965
66	0xbcdb45f6	-0.026766758
67	0xbc8e2b3d	-0.017354602
68	0x3cd40e93	0.025885856
69	0xbd0daa24	-0.034586087
70	0x3cb1dafb	0.021710863
71	0xbe0bac7c	-0.13640016
72	0x3c95cb2c	0.018285356
73	0xbd2d2d02	-0.04227925
74	0xbc828869	-0.015934186
75	0xbd2dc3b1	-0.042422954
76	0x3da6da06	0.081470534
77	0x3d8cb14b	0.068697535
78	0xbcdd09d6	-0.02698223
79	0xbd47f843	-0.048820745
80	0x3e2045e7	0.15651666
81	0x3bab13a2	0.0052208463
82	0xbb9adb30	-0.004725836
83	0xbd23a1e1	-0.0399493
84	0x3bc50c62	0.006013439
85	0x3dbd43da	0.09241457
86	0xbdae4682	-0.08509542
87	0xbd8d5614	-0.06901184
88	0xbccf8b4a	-0.025334973
89	0xbc97054a	-0.01843514
90	0xbd2dda35	-0.042444427
91	0xbd9a3061	-0.07528759
92	0xbd52379f	-0.051322576
93	0xbd441abd	-0.047877062
94	0xbd264364	-0.040591612
95	0x3d2a9f93	0.041656088
96	0x3d98307c	0.07431123
97	0x3db31739	0.08744664
98	0xbd1903b6	-0.037357055
99	0x3c24c225	0.010056053
100	0x3de1df87	0.110289626
101	0xbe05a2eb	-0.1305043
102	0x3d1dbd29	0.038510475
103	0xbc979829	-0.018505173
104	0xbcf51d0f	-0.029921083
105	0x3d859c7f	0.0652399
106	0xbcba7cc5	-0.022764573
107	0x3d217dc3	0.039426576
108	0xbdadfd85	-0.08495621
109	0xbc632e5b	-0.0138660325
110	0x3e19afeb	0.15008514
111	0xbdae9628	-0.08524734
112	0xbb94f5b1	-0.0045458903
113	0xbd5cbfb5	-0.053893764
114	0x3cc2c11d	0.023773724
115	0xbd913677	-0.070904665
116	0x3d436fe9	0.047714148
117	0xbd44db92	-0.04806096
118	0xbdb6542e	-0.08902775
119	0x3ce65ea5	0.028121302
120	0x3d634da3	0.055493962
121	0xbd3c350b	-0.045949023
122	0xbc2a4128	-0.010391511
123	0xbde43f0e	-0.11144839
124	0x3c23d378	0.009999149
125	0x3d934bbd	0.0719218
126	0xbdb28653	-0.087170266
127	0xbda4a6ac	-0.08039603
128	0x3c3d69d2	0.011560874
129	0xbd170326	-0.036868237
130	0x3c862d00	0.01637888
131	0xbd42c6db	-0.047552925
132	0x3d3f7a3e	0.04674744
133	0xbc6902cf	-0.014221861
134	0xbcb4b771	-0.022060128
135	0xbc95d055	-0.018287817
136	0x3daa06c3	0.08302071
137	0x3cd40b9d	0.025884444
138	0x3caecc24	0.021337576
139	0x3dc2c668	0.09510499
140	0xbd92c985	-0.07167343
141	0x3db7f25e	0.08981775
142	0xbc0d4ab8	-0.008623771
143	0x3da17069	0.07882769
144	0x3d8a385c	0.06749031
145	0x3dd5eb5d	0.104452826
146	0x3de38281	0.11108876
147	0xbc7387cf	-0.014863922
148	0xbd2efd3c	-0.042721972
149	0xbc40d32a	-0.011769095
150	0xbd6882aa	-0.056765236
151	0x3d87eb18	0.066366374
152	0xbc21bfb2	-0.009872364
153	0xbd9b6959	-0.07588453
154	0xbc0888e0	-0.008333415
155	0x3c346a5f	0.011011689
156	0x3cc0b73a	0.02352487
157	0x3c83b02c	0.016075216
158	0xbd67eae8	-0.05662051
159	0x3cb03b99	0.021512793
160	0xbd0d3fb9	-0.0344846
161	0x3e05fbb6	0.13084301
162	0xbda356e5	-0.07975558
163	0xbca317bd	-0.01990878
164	0xbd299a9e	-0.04140722
165	0xbc9e9040	-0.019355893
166	0x3d6e0394	0.05810888
167	0x3ca919a3	0.020642107
168	0x3d110cdf	0.035412665
169	0x3e1ba22f	0.15198587
170	0x3d07454c	0.03302507
171	0x3c9460aa	0.0181125
172	0x3ba0e3a5	0.00490995
173	0xbc38e982	-0.011286141
174	0xbcb009e1	-0.021489086
175	0xbc0f5e07	-0.008750445
176	0x3bb797f1	0.0056028296
177	0xbd081e85	-0.03323223
178	0x3c706032	0.014671372
179	0x3c5ad574	0.013356555
180	0xbd72f939	-0.05931971
181	0xbd2cdd71	-0.04220337
182	0x3dabe7f3	0.0839385
183	0x3d0247bb	0.03180669
184	0x3d08cade	0.033396594
185	0xbbcc4966	-0.0062343357
186	0xbccf6ffa	-0.02532195
187	0x3cafaa6c	0.021443568
188	0x3d85ccdf	0.06533217
189	0xbce65fad	-0.028121794
190	0xbdb31aac	-0.08745322
191	0xbc73195e	-0.014837591
192	0xbcc32730	-0.023822397
193	0xbce2dcbc	-0.027693145
194	0x3d7ce1c8	0.06173876
195	0xbcc8665b	-0.02446287
196	0x3e0eccc2	0.13945296
197	0x3cd89ae7	0.02644105
198	0xbd443f95	-0.0479122
199	0xbdd5e987	-0.104449324
200	0xbd798473	-0.06091733
201	0x3c87c8d8	0.016575262
202	0xbc22d8e8	-0.00993941
203	0xbda2f11f	-0.079561464
204	0x3d7a86bc	0.06116365
205	0xbd0ae165	-0.03390636
206	0xbccaa1a3	-0.024735278
207	0x3dba6c8b	0.09102734
208	0x3d76fb51	0.060298268
209	0x3cb21df2	0.021742795
210	0xbdddbc1f	-0.10826897
211	0xbe3121d8	-0.17298067
212	0xbc8e63b7	-0.017381532
213	0xbb9079eb	-0.004409065
214	0xbd8134bc	-0.063088864
215	0x3ca5e134	0.020248987
216	0x3cfbf26d	0.030755246
217	0x3d1f3462	0.038868316
218	0x3d4a32a3	0.049364697
219	0x3c0b0762	0.008485647
220	0xbcc5bfb3	-0.02413926
221	0x3d361fc7	0.0444639
222	0x3db164fc	0.08661839
223	0xbdcaba3e	-0.09898804
224	0xbd94422a	-0.07239182
225	0xbd6635c1	-0.056203607
226	0xbd2bb18a	-0.04191736
227	0xbd40bd3d	-0.04705547
228	0xbb895ad4	-0.0041917358
229	0xbbca6ed7	-0.006177764
230	0xbd40f3c0	-0.047107458
231	0x3da39cf6	0.07988922
232	0xbdcc0fb7	-0.09963935
233	0xbc0f3622	-0.008740934
234	0x3da416cd	0.080121614
235	0x3d55008f	0.052002486
236	0x3ddd0ca7	0.10793429
237	0xbc0f5d8e	-0.0087503325
238	0x3d52da5b	0.05147777
239	0xbc829a2b	-0.015942654
240	0x3d1b7378	0.037951916
241	0xbd0e04ef	-0.034672674
242	0xbd219ea6	-0.03945794
243	0x3dd638b4	0.10460034
244	0x3dbed4dc	0.093179435
245	0xbc745824	-0.0149135925
246	0xbc6f0f7b	-0.014591093
247	0xbe0b0987	-0.13577853
248	0xbd1bc091	-0.038025443
249	0x3d614a88	0.05500272
250	0x3d8a54c1	0.06754447
251	0x3c85ae70	0.01631853
252	0x3ce993ab	0.028512796
253	0xbba51ec2	-0.005039067
254	0x3cdc5d63	0.026899999
255	0x3c8e5f04	0.017379291

exp_avg f4 [2, 768]
0	0xbb334276	-0.0027352846
1	0x3762db0c	1.35216505e-05
2	0x3a8dc40e	0.0010815875
3	0x3bdf6eaa	0.006818612
4	0x3b3ad0d4	0.002850582
5	0xba23720c	-0.0006234951
6	0xba950af3	-0.0011371061
7	0xb98ea17a	-0.0002720466
8	0x3b9de95a	0.0048190774
9	0xbbbbff3a	-0.0057372125
10	0x3b3d59f0	0.0028892718
11	0x38b8fedd	8.821276e-05
12	0x3a137236	0.0005624624
13	0x3a5d6691	0.00084457645
14	0x3b7c7138	0.0038519632
15	0x3adf252c	0.0017024628
16	0xbba48aad	-0.0050214143
17	0xbc00c9a3	-0.007860574
18	0x3b072402	0.0020620828
19	0x3be24d61	0.006906197
20	0xb992a40d	-0.00027969517
21	0x39facf9d	0.000478384
22	0x3b15e94f	0.0022874658
23	0xbb61787e	-0.0034404094
24	0xbad8f46b	-0.0016552334
25	0x38ec68d7	0.00011272885
26	0xbb5c16cb	-0.0033582922
27	0x3adf93e5	0.0017057626
28	0xbb1f768f	-0.002433214
29	0x3a008072	0.00049019523
30	0xbb65dd12	-0.0035074395
31	0x3b842cd7	0.0040336656
32	0xbbe33ff0	-0.006935112
33	0x3b0085a8	0.0019610915
34	0xbb66daf9	-0.0035225733
35	0xbb02bd00	-0.0019949079
36	0x3b19b52c	0.0023453934
37	0x3b7bb1bf	0.0038405505
38	0xba9d50da	-0.0012002245
39	0x3a3799fe	0.00070038426
40	0x39b1e8ae	0.0003393343
41	0x39b4c98e	0.00034482445
42	0x399ba885	0.0002968946
43	0x3917043f	0.00014402064
44	0x3adae071	0.0016698969
45	0x3bafbfb5	0.0053634294
46	0x3b462ca6	0.0030239015
47	0x3b859f49	0.004077826
48	0x3a5d6300	0.0008445233
49	0xba696bfb	-0.0008904335
50	0xba1598ab	-0.0005706648
51	0xbb4d82f3	-0.003135857
52	0xbb59d2a9	-0.0033237136
53	0xbbbc553a	-0.0057474645
54	0x3afc84ef	0.0019265692
55	0xbba91799	-0.0051602838
56	0x3bae8969	0.005326439
57	0x3be2a03e	0.006916075
58	0xbbb64b0d	-0.005563146
59	0xb98398c1	-0.00025100078
60	0x3adc3946	0.0016801737
61	0xb9c04738	-0.00036674156
62	0x3ab0c96e	0.0013487765
63	0xb94a08aa	-0.00019267449
64	0xbb5461df	-0.0032406969
65	0xba496fe1	-0.0007684213
66	0xbbd71a2b	-0.0065643988
67	0x3b5a73ba	0.0033333139
68	0x3b8a912e	0.0042287325
69	0x3b136cfa	0.0022495375
70	0x3bbd7a14	0.005782375
71	0x3a7f2701	0.000973329
72	0xbb71304e	-0.0036802473
73	0x3a6bf7bc	0.0009001454
74	0x3ba1d393	0.0049385517
75	0xbac86c9f	-0.0015291161
76	0xba1d757f	-0.0006006583
77	0xbac3270c	-0.0014888956
78	0xbbd11b92	-0.0063814605
79	0xbc140e64	-0.009036634
80	0x3a02779c	0.00049769296
81	0xbc0564b2	-0.008141683
82	0xbc07afe1	-0.008281679
83	0x3a69ff9a	0.0008926332
84	0x39a0e918	0.00030691247
85	0x3aa7df7c	0.0012807692
86	0x3ac0699d	0.0014679913
87	0xbb12a89f	-0.0022378338
88	0xbb958ea5	-0.0045641237
89	0xbb9857dc	-0.0046491455
90	0x390f6939	0.00013676741
91	0xbb5b7afd	-0.0033490055
92	0xbafb412d	-0.0019169204
93	0xb9c675ad	-0.00037853178
94	0xbbc3656d	-0.0059630186
95	0xba71e7e0	-0.00092279725
96	0x3b83cb91	0.0040220697
97	0xbbc4a7d0	-0.00600145
98	0xba874c76	-0.001032247
99	0xbcd73744	-0.02627147
100	0xb895de08	-7.14623e-05
101	0x3a987de4	0.0011634198
102	0xbb96e1fe	-0.004604577
103	0xbb317469	-0.0027077443
104	0x3b4700ce	0.003036547
105	0x3a8164cf	0.0009871962
106	0x3bab5353	0.005228439
107	0xba1aab29	-0.00059001386
108	0xbbd7bf4e	-0.0065840846
109	0x3a1d0a24	0.0005990586
110	0xb9aaabb0	-0.00032552844
111	0x39939e45	0.00028155945
112	0x39529e84	0.00020086212
113	0xbb419fd4	-0.0029544728
114	0xbb232a64	-0.0024897093
115	0x3bc8df2b	0.0061301193
116	0xba434e3f	-0.0007450319
117	0x3a7bedea	0.0009610342
118	0xbb0747e4	-0.0020642215
119	0xbbfc05cd	-0.007691121
120	0x3bc69f90	0.006061502
121	0x3aa4acfa	0.0012563758
122	0xbae18947	-0.001720705
123	0x3abb8be8	0.0014308663
124	0x3b511d61	0.003190838
125	0x3b347ac6	0.0027539
126	0xbb844d29	-0.0040375185
127	0x3ad47a73	0.0016210809
128	0xbbf16027	-0.0073661986
129	0x3b80d4a2	0.003931598
130	0x3b6372a8	0.0034705792
131	0xbbcf310f	-0.006322987
132	0x3902f0bd	0.00012487448
133	0x3b2013cc	0.0024425862
134	0xba6baeef	-0.0008990606
135	0x3bd6ac0f	0.0065512727
136	0xbb099974	-0.0020996006
137	0xbbe50498	-0.006989073
138	0xbac40806	-0.0014956004
139	0x39dfcd6f	0.00042686934
140	0xbb0372e1	-0.0020057487
141	0x3aefb028	0.0018286752
142	0x3c24dc72	0.010062324
143	0x3a9ff93c	0.0012205015
144	0x3be9cec0	0.007135242
145	0xbb8bedbc	-0.0042702835
146	0x3b9a54d9	0.0047098217
147	0x3a6b7eb3	0.0008983418
148	0x3ac14ea0	0.0014748164
149	0x3bfece58	0.007776063
150	0xbba52e78	-0.00504094
151	0xba8630b6	-0.0010237906
152	0xbba407da	-0.005005819
153	0x3a3615fc	0.0006946025
154	0x3b151d8d	0.002275321
155	0xbbd80d51	-0.0065933843
156	0x3b87d4c2	0.0041452358
157	0xbb138fdc	-0.0022516167
158	0xbb0ce670	-0.0021499656
159	0xbb4e0f77	-0.0031442323
160	0x3b18eacc	0.002333331
161	0x3b8624bb	0.004093734
162	0x3aa02911	0.001221927
163	0x3a98a64e	0.0011646242
164	0x3ab110fd	0.0013509091
165	0xbb031046	-0.0019998713
166	0x3b8361f2	0.0040094787
167	0xbbb99052	-0.0056629563
168	0x3bec74fd	0.0072160945
169	0xbbb871ed	-0.0056288154
170	0xba5aad0c	-0.0008341826
171	0xbae9273a	-0.001778818
172	0x3a0a226f	0.0005269413
173	0x39dd6a6c	0.00042231695
174	0xbad97451	-0.0016590451
175	0xbb546e00	-0.0032414198
176	0xbc0b9cb4	-0.008521248
177	0xbba98c8a	-0.0051742243
178	0xba1b16fe	-0.0005916207
179	0xba96f3d9	-0.0011516764
180	0x3b8fea6a	0.004391958
181	0xbbf61aed	-0.007510534
182	0x3ae593ab	0.0017515322
183	0x3b47e372	0.0030500558
184	0xbaa1adea	-0.0012335156
185	0x3c29a793	0.010354894
186	0xbab761a1	-0.0013990888
187	0xbae4d67c	-0.0017458941
188	0x3ba18744	0.004929455
189	0x3bfa8340	0.0076450408
190	0x3ad7fe0e	0.0016478912
191	0x3b94731e	0.0045303246
192	0x3ae0a5da	0.0017139271
193	0xbaf86e8b	-0.0018953843
194	0xbac480ee	-0.0014992037
195	0xbac286dc	-0.0014841217
196	0x3b1b4392	0.0023691398
197	0xbb31ce34	-0.0027130963
198	0x3b9b0e46	0.004731926
199	0xbb4bff09	-0.0031127355
200	0x3b951c3d	0.0045504854
201	0x3ac3a44c	0.0014926284
202	0xbb602f61	-0.0034207928
203	0xb9db392f	-0.0004181354
204	0x3b4009e8	0.002930278
205	0xbaf5f0b2	-0.0018763749
206	0x3ac505bb	0.0015031615
207	0x3a54ed25	0.00081224955
208	0xbb1943a5	-0.0023386267
209	0xb8a9882f	-8.083914e-05
210	0xb8b4fe3e	-8.630425e-05
211	0x3bcac4ae	0.006187997
212	0xbad026ca	-0.0015880701
213	0x3c75bf4a	0.01499922
214	0x3aefe85c	0.0018303501
215	0xbb381102	-0.002808631
216	0x3b700aac	0.0036627455
217	0xba458630	-0.0007534949
218	0x3af695a4	0.0018812907
219	0x3bc0116b	0.0058614514
220	0x3b1e88e4	0.002419048
221	0x3b4f08a3	0.0031590841
222	0x3b2a2d58	0.0025966968
223	0x3bd66010	0.0065422133
224	0x3baf0e82	0.0053423056
225	0xba62813c	-0.0008640473
226	0x3ae80fab	0.0017704865
227	0xbab0f1f9	-0.0013499848
228	0x3b778ec3	0.0037774302
229	0x3b7524a2	0.0037405868
230	0xbb98baa7	-0.0046609226
231	0xbb1e4ed7	-0.002415588
232	0x3ac8d907	0.0015323468
233	0xbafcea74	-0.0019295947
234	0xbb2dbd80	-0.0026510656
235	0xbb35d92a	-0.0027747848
236	0xbb480c26	-0.003052482
237	0x3bc50186	0.0060121445
238	0xb9867e1a	-0.00025652425
239	0xbaf926a7	-0.0019008712
240	0x3b006c81	0.0019595923
241	0xbb12d9a7	-0.0022407563
242	0xb9dca4f1	-0.0004208456
243	0x3c04023c	0.008057173
244	0xbb72a156	-0.0037022433
245	0x39d4b08e	0.00040567335
246	0x3b78f6a1	0.00379888
247	0x3b4dec95	0.0031421531
248	0x3bb1df82	0.0054282555
249	0xbb7149c8	-0.0036817659
250	0x37be7728	2.2705251e-05
251	0x3b023b66	0.001987183
252	0x3b3987d2	0.0028309715
253	0xb9a48520	-0.00031379703
254	0xbaffe59c	-0.0019523385
255	0x3b2a0f65	0.0025949117

exp_avg_sq f4 [2, 768]
0	0x39ecc0f4	0.0004515719
1	0x3b0184fa	0.0019763098
2	0x39d9571b	0.00041454364
3	0x3a02b91a	0.0004986689
4	0x3a277242	0.000638757
5	0x39f34912	0.00046403013
6	0x3a33e75c	0.00068627833
7	0x3a14b1e0	0.00056722574
8	0x39dcdea5	0.00042127553
9	0x3a68c65b	0.0008879655
10	0x3a430e3d	0.00074407813
11	0x3a95eac7	0.0011437767
12	0x39ff5f5a	0.00048708433
13	0x3a88df22	0.0010442475
14	0x39f51038	0.00046742125
15	0x39de2d00	0.00042376667
16	0x39f3a4a5	0.00046471242
17	0x3a5c97aa	0.00084149337
18	0x3a091a4d	0.00052300544
19	0x39f23b97	0.00046202235
20	0x39d27362	0.00040140288
21	0x3a10ce43	0.00055238995
22	0x39cf1999	0.00039501188
23	0x39d04fce	0.0003973231
24	0x39e148ac	0.0004296949
25	0x39f7097d	0.0004711858
26	0x39d38b2d	0.0004034875
27	0x3a4996bf	0.00076900044
28	0x39d79b44	0.00041123678
29	0x39f49c18	0.00046655606
30	0x39d11607	0.00039879998
31	0x3a06dc93	0.00051445625
32	0x3a521aa0	0.00080148317
33	0x3a010b8a	0.0004922679
34	0x3a111d29	0.0005535656
35	0x39d5c838	0.000407757
36	0x39dd97c8	0.0004226549
37	0x39cbb7f3	0.0003885623
38	0x39daa70b	0.00041704657
39	0x39f58691	0.000468303
40	0x3a910324	0.0011063558
41	0x39ca4113	0.00038576926
42	0x3a325d19	0.0006804034
43	0x3a0012c7	0.00048856105
44	0x3a0dc17f	0.00054075563
45	0x3a30621e	0.0006728488
46	0x3a8ef319	0.0010906189
47	0x3ab9057d	0.0014116016
48	0x39ede83c	0.0004537719
49	0x39db4678	0.00041823438
50	0x39e218af	0.0004312447
51	0x39dc371d	0.00042002733
52	0x3a0ec6e6	0.00054465083
53	0x3a642ca6	0.0008704163
54	0x39f9adc5	0.0004762245
55	0x3a1c47ff	0.0005961656
56	0x3a0cbf72	0.0005369104
57	0x3a2857db	0.0006421783
58	0x3b5bbb91	0.0033528546
59	0x3b8eb3c0	0.004354924
60	0x39eb3101	0.00044859204
61	0x3a8b86da	0.0010645047
62	0x39fe0a98	0.00048454548
63	0x39bbf470	0.0003584954
64	0x39ddd523	0.00042311204
65	0x39ca03d9	0.0003853131
66	0x39ce4cb1	0.0003934852
67	0x3a1833aa	0.00058060384
68	0x3a5acb6e	0.00083463534
69	0x39d0fbd2	0.00039860472
70	0x39f4b362	0.00046672957
71	0x39d08d49	0.00039778117
72	0x3a15c8ab	0.0005713801
73	0x39fa4a03	0.0004773886
74	0x3a2eaf6b	0.00066637126
75	0x3a08f3fb	0.0005224344
76	0x39eaf55f	0.00044814774
77	0x3a03e462	0.0005031285
78	0x39d47033	0.00040519386
79	0x39f72215	0.00047136904
80	0x39dddf2d	0.00042318684
81	0x3b2ada2c	0.0026069982
82	0x3a322afe	0.00067965675
83	0x39d2d7f8	0.0004021523
84	0x3b05cbd4	0.002041568
85	0x39fc8307	0.00048162809
86	0x39dff98b	0.00042719799
87	0x39aa09e2	0.0003243229
88	0x39dab926	0.00041718147
89	0x3a9de963	0.0012047704
90	0x39fb82b2	0.00047971826
91	0x39d161fd	0.00039936593
92	0x39f02de6	0.00045810564
93	0x3a0f5736	0.00054680125
94	0x39c97d05	0.00038430854
95	0x39d411c7	0.00040449036
96	0x39e0f79c	0.00042909093
97	0x39cfbca9	0.0003962268
98	0x3aa955d4	0.0012919256
99	0x3ba01e09	0.004886393
100	0x39ccc93a	0.00039059838
101	0x39d8066f	0.00041203524
102	0x3b257025	0.0025243845
103	0x39d92999	0.00041420458
104	0x39cefdcd	0.00039480478
105	0x39e0f49f	0.00042906866
106	0x3a77fea9	0.00094602496
107	0x3a0015cb	0.000488606
108	0x39ea02c0	0.00044634007
109	0x3c016c51	0.00789936
110	0x39c9e347	0.00038507042
111	0x39dc90e9	0.00042069636
112	0x3b7e2b4e	0.0038783136
113	0x3a07d667	0.000518179
114	0x39e6b4c5	0.00044003702
115	0x39e790dd	0.00044167685
116	0x39e0c446	0.00042870844
117	0x39ff1066	0.00048649608
118	0x39e6e8ae	0.00044042378
119	0x39c93d7b	0.00038383514
120	0x39fa17ba	0.00047701393
121	0x39fbe59a	0.00048045517
122	0x39f351e6	0.0004640959
123	0x39cbba60	0.00038858037
124	0x3b0420da	0.0020161183
125	0x39db6c61	0.00041851684
126	0x39d63537	0.0004085691
127	0x39f47576	0.00046626822
128	0x3a2b775d	0.0006540919
129	0x3a3bdc7e	0.000716634
130	0x3b283c06	0.0025670542
131	0x3a0d8a08	0.00053992914
132	0x39dc6d10	0.00042042928
133	0x3a3c2f5d	0.00071786885
134	0x3a2cfca4	0.00065989257
135	0x3a3302cd	0.00068287255
136	0x3a035112	0.0005009334
137	0x3a497a71	0.00076857867
138	0x39f74bda	0.00047168025
139	0x39f3f012	0.00046527438
140	0x39d32f9c	0.00040280528
141	0x39bcb018	0.00035989354
142	0x3ae34059	0.0017337903
143	0x39ea5fbd	0.0004470329
144	0x3a1ae2ce	0.00059084303
145	0x39eb4e14	0.00044880866
146	0x39bf1b72	0.00036450807
147	0x39d3520d	0.0004030619
148	0x39bddde4	0.0003621421
149	0x3a9e60cb	0.001208329
150	0x39e82480	0.00044277683
151	0x39c952d7	0.00038399428
152	0x3ac11da1	0.0014733562
153	0x39cd1cf8	0.0003912223
154	0x3a22d58d	0.0006211631
155	0x3a6a5f0a	0.00089405535
156	0x39f97213	0.00047577973
157	0x3abfdf7d	0.0014638748
158	0x3a92980b	0.0011184228
159	0x3b5f2fa0	0.0034055486
160	0x39c18fb8	0.00036918907
161	0x39e2824e	0.00043203164
162	0x39dafe77	0.0004176979
163	0x39dc10d3	0.00041974205
164	0x39d10949	0.00039870504
165	0x3a407562	0.000734171
166	0x3a311ab2	0.0006755992
167	0x39cc891e	0.00039012072
168	0x39c9f72e	0.0003852187
169	0x39e4e491	0.00043657844
170	0x3ab1b5eb	0.0013558244
171	0x39e8ec2a	0.00044426444
172	0x39dbde73	0.00041936673
173	0x3abb7234	0.0014301003
174	0x3a0b2416	0.00053078064
175	0x39e972d5	0.0004452678
176	0x3ab97a70	0.0014150869
177	0x3a33ff9e	0.0006866398
178	0x3a3cc181	0.0007200465
179	0x3b99310a	0.0046750354
180	0x39c72f7e	0.00037991622
181	0x3a000358	0.0004883311
182	0x39f688cd	0.000470227
183	0x3a12fbba	0.0005606968
184	0x3a87b239	0.0010352797
185	0x3ae8aaca	0.0017751094
186	0x3bc79cec	0.0060917046
187	0x3a865ed9	0.0010251655
188	0x39cf03cb	0.00039484943
189	0x3b31490a	0.0027051591
190	0x39e5000e	0.00043678324
191	0x3ab7b70c	0.0014016344
192	0x3b425791	0.0029654244
193	0x3a19e596	0.0005870698
194	0x39ea8a62	0.0004473506
195	0x3a8acabe	0.0010588986
196	0x39d3e380	0.00040414557
197	0x3a014c1d	0.0004932301
198	0x39e8f950	0.0004443624
199	0x3a2fca45	0.0006705861
200	0x39d554a1	0.0004068958
201	0x39ecc9f6	0.000451639
202	0x3b8146a5	0.003945189
203	0x39f7dcd5	0.00047276044
204	0x3a0fcbe4	0.0005485399
205	0x3b43ae09	0.0029858372
206	0x39d57710	0.00040715234
207	0x39cd38ce	0.0003914297
208	0x39c250ef	0.00037062864
209	0x3a13aa71	0.0005633003
210	0x39b96171	0.0003535855
211	0x39d7a4b9	0.00041130724
212	0x3a2d8b57	0.00066201895
213	0x3b989906	0.0046569137
214	0x3a06ce9a	0.00051424804
215	0x39d13636	0.00039903977
216	0x39fc637b	0.00048139304
217	0x39d163ad	0.0003993785
218	0x3a848f3a	0.0010113486
219	0x3a52ac1f	0.00080365123
220	0x39e9f745	0.00044625453
221	0x39e89e7b	0.00044368565
222	0x39f8a376	0.00047424034
223	0x39e9dda6	0.00044606364
224	0x39dad483	0.00041738534
225	0x39dbdb59	0.00041934362
226	0x3a2884fc	0.00064285076
227	0x3a00398e	0.0004891389
228	0x39f77987	0.00047202056
229	0x39ef042c	0.0004558874
230	0x39bc5d50	0.00035927678
231	0x39c807e5	0.00038152855
232	0x39c87e3c	0.00038241025
233	0x3a12e177	0.0005603055
234	0x3a5c1281	0.0008395091
235	0x39ee65b9	0.00045470687
236	0x39fbb44e	0.00048008788
237	0x3a265a48	0.00063458504
238	0x39c6fc91	0.0003795368
239	0x3a8d598a	0.0010784131
240	0x39f14c61	0.0004602401
241	0x3aaabbd3	0.0013025947
242	0x3a0bf2f0	0.00053386297
243	0x39d0ca97	0.00039823793
244	0x39d669bd	0.00040896042
245	0x3a0cdd60	0.00053735636
246	0x39fd42b4	0.00048305618
247	0x39e0a029	0.00042843938
248	0x39d86273	0.0004127208
249	0x39e48435	0.0004358605
250	0x39c9b682	0.00038473686
251	0x39fa8eca	0.00047790102
252	0x39b74877	0.0003495847
253	0x3af129aa	0.0018399258
254	0x3a1f539f	0.0006077829
255	0x39eb3c8d	0.00044867807
