SmallD_SDD_up_to_step2/out_IPC_5_no_cu_10mrpc_mlp4_ipc5_w10.pth (torch, 94840 bytes, 3 tensors)

module.data.weight f4 [10, 768]
-0.08688515 -0.11167159 -0.05373936 0.0049204207 -0.05073677 -0.014604472 0.030631578 -0.02549532
-0.015445148 0.03956284 -0.12324514 0.018933404 -0.04093682 0.00807199 0.078718245 0.023922775
0.122692585 -0.08683991 -0.03249964 -0.04775711 0.045145858 -0.03749619 0.050504956 0.02049376
0.03173206 -0.025978768 0.09171801 0.0625428 -0.05090698 -0.06495831 -0.039754666 0.057628125
0.0031697166 -0.017330263 -0.020343632 0.026314449 0.036787074 -0.03845417 0.052690443 0.0014720641
-0.014384522 0.043752432 -0.04740106 0.032925148 -0.016211806 -0.035032287 -0.11697115 0.09457832
-0.057740055 -0.012046631 -0.01912649 -0.02746157 -0.012725789 0.060662884 0.12944272 -0.041780096
0.025559634 -0.06294427 0.13831475 -0.016794575 0.039720215 0.018692788 -0.06211253 0.06300685
-0.063157365 -0.09675604 0.0101358825 -0.04374884 -0.071845576 -0.036452882 0.10492751 -0.020672161
-0.018630363 -0.041833837 -0.0034539045 -0.015161457 -0.11867847 0.08045178 0.050783858 -0.06941091
0.04848403 0.03176884 -0.06712931 -0.10668103 -0.024188463 0.085351594 0.039212257 -0.040521376
0.13409735 -0.016332667 -0.03549942 -0.013043314 -0.111365646 -0.021226874 0.0140186 0.02178575
-8.988682e-05 -0.088282555 0.04481842 0.016806237 -0.02348554 -0.04173556 0.018101508 -0.0017399325
-0.0615364 0.024380803 -0.086117834 -0.040018838 -0.059142634 0.026320556 0.03289209 0.034735795
0.06879646 -0.05180881 0.021609003 -0.06579804 -0.0018296015 -0.109183095 0.038079567 0.019281514
0.053699598 -0.11409237 0.040291965 -0.059056967 -0.009143146 -0.03387401 0.052932385 -0.00089526526
0.028487887 0.11087435 0.0314555 -0.00356725 -0.06922015 -0.08256163 -0.041585863 0.040990036
-0.053496264 0.08178415 0.024484186 0.023535198 0.012116701 0.020378795 0.11373892 0.019707277
0.012977855 0.04194451 -0.0040317797 0.042077776 -0.04332463 -0.038034856 0.031474933 0.014907485
-0.06679541 -0.06491909 -0.041675657 -0.052009575 -0.014406984 0.030533655 -0.014815032 0.021833774
0.03279801 0.035081062 -0.076458365 -0.0022495715 0.041522253 -0.059449263 0.00070939836 0.120641984
-6.8117947e-06 -0.11410713 0.017100742 0.03958502 0.053775385 0.033807863 0.08341203 -0.02326169
-0.04323593 0.015564653 0.0036914088 0.018210521 0.008984345 0.033034038 0.002264013 0.05435947
0.05056929 -0.031229464 -0.07480845 -0.08813517 -0.06874954 0.083841145 -0.06691835 0.024429865
0.0357227 -0.019478789 -0.06256661 -0.050269064 -0.036066912 -0.056383666 -0.042794198 0.043947533
-0.018387891 0.0045220903 0.042255733 0.0128604 -0.031852234 -0.09067831 0.048408046 0.09648713
0.01132733 -0.016084692 0.0030982331 -0.04110225 0.009745445 0.024385748 -0.047859203 0.06275583
0.027146164 0.00068133406 -0.013957899 -0.07778656 0.06353707 -0.08855972 0.055655718 0.060796507
-0.012797112 -0.04928093 -0.03787155 -0.04326971 -0.100589104 -0.019982222 -0.06732653 0.042009667
0.008148333 -0.047743235 0.014161916 0.024348665 0.009349019 -0.0008683532 0.10184782 0.061434116
-0.02666124 -0.09284757 0.06641731 -0.07532271 0.11281404 0.0062208613 0.06023417 0.007869088
0.005626722 0.022803014 -0.009321067 0.03377142 0.011590795 0.09084057 -0.019033866 0.046039306
00000000: d7f0 b1bd 13b4 e4bd ce1d 5cbd 7b3b a13b
00000010: 5cd1 4fbd 9847 6fbc 13ef fa3c 90db d0bc
00000020: a50d 7dbc a50c 223d f367 fcbd 3a1a 9b3c
00000030: 5ead 27bd 6140 043c 0837 a13d b2f9 c33c
00000040: 4046 fb3d 1fd9 b1bd 581e 05bd f69c 43bd
00000050: ddea 383d 9b95 19bd 49de 4e3d 88e2 a73c
00000060: 7af9 013d 6dd1 d4bc a7d6 bb3d 7116 803d
00000070: d683 50bd dd08 85bd cad5 22bd 780b 6c3d
00000080: 05bb 4f3b 32f8 8dbc b0a7 a6bc 6691 d73c
00000090: 0bae 163d 1f82 1dbd efd1 573d 46f2 c03a
000000a0: 0fad 6bbc c035 333d 9d27 42bd 85dc 063d
000000b0: 9fce 84bc 047e 0fbd 928e efbd 47b2 c13d
000000c0: d680 6cbd 3c5f 45bc 28af 9cbc 16f7 e0bc
000000d0: d47f 50bc a579 783d a28c 043e 9b21 2bbd
000000e0: 7062 d13c ede8 80bd 62a2 0d3e c794 89bc
000000f0: aab1 223d 9e21 993c b569 7ebd bc09 813d
00000100: a658 81bd 0828 c6bd f910 263c fc31 33bd
00000110: c623 93bd 9e4f 15bd 3ce4 d63d aa58 a9bc
00000120: b49e 98bc f559 2bbd e75a 62bb c267 78bc
00000130: b30d f3bd e7c3 a43d bc02 503d 4f27 8ebd
00000140: 3197 463d 0b20 023d 177b 89bd 957b dabd
00000150: e226 c6bc d1cc ae3d 089d 203d bef9 25bd
00000160: d150 093e 16cc 85bc d767 11bd a0b3 55bc
00000170: ac13 e4bd fbe3 adbc 45ae 653c 0778 b23c
00000180: 9e81 bcb8 7ccd b4bd 8593 373d 3cad 893c
00000190: bf64 c0bc e8f2 2abd 9d49 943c 720e e4ba
000001a0: 980d 7cbd 40ba c73c 8c5e b0bd cbea 23bd
000001b0: 8c3f 72bd 359e d73c dbb9 063d 1f47 0e3d
000001c0: 29e5 8c3d 7a35 54bd 5d05 b13c 1fc1 86bd
000001d0: 3dcf efba 639b dfbd 52f9 1b3d 44f4 9d3c
000001e0: 1cf4 5b3d 43a9 e9bd 3009 253d b8e5 71bd
000001f0: 22cd 15bc 79bf 0abd a1cf 583d 3cb0 6aba
00000200: 6e5f e93c 1712 e33d 7bd7 003d 86c8 69bb
00000210: 4bc3 8dbd 1216 a9bd f055 2abd 2be5 273d
00000220: e61e 5bbd 737e a73d 0f93 c83c e3cc c03c
00000230: 2185 463c 6ef1 a63c f3ef e83d 2871 a13c
00000240: 12a1 543c 02ce 2b3d 051d 84bb bf59 2c3d
00000250: 2b75 31bd 70ca 1bbd dceb 003d 863e 743c
00000260: 08cc 88bd 4df4 84bd 18b4 2abd fe07 55bd
00000270: 450b 6cbc b721 fa3c bfba 72bc bedc b23c
00000280: 3557 063d 29b1 0f3d 3496 9cbd 8c6d 13bb
00000290: 3d13 2a3d 1281 73bd ebf6 393a 2513 f73d
000002a0: df90 e4b6 00b1 e9bd db16 8c3c e723 223d
000002b0: 9443 5c3d 1d7a 0a3d edd3 aa3d 4d8f bebc
000002c0: 2918 31bd e302 7f3c 90eb 713b 3b2e 953c
000002d0: 1333 133c b34e 073d d65f 143b 09a8 5e3d
000002e0: be21 4f3d efd4 ffbc 2c35 99bd 3680 b4bd
000002f0: 8fcc 8cbd e8b4 ab3d 7d0c 89bd 2421 c83c
00000300: f751 123d fb91 9fbc ec22 80bd efe6 4dbd
00000310: e6ba 13bd 8ff2 66bd f848 2fbd 5402 343d
00000320: 34a2 96bc 0b2e 943b 5914 2d3d 6db4 523c
00000330: 7d77 02bd 8db5 b9bd 8447 463d 0b9b c53d
00000340: 4496 393c 0bc4 83bc ba0b 4b3b d55a 28bd
00000350: 5cab 1f3c 9fc4 c73c 0308 44bd 2186 803d
00000360: a261 de3c 8e9b 323a acaf 64bc 8f4e 9fbd
00000370: b91f 823d cc5e b5bd 40f7 633d c205 793d
00000380: faaa 51bc cdda 49bd 331f 1bbd 943b 31bd
00000390: a901 cebd c2b1 a3bc 7ee2 89bd 5412 2c3d
000003a0: 9680 053c 698e 43bd 6207 683c da76 c73c
000003b0: a12c 193c 32a2 63ba 9795 d03d 57a2 7b3d
000003c0: ac68 dabc de26 bebd cc05 883d cb42 9abd
000003d0: 0c0b e73d 5ed8 cb3b 1bb8 763d 59ed 003c
000003e0: 5d60 b83b 63cd ba3c 63b7 18bc e753 0a3d
000003f0: 51e7 3d3c 9f0a ba3d e9ec 9bbc b693 3c3d

exp_avg f4 [10, 768]
-0.003154893 -0.0010549907 -0.00020567914 0.00055159914 -0.002349066 0.00038549284 0.0010801153 0.0022398005
-0.0006237698 -0.00048077985 0.0019937053 0.0026140918 -0.00027781897 0.00045652455 -0.00095362175 7.060668e-05
-0.003280874 0.002969954 0.0007607311 0.0008995318 0.0010799567 0.001928336 0.00044108075 0.00085613405
-0.00026145022 -0.00092056463 0.00084550545 0.0019325904 0.00105167 -0.00017121223 -0.00070289307 -0.0005627376
-0.0002360098 -0.004696581 -0.001920471 0.0013979973 0.00011866436 0.00035239744 0.00036153052 -0.0019133874
0.0012450668 -0.0013191197 0.0017351721 0.0011098526 -0.0047439956 -0.0015873059 0.0006052192 -0.0022751559
0.00079529226 -0.0016378514 0.006411642 0.0005289131 0.0001420113 0.0016085225 0.0002546358 9.104131e-05
-0.0019610473 0.0016746883 0.0010406085 8.316054e-05 -0.0026522633 0.0013741126 -0.0012305889 0.0025026747
0.0017046464 0.0015074527 -0.00027594718 0.0014242886 0.0018666378 -0.003684006 -0.00017416714 -0.003967767
0.003826808 -0.001910453 -0.00034540758 3.5691155e-05 -0.0012324977 -0.00073000713 -0.0024278641 -4.0047413e-05
0.0014540473 0.00031343332 -6.396059e-05 -0.0016414325 0.003526645 -0.0020860925 -0.0019659456 -0.0048674364
0.0041834717 0.0015416519 -0.0014986617 -0.0034031929 0.001937171 -0.0008644369 -0.00062085234 0.0011378593
0.000111908994 -0.000120709876 0.00058942346 0.0020299908 -0.0006750657 0.004455199 -0.00014673016 -0.00046570462
-0.002184364 0.0014703993 0.0019750951 -0.003767904 0.0039345585 -0.0013630309 0.0014610392 0.0001937519
0.00012663289 0.0032986698 -0.0010939878 0.003082633 0.00087164185 0.0009889231 0.0023658096 0.0021054836
0.0019499956 0.0009835873 0.0013690316 0.00017409326 0.0013787801 -0.00015673878 -0.0007352511 -0.0025946177
0.0011054467 0.00377875 -0.000683436 0.00018932861 0.0024306083 0.0030437286 -0.0020835737 -0.0013357833
0.0033004817 -0.000527334 -0.0019899744 0.0030175333 0.00057211594 0.0017923615 0.0013790408 -0.0032036453
0.00022734678 0.0021415318 -0.0007679838 -0.0012754087 0.002902708 -0.0003743445 0.0010132352 0.00035383357
0.002557933 -0.0024333342 0.0016000366 0.00033698068 -0.00037893406 -0.0005651453 0.0009546812 0.0011528301
-0.0015699648 -0.00362889 -0.0012091972 -0.0029856393 0.0011588255 -0.00026878229 0.0013900375 0.001547136
8.225419e-05 0.00078759674 0.0014436783 -0.00059854606 -0.0013438626 -0.0012350925 -0.00034414808 0.00018814183
-0.001782742 -0.0036896996 -6.057017e-05 -0.0031111685 -0.0023277577 0.00023880159 0.0046544406 0.0009273123
0.00011089027 -0.00013273364 0.0013717609 0.0026262593 0.0013580081 0.0008932695 -0.00021212311 0.00084919774
0.0010097346 -0.0012387305 0.0026533003 0.0032991872 -0.0011195533 -0.0019504492 0.00031101733 0.004687672
-0.0055845925 0.00021195464 0.00014166487 0.001367758 -0.0046439026 -0.0019974376 0.0038504158 -0.00035303307
-0.0007396227 -0.0005015593 0.00046118107 0.0014637503 0.0035443446 0.001257953 0.0011162038 -0.0008773283
0.0020314574 -0.00088873797 -0.0019618084 -0.0015363964 0.0009493373 -0.0001642708 0.00033732768 0.0032935925
0.0006381502 -0.00014016556 1.3910085e-05 0.0030092436 0.0011396445 -0.0027079307 0.004121 0.0007160593
0.0016494902 0.0023943821 0.002528246 -0.00042006123 0.0011724554 0.0017245739 0.0008163755 -0.0003044088
4.36392e-05 -0.0021714857 -0.004703805 0.0015221087 -0.003377189 0.0010847746 0.0022053597 0.0015198346
0.0028983324 -0.00036799966 0.005304323 -0.0032801568 -0.0014610029 -9.090935e-05 -0.00073902326 -0.0010426985
00000000: 52c2 4ebb 9d47 8aba 93ab 57b9 3199 103a
00000010: caf2 19bb f91b ca39 a892 8d3a 9ec9 123b
00000020: 7c84 23ba 2e11 fcb9 d3a8 023b 2f51 2b3b
00000030: 3ba8 91b9 b059 ef39 79fc 79ba ac12 9438
00000040: ef03 57bb 8fa3 423b cd6b 473a 8fce 6b3a
00000050: 558d 8d3a 38c0 fc3a db40 e739 2f6e 603a
00000060: 4113 89b9 0c52 71ba e9a4 5d3a f94e fd3a
00000070: 31d8 893a 6f87 33b9 5b42 38ba ae84 13ba
00000080: 6679 77b9 c7e5 99bb 50b8 fbba 013d b73a
00000090: 71db f838 fcc1 b839 ce8b bd39 a1ca faba
000000a0: 8231 a33a 50e6 acba b76e e33a 7978 913a
000000b0: 8573 9bbb 260d d0ba 93a7 1e3a c81a 15bb
000000c0: 297b 503a 2cad d6ba c018 d23b c2a6 0a3a
000000d0: dee8 1439 0fd5 d23a a380 8539 6eed be38
000000e0: ea84 00bb 3781 db3a 0765 883a 7a66 ae38
000000f0: 98d1 2dbb 911b b43a b64b a1ba ea03 243b
00000100: 716e df3a b895 c53a 01ad 90b9 32af ba3a
00000110: f9a9 f43a 5d6f 71bb a3a0 36b9 0b04 82bb
00000120: 2fcb 7a3b 2a68 faba d217 b5b9 16b3 1538
00000130: c38b a1ba f35d 3fba cd1c 1fbb 95f8 27b8
00000140: bb95 be3a 4f54 a439 9522 86b8 5625 d7ba
00000150: 491f 673b d3b6 08bb 18d7 00bb 047f 9fbb
00000160: 8115 893b 4111 ca3a be6e c4ba 1a08 5fbb
00000170: ace8 fd3a 619b 62ba b2c0 22ba 3924 953a
00000180: afb0 ea38 9f25 fdb8 8a83 1a3a 9809 053b
00000190: e4f6 30ba ebfc 913b 94db 19b9 d129 f4b9
000001a0: 8c27 0fbb 6aba c03a 9970 013b f0ee 76bb
000001b0: 78ed 803b baa7 b2ba 5780 bf3a e129 4b39
000001c0: c2c8 0439 7f2e 583b 2464 8fba 0006 4a3b
000001d0: e57e 643a c19e 813a b30b 1b3b 27fc 093b
000001e0: ff96 ff3a b7eb 803a 1471 b33a ce8c 3639
000001f0: 2fb8 b43a 3f5a 24b9 debd 40ba 760a 2abb
00000200: a3e4 903a e8a4 773b 9d28 33ba 8386 4639
00000210: d74a 1f3b 4b79 473b 918c 08bb 7315 afba
00000220: e54c 583b c93c 0aba 3b6a 02bb cfc1 453b
00000230: 0dfa 153a aced ea3a eec0 b43a 40f4 51bb
00000240: f063 6e39 f158 0c3b 8552 49ba 9d2b a7ba
00000250: 5c3b 3e3b ab43 c4b9 88ce 843a bd82 b939
00000260: ffa2 273b 9378 1fbb 52b8 d13a c8ac b039
00000270: abab c6b9 4226 14ba 9243 7a3a 8f1a 973a
00000280: 47c7 cdba acd2 6dbb ed7d 9eba b7aa 43bb
00000290: bbe3 973a 59eb 8cb9 eb31 b63a 45c9 ca3a
000002a0: e27f ac38 b976 4e3a ce39 bd3a bfe7 1cba
000002b0: 8c24 b0ba d4e2 a1ba c66e b4b9 f047 4539
000002c0: e5aa e9ba e3ce 71bb ba0c 7eb8 bfe4 4bbb
000002d0: 4b8d 18bb d066 7a39 4784 983b e016 733a
000002e0: c38d e838 6a2e 0bb9 a8cc b33a 521d 2c3b
000002f0: 31ff b13a 4d2a 6a3a 5d6d 5eb9 b29c 5e3a
00000300: 1259 843a e65c a2ba fee2 2d3b 2d37 583b
00000310: fabd 92ba 37a6 ffba 0a10 a339 0b9b 993b
00000320: f5fe b6bb 2440 5e39 e08b 1439 5846 b33a
00000330: e12b 98bb 71e7 02bb 4257 7c3b 4c17 b9b9
00000340: 3de3 41ba 137b 03ba adca f139 4fdb bf3a
00000350: 3c48 683b e6e1 a43a 964d 923a 81fc 65ba
00000360: 3322 053b 32fa 68ba af91 00bb e960 c9ba
00000370: f3dc 783a 1b40 2cb9 5bdb b039 50d9 573b
00000380: 8949 273a 68f9 12b9 5c5f 6937 bb36 453b
00000390: 2060 953a 8a77 31bb 7409 873b edb5 3b3a
000003a0: b533 d83a 11eb 1c3b eeb0 253b aa3b dcb9
000003b0: 13ad 993a 190b e23a 0802 563a 0f99 9fb9
000003c0: 3c09 3738 7c4f 0ebb 6022 9abb 7e81 c73a
000003d0: d453 5dbb ff2e 8e3a cc87 103b 3035 c73a
000003e0: f3f1 3d3b 14f0 c0b9 e3cf ad3b e6f7 56bb
000003f0: 1f7f bfba 96a6 beb8 03bb 41ba 28ab 88ba

exp_avg_sq f4 [10, 768]
3.0513474e-05 3.0817384e-05 3.712414e-05 0.00016942309 0.00036637438 3.669751e-05 9.442034e-05 4.8946353e-05
3.2577664e-05 3.2026554e-05 3.754502e-05 4.83665e-05 3.1823227e-05 0.00010755198 0.000107847256 3.179411e-05
3.314265e-05 0.00017169166 5.7795252e-05 2.8910936e-05 3.377071e-05 6.493544e-05 2.8056624e-05 3.5382724e-05
3.2890723e-05 4.6876212e-05 3.6863046e-05 3.8310234e-05 2.984214e-05 6.236977e-05 2.8968656e-05 4.503995e-05
4.548557e-05 9.767937e-05 3.371499e-05 3.526335e-05 0.00026063606 4.031724e-05 3.8540373e-05 3.3693595e-05
3.4571003e-05 3.769511e-05 4.0728155e-05 2.9825025e-05 3.1788662e-05 7.2871415e-05 3.8603164e-05 3.7326936e-05
4.1656993e-05 4.884529e-05 0.00025738942 0.00016155314 0.00019284351 4.739242e-05 3.0144078e-05 5.8244044e-05
5.026723e-05 3.0496132e-05 3.232167e-05 5.9225506e-05 4.357662e-05 4.927678e-05 4.213469e-05 3.3500484e-05
3.0635765e-05 3.7988404e-05 3.0898114e-05 5.1550876e-05 6.5215296e-05 3.0678548e-05 0.00014842779 4.7314432e-05
0.0003187633 3.193217e-05 6.806751e-05 3.1112853e-05 2.7407108e-05 3.0599425e-05 4.946852e-05 3.8008548e-05
3.5801455e-05 0.000113071226 3.4293644e-05 2.9646453e-05 0.00016279519 3.124832e-05 0.0005565421 0.00093852414
2.89946e-05 0.00011755138 5.2240353e-05 3.3360695e-05 2.8550987e-05 6.1151324e-05 3.4406054e-05 6.50805e-05
6.0604576e-05 7.422377e-05 3.6731395e-05 0.0004509465 8.1442304e-05 0.00017474986 6.0606584e-05 4.4558215e-05
3.064846e-05 3.292556e-05 3.8738686e-05 0.00022309086 3.2047814e-05 0.0004467936 3.976228e-05 3.4257308e-05
0.00010052491 3.5870467e-05 3.0275201e-05 3.56491e-05 0.0001437836 3.2917447e-05 3.1615724e-05 3.2076685e-05
2.642348e-05 3.0870524e-05 3.7001075e-05 3.676484e-05 9.256451e-05 7.715266e-05 3.07291e-05 3.3589877e-05
5.188343e-05 2.9039371e-05 3.7005648e-05 0.00033068456 3.7810365e-05 0.00024394329 2.8358414e-05 4.204077e-05
0.00026146806 0.00013510755 3.2059674e-05 4.0407784e-05 6.51784e-05 0.00011315279 8.481849e-05 0.00018542923
0.0004275339 3.9368926e-05 2.9978097e-05 3.3017383e-05 3.222824e-05 5.4890355e-05 9.121671e-05 0.00017863649
4.430626e-05 3.6853522e-05 4.451239e-05 3.7989033e-05 7.614154e-05 7.5298376e-05 6.211346e-05 0.00018099394
4.9168706e-05 3.2836033e-05 4.1580817e-05 5.6176697e-05 6.364969e-05 5.2749063e-05 0.00010315544 3.53261e-05
4.8455247e-05 0.00015150482 7.382794e-05 2.7767514e-05 6.712747e-05 5.283405e-05 4.9277634e-05 3.0962623e-05
5.635688e-05 3.6697777e-05 3.2634514e-05 5.1018007e-05 0.00019446287 5.7938156e-05 0.00022031537 3.8379803e-05
0.0002930973 0.00015722157 6.2462874e-05 4.725153e-05 2.7957482e-05 0.00010565716 9.344321e-05 4.0987496e-05
3.113864e-05 4.462906e-05 6.689599e-05 6.297668e-05 3.3984717e-05 3.5844547e-05 0.00010666387 5.0552906e-05
4.5428103e-05 6.449211e-05 4.172034e-05 3.3567896e-05 0.0001678935 0.0002313637 3.1323103e-05 2.8644892e-05
7.775927e-05 3.9343755e-05 3.090279e-05 2.9167159e-05 0.000114671886 0.000110848065 3.9794857e-05 2.8752223e-05
3.4660166e-05 7.934488e-05 0.0001280185 3.313606e-05 2.7576623e-05 3.057107e-05 4.1441734e-05 3.104419e-05
3.200282e-05 3.649406e-05 9.101489e-05 8.1699225e-05 5.793549e-05 7.503272e-05 3.657327e-05 3.6126712e-05
4.641387e-05 3.1886946e-05 6.11906e-05 9.582928e-05 4.800162e-05 0.00042428973 2.870918e-05 3.1629614e-05
2.9322873e-05 3.3764863e-05 4.015796e-05 3.1512984e-05 3.234212e-05 5.0553008e-05 2.9633751e-05 2.915061e-05
0.00023142915 3.651624e-05 7.93816e-05 4.8368645e-05 2.8986322e-05 3.287525e-05 7.132874e-05 2.8274699e-05
00000000: 30f7 ff37 ea41 0138 beb5 1b38 2aa7 3139
00000010: f015 c039 a7eb 1938 8903 c638 bf4b 4d38
00000020: 00a4 0838 4054 0638 a979 1d38 22dd 4a38
00000030: ee79 0538 888d e138 0e2c e238 aa5a 0538
00000040: a602 0b38 2108 3439 2e69 7238 c385 f237
00000050: 06a5 0d38 f32d 8838 245b eb37 e967 1438
00000060: 25f4 0938 f39c 4438 659d 1a38 4daf 2038
00000070: 8255 fa37 84cc 8238 b701 f337 47e9 3c38
00000080: c2c7 3e38 36d9 cc38 3269 0d38 bce7 1338
00000090: fba5 8839 4f1a 2938 69a6 2138 3952 0d38
000000a0: 5500 1138 d11a 1e38 86d3 2a38 c130 fa37
000000b0: d154 0538 8bd2 9838 d5e9 2138 7e8f 1c38
000000c0: dbb8 2e38 3bdf 4c38 39f2 8639 9766 2939
000000d0: 0936 4a39 39c7 4638 eadd fc37 114b 7438
000000e0: 07d6 5238 f2d1 ff37 2191 0738 e768 7838
000000f0: 0ac6 3638 8aae 4e38 c7b9 3038 df82 0c38
00000100: e77e 0038 bd55 1f38 9998 0138 5538 5838
00000110: 32c4 8838 d7ac 0038 48a3 1b39 7c73 4638
00000120: b01f a739 e8ee 0538 77bf 8e38 2c7f 0238
00000130: 51e8 e537 e257 0038 6b7c 4f38 5e6b 1f38
00000140: 8529 1638 a720 ed38 85d6 0f38 46b1 f837
00000150: 00b4 2a39 a110 0338 e8e4 113a 4a07 763a
00000160: 6e39 f337 eb85 f638 a71c 5b38 c6ec 0b38
00000170: c780 ef37 5e3e 8038 384f 1038 d47b 8838
00000180: ab31 7e38 95a8 9b38 0910 1a38 046d ec39
00000190: 01cc aa38 0f3d 3739 d333 7e38 05e4 3a38
000001a0: 898c 0038 8d19 0a38 597b 2238 7fed 6939
000001b0: 146b 0638 9f3f ea39 6cc6 2638 81af 0f38
000001c0: e6d0 d238 9f73 1638 80f7 fd37 ee85 1538
000001d0: 9ec4 1639 d710 0a38 209b 0438 148a 0638
000001e0: fea7 dd37 f97a 0138 9a31 1b38 f233 1a38
000001f0: 311f c238 05cd a138 1fe3 0038 dbe2 0c38
00000200: 699d 5938 9399 f337 8336 1b38 bb5f ad39
00000210: 9296 1e38 07cb 7f39 3be3 ed37 ef54 3038
00000220: a615 8939 a8ab 0d39 d077 0638 877b 2938
00000230: 63b0 8838 714c ed38 95e0 b138 c86f 4239
00000240: a126 e039 1020 2538 7979 fb37 257c 0a38
00000250: cf2c 0738 123a 6638 994b bf38 5e50 3b39
00000260: 7cd5 3938 2b93 1a38 d1b2 3a38 6a56 1f38
00000270: 2eae 9f38 82e9 9d38 e942 8238 31c9 3d39
00000280: 7f3a 4e38 6cb9 0938 1067 2e38 459f 6b38
00000290: ab7b 8538 e03e 5d38 2855 d838 1c2b 1438
000002a0: 6d3c 4b38 44dd 1e39 13d4 9a38 48ee e837
000002b0: c9c6 8c38 219a 5d38 75af 4e38 dddd 0138
000002c0: bd60 6c38 f0eb 1938 0be1 0838 2bfc 5538
000002d0: bbe8 4b39 9f02 7338 7504 6739 00fa 2038
000002e0: dbaa 9939 d8db 2439 80fe 8238 f22f 4638
000002f0: 3c86 ea37 4194 dd38 f1f6 c338 fde9 2b38
00000300: dc9a 0238 1730 3b38 834a 8c38 5912 8438
00000310: d08a 0e38 ca57 1638 bbb0 df38 c508 5438
00000320: 0e8a 3e38 f03f 8738 e0fc 2e38 41cb 0c38
00000330: 910c 3039 389a 7239 ed60 0338 704a f037
00000340: b112 a338 0905 2538 9e9d 0138 ffab f437
00000350: 007c f038 1a77 e838 67e9 2638 ee30 f137
00000360: 1260 1138 f565 a638 b43c 0639 93fb 0a38
00000370: 5954 e737 7039 0038 b9d1 2d38 7235 0238
00000380: c43a 0638 3311 1938 3fdf be38 f055 ab38
00000390: c2ff 7238 e35a 9d38 4066 1938 c386 1738
000003a0: 83ac 4238 59be 0538 7453 8038 f4f7 c838
000003b0: 5955 4938 3473 de39 7fd4 f037 0aaa 0438
000003c0: 64fa f537 bf9e 0d38 486f 2838 cf2c 0438
000003d0: 16a7 0738 e108 5438 ff95 f837 7588 f437
000003e0: caab 7239 0429 1938 ac79 a638 70df 4a38
000003f0: a727 f337 88e3 0938 5396 9538 742f ed37
