SmallD_SDD_up_to_step2/out_IPC_10_no_cu_20mrpc_mlp4_ipc10_w20.pth (torch, 187016 bytes, 3 tensors)

module.data.weight f4 [20, 768]
000000 ab 1e 31 bd c6 b4 39 3b d5 15 0f bd 43 41 1e bd
       -0.043242138 0.002833651 -0.03493293 -0.038636457
000010 95 23 11 3d 00 5a 72 3c 0f b0 b4 bc 7b 76 30 bd
       0.035434324 0.0147919655 -0.022056608 -0.04308174
000020 a3 61 db 3c 7d 91 40 bd ff 72 70 3d 5f 8a a3 3b
       0.026779955 -0.04701375 0.05870342 0.0049908604
000030 24 12 56 3d 27 10 07 bd ed cb 34 bd 88 62 88 bd
       0.052263394 -0.03297439 -0.04413979 -0.06659418
000040 8b a0 0e 3d 09 a9 c6 b9 a0 f6 f3 3c e6 06 84 3c
       0.034821074 -0.00037891444 0.029780686 0.01611657
000050 5e 05 7a bd 39 76 ab 3c 50 42 f4 bc 85 81 96 3c
       -0.061040275 0.020930396 -0.029816777 0.018372307
000060 7c 25 33 3c ae ca 3b bd a8 ae 4f 3c c9 db 31 3d
       0.01093423 -0.045847587 0.012675919 0.043422494
000070 ed bd 33 3d 5c 4f 77 bd 76 45 11 3b f7 60 05 bc
       0.0438823 -0.060378417 0.0022166646 -0.008140794
000080 e8 a5 4d bc 80 b6 ef 3a 85 8d a4 bc ba 57 60 bd
       -0.012551762 0.0018288642 -0.020087013 -0.054771163
000090 da d6 10 3d 3b 4d 2c bd 70 9a 04 bd 96 b8 71 bd
       0.03536115 -0.04206584 -0.032373846 -0.059013925
0000a0 48 fc 3d 3d 29 80 bb bb 74 f0 60 bb e2 55 2c bc
       0.046383172 -0.005722065 -0.0034323009 -0.010518523
0000b0 44 c0 a2 bc 35 b4 12 bd 63 0d be 3c 41 7f 1f bc
       -0.01986707 -0.03581639 0.023199743 -0.00973493
0000c0 06 1a 8b 3c d8 d0 a3 bc 09 b8 1c 3b b0 a1 47 3c
       0.016980182 -0.019997045 0.0023913404 0.012184545
0000d0 02 ee 4a bb f5 b9 c0 bc 34 84 7d bc e3 a1 4b bb
       -0.0030964618 -0.023526171 -0.015473414 -0.0031071834
0000e0 f6 22 b8 bc 26 bc 87 bb 18 3a 78 bd d5 2d 37 3d
       -0.022477608 -0.004142302 -0.060602278 0.044721443
0000f0 49 25 40 3c 4a e6 aa 3c c6 f4 28 3d c0 d9 b1 3c
       0.0117276395 0.020861764 0.04124906 0.021710277
000100 7b 88 2a bd 53 9b d8 bc ee 73 28 3b af de 47 bd
       -0.041634064 -0.026441252 0.0025703865 -0.048796352
000110 fc 7c 30 bd f6 1a 51 3d e2 70 cd bb 17 78 ee bc
       -0.043087944 0.051051103 -0.00626956 -0.029109998
000120 63 e3 9a bc 46 7a fd 3c ae 95 c8 3c 40 d1 35 bd
       -0.018907255 0.030942094 0.024485435 -0.04438901
000130 1a be 09 3d aa 4b 82 bd b9 c6 1d 3d 63 9d 28 bc
       0.03362856 -0.06362088 0.038519595 -0.01029143
000140 d2 19 3d bd e8 31 3d bd 61 01 b6 3a 07 af 2d bd
       -0.046167202 -0.046190172 0.0013885909 -0.042403247
000150 40 16 0a bd ed 25 96 bc 89 41 52 3d 46 f3 1b bd
       -0.033712626 -0.018328631 0.05133203 -0.0380738
000160 ba c0 88 bc 77 5b aa bc 4f 77 0d 3c 69 2f 0f bd
       -0.016693462 -0.020795567 0.008634402 -0.034957323
000170 11 14 fc bc 60 59 6d bd c6 0b a0 3b 67 de 04 3d
       -0.030771287 -0.057946563 0.004884216 0.032438662
000180 e4 90 e4 3c 68 a2 89 3d 29 c0 53 bd 94 1d 38 bc
       0.02790112 0.0672043 -0.05169693 -0.011237521
000190 f5 b2 5b bd f2 0a 14 bd 17 c4 cf 3c d0 ef ce 3b
       -0.053637464 -0.03614325 0.025362058 0.006315209
0001a0 71 14 51 bd 60 c7 bb bc 64 72 b6 3c cd 2a bb 3c
       -0.051044885 -0.022922218 0.022271343 0.022847557
0001b0 69 ee 4e bd d7 3e 0d 3d d4 ce d0 3d 7a 69 af 3c
       -0.050520334 0.034483757 0.10195699 0.0214126
0001c0 22 b9 8a 3d a2 d0 39 3b c3 42 58 bd 46 64 81 bd
       0.067735925 0.0028353115 -0.052798044 -0.06317954
0001d0 ff 42 28 bd 1f df 17 3d da 2e 53 3b d3 fb fb 3c
       -0.041079517 0.03707802 0.003222397 0.030759728
0001e0 6d 03 7c bd a5 19 12 3b b9 64 64 3d c2 48 cd bc
       -0.061526705 0.0022293117 0.05576012 -0.025059108
0001f0 dd 37 81 3d e2 4f 68 bd d2 cb ee bc 1e 45 2a 3d
       0.06309483 -0.056716807 -0.029149923 0.04156982
000200 1e e0 a2 bb f4 d9 f5 3b 12 6d 4e 3c 76 92 a0 bc
       -0.0049705645 0.0075027887 0.012599247 -0.019601088
000210 4d 00 30 3b dd 8d c9 3c 65 8f 40 bd d2 53 12 3d
       0.0026855648 0.024603778 -0.04701175 0.03572447
000220 16 ab 99 ba b6 e8 0a bc 7d b1 e2 bc ed 38 0b bc
       -0.0011723961 -0.008478334 -0.027672524 -0.008497459
000230 80 63 6f 3c f2 13 71 3d 08 50 93 3c a2 99 e5 3b
       0.014611125 0.058856912 0.017982498 0.00700684
000240 97 bd 53 bd 51 14 4e bd 22 46 5a 3d ef 76 11 3c
       -0.05169448 -0.050312344 0.05328954 0.008878454
000250 40 b1 91 bc ec e1 e7 bc c2 9c a9 3b 0b aa 80 3d
       -0.017784715 -0.02830597 0.0051761577 0.06282433
000260 b9 fe 35 bc 3d 9b a2 3b c6 39 9a 3c 5d 9f 81 bc
       -0.011108094 0.0049623535 0.018826377 -0.01582306
000270 4f 32 cd 3c ce ec e9 3d 87 9d f6 bc f4 aa 74 bc
       0.025048403 0.1142212 -0.030104412 -0.0149333365
000280 98 3d fe bb 25 f3 26 3d c0 00 20 bd 62 a0 0c bd
       -0.0077588074 0.040759224 -0.039063215 -0.03433264
000290 06 04 30 3d ec 20 a1 3c ac 67 89 bd 7b 14 24 bb
       0.042972587 0.019669019 -0.06709227 -0.0025036621
0002a0 a4 ad 37 bc 43 d4 9d bc fe 5a 16 3d ba e2 f0 3b
       -0.011210833 -0.019266253 0.03670787 0.0073512467
0002b0 01 f8 14 bd 11 2c ff 3c 20 5d 8d bc a0 7d e3 bc
       -0.036369327 0.031148942 -0.01725632 -0.027769864
0002c0 bb 88 18 3d c2 47 e9 bb 4f f3 c1 3c 80 80 61 3d
       0.03723977 -0.00711915 0.023675589 0.055054188
0002d0 15 45 33 3c 93 6c 1e bd f2 e7 be bb c7 f3 4e bd
       0.010941763 -0.038677763 -0.00582599 -0.050525453
0002e0 60 1c 94 3b d9 5e 87 3c 39 92 71 bc 9c dc 01 bb
       0.004519984 0.01652472 -0.014744335 -0.0019815331
0002f0 5d e9 83 bc a3 76 45 bd 97 04 7e bd 34 f0 eb 3c
       -0.016102487 -0.048208844 -0.062016096 0.028801061
000300 92 92 41 bd 3e db 4d bd 26 c8 ba 3c 04 aa 14 bd
       -0.04725892 -0.050257914 0.022800516 -0.036294952
000310 a0 9e 14 bd b3 ce b3 3c 63 8d 91 bd 54 a3 d7 bc
       -0.03628409 0.021949148 -0.071070455 -0.026322998
000320 d5 51 2b bd 2f 4d 0a 3d 9f 25 fb bb 00 18 24 bd
       -0.041826088 0.033765014 -0.007664397 -0.04006195
000330 4d f1 4f bd 20 77 03 bd c5 60 17 bc d3 af 8e 3c
       -0.05076723 -0.03209603 -0.00923938 0.017417824
000340 4b 1d 73 bc 90 3c 87 3c 01 43 15 bd 27 73 8b 39
       -0.014838527 0.01650837 -0.036440853 0.0002659794
000350 78 e1 47 bd 8b 48 84 3b e3 65 63 3c 16 cd 16 3d
       -0.048799008 0.004036968 0.013879272 0.03681668
000360 71 7e 1e 3d af d6 c0 3c 79 99 77 3c f3 38 2e 3d
       0.038694803 0.02353987 0.015112274 0.04253478
000370 09 e1 9e 3c 22 6e ab 3c ec ff 23 bc 5e e3 b5 bb
       0.019394414 0.020926539 -0.010009747 -0.005550786
000380 3d ca 82 bd bc 95 10 bd 38 4d 86 3c 95 34 ab bc
       -0.0638623 -0.035299048 0.016394243 -0.020899097
000390 5e 83 13 bd ea d7 8c 3c 0b 1a d7 bc cd 63 ef 3c
       -0.036013953 0.0171928 -0.026257535 0.029222393
0003a0 46 5e 93 bc f3 07 23 bd 04 35 31 bc bd cc 99 3c
       -0.017989289 -0.039802503 -0.010815863 0.018774385
0003b0 46 46 24 3c f1 54 98 bd 40 94 72 bb 9c f6 76 3d
       0.01002652 -0.07438076 -0.0037014633 0.06029378
0003c0 9b 69 e3 bc 55 58 3c bd 08 7e 6a 3a 6b ac 4f 3c
       -0.027760318 -0.045982677 0.0008945172 0.012675385
0003d0 07 87 36 3d a7 66 5e 3d 45 da 10 bd 37 58 9d bd
       0.044562366 0.054297116 -0.035364408 -0.07682841
0003e0 80 c7 43 bd 51 68 af 3b 4b f2 eb bc 78 b5 47 bc
       -0.04779768 0.0053530117 -0.028802058 -0.012189262
0003f0 e6 81 2c bd 09 ab 94 3d 6a d6 97 3c 47 1b 55 3d
       -0.04211607 0.07259185 0.018534858 0.052027967

exp_avg f4 [20, 768]
000000 8d ff 4a 3c 86 36 c3 3c ff 64 e5 bd 34 22 70 3d
       0.01239003 0.02382971 -0.11200904 0.05862637
000010 b4 0e 01 be 3e 80 ad bd 91 03 57 bc 79 42 1d bd
       -0.12603265 -0.08471726 -0.013123409 -0.03839347
000020 d5 bf 14 3e 50 c6 10 3e a2 45 af 3d 1f 21 b5 3e
       0.14526303 0.1413815 0.08558203 0.35376832
000030 65 b2 f0 3e 65 b9 07 3f 25 bd f3 bd a7 9f f7 bd
       0.47011104 0.53017265 -0.11901311 -0.12090998
000040 70 ff 2b 3e f1 dc d0 3d 63 ac 61 3e 9a c8 31 3d
       0.1679666 0.10198391 0.22038417 0.0434042
000050 2f de 4b be 9c 48 91 3d 39 2f a5 bd da 8f 9c be
       -0.19908975 0.07093927 -0.08065648 -0.305785
000060 eb 41 26 3e 10 ce a6 3c e9 60 c5 bb d7 09 24 3e
       0.16236083 0.02036193 -0.0060235155 0.16019379
000070 34 2b 18 be 5f 5a 55 3e ae 9b c0 3e d1 8b aa 3e
       -0.1486023 0.20835255 0.37618774 0.33309796
000080 96 d6 1b 3e 7f ce e9 bb 35 cd c5 3d 45 aa b9 be
       0.15218577 -0.007135212 0.09658281 -0.36262718
000090 b6 ed e1 3e dc 15 1c 3e ea e1 0f be 7f a2 63 be
       0.44126672 0.15242714 -0.14051023 -0.22229956
0000a0 72 eb 32 3e b7 f5 e3 3d bf 2c af 3e 40 d1 9e 3d
       0.17472628 0.11130851 0.34213826 0.07754755
0000b0 0b 49 b4 be 3f 59 15 bb 35 b4 d9 bd 64 77 13 3d
       -0.35211977 -0.002278879 -0.10630075 0.03600253
0000c0 13 c1 8e be 37 09 40 bd 18 6c 8c bc 0c bf 91 be
       -0.2788168 -0.046883788 -0.017141387 -0.2846607
0000d0 3d e0 d9 be a1 e9 39 bc 95 f4 45 3e 75 4b 8e 3e
       -0.42553893 -0.011347205 0.19331582 0.27791944
0000e0 91 03 88 3c 9e c5 fb bc 1c 20 e4 bd 93 5b bb 3e
       0.016603263 -0.03073388 -0.11138937 0.36593303
0000f0 3b cb 1a be 60 a6 b9 3d 80 64 c7 3d 29 a3 2a 3d
       -0.15116589 0.09064937 0.09735966 0.041659508
000100 57 fc ec 3d 4c 42 4b bd fc 56 02 3f 5a df 68 3e
       0.115715675 -0.049623773 0.5091398 0.22741452
000110 c7 0e ff bd 2b 1e 5d bd 8b 1c 4e be 9e c3 6f bd
       -0.124539904 -0.05398385 -0.20128076 -0.058536164
000120 33 7b 6b 3e ed a2 a1 bb 04 a1 77 3e 4d c5 da 3c
       0.22996216 -0.0049327523 0.24182516 0.026705408
000130 75 3d 43 be 8c 10 33 be 40 8b a4 3e 02 e7 40 3c
       -0.19066413 -0.17486781 0.3213749 0.011773827
000140 b0 d2 43 be 3a a0 cd 3c 02 94 5e be 70 27 a6 be
       -0.1912334 0.025100816 -0.21736148 -0.32451963
000150 06 18 1b 3e 9b eb ef 3c e8 0d 6c 3e 04 4f c8 be
       0.15145883 0.02928715 0.2305218 -0.39122784
000160 50 a7 41 be 2f 3e 8d 3e d6 0f 73 3e b7 a0 c4 3d
       -0.18911481 0.27586505 0.2373651 0.096009664
000170 9f 31 1d be c9 51 3d be 74 dc 4c 3e e8 0b cd 3d
       -0.1535096 -0.1848823 0.20005971 0.100120366
000180 8e a3 72 bd fa dd 10 be 40 1c a1 3e a1 ec 70 be
       -0.05923801 -0.14147177 0.31466866 -0.23527767
000190 a9 11 32 3d 50 51 88 be 7b e0 35 3e 47 f2 82 bd
       0.043473873 -0.26624537 0.17761414 -0.06393867
0001a0 c8 10 84 3c 3f 9e 99 3e 7e ec c8 bd a9 93 25 3d
       0.016121283 0.30003545 -0.09810732 0.040424023
0001b0 65 ab 5b 3e 66 f2 d1 bd fc 4f 85 3e 33 65 84 be
       0.214521 -0.10251312 0.26037586 -0.2585846
0001c0 d7 43 0c 3e 0b 29 fb 3c 09 d3 8e be 5b 60 6f be
       0.13697754 0.03065922 -0.27895382 -0.233766
0001d0 be cf 85 bd a4 bb 37 3e 89 f3 9b be 19 ae 51 3e
       -0.06533764 0.17942673 -0.3045924 0.20476569
0001e0 09 72 19 3e d5 96 0b bd 63 7c 80 bd 92 f9 ce bd
       0.14984907 -0.03407939 -0.06273725 -0.101061955
0001f0 c9 67 04 be c2 6c 85 3d b4 22 33 be a5 0f be bd
       -0.12930216 0.065148845 -0.17493707 -0.09280328
000200 c8 20 0c 3f 07 30 87 3e 8d 0c a2 bd a1 ef ce 3e
       0.5473752 0.2640383 -0.0791255 0.40417197
000210 40 a0 39 3e eb d4 cf bc 1b b7 ce 3d a1 d3 9c 3d
       0.18127537 -0.025370082 0.10093518 0.076575525
000220 25 63 44 be 74 33 62 3e 53 f0 b3 be 30 77 68 3d
       -0.19178446 0.2208994 -0.3514429 0.05675429
000230 19 66 9e bc 75 70 36 bd c0 3d 8c be 2b 1a b6 bd
       -0.019335793 -0.04454084 -0.27390862 -0.0889171
000240 90 26 0d 3d 69 dc ae be 20 a1 94 be a9 a6 47 3d
       0.034460604 -0.34152535 -0.2902918 0.048742924
000250 ac f4 56 be 52 24 1d be ea 51 7f 3d c5 da 4d 3e
       -0.20991772 -0.15345886 0.06233398 0.20102985
000260 3d ba a2 bd e5 e6 b3 bc 47 48 eb 3d ce 6f 16 be
       -0.079456784 -0.021960685 0.11488395 -0.14691088
000270 35 e3 8a 3e 8e f7 83 3e 0d a9 e2 3d 9f ff e5 3d
       0.2712647 0.25774807 0.110674 0.112303965
000280 bf 57 c3 3d a2 98 42 ba 39 64 14 3d 72 2c e3 bc
       0.095382206 -0.0007423257 0.036228392 -0.027731154
000290 c8 92 69 be 28 51 72 3d d7 45 05 3e b7 9f 9f be
       -0.22809899 0.059159428 0.13014923 -0.3117654
0002a0 2f 1a 35 bd ba b3 42 3e df a0 31 3d 32 a3 86 be
       -0.044214424 0.19013873 0.04336631 -0.26296383
0002b0 1c 99 e4 bd 86 dc be bd 7a dc 4c bc 44 41 6c be
       -0.11162016 -0.09319405 -0.012503738 -0.23071772
0002c0 51 43 aa bd b7 f3 99 bd 17 b4 0d 3e 7f ed 2f 3d
       -0.08313621 -0.07517188 0.1383823 0.042951103
0002d0 28 c2 c1 be 93 71 87 3d 9b 81 4d 3d 1d 83 98 3e
       -0.37843442 0.066134594 0.05017243 0.29787531
0002e0 5b 7c 84 3d ee 4b 11 3e 10 11 d7 3e 5c 51 c8 3d
       0.064690314 0.14189121 0.42005205 0.09781143
0002f0 d7 76 63 bd 5c 76 a2 be fd a3 17 be 37 a1 be 3c
       -0.055533256 -0.31730926 -0.1480865 0.023270233
000300 db 09 ed 3d d3 f7 dd bd 0f 25 8e 3e 0b 59 c1 bd
       0.115741454 -0.10838284 0.27762648 -0.09440812
000310 4f ce 9f 3d 84 60 b7 3e fb 7a 59 3e 55 01 a8 3e
       0.07803022 0.35815823 0.2123832 0.32813516
000320 36 6f 39 be 1d 22 4c be ae 0a 92 3d 1c cf 54 3e
       -0.1810883 -0.19934888 0.07130943 0.20782131
000330 28 aa 4c be a1 40 b2 3e 1f 9a 2f 3e 5b bc 90 be
       -0.19986784 0.34814933 0.17148636 -0.28268704
000340 a4 84 f0 3d 71 06 81 3e 87 63 38 3e 75 94 9f 3c
       0.11744049 0.25200227 0.18006717 0.01947997
000350 96 2e b4 bd 5f ea a8 bc 52 f4 64 3e 28 87 a5 3c
       -0.08797948 -0.02061957 0.22358826 0.02020605
000360 d1 e8 e3 3e 08 ad 37 bd f7 0a 78 3d 08 94 09 3e
       0.44513562 -0.04484275 0.060557332 0.13435376
000370 e4 9a 98 3e d3 ed 79 be 68 4a 6b 3d 59 65 9f bd
       0.29805672 -0.24407129 0.057444006 -0.077830024
000380 0a 63 9d be b9 0c 44 be f9 05 1a be c7 3b a9 3e
       -0.30739623 -0.19145478 -0.15041341 0.3305342
000390 51 e5 bf bd 71 56 11 bb 02 19 ad bd 9c 7c b1 3e
       -0.093699105 -0.0022176767 -0.084520355 0.34665382
0003a0 15 a8 3b 3d d7 f9 fd 3d 13 a6 7c be 54 45 12 3e
       0.045814592 0.12401169 -0.24672727 0.14284259
0003b0 8f d2 04 be f1 1c 85 bd 69 6c 4b 3e 47 e8 5e be
       -0.12970947 -0.06499661 0.19865574 -0.21768294
0003c0 76 7e 85 be 6a 24 20 3e 22 fd 3e 3d 31 d6 38 be
       -0.26073045 0.15638891 0.046628125 -0.18050458
0003d0 33 68 c5 bd cf fe 37 3d 0b 5b 84 3e 7c f0 bf 3d
       -0.09639015 0.04492074 0.2585071 0.09372041
0003e0 66 96 10 3e 2f fa 5c bd 22 3a 94 bc d7 e1 15 bd
       0.14119872 -0.05394953 -0.018094126 -0.03659233
0003f0 6b d8 80 3c ce a2 04 3e cc 86 8a bb 02 22 66 bd
       0.015728196 0.1295273 -0.004227495 -0.056184776

exp_avg_sq f4 [20, 768]
000000 ac e6 1e 40 f5 82 65 3f 79 32 ee 3f cb 8e 99 3f
       2.482829 0.8965295 1.8609153 1.1996702
000010 35 6f bb 3f f5 58 83 3f 3b 74 bd 3f 49 19 a6 3f
       1.4643313 1.0261523 1.4801096 1.2976466
000020 50 69 73 3f 7c 9e 6d 3f 6e a8 88 3f bc 68 83 3f
       0.9508257 0.9281995 1.0676401 1.0266337
000030 c5 a2 91 3f 20 9e dc 3f 00 f6 7a 3f 6d 84 99 3f
       1.1377798 1.7235756 0.98031616 1.1993538
000040 48 6f 73 3f 0a ff f4 3f 4d f3 d0 3f 17 73 8a 3f
       0.95091677 1.9140332 1.632425 1.0816373
000050 c0 8a 7d 3f 56 e3 7d 3f e6 58 7c 3f 70 9d 7b 3f
       0.9903984 0.9917501 0.9857315 0.98287106
000060 f0 26 58 3f 88 e9 c6 3f 32 81 68 3f a5 fd 8c 3f
       0.84434414 1.5540018 0.90822136 1.1014906
000070 83 16 85 3f 36 05 ac 3f 57 3d 69 3f d9 a4 fe 3f
       1.0397495 1.343909 0.9110922 1.9894058
000080 1b 8a c2 3f 4d ed cb 3f 33 35 e0 3f 90 7a 8a 3f
       1.5198396 1.5931793 1.7516235 1.0818653
000090 d2 b9 b5 3f 58 2e 6a 3f 52 fb 6e 3f 48 6d 64 3f
       1.4197333 0.91476965 0.93352234 0.8922925
0000a0 7d 5a 93 3f 0c 40 72 3f 54 10 7f 3f 69 fe 64 3f
       1.151199 0.9462898 0.9963429 0.894507
0000b0 9c 29 78 3f 9e 2c be 3f a3 1a 65 40 8d 0b 9c 3f
       0.9693849 1.4857366 3.5797508 1.2191025
0000c0 56 c6 9d 3f d2 97 83 3f f1 69 9c 3f e2 7b 99 3f
       1.2326152 1.0280707 1.2219831 1.1990931
0000d0 7a b2 dc 3f f3 3a a5 3f b0 40 69 3f 38 2a 7a 40
       1.7241967 1.2908615 0.9111433 3.9088268
0000e0 67 00 dc 3f fc 4b 5b 3f a4 22 83 3f d5 83 b5 3f
       1.7187623 0.8566282 1.0244946 1.4180857
0000f0 63 9b 6d 3f 37 c2 85 3f ec 15 9a 3f 39 2e b9 3f
       0.92815226 1.0449895 1.203794 1.4467231
000100 c6 c8 73 3f 83 f0 9f 3f 41 2b a5 3f b6 4c 32 40
       0.9522823 1.2495273 1.2903825 2.785932
000110 d5 05 fd 3f 23 47 6f 3f d6 d1 8b 40 e2 7b 9f 3f
       1.9767405 0.9346792 4.3693647 1.2459681
000120 10 13 29 40 be 7f 7d 3f 4e c3 64 3f a5 f9 78 3f
       2.6417885 0.99023044 0.8936051 0.9725593
000130 ad e0 a3 3f 6c 35 65 3f 00 ea 87 3f 45 67 a2 3f
       1.2802941 0.8953464 1.0618286 1.2687765
000140 f0 55 66 3f 72 19 c6 3f d2 25 6b 3f 09 66 82 3f
       0.8997488 1.5476515 0.91854584 1.0187389
000150 b1 aa 85 3f bd 3a 60 3f a3 bc a5 3f a1 c8 4b 40
       1.0442716 0.8758963 1.2948192 3.1841204
000160 65 3c 89 3f 2b 4c 1c 40 76 92 b0 3f 64 af 70 3f
       1.0721556 2.442149 1.3794696 0.94017625
000170 36 31 6f 3f 40 07 87 3f 28 77 7e 3f 84 af 8b 3f
       0.93434465 1.0549088 0.9940057 1.0912938
000180 17 bf 6b 3f d2 2a 71 3f 16 cd 78 3f 3b 72 0f 40
       0.92088455 0.94205964 0.97187936 2.241347
000190 86 64 97 3f b1 a5 92 3f c3 40 0a 40 b1 61 70 3f
       1.1827552 1.1456815 2.1602027 0.93899065
0001a0 1e d7 61 3f c5 c9 7b 3f 4a 91 93 3f 69 27 f3 3f
       0.8821887 0.9835475 1.1528714 1.8996402
0001b0 e6 25 59 3f 05 3e 55 40 41 82 9d 3f 1c 79 84 3f
       0.84823453 3.3319104 1.2305375 1.034946
0001c0 d6 e6 b8 3f 61 5f 75 3f 66 ab 83 3f cb c6 ed 3f
       1.4445446 0.9584866 1.0286682 1.8576292
0001d0 4c 59 84 3f ac d6 9c 3f 44 d2 7a 3f 08 fd 65 3f
       1.0339751 1.2253013 0.9797709 0.8983922
0001e0 9e 1e 75 3f 44 2a 98 3f 30 01 81 3f ff be 8d 3f
       0.95749843 1.1887898 1.0078487 1.1073912
0001f0 68 1c 9a 3f cb 5a c1 3f f6 87 80 3f a4 f3 63 3f
       1.2039919 1.5105833 1.0041492 0.8904364
000200 69 75 ba 40 fc 37 bb 3f 6f 3b 67 3f 60 13 06 40
       5.8268323 1.462646 0.90325063 2.0949326
000210 6f ec 7a 3f cd 82 48 40 94 f1 6c 3f ce a4 8a 3f
       0.9801702 3.1329834 0.9255612 1.0831544
000220 3d 09 c8 3f 4c 47 b0 3f 87 03 79 3f 75 70 85 3f
       1.5627819 1.3771758 0.9727101 1.0424944
000230 98 0b a9 3f bf d9 f7 3f cd 7f c2 40 43 ae a2 3f
       1.3206663 1.9363326 6.0781007 1.270943
000240 05 36 f0 3f 19 3b 77 3f 24 e4 78 3f dc 55 62 3f
       1.8766485 0.9657455 0.97223115 0.8841226
000250 e4 df 5c 3f c2 9f 82 3f ac 5c 92 3f 49 e2 a4 3f
       0.8627913 1.0205004 1.1434531 1.2881557
000260 a9 66 8d 3f 49 b6 8d 3f fe 08 88 3f 40 15 78 3f
       1.1046954 1.1071254 1.0627744 0.96907425
000270 f9 2b 96 3f 4a 9a 6b 3f 31 58 09 40 53 2f 5a 40
       1.1732169 0.920323 2.1460078 3.4091384
000280 1d 11 bc 3f 47 ac 73 3f 07 d1 96 3f f7 ed 7c 3f
       1.4692723 0.9518475 1.178254 0.98800606
000290 bd 19 34 40 38 df dc 3f 39 40 cd 3f 91 6b 47 3f
       2.814071 1.7255621 1.6035224 0.7789851
0002a0 e0 d9 72 3f 96 fd b9 3f ea e5 c3 3f 3e 69 80 3f
       0.948637 1.4530513 1.5304539 1.0032117
0002b0 bc ff ab 3f a2 8d 08 40 4e 3e a8 3f 49 83 7d 3f
       1.3437419 2.1336446 1.3144014 0.9902845
0002c0 42 88 85 3f f9 de 85 3f 86 ca 78 3f e5 84 85 3f
       1.0432208 1.0458671 0.97184026 1.0431181
0002d0 20 1c c5 3f 88 f3 92 3f 12 7d b1 3f 34 d4 8f 3f
       1.5399208 1.148057 1.3866293 1.1236634
0002e0 e8 0c ac 3f c3 de af 3f e3 87 29 40 d3 eb 82 3f
       1.3441439 1.3739856 2.6489189 1.0228218
0002f0 86 ac 5d 3f 93 e5 6f 3f d6 9e 99 3f ab 20 8d 3f
       0.86591375 0.9370968 1.2001598 1.1025594
000300 78 ea 83 3f d1 64 5c 3f 3c 62 c6 3f 08 92 84 3f
       1.0305929 0.86091334 1.5498729 1.0357065
000310 b5 da 93 3f 12 5d 96 3f af 8c 5e 3f 90 68 d0 3f
       1.1551119 1.1747153 0.86933416 1.628191
000320 f2 ae 8e 3f cd fd 89 3f cc 93 67 3f eb 09 7f 3f
       1.1147139 1.0780579 0.90459895 0.9962451
000330 d2 d2 e8 3f 94 6e d6 40 4a 03 69 3f 36 f4 92 3f
       1.8189337 6.7009983 0.91020644 1.1480777
000340 31 71 90 3f 71 43 88 3f ef 0b 5c 3f 5f aa 8c 3f
       1.1284543 1.0645581 0.8595571 1.0989493
000350 b9 2f 74 3f 67 50 9e 3f f9 a7 86 3f 09 90 81 3f
       0.9538532 1.2368287 1.0520011 1.0122081
000360 ca 19 aa 3f a0 4e 89 3f fa d8 a5 3f a2 c0 95 3f
       1.328912 1.072712 1.2956841 1.1699412
000370 73 48 76 3f 8c 8d 85 3f 6e d5 c2 3f 60 77 84 3f
       0.962043 1.0433822 1.5221384 1.034893
000380 df 0e 61 3f c3 32 89 3f 30 5b 8c 3f 94 98 d0 3f
       0.87913316 1.0718616 1.0965328 1.6296563
000390 a2 6e b6 3f 2f d6 ba 3f 90 80 8b 3f 83 43 93 3f
       1.4252512 1.4596614 1.0898609 1.1504978
0003a0 16 4d 8a 3f d9 e4 89 3f 81 af 3a 40 64 3f 8e 3f
       1.0804775 1.0772964 2.916962 1.1113095
0003b0 b9 81 09 40 fd fc f2 3f d4 aa 6e 3f a9 70 6c 3f
       2.1485426 1.8983456 0.93229413 0.92359406
0003c0 a3 18 66 3f db 47 88 3f ef 8f 82 3f 2f f1 8a 3f
       0.8988134 1.0646929 1.0200175 1.0854853
0003d0 cf 6c 8e 3f 2b fb 83 3f 7d 1e 8d 3f 08 82 8b 3f
       1.1126956 1.0311025 1.1024929 1.0899057
0003e0 f6 5f d9 3f 81 ad 7c 3f ac 71 9a 3f 44 b7 94 3f
       1.698241 0.98702246 1.206594 1.1618428
0003f0 32 27 86 3f 64 32 9e 3f 25 76 7a 3f 99 54 81 3f
       1.0480711 1.2359128 0.97836524 1.0103942
