SmallD_SDD_up_to_step2/out_IPC_10_no_cu_10mrpc_mlp4_ipc10_w10.pth (torch, 187016 bytes, 3 tensors)

module.data.weight f4 [20, 768]
00000000: 432b 22bd 6dc7 a6bd f904 e9bc 2beb af3d
00000010: cbb6 f83c 678a 16bd 8e1b f33c fbae ffbc
00000020: a329 533c e7dc 93bc 3a31 94bc 8edb fc3b
00000030: 22a8 cdbd 05f3 49bd 4f52 c53b b8eb b2bc
00000040: 1655 593c 9178 973c af9f 3d3c 6737 8fbd
00000050: f412 7fbc 2937 5d3d fade 8f3d 9691 f53d
00000060: a770 41bc 3b23 98bd 7291 773d 88eb ce3c
00000070: 04ec d2bb c355 e3bc e15b 2a3b 9387 813a
00000080: 44cd d73c fc7e adbc 5073 183d 1f45 4bbd
00000090: c5a7 273e e37c f2bd c257 21bd 15e3 3b3c
000000a0: 7767 b83d a792 bebd bc6f cd3c 4fa4 abbd
000000b0: 8770 a6bd b731 24bd f6de 0dbd 47f4 3ebb
000000c0: 8412 ffbc 23f5 21bd 3af6 a63c bcda a13c
000000d0: 04bf 773d a2b9 88bb afed 08bc da17 48bb
000000e0: b154 e13b af49 09bd 710a 193d 3fbd 223d
000000f0: 7188 01bd a1b9 373d f909 963d b537 8a3d
00000100: 56d9 84bd 8621 78bd 90e3 753c b675 91bd
00000110: 612b c6bd def8 d23c 3174 9abc 713b 54bd
00000120: f23c 1abd 3007 c7bc 21ea f73c c1f2 13bd
00000130: c552 0bbd 7637 6f3d ed55 abbb 7b70 483c
00000140: a9db 8b3d cd76 59bd 3502 ee3c 3833 10bd
00000150: e7fc adbc 9fe6 683d 823e b1bc 503a 74bd
00000160: 18e1 203d 54b4 2cbd f3a0 353d bb10 49bd
00000170: 3557 93bc 2e36 5ebd 23ec 4f3d 47eb 783d
00000180: 7df9 be3d 6eb9 4fbd 57a0 39bd 6356 50bd
00000190: 48fd a8bc ae0f 93bd d1ee 9c3d f844 623d
000001a0: 5fce d0bd 34b5 8dbd 5fa2 73bd 7bb3 58bb
000001b0: c5d3 79bc 5250 f23c e85d 043e 7d86 cf3b
000001c0: 4129 7b3d f78c 763d cb2b b33b f5b7 02be
000001d0: be89 12bd 3ae3 9fbc 0f35 023d 0f11 13bd
000001e0: 79ba 5dba 2ea1 86bd 2d9d 903d 978b 7bbc
000001f0: c5fa 72bc 4fd7 7dbd 313b 6a3d 033b 303c
00000200: 90fc ed3c 11d8 82bc 3f28 27bc 7238 4a3d
00000210: 75fe 55bd e2e5 08bc ce40 a9bc 713d 00bd
00000220: 64cd 24bd c895 93bc 2603 e93c ca21 473d
00000230: 7f13 21bc 23b1 813c 5b28 503d 34ad 4e3d
00000240: c27e 4f3b 2007 e43a d078 de3d aa3a c0bd
00000250: a7c7 34bd 23a6 20bd c6a2 873c 5735 87bc
00000260: 7ae8 86bc a31b 73bc 6d3d ab3b fea4 01bd
00000270: 937c fbba d1b8 48bb 3ce4 70bd c453 ba3c
00000280: ec62 733c dfc4 cf3c 52d8 1d3c 6394 73bb
00000290: 9f69 f3bc 5039 223d ec52 22bd 7c0f cd3c
000002a0: 21bf a63d 6d8a 1bbd 01fe 6b3d 40b8 ab3d
000002b0: 4d11 9b3d 8813 bc3c 3ce9 593d 1c30 71bd
000002c0: 33ea 6f3d 63da ae3c fb99 a73d 0d4a 3b3d
000002d0: 43c7 60bd 3066 693c 0199 dfbb 1e7b b3bc
000002e0: 89f0 843d a307 37bc 70de 713b b1d8 033d
000002f0: 2bc5 9fbd a979 c63c eb3a 0cbd 5d04 90bd
00000300: 6cb4 f83d 8879 75bd bb99 e1bd 8db6 853d
00000310: 154a eebb 2250 97bd 929c 953d 4ef7 efbb
00000320: c1d9 3a3c c1ea 9a3d a898 d8bc 91d1 acbd
00000330: 323b 9ebd 95de f3bc 27ba 963d 2804 313d
00000340: fc34 18bb 6546 fb3c 6cef 023d 1be4 963c
00000350: 6704 a2b9 cc47 c83c f4fd 40bd 10a8 ba3d
00000360: 3b78 25b9 0cdc a63c 3292 753d 9123 64bd
00000370: 229b 3b3c 9270 94bd cab1 523d bf54 df3b
00000380: f3fe a5bd b4c7 a13d 9f9d c23c 80df c33c
00000390: a89e 32bd b118 19bd bc91 6a3c 2af4 1e3d
000003a0: 26fa 6bbd 7a3b eb3b 92ad 2a3d ec53 bdbd
000003b0: 0815 86bd bb17 16be eca9 6e3d 611b c43b
000003c0: eb83 f43d e26e 7cbd 16fa 8b3b 9217 0dbd
000003d0: 270f f33d 581d 163e d73b 9fbd 670a e3bd
000003e0: 8ea1 3ebd d358 023c ef15 18bd 4647 0cbd
000003f0: dbc1 abbd 0075 903d 74ab 443d 3d38 903d
-0.03959204 -0.08143506 -0.028444754 0.085897766 0.0303606 -0.036753085 0.029676225 -0.031211367
0.012888345 -0.01804967 -0.01808988 0.0077166026 -0.100418344 -0.049304027 0.006021775 -0.021840915
0.013264915 0.018490108 0.011573716 -0.06992989 -0.015568484 0.054007683 0.07024951 0.11990659
-0.011806644 -0.07428595 0.06044144 0.025258794 -0.0064368267 -0.027750855 0.0025994706 0.0009882323
0.026342995 -0.021178715 0.037219346 -0.049626466 0.16372593 -0.118402265 -0.039390333 0.011467715
0.09004109 -0.093053155 0.025077693 -0.08380949 -0.08126932 -0.040086474 -0.03463646 -0.00291373
-0.031136759 -0.03954042 0.020381082 0.019757621 0.0604849 -0.00417252 -0.008357449 -0.0030531795
0.006876551 -0.033517536 0.037363473 0.03973126 -0.03162426 0.044854764 0.07326121 0.067489065
-0.06486766 -0.060578845 0.015007868 -0.0710253 -0.096762426 0.025753435 -0.018854233 -0.0518145
-0.03765578 -0.02429542 0.030263009 -0.03612018 -0.034014482 0.0584025 -0.005228749 0.012233849
0.06829006 -0.053091813 0.029053787 -0.035205096 -0.021238757 0.056860562 -0.021636251 -0.059625924
0.039277166 -0.04216416 0.044342946 -0.04908822 -0.01798592 -0.05425089 0.050762307 0.060771253
0.0932493 -0.05071395 -0.045318928 -0.050863635 -0.020628586 -0.07180725 0.07662738 0.055241555
-0.10195612 -0.069193274 -0.05948102 -0.0033065963 -0.015248244 0.029579315 0.12926447 0.006333171
0.06131864 0.06019303 0.005467867 -0.12765487 -0.035775892 -0.01951753 0.031788882 -0.03590494
-0.00084582675 -0.06573711 0.07061229 -0.015353105 -0.014830296 -0.061972912 0.057185356 0.010756257
0.029051095 -0.01597217 -0.0102024665 0.049370237 -0.052244622 -0.00835559 -0.020660784 -0.031308595
-0.04023494 -0.018015757 0.028443884 0.048616208 -0.009831308 0.015831536 0.050819736 0.050458148
0.0031661247 0.0017397143 0.10862887 -0.09386189 -0.044135716 -0.03922094 0.016557109 -0.016504927
-0.016468275 -0.014838132 0.0052258284 -0.03165149 -0.0019186906 -0.0030627737 -0.05881141 0.02274502
0.014855128 0.02536243 0.009634094 -0.0037167303 -0.02971345 0.03960544 -0.03962986 0.025031798
0.08141924 -0.03797381 0.057615284 0.08384752 0.07571659 0.022958532 0.053200945 -0.05888377
0.05857296 0.02134437 0.08183666 0.045724917 -0.05487753 0.014245555 -0.0068236594 -0.021909293
0.06491191 -0.011171254 0.0036906265 0.032189075 -0.07801279 0.024227934 -0.034235876 -0.07032082
0.12143788 -0.059930354 -0.1101565 0.065289594 -0.007272015 -0.07388331 0.07305254 -0.007323182
0.011404456 0.07564307 -0.02643998 -0.08438409 -0.07726134 -0.029769221 0.073597245 0.043216854
-0.002322494 0.030673215 0.03196661 0.018419316 -0.00030902328 0.024448298 -0.04711719 0.09114087
-0.00015780416 0.020368598 0.059953876 -0.05569798 0.011450561 -0.072480336 0.051439084 0.0068155224
-0.08105268 0.078994185 0.0237568 0.023910284 -0.043608338 -0.037377063 0.014316972 0.03880707
-0.057611607 0.007178721 0.041669436 -0.092445225 -0.0654698 -0.1465749 0.05826752 0.005984709
0.11939224 -0.061629184 0.004271756 -0.034446307 0.118681245 0.14659631 -0.077750854 -0.110859685
-0.04654079 0.007955748 -0.037130293 -0.03424766 -0.08386584 0.07053566 0.048015073 0.070419766

exp_avg f4 [20, 768]
00000000: cf4b 3538 1bcf c4b8 225d e839 41d0 6ab9
00000010: 96b2 87ba 9f65 5d3a bcee b839 6791 013b
00000020: 7b30 893a dd4b 1c3a 16d2 44ba c4f0 0fba
00000030: 875b 8cb9 847d 393a d922 a33a 74c6 54b9
00000040: 7404 4b39 148d 4a3a 0dda c13a a4a4 6438
00000050: 719d 2eba f798 c9b9 72d2 f239 ff55 da39
00000060: 84dc 81b8 c389 a4ba 93e8 d7b9 6f6c 3bba
00000070: 0923 3d3a 6dc2 b7ba 7c70 54b9 8754 403a
00000080: bf0e b1b7 1e0b 87ba 82a2 8c3a 1ea0 44b8
00000090: 6b34 1ab9 daa3 3eb9 ad44 ccb9 c25b 99b9
000000a0: 8438 15ba f36d 0bba 8d59 1b3a ab7e b139
000000b0: 662e 4b38 c4e8 17ba 669f 70ba 7d8f 03ba
000000c0: 326e 2d37 2a17 2eb9 ff77 893a b876 c7b9
000000d0: e8d9 793a 25f4 9b39 6373 12ba b98b a53a
000000e0: 3845 ddb8 85d7 7eba 2fdf fdb9 5722 6d39
000000f0: ea24 03ba 5a12 a8b9 af22 4fba 1fef 96b8
00000100: 1ec4 0e39 55f2 223a f1d1 deba 045c 0b3a
00000110: f172 a6b9 fb37 7039 c36c 4cba b780 cc38
00000120: 063a 653a e7d8 f939 919d 9db9 1a8f 9e39
00000130: 6d04 6b3a bbef 1fba 803d 96ba 6dd8 1d37
00000140: e0a1 b839 504e 103a cd50 2cba 419b c8b8
00000150: d47d 0b3b 5e8e 65ba 1bca 7c38 641a 3439
00000160: 1cc2 75b9 42c1 8d3a 6ba2 2fb9 7faf 3db7
00000170: 451e 82ba 6789 c5b8 179a 63b9 ccf1 40b8
00000180: c592 23ba 2d70 eeba a5d0 5b3a 6371 1f3a
00000190: fe00 f2b9 530b 80ba 1325 b23a fbd4 8939
000001a0: 4589 1a3a 70bb 86b8 e7e2 63b9 182c 59ba
000001b0: 3ba4 103a bf48 abb9 7a85 53ba db4e c539
000001c0: df3f bc38 fc63 93b9 c80c 5cb8 781e 323a
000001d0: 4ee3 af3a b1dd 8c3a 9dfc 83b9 44a6 fbb8
000001e0: d5a7 f439 517c fe3a 7490 79b8 e910 8639
000001f0: 1bc1 c239 049a 603a 6ad2 463a 7e5b a238
00000200: bc84 a838 6522 36ba 0c33 ecb9 ac40 c0b9
00000210: 0473 a939 3c4f f037 2098 1e3a ce9b 9aba
00000220: b378 043b 62e1 b4b9 60c3 2dba 0b43 c93a
00000230: 5385 0dba 7112 9eba 12f9 b8b9 c9de fd39
00000240: 20b5 8c3a 8a5c 7538 db03 5139 cd17 04ba
00000250: fd29 54b9 83a1 24ba 846e 023a 2a46 f8b9
00000260: 9ce9 13ba 2d29 7639 60d8 64b9 bba6 893a
00000270: 9ab5 4cba d558 6cba a454 343a 99de 843a
00000280: ce29 8b3a 7d63 8439 5828 e83a b087 e2b8
00000290: 0275 36ba 7f8e 5237 6c5e 18ba 8e4c 52ba
000002a0: dded 233a 428d ccb9 96f9 79b9 ff7a 7f3a
000002b0: 1974 aa3a 0e61 b2b9 c6ad c43a b9a3 67b9
000002c0: ecfe 413a f112 a0b9 d147 b13a d265 50ba
000002d0: 53a1 c7b8 6eab 1d3a e916 7c3a 49b3 803a
000002e0: 6d37 0739 f03e 2dba 31c9 513a 801b aaba
000002f0: 2a1d 163a 130d 943a 9d4e 003a 182f 363a
00000300: 0f4d 433a dd73 8b38 eecf 683a c640 9d39
00000310: 65d9 6cba cd2b 123a 44a6 1b3a d8f4 28ba
00000320: 383a d73a e3eb 303a 524f 7d38 f467 cab9
00000330: 4f45 a8ba a402 813b 9929 20ba a860 b6ba
00000340: fd99 bf38 a2e2 1cba efa5 fcb9 1f4a fdb8
00000350: 6c76 47ba ac88 1fba f2bb b136 5ed3 6639
00000360: 7ca4 c4b9 f561 a4b9 7595 523a f607 203a
00000370: 75c6 04ba eb08 913a cf3d edb8 41a4 a139
00000380: 12f0 65b8 e38b 77ba 16d9 95b9 85b6 edb8
00000390: b443 5338 6d89 d439 b462 d63a ea02 43ba
000003a0: 60b1 34b9 e291 b9b9 163a beba 996a 2aba
000003b0: 79b8 29bb eb22 503a 66bc 3d3a 0e00 3e3a
000003c0: 254e 573a 5e46 15ba db02 e837 3109 0bba
000003d0: dea3 3c3a 72ea 1f39 a5e7 8b38 53f1 ea39
000003e0: 2044 89b8 4605 273a d536 1b39 1ff9 4aba
000003f0: 38be a439 2598 cd38 7779 83ba 24ea ad3a
4.3224365e-05 -9.384585e-05 0.00044319878 -0.0002239356 -0.0010352905 0.00084456237 0.00035273086 0.0019770504
0.0010466719 0.0005962232 -0.0007508112 -0.0005490894 -0.00026771074 0.0007075893 0.0012446298 -0.00020291825
0.00019361248 0.0007726711 0.0014789716 5.451277e-05 -0.0006661034 -0.00038451675 0.0004631463 0.00041644272
-6.1922736e-05 -0.0012553263 -0.00041181277 -0.0007149642 0.00072149985 -0.0014019735 -0.00020259799 0.00073368143
-2.1106911e-05 -0.0010302996 0.0010729583 -4.6879162e-05 -0.00014706112 -0.00018180851 -0.0003896108 -0.000292508
-0.00056923204 -0.0005318813 0.0005926125 0.00033854446 4.8442183e-05 -0.00057948777 -0.00091790257 -0.0005018635
1.033726e-05 -0.00016602562 0.0010488032 -0.0003804469 0.0009531067 0.00029745806 -0.0005586652 0.0012630142
-0.00010550994 -0.0009721446 -0.00048422205 0.00022614874 -0.0005002754 -0.0003205713 -0.00079015916 -7.197097e-05
0.00013615235 0.000621592 -0.0016999823 0.00053161406 -0.00031747625 0.00022909038 -0.0007798189 9.751453e-05
0.0008744303 0.00047654586 -0.0003006277 0.00030242727 0.0008965198 -0.0006101091 -0.001146242 9.40832e-06
0.0003521582 0.00055048335 -0.00065733196 -9.5656615e-05 0.0021284716 -0.0008756871 6.0269707e-05 0.00017175969
-0.00023437332 0.0010815042 -0.00016749806 -1.1306139e-05 -0.0009927234 -9.419285e-05 -0.0002170581 -4.6001558e-05
-0.0006239827 -0.001819139 0.00083852775 0.00060822646 -0.00046158576 -0.0009769 0.0013591371 0.0002628936
0.00058950885 -6.424531e-05 -0.00021732935 -0.00082844635 0.00055176363 -0.00032669862 -0.0008068901 0.0003763352
8.9764355e-05 -0.0002811252 -5.246399e-05 0.00067947013 0.0013419183 0.0010747222 -0.0002517448 -0.00011999582
0.0004666435 0.0019415711 -5.950076e-05 0.0002557107 0.00037146438 0.0008567872 0.0007584455 7.741804e-05
8.035588e-05 -0.0006947874 -0.0004505146 -0.00036669278 0.00032319885 2.8647126e-05 0.000604989 -0.0011795701
0.0020213544 -0.000345002 -0.00066285394 0.0015355063 -0.000539859 -0.0012059939 -0.00035280787 0.00048421908
0.0010735132 5.8498736e-05 0.0001993323 -0.0005038947 -0.00020233537 -0.00062801706 0.00049755746 -0.00047354522
-0.00056424155 0.00023475727 -0.0002182438 0.001050196 -0.0007809043 -0.00090159226 0.00068790675 0.001013714
0.0010617317 0.00025251126 0.0017712219 -0.000108017935 -0.00069601845 1.2550153e-05 -0.000581241 -0.0008022272
0.0006253401 -0.00039015157 -0.00023839468 0.0009745806 0.001300457 -0.00034023117 0.0015005402 -0.00022090868
0.0007400352 -0.0003053169 0.0013525431 -0.0007949743 -9.5191084e-05 0.000601462 0.0009616451 0.0009819056
0.00012895251 -0.00066088047 0.0008002697 -0.0012978166 0.00057263917 0.00112954 0.0004894527 0.00069497665
0.00074501423 6.649618e-05 0.00088810816 0.00029993634 -0.000903508 0.0005575985 0.0005937556 -0.0006445176
0.0016420549 0.0006749017 6.0393773e-05 -0.00038605893 -0.0012838038 0.0039370824 -0.0006109714 -0.0013914304
9.136272e-05 -0.00059846987 -0.00048188816 -0.00012077786 -0.0007608894 -0.00060857343 5.296891e-06 0.0002201325
-0.00037506584 -0.000313535 0.0008033135 0.0006104702 -0.0005064973 0.001106528 -0.000113125534 0.00030830692
-5.4821438e-05 -0.0009443147 -0.00028581236 -0.000113350376 5.0369374e-05 0.0004053818 0.001635632 -0.0007439094
-0.00017232215 -0.0003539464 -0.001451316 -0.00065008696 -0.0025897308 0.00079397735 0.00072378514 0.0007247933
0.00082132436 -0.00056943845 2.7657885e-05 -0.0005303799 0.0007196049 0.0001525076 6.671184e-05 0.0004481176
-6.545358e-05 0.000637133 0.00014802378 -0.00077428104 0.00031422242 9.803501e-05 -0.0010030706 0.0013268632

exp_avg_sq f4 [20, 768]
00000000: 92ed 8537 9006 3037 7774 2238 a0e0 4937
00000010: 2ab9 0839 987b bc37 fc91 e838 4054 3738
00000020: 6926 2e37 e8eb 5437 9e7b 3c37 fb3d 1338
00000030: fa0d 1b37 567a 7d38 dea4 6d37 6200 5c37
00000040: b4f8 2837 504d 8738 f0bc 4b38 1ac1 3437
00000050: a4c5 2b37 7e82 9b37 cc58 4e37 079f 3837
00000060: a02c 7937 70cd b537 d669 4937 f7dc dd37
00000070: 65c5 2037 f7ca 2138 a881 3237 7636 3c38
00000080: f48c 6838 f46e 2e39 38f7 d838 59fd 4837
00000090: a012 6137 8f5e 6f37 8707 6337 33fb 4137
000000a0: 816b 5e37 5bc2 5837 e827 bd37 5141 6037
000000b0: 10df 2537 5401 0238 c7c0 a637 ee78 8e37
000000c0: 4560 bd37 6229 a337 9a78 2d37 07fe b337
000000d0: 6919 8837 9993 c037 14fb 6537 1357 2239
000000e0: fd66 6438 809b 3337 f409 4737 eed9 df37
000000f0: d9d9 3937 93d7 a237 cbc3 c837 be57 3037
00000100: 1dc4 1737 157c 8438 8386 b637 4f3b b037
00000110: 01d5 9838 33df 3737 b690 8b38 1dd9 1137
00000120: 4878 ad37 38ab 1d37 65b6 e637 da1b 3f37
00000130: 6505 5237 fdf7 3a37 345b 8e37 b58a c437
00000140: 20dd 4137 0bf3 f537 ec43 7537 62a7 2d37
00000150: 0c60 8438 23cf 3d37 8283 f137 ec67 8c37
00000160: e269 2837 fe07 f339 c210 5037 9162 1937
00000170: bd54 2137 3a58 2737 9862 4a37 9009 e037
00000180: a068 2a37 908f 2f37 d208 9037 1c88 2e38
00000190: d92a 5c37 4cf6 6137 bf21 b638 014d 6a37
000001a0: 370e 2e37 3050 8537 92ea 3337 b5a5 8a38
000001b0: dda2 4f37 bbf5 7239 b01d 4c37 0dbb 6537
000001c0: 33df 7337 e0f5 5a37 4b3f 3337 be54 7c38
000001d0: 2e84 5c38 0e58 0338 da90 9437 e6c0 3837
000001e0: d922 3437 07d1 6637 31ed 5937 f993 4837
000001f0: 693d 8137 99cf 8a37 73db 3a37 cc4a 2d37
00000200: c49f ac38 bf68 1238 ced0 5a37 4a27 a137
00000210: d4dd 2437 0c13 5438 d5fe 4337 d799 cb37
00000220: 1a19 0b39 e6f2 7a37 2b1b 3237 381e 5237
00000230: c3ba 9e37 a12c 4c38 ab96 cf39 28e4 ce37
00000240: 6559 d937 1011 4d37 3a95 4837 f80f 1d37
00000250: b568 5637 a60a 7437 8ae5 ec37 7c5e 8138
00000260: 29c9 5637 bae7 1237 30ff 9537 4b21 6037
00000270: 0c51 b737 855b 6b37 97c1 9d38 3658 aa37
00000280: 9999 cd37 c049 2737 c806 6b37 7db0 2637
00000290: d231 8337 a901 0c38 8b37 9938 05d0 5637
000002a0: 40fc 5637 c6bd 3e37 c35e 5337 b946 3937
000002b0: 6235 2f37 236d 3738 c611 af38 5140 2e37
000002c0: 7e0a 3937 21d2 8637 04ef 3337 2575 5937
000002d0: 80b9 9937 e593 9e37 3837 e838 42af 2039
000002e0: 737f 2d37 2e1d 8137 c4a5 9238 633c 8e37
000002f0: 5da8 8f37 09a8 7c38 0dbc cb37 6197 5337
00000300: 85f8 7e37 5ffd 4237 6f51 4b37 cadb 1838
00000310: 692e 3a37 4bc0 4137 da6c 8237 1565 f337
00000320: 3e6f 4f37 a379 6737 7127 4f37 02ed 6e37
00000330: 9f19 5b38 2eac cc3a a6e3 7437 8479 6537
00000340: 7caa c737 d3e3 8637 3b66 2737 93dc 1637
00000350: 4dd7 8937 9da4 3b37 36d1 3f37 f31d 1a37
00000360: 0797 4837 7e5b 2b37 f70b 3537 4ecb 4a37
00000370: c5be 6837 90e8 1837 1352 6137 fe39 3437
00000380: b7b1 3537 1f84 3137 3e22 bf37 1ba8 4337
00000390: dd2c 0638 21a0 9737 a798 9d38 a852 3237
000003a0: 9159 3637 2ef3 3e37 e4f3 2d39 92a3 8237
000003b0: 4413 5739 47af 8137 b298 4637 c1b7 3237
000003c0: 40cf 3537 7bf0 2f37 5644 6d37 ca76 4637
000003d0: 58e6 1538 fe12 3137 0e03 6537 9139 2d37
000003e0: c186 b337 b454 5637 5213 0938 644b 5f37
000003f0: 0d3d 4537 a5df 7e37 e003 ee37 8d57 5637
1.5965463e-05 1.0491945e-05 3.8732276e-05 1.2032833e-05 0.0001303895 2.24689e-05 0.00011089814 4.3709064e-05
1.0380151e-05 1.2691111e-05 1.1234455e-05 3.5105255e-05 9.241974e-06 6.0433835e-05 1.4164687e-05 1.3113111e-05
1.0071486e-05 6.451702e-05 4.8574933e-05 1.0773796e-05 1.0238411e-05 1.8538205e-05 1.22992315e-05 1.1004281e-05
1.4851947e-05 2.1672546e-05 1.2005175e-05 2.6448148e-05 9.582703e-06 3.8574417e-05 1.0639815e-05 4.4873414e-05
5.5444383e-05 0.00016635266 0.00010345731 1.1979916e-05 1.34153815e-05 1.4267526e-05 1.3532007e-05 1.1562183e-05
1.3257261e-05 1.2919855e-05 2.2549139e-05 1.3366648e-05 9.886702e-06 3.0995652e-05 1.9878511e-05 1.6984031e-05
2.2575385e-05 1.9450385e-05 1.0339683e-05 2.1456754e-05 1.6224296e-05 2.2956914e-05 1.3707922e-05 0.00015481962
5.445535e-05 1.0705437e-05 1.1863642e-05 2.6685153e-05 1.1077581e-05 1.941229e-05 2.3933031e-05 1.0510847e-05
9.0459625e-06 6.3173626e-05 2.1758728e-05 2.1008453e-05 7.2876e-05 1.0959618e-05 6.654991e-05 8.693224e-06
2.0679217e-05 9.397794e-06 2.750307e-05 1.1390972e-05 1.2518231e-05 1.1144203e-05 1.6970189e-05 2.3429611e-05
1.1555181e-05 2.9319452e-05 1.4618952e-05 1.0350575e-05 6.3121406e-05 1.1313506e-05 2.8790677e-05 1.6737693e-05
1.0038233e-05 0.00046354526 1.2401668e-05 9.14246e-06 9.6160775e-06 9.9745175e-06 1.2063094e-05 2.6707334e-05
1.01571495e-05 1.0464239e-05 1.7170245e-05 4.1611594e-05 1.3122998e-05 1.34683905e-05 8.684722e-05 1.3965416e-05
1.0374518e-05 1.5892176e-05 1.0723847e-05 6.611218e-05 1.2376081e-05 0.0002317046 1.216626e-05 1.3693015e-05
1.4535896e-05 1.305106e-05 1.0683968e-05 6.0160404e-05 5.257519e-05 3.131484e-05 1.7710427e-05 1.1012167e-05
1.073695e-05 1.3757736e-05 1.2989433e-05 1.19553815e-05 1.5406595e-05 1.6547552e-05 1.1137558e-05 1.0329019e-05
8.231358e-05 3.4906665e-05 1.3042429e-05 1.9210991e-05 9.82681e-06 5.0562478e-05 1.1682238e-05 2.4271123e-05
0.00013265424 1.4957715e-05 1.0615952e-05 1.2524011e-05 1.8922035e-05 4.8678954e-05 0.00039594373 2.4663357e-05
2.5910043e-05 1.2222925e-05 1.19556735e-05 9.361647e-06 1.2779773e-05 1.4546013e-05 2.824028e-05 6.1687984e-05
1.280223e-05 8.756231e-06 1.7881015e-05 1.3359192e-05 2.185304e-05 1.40284e-05 7.522402e-05 2.0306656e-05
2.4509429e-05 9.971147e-06 1.400867e-05 9.935463e-06 1.5639616e-05 3.3380147e-05 7.305954e-05 1.2803827e-05
1.28141255e-05 1.1369068e-05 1.25986435e-05 1.1043326e-05 1.0443242e-05 4.373224e-05 8.347961e-05 1.0386183e-05
1.1029302e-05 1.6071894e-05 1.0724882e-05 1.2961483e-05 1.8325401e-05 1.8903937e-05 0.000110729074 0.00015324078
1.0341278e-05 1.5391586e-05 6.992699e-05 1.6955839e-05 1.7125329e-05 6.0237977e-05 2.4287054e-05 1.2611826e-05
1.5197443e-05 1.1622294e-05 1.2118703e-05 3.644432e-05 1.109727e-05 1.1548468e-05 1.5547896e-05 2.9014927e-05
1.2364062e-05 1.3796994e-05 1.2347345e-05 1.4241088e-05 5.223753e-05 0.0015615278 1.4596537e-05 1.3677756e-05
2.3802037e-05 1.6080134e-05 9.977778e-06 8.992053e-06 1.643193e-05 1.1184396e-05 1.1433198e-05 9.186088e-06
1.1956093e-05 1.0213696e-05 1.07912265e-05 1.2087474e-05 1.3872695e-05 9.114054e-06 1.34301545e-05 1.0742338e-05
1.0829818e-05 1.0580784e-05 2.278492e-05 1.1662046e-05 3.198987e-05 1.8075169e-05 7.514777e-05 1.0628872e-05
1.0868899e-05 1.1381502e-05 0.00016589422 1.5573376e-05 0.00020511175 1.5459618e-05 1.1837272e-05 1.065241e-05
1.0836695e-05 1.0486804e-05 1.41422115e-05 1.1829377e-05 3.5738893e-05 1.0554444e-05 1.3650175e-05 1.0325007e-05
2.1401213e-05 1.27751155e-05 3.268134e-05 1.3309389e-05 1.17563295e-05 1.5191651e-05 2.8373615e-05 1.27757785e-05
