SmallD_SDD_up_to_step2/out_IPC_1_no_cu_20mrpc_mlp4_ipc1_w20.pth (torch, 21112 bytes, 3 tensors)

module.data.weight f4 [2, 768]
0.01573422 0.0011450992 -0.033103686 0.09095913 -0.061533708 0.003404383 -0.05486297 -0.08446197
-0.026315106 -0.008880495 -0.019443013 0.048695344 0.09693862 -0.02934154 0.061916262 -0.061388794
-0.08335903 -0.081761815 -0.07216153 -0.049021386 -0.035480928 0.051278118 -0.068469286 0.015297983
-0.058193643 -0.13998346 0.0064145047 0.027619373 0.040430546 0.04388566 -0.029116167 0.033422366
0.014142992 0.09560365 -0.03833804 -0.021559825 -0.01890767 -0.016245779 0.0046509495 0.0026063204
-0.015041459 0.048472688 -0.028210096 0.049809486 -0.04847631 0.03904938 0.008896715 -0.08668907
-0.08764349 0.005731921 -0.008881253 -0.0052820374 0.11701718 -0.07455556 0.021113763 -0.067077555
0.047418382 -0.021237373 0.0016805577 -0.010247335 0.03980083 0.014390532 -0.030425007 0.08852571
0.0381784 -0.060736347 -0.031028215 -0.016667632 0.07820713 -0.054836478 0.042815804 -0.08228774
-0.017429598 -0.0070509007 0.036986277 -0.032771505 -0.024891555 -0.019269155 0.021984074 0.029507808
0.081131145 -0.007968236 0.018037751 -0.020619353 0.083955236 0.0057003475 0.022990469 -0.1272602
-0.066108234 -0.09299172 -0.05021782 0.012186487 0.0091584055 -0.04529239 -0.044049546 0.07203673
0.05658733 -0.031493276 0.018635815 0.020596517 0.008774111 -0.09832914 -0.02800016 0.0360874
-0.0013210351 -0.005895337 0.04818784 0.026791131 -0.07569243 0.03338225 0.013267329 -0.085176826
-0.08296206 -0.004654161 0.025589101 -0.0861797 -0.03477539 -0.008000692 -0.09589923 0.031251553
0.066652 0.04988362 -0.06031606 0.0069210585 0.019383373 -0.031607274 -0.021544455 -0.11894014
-0.056968685 -0.0494234 -0.089263916 -0.07583656 0.08139208 -0.051276185 0.038493045 -0.0713244
-0.02399053 -0.020335417 -0.06852995 0.10646936 -0.0060807928 0.012154673 0.044959083 0.05678846
0.06139155 -0.04951818 0.055180248 -0.05667054 -0.04900074 -0.006337925 0.042688083 0.0628266
-0.011188572 -0.027134482 -0.070685074 -0.016998477 -0.03682703 0.038940083 -0.023384169 0.024762297
0.05022823 0.07561584 0.014512993 0.031955343 0.03820567 -0.015242218 0.08305126 0.024113908
0.047945682 0.067706555 0.0047231503 0.09192257 0.039719682 0.044111904 -0.08882451 -0.030921089
0.038287934 -0.0054496303 -0.018335108 -0.038894586 -0.056688417 -0.04187076 0.12444034 -0.034155216
0.024416259 0.039432548 0.029574938 -0.0073093288 0.037122995 -0.11556825 0.009373047 0.015320183
-0.023883956 -0.005658428 0.016162325 -0.011372342 0.003281615 0.1033421 -0.1063138 -0.03566041
-0.027595073 0.08392227 -0.06958392 -0.13688217 0.059556 -0.075933665 -0.04718138 0.017080912
0.0029016314 -0.024425384 0.015205909 -0.039359756 0.014089686 -0.06655798 0.029109942 -0.0067134774
0.051683746 0.021117313 0.026828337 0.038591564 -0.06779238 0.031181125 0.047947984 -0.015388595
-0.04858327 -0.03289715 -0.07709886 0.052980144 -0.026625825 0.036941364 0.047677204 0.08635025
-0.043909833 -0.038962044 0.056134883 0.025170313 0.10660593 0.0405206 0.084157236 -0.10409438
0.09181153 -0.04401937 -0.02346393 -0.014685939 0.16263595 -0.036975585 -0.08301843 -0.033712544
0.041204948 -0.012758608 0.054182917 0.034826234 0.030202502 0.06480741 -0.010969536 0.036538616
00000000: 0de5 803c 2717 963a bb97 07bd c848 ba3d
00000010: c50a 7cbd 121c 5f3b feb7 60bd 66fa acbd
00000020: c792 d7bc 7f7f 11bc f446 9fbc c574 473d
00000030: c187 c63d ab5d f0bc e89b 7d3d d172 7bbd
00000040: 24b8 aabd bd72 a7bd 6dc9 93bd a6ca 48bd
00000050: 7354 11bd 0109 523d a039 8cbd 64a4 7a3c
00000060: 755c 6ebd d357 0fbe c430 d23b 0642 e23c
00000070: 809a 253d 73c1 333d 0785 eebc e4e5 083d
00000080: 02b8 673c d9cb c33d 5908 1dbd 3b9e b0bc
00000090: 42e4 9abc de15 85bc fe66 983b cdce 2a3b
000000a0: 7470 76bc 4c8b 463d dc18 e7bc 0805 4c3d
000000b0: 188f 46bd 3ef2 1f3d 87c3 113c 0a8a b1bd
000000c0: 6e7e b3bd d7d2 bb3b ad82 11bc f114 adbb
000000d0: b4a6 ef3d 96b0 98bd c5f6 ac3c f55f 89bd
000000e0: c739 423d 00fa adbc 2946 dc3a 70e4 27bc
000000f0: 3206 233d 44c6 6b3c dd3d f9bc f84c b53d
00000100: f460 1c3d adc6 78bd e22e febc 8f8a 88bc
00000110: 0f2b a03d 379c 60bd a05f 2f3d 7a86 a8bd
00000120: 84c8 8ebc 3e0b e7bb ec7e 173d 6a3b 06bd
00000130: 60e9 cbbc 59da 9dbc f217 b43c 5cba f13c
00000140: 1628 a63d 348d 02bc e8c3 933c ebe9 a8bc
00000150: b9f0 ab3d fbc9 ba3b 8256 bc3c 7f50 02be
00000160: c163 87bd 7172 bebd 33b1 4dbd d5a9 473c
00000170: 230d 163c 8384 39bd 4c6d 34bd fe87 933d
00000180: 1ec8 673d 18ff 00bd 23aa 983c 07ba a83c
00000190: 4ac1 0f3c ca60 c9bd 9760 e5bc 62d0 133d
000001a0: 9526 adba ac2d c1bb 9d60 453d 1379 db3c
000001b0: a204 9bbd d4bb 083d 365f 593c 3071 aebd
000001c0: 03e8 a9bd ef81 98bb 3ca0 d13c fc7e b0bd
000001d0: a470 0ebd 5615 03bc d166 c4bd a101 003d
000001e0: d880 883d c452 4c3d f90d 77bd 0cca e23b
000001f0: e1c9 9e3c a176 01bd ff7d b0bc e396 f3bd
00000200: ff57 69bd 3170 4abd 00d0 b6bd 3350 9bbd
00000210: e4b0 a63d fa06 52bd e2aa 1d3d 8712 92bd
00000220: ca87 c4bc 7696 a6bc 6e59 8cbd 9c0c da3d
00000230: 6341 c7bb 6524 473c 0427 383d 049b 683d
00000240: b575 7b3d 93d3 4abd af04 623d 5e1f 68bd
00000250: 00b5 48bd 5eae cfbb b3d9 2e3d 3cab 803d
00000260: 4650 37bc 2249 debc 56c3 90bd 6440 8bbc
00000270: f1d7 16bd a37f 1f3d 2890 bfbc 4dda ca3c
00000280: 1ebc 4d3d 7adc 9a3d e8c7 6d3c 9be3 023d
00000290: 8c7d 1c3d 7fba 79bc c716 aa3d 888a c53c
000002a0: b162 443d bca9 8a3d a8c4 9a3b e641 bc3d
000002b0: 1bb1 223d afae 343d a0e9 b5bd 394e fdbc
000002c0: cfd3 1c3d d092 b2bb 8233 96bc ee4f 1fbd
000002d0: 1d32 68bd ad80 2bbd 94da fe3d 57e6 0bbd
000002e0: 9b04 c83c 0684 213d 2447 f23c 1883 efbb
000002f0: 480e 183d 0caf ecbd 6991 193c 8101 7b3c
00000300: 49a8 c3bc 566a b9bb da66 843c 0f53 3abc
00000310: 5d10 573b 06a5 d33d 0dbb d9bd a610 12bd
00000320: 100f e2bc 70df ab3d 0482 8ebd d72a 0cbe
00000330: fef0 733d 1c83 9bbd 4341 41bd 45ed 8b3c
00000340: 4c29 3e3b be17 c8bc 3422 793c b237 21bd
00000350: 6dd8 663c 8d4f 88bd f977 ee3c bbfc dbbb
00000360: 56b2 533d 37fe ac3c 1ac7 db3c 3012 1e3d
00000370: bbd6 8abd 8f6f ff3c 1b65 443d 7220 7cbc
00000380: 40ff 46bd 29bf 06bd 02e6 9dbd b501 593d
00000390: 671e dabc d44f 173d 2c49 433d 66d8 b03d
000003a0: ccda 33bd aa96 1fbd b1ed 653d f931 ce3c
000003b0: 3654 da3d eef8 253d a15a ac3d 6f2f d5bd
000003c0: af07 bc3d a84d 34bd 6d37 c0bc 4b9d 70bc
000003d0: 0a8a 263e b673 17bd 9105 aabd 2a16 0abd
000003e0: 85c6 283d 7b09 51bc e8ee 5d3d f4a5 0e3d
000003f0: 3d6b f73c bfb9 843d 92b9 33bc 84a9 153d

exp_avg f4 [2, 768]
0.039518386 0.0010331505 0.040131904 -0.0057966826 0.033445913 0.054167613 -0.033508852 -0.024840862
-0.020556277 0.011828198 0.0015052423 0.011574303 -0.019161824 0.022172634 -0.017471086 0.030285867
-0.0041307653 -0.006099895 -0.023143211 -0.00477792 -0.0026898899 -0.014301946 -0.0062657734 -0.002068527
-0.008710246 0.00891811 0.0005285333 0.02303919 0.022818929 0.010715028 0.013456309 0.01495439
0.00010348043 -0.003928949 -0.024715781 -0.023850353 -0.022554513 0.0010891132 -0.018189235 -0.023541335
0.008240656 -0.008614408 -0.013049519 -0.0011197119 -0.004406888 -0.008224474 0.060006358 0.052932113
0.0068883277 -0.025501871 0.015339275 -0.011243909 -0.010726078 -0.015326635 0.053852677 -0.028438633
-0.002672274 0.023691988 0.012675178 -0.033342604 0.0027815404 -0.005926578 0.00728932 0.010113795
0.024139944 -0.022207936 0.0032188348 0.014127484 -0.030364178 -0.009035421 -0.029967207 -0.029365972
-0.03826669 -0.007439487 0.0005896346 -0.004625074 -0.000520727 0.014903034 0.014559166 0.013431716
-0.008196851 -0.019873343 0.01369481 -0.04279299 -0.009694787 0.0011198822 0.025727764 0.015192573
-0.004683852 0.012869847 0.012344438 -0.01931093 -0.0037643579 0.03451566 0.017273186 0.017602475
-0.028111838 0.006355825 -0.017530272 -0.060378365 0.032684147 0.006476542 -0.0273114 -0.0011095674
0.005323968 0.00025749896 -0.002649041 0.020635717 0.01744681 0.034196276 -0.005121979 -0.039248154
-0.018978985 0.02136246 0.01979617 -0.013746619 0.006152614 0.009181072 0.003939144 0.021854155
-0.027251154 -0.014669328 -0.008999841 0.00095215696 0.04032976 -0.021893635 -0.017621228 -0.0048842733
-0.008397618 0.006160947 0.007159128 0.008994722 0.012420082 0.029002756 -0.0067903586 -0.009036067
-0.01586029 -0.035413194 0.0020320427 -0.0040587923 0.010433321 -0.02617033 0.04592241 -0.03129965
-0.013587293 0.003093515 -0.021065244 -0.021228105 -0.013450305 0.011193894 -0.013064693 0.015755627
0.03616729 -0.0019983866 0.00041523812 0.00085698656 0.029473536 0.031896047 -0.023936603 -0.021817457
0.0077654 0.015047816 0.016925197 -0.009149019 0.012210806 0.0058727637 -0.024822818 0.0059652883
-0.009909884 -0.005021387 0.015976585 -0.00014172887 -0.02529488 0.025709838 0.016044706 0.03755894
-0.054214347 -0.015179465 -0.00572406 0.017734582 0.03127551 -0.034255613 0.02238181 -0.06507278
-0.044195697 0.00276088 -0.032744903 0.05015757 0.031094445 0.00699779 0.013606207 0.022460068
-0.058497213 -0.00075105304 -0.0038046984 0.0176576 -0.0012969847 0.02346755 -0.016848683 -0.0104978215
0.0061690398 0.027953897 -0.017475288 0.024182294 -0.026293071 -0.03932867 0.005928686 0.03751635
-0.028027333 0.0207924 0.021712089 0.02016078 -0.011654018 0.0045628077 -0.01976852 0.02355494
-0.010150424 -0.009302594 0.015345997 -0.018258031 -0.02707183 0.0039031454 0.019420331 -0.024802547
0.007785008 0.026875772 -0.027211027 -0.02208527 -0.003157379 -0.0016122947 -0.053762484 0.014114805
0.0064977147 -0.003426927 -0.0064556627 -0.0058843917 -0.004906139 0.019639714 -0.0073928516 -0.010575072
0.023262484 0.005446119 0.024492173 -0.010729447 -0.009394686 0.01727432 0.0023080122 0.0028787558
-0.028162193 0.051274948 -0.0057832194 -0.0153584145 -0.004679704 0.029485224 0.045608893 -4.805067e-05
00000000: 08de 213d c76a 873a 5a61 243d 19f2 bdbb
00000010: 95fe 083d dcde 5d3d 9440 09bd 107f cbbc
00000020: a365 a8bc 0fcb 413c 8d4b c53a 25a2 3d3c
00000030: 42f9 9cbc 62a3 b53c 861f 8fbc 111a f83c
00000040: 5f5b 87bb a1e1 c7bb d596 bdbc 1990 9cbb
00000050: dd48 30bb b652 6abc 1e51 cdbb 2090 07bb
00000060: 6bb5 0ebc 441d 123c 458d 0a3a afbc bc3c
00000070: c3ee ba3c 168e 2f3c da77 5c3c 4203 753c
00000080: a203 d938 6abe 80bb c078 cabc d161 c3bc
00000090: 3ec4 b8bc 93c0 8e3a 9701 95bc c2d9 c0bc
000000a0: d103 073c 7223 0dbc a6cd 55bc 4cc3 92ba
000000b0: a867 90bb f2bf 06bc 3ac9 753d 58cf 583d
000000c0: 7bb7 e13b 4de9 d0bc 9551 7b3c 5f38 38bc
000000d0: 6fbc 2fbc 911c 7bbc a094 5c3d 23f8 e8bc
000000e0: 5121 2fbb b315 c23c 8dab 4f3c 4192 08bd
000000f0: 814a 363b bd33 c2bb 40db ee3b 55b4 253c
00000100: 22c1 c53c 6bed b5bc 16f3 523b f676 673c
00000110: 4cbe f8bc 4d09 14bc ca7d f5bc e890 f0bc
00000120: 88bd 1cbd f1c6 f3bb b591 1a3a ef8d 97bb
00000130: 6681 08ba db2b 743c 9189 6e3c b310 5c3c
00000140: 164c 06bc 6ccd a2bc 3260 603c b447 2fbd
00000150: e2d6 1ebc 03c9 923a 08c3 d23c 45ea 783c
00000160: 007b 99bb 0ddc 523c 5340 4a3c f531 9ebc
00000170: 72b3 76bb 4b60 0d3d 7f80 8d3c 1133 903c
00000180: cc4a e6bc 8644 d03b a59b 8fbc 4e4f 77bd
00000190: d0df 053d 2c39 d43b 28bc dfbc e76e 91ba
000001a0: ae74 ae3b ed00 8739 889b 2dbb 3c0c a93c
000001b0: 9dec 8e3c 6511 0c3d 46d6 a7bb acc2 20bd
000001c0: d179 9bbc 5300 af3c 942b a23c 8039 61bc
000001d0: de9b c93b 356c 163c ef13 813b 7c07 b33c
000001e0: d03d dfbc 9f57 70bc 1274 13bc 2c9a 793a
000001f0: d230 253d 485a b3bc 655a 90bc 410c a0bb
00000200: 2a96 09bc c5e1 c93b 1e97 ea3b 995e 133c
00000210: 9a7d 4b3c 3097 ed3c a881 debb 030c 14bc
00000220: 70ed 81bc 6d0d 11bd 052c 053b 9eff 84bb
00000230: 85f0 2a3c 2963 d6bc 2319 3c3d 1034 00bd
00000240: 3d9d 5ebc 92bc 4a3b 0591 acbc 90e6 adbc
00000250: ab5e 5cbc 9866 373c 4b0d 56bc f211 813c
00000260: 2724 143d 5df7 02bb 51b4 d939 65a7 603a
00000270: 7c72 f13c 6ea5 023d b216 c4bc 86ba b2bc
00000280: e674 fe3b 1d8b 763c b6a6 8a3c c4e5 15bc
00000290: d50f 483c 5070 c03b 3959 cbbc 7778 c33b
000002a0: 115d 22bc 728a a4bb 54e1 823c 0e9d 14b9
000002b0: 3537 cfbc 709d d23c 3070 833c 67d7 193d
000002c0: dd0f 5ebd 4ab3 78bc e590 bbbb 1d48 913c
000002d0: c01a 003d 9d4f 0cbd 0f5a b73c e144 85bd
000002e0: 8c06 35bd e1ef 343b 851f 06bd 0672 4d3d
000002f0: c7b9 fe3c b84d e53b 92ec 5e3c 2dfe b73c
00000300: c69a 6fbd 51e2 44ba 3f58 79bb aca6 903c
00000310: 96ff a9ba 053f c03c 4006 8abc 0eff 2bbc
00000320: a825 ca3b 92ff e43c 5628 8fbc f219 c63c
00000330: 9164 d7bc 1917 21bd 6c45 c23b bfaa 193d
00000340: 9499 e5bc d354 aa3c 8ddd b13c 3828 a53c
00000350: 7ff0 3ebc 9b83 953b 97f1 a1bc 4af6 c03c
00000360: f74d 26bc e869 18bc c76d 7b3c de91 95bc
00000370: bec5 ddbc eacb 7f3b 6317 9f3c b62e cbbc
00000380: 6119 ff3b 942a dc3c a9e9 debc 2bec b4bc
00000390: 08ec 4ebb a253 d3ba 0d36 5cbd c841 673c
000003a0: c8ea d43b 4b96 60bb 068a d3bb dbd1 c0bb
000003b0: adc3 a0bb 77e3 a03c bc3f f2bb 1143 2dbc
000003c0: f790 be3c 5b75 b23b cfa3 c83c 90ca 2fbc
000003d0: 2bec 19bc e082 8d3c 0542 173b 82a9 3c3b
000003e0: 66b4 e6bc ae05 523d 2981 bdbb dca1 7bbc
000003f0: 3458 99bb ff8a f13c 64d0 3a3d 048a 49b8

exp_avg_sq f4 [2, 768]
0.037133243 0.010241241 0.024522636 0.009942956 0.018977584 0.012727849 0.024469998 0.012429469
0.009761881 0.012788943 0.05541503 0.011372259 0.01119602 0.01034341 0.012491433 0.011423976
0.009852855 0.013169973 0.019036084 0.01202758 0.011495732 0.019670796 0.010763886 0.010263785
0.010226751 0.011225341 0.010083481 0.014418903 0.0122271925 0.016914628 0.010951351 0.012548573
0.02614759 0.012203001 0.023324272 0.010279872 0.012316705 0.010087201 0.013963431 0.01040967
0.016842674 0.010540837 0.02991395 0.010862159 0.011392441 0.013743888 0.079723276 0.011707288
0.010966332 0.011610189 0.012188933 0.011495833 0.0136345485 0.010717778 0.024889834 0.021724397
0.013411453 0.013483374 0.36434406 0.09510231 0.011191858 0.011777217 0.0128488485 0.010562025
0.011288982 0.0107943 0.012178288 0.021268105 0.012522871 0.011680248 0.011299281 0.009908816
0.037181705 0.010687258 0.01521988 0.009768978 0.015108628 0.011340006 0.012443999 0.013807885
0.011607052 0.03170267 0.009873832 0.011732359 0.01368693 0.050344065 0.028761325 0.010768634
0.011881502 0.014522185 0.0137001695 0.011055984 0.010644426 0.012362521 0.010561807 0.011973823
0.011739506 0.016703662 0.009694568 0.017014869 0.011131208 0.011671023 0.039489016 0.01300804
0.010596837 0.010590163 0.013139822 0.04620593 0.0099841105 0.14542603 0.01024716 0.0123398
0.01657814 0.061568674 0.010829914 0.011493031 0.0144886635 0.015384702 0.010104764 0.0098836785
0.01058198 0.010973311 0.009879038 0.012594492 0.01558555 0.034050666 0.013118425 0.010455637
0.02419915 0.012312964 0.009363414 0.009070226 0.010002232 0.032668028 0.0098545905 0.017297247
0.02815658 0.05972922 0.010472559 0.011544747 0.011818217 0.01168711 0.05766406 0.011559926
0.025927935 0.013396249 0.0100162225 0.010109795 0.012580203 0.0132690435 0.010976654 0.009956328
0.013892608 0.010111137 0.010297842 0.08210616 0.014753669 0.015259882 0.024595004 0.026007537
0.011980198 0.00978862 0.021511005 0.015140213 0.017091252 0.027417181 0.01563125 0.010645199
0.009446513 0.011610394 4.855844 0.00961505 0.010504663 0.013554621 0.010082494 0.0104747955
0.013039978 0.011712864 0.009761369 0.012271308 0.010929834 0.015035839 0.010536382 0.015530424
0.014315724 0.019925188 0.029175043 0.016381392 0.010173808 0.011330711 0.021876832 0.013119966
0.014983341 0.010438107 0.009560081 0.12559141 0.010869586 0.010401554 0.011404292 0.02209545
0.011793787 0.012767136 0.010112149 0.010531899 0.011040482 0.022723945 0.011453573 0.010957043
0.010970764 0.013815503 0.0110786185 0.010338049 0.022303287 0.011366108 0.014698191 0.010698579
0.012307148 0.014277114 0.029098583 0.012917666 0.009885001 0.011506823 0.010056482 0.010060535
0.011445159 0.018866967 0.013703666 0.019858064 0.010815892 0.02176068 0.0131167425 0.01130385
0.010972369 0.011977889 0.021683566 0.018288812 0.014436248 0.032605037 0.011330756 0.010498152
0.010228332 0.015118248 0.010334754 0.013118189 0.011249232 0.012915359 0.010270178 0.010667024
0.0206485 0.011405036 0.0139421625 0.0102257235 0.012739132 0.012483672 0.024389539 0.010874367
00000000: 0719 183d e1ca 273c b2e3 c83c c8e7 223c
00000010: e176 9b3c 7888 503c 4e75 c83c f9a4 4b3c
00000020: 4cf0 1f3c b788 513c dffa 623d b652 3a3c
00000030: 836f 373c 6877 293c dea8 4c3c a12b 3b3c
00000040: de6d 213c dfc6 573c 90f1 9b3c 540f 453c
00000050: 9858 3c3c a624 a13c 035b 303c 6f29 283c
00000060: 1a8e 273c 7eea 373c 2f35 253c 433d 6c3c
00000070: 9054 483c 8c90 8a3c 4c6d 333c 8898 4d3c
00000080: 7833 d63c 19ef 473c 8b12 bf3c e96c 283c
00000090: 01cc 493c ca44 253c e0c6 643c 528d 2a3c
000000a0: a6f9 893c 7ab3 2c3c 1a0e f53c 32f7 313c
000000b0: 5ca7 3a3c 0b2e 613c f545 a33d edcf 3f3c
000000c0: 21ac 333c aa38 3e3c 17b4 473c 0559 3c3c
000000d0: 7163 5f3c 9e99 2f3c c4e5 cb3c 5df7 b13c
000000e0: b6bb 5b3c 5fe9 5c3c 4e8b ba3e 00c5 c23d
000000f0: 0e5e 373c 3af5 403c fa83 523c 580c 2d3c
00000100: 6cf5 383c 93da 303c 7187 473c 733a ae3c
00000110: ba2c 4d3c 835e 3f3c 9f20 393c 9658 223c
00000120: d84b 183d 9c19 2f3c ce5c 793c 100e 203c
00000130: 2e8a 773c 6fcb 393c eae1 4b3c 783a 623c
00000140: 812b 3e3c a9da 013d dac5 213c 1539 403c
00000150: 253f 603c 9435 4e3d df9c eb3c ed6e 303c
00000160: a2aa 423c 75ee 6d3c ad76 603c 2824 353c
00000170: f565 2e3c 2c8c 4a3c 6e0b 2d3c db2d 443c
00000180: 0f57 403c 1ed6 883c f7d5 1e3c c462 8b3c
00000190: ac5f 363c d237 3f3c 3cbf 213d ad1f 553c
000001a0: 5b9e 2d3c 5d82 2d3c 6848 573c 6e42 3d3d
000001b0: 6594 233c 90ea 143e b4e3 273c df2c 4a3c
000001c0: e1ce 873c 6f2f 7c3d f46f 313c 444d 3c3c
000001d0: dc61 6d3c 1e10 7c3c 748e 253c 27ef 213c
000001e0: 0b60 2d3c 67c9 333c b0db 213c 2159 4e3c
000001f0: 895a 7f3c b678 0b3d aaee 563c 1f4e 2b3c
00000200: 4c3d c63c 50bc 493c 0169 193c 499b 143c
00000210: 67e0 233c e9ce 053d 2675 213c f5b2 8d3c
00000220: a1a8 e63c a0a6 743d 1995 2b3c 2e26 3d3c
00000230: 32a1 413c 4b7b 3f3c 2631 6c3d d865 3d3c
00000240: d266 d43c f17b 5b3c 151b 243c 8ea3 253c
00000250: 321d 4e3c 6766 593c 6cd7 333c de1f 233c
00000260: d29d 633c 2fa9 253c 48b8 283c 4627 a83d
00000270: 5fb9 713c 9604 7a3c 767b c93c c20d d53c
00000280: 9848 443c 7360 203c d937 b03c a80e 783c
00000290: f402 8c3c ff99 e03c 1b0d 803c 3369 2e3c
000002a0: 8cc5 1a3c 8639 3e3c 1363 9b40 7188 1d3c
000002b0: c01b 2c3c 3314 5e3c 0b31 253c 7a9e 2b3c
000002c0: a2a5 553c 50e7 3f3c 26ee 1f3c 990d 493c
000002d0: 0c13 333c e158 763c caa0 2c3c 5273 7e3c
000002e0: 808c 6a3c 263a a33c 8000 ef3c 4532 863c
000002f0: 0bb0 263c 72a4 393c 0b37 b33c 20f5 563c
00000300: b07c 753c 9804 2b3c e3a1 1c3c 099b 003e
00000310: 5916 323c 486b 2a3c 11d9 3a3c 8401 b53c
00000320: ba3a 413c 402d 513c 6dad 253c fc8d 2c3c
00000330: 23e3 343c 9127 ba3c c4a7 3b3c 2b85 333c
00000340: b8be 333c 6b5a 623c 1883 353c ec60 293c
00000350: 62b5 b63c ea38 3a3c aed0 703c 1849 2f3c
00000360: eca3 493c 8eea 693c 2760 ee3c 9ea4 533c
00000370: b3f4 213c 1d87 3c3c f1c3 243c f1d4 243c
00000380: 7a84 3b3c e68e 9a3c 5785 603c 61ad a23c
00000390: 2435 313c 7443 b23c 9be7 563c c933 393c
000003a0: 74c5 333c e83e 443c bca1 b13c 6bd2 953c
000003b0: 0386 6c3c dc8c 053d a3a4 393c 7100 2c3c
000003c0: bc94 273c 87b2 773c 1a53 293c aced 563c
000003d0: b34e 383c f19a 533c 4044 283c bec4 2e3c
000003e0: 0b27 a93c 30dc 3a3c ab6d 643c cb89 273c
000003f0: cbb7 503c 5188 4c3c 92cc c73c 672a 323c
