SmallD_SDD_up_to_step2/out_IPC_5_no_cu_20mrpc_mlp4_ipc5_w20.pth (torch, 94840 bytes, 3 tensors)

module.data.weight f4 [10, 768]
000000 67 3b b3 bd d9 1f 7a bc 64 ef 9a bd 1e f3 fa 3c
       -0.087515645 -0.015266382 -0.075651914 0.030633505
000010 02 ce 82 bd e0 26 10 bd 8e 58 dd 3c 15 5a b6 b9
       -0.06386949 -0.035193324 0.027019765 -0.00034780861
000020 e7 40 b9 3c 6d 90 c4 3c 76 f7 b8 bd 51 0a fe 3c
       0.022613956 0.023994649 -0.090315744 0.031010779
000030 b5 28 f0 3b 1b e9 0c bd 4a b0 8b 3d f1 34 56 bc
       0.0073290714 -0.034401994 0.06820734 -0.013074146
000040 71 9f 87 bd 8b 65 ce bd 3e 67 09 bd 4e 17 67 3b
       -0.06622208 -0.100779615 -0.033545725 0.0035261693
000050 fe ee 70 3d 0a b1 d7 bb eb 53 27 b9 72 30 66 3d
       0.05882167 -0.006582384 -0.00015957623 0.056198545
000060 bb e3 dc bc d0 64 e2 3c cf 3f 94 3c c3 4e 18 3d
       -0.02696406 0.027635962 0.018096833 0.037184488
000070 71 31 44 bc d9 06 7d bc 4d 3a e6 bc 3a 83 2e 3d
       -0.011974678 -0.015443527 -0.028103972 0.042605616
000080 02 9e b3 3c db f6 84 bd af 0d 74 bd c1 86 a8 bd
       0.02192593 -0.064923964 -0.059583362 -0.08228827
000090 0a ae 82 bd bb 14 2e 3d 12 93 ce 3c 08 86 96 bc
       -0.063808516 0.04250024 0.025216613 -0.018374458
0000a0 ee 35 c5 3c 8f 02 89 3d db 94 85 3d e8 77 16 bc
       0.024073567 0.06689941 0.065225326 -0.009183861
0000b0 57 aa 89 bd db cf ac bb 40 7c 96 bd a7 be 04 3e
       -0.06721943 -0.0052738017 -0.073479176 0.12963353
0000c0 3d a9 b5 3c a9 25 21 bd da ff 9d bd 6e 9e 32 bc
       0.022175426 -0.039342556 -0.077148154 -0.01090203
0000d0 cb 4e 7d bc e6 c4 c6 3b 48 3d 3b 3d ea a2 22 bd
       -0.01546068 0.0060659526 0.04571274 -0.03970615
0000e0 90 c0 26 3d 92 de 44 3d 81 12 0d 3d f9 b4 96 bc
       0.040710986 0.048063822 0.034441475 -0.018396841
0000f0 53 29 48 3b 37 cd 83 3d 7d 6f 54 bd 0a bf 19 3d
       0.003054221 0.06435626 -0.051864136 0.037535705
000100 02 08 1e be 8b a5 98 bc 94 94 0e bc 21 ef a3 bd
       -0.15432742 -0.018633625 -0.008702416 -0.080045946
000110 d5 90 8b bc 4e b0 44 bd 93 6f 7c 3d 93 49 1e 3d
       -0.017036835 -0.0480197 0.061629843 0.038644385
000120 a7 ae 89 bc 66 8f 4c 3d 4f 80 86 3b ff 87 44 bd
       -0.016806914 0.049941443 0.004104651 -0.04798126
000130 8b c1 b6 bd 71 84 89 3c d9 2e 4e 3d ad 56 8d bc
       -0.08923634 0.016786786 0.050337646 -0.017253244
000140 50 b1 d1 3d 20 f0 11 3d bf e5 4c 3d 06 23 77 bc
       0.10238898 0.03562939 0.05002379 -0.015084034
000150 e5 17 fe bc 52 a4 69 bc e5 d2 79 3d 59 4f 1a bd
       -0.031017253 -0.014260368 0.06099214 -0.037673328
000160 73 ae a0 3d 6b 93 45 bc c2 cf a4 bb 09 0a 83 3d
       0.078457735 -0.012059073 -0.0050296495 0.063983984
000170 dc c4 60 3d a2 02 8c bc 44 8a d7 3c 20 b7 c0 3c
       0.05487524 -0.0170911 0.026311047 0.02352482
000180 14 a7 60 bd 3e 84 2b 3d 16 62 80 3a 98 68 cc 3c
       -0.054846838 0.041874163 0.0009794857 0.024952218
000190 8a b1 b8 bb 2e ee 2b bd bf c7 fc bc 9d 6c 04 3d
       -0.0056363987 -0.041975193 -0.030856965 0.032330144
0001a0 82 04 ab bc 8d c0 ff 3a ff 0f 4f bd d7 34 8d bd
       -0.020876173 0.0019512341 -0.050552364 -0.06894844
0001b0 1a 38 d9 bc 26 c0 63 bc fb 18 3d 3d 6b 22 cf 3c
       -0.02651601 -0.013900792 0.0461664 0.025284966
0001c0 5a 36 60 3d 1f d6 9f 3c b8 15 7b 3d a4 30 5a bd
       0.054739334 0.01951128 0.06130001 -0.053269044
0001d0 de e9 8f bc 30 61 97 bd 56 aa 91 3d df 73 c9 bc
       -0.017567571 -0.07391584 0.07112567 -0.024591384
0001e0 84 4d 51 3d db 08 a5 bd 19 d3 89 3d e4 ed 0a bd
       0.051099315 -0.0805833 0.06729717 -0.033918276
0001f0 8d 77 7e bd 2b 1b f1 bd 27 72 27 3c ff b1 2a ba
       -0.06212573 -0.1177276 0.010220087 -0.0006511509
000200 51 84 15 3c 05 f5 af 3d 6d 5f f6 bb fc 03 8b bc
       0.009125785 0.08591656 -0.0075187 -0.016969673
000210 8e 5b 3b 3d 71 e7 d4 bd cf 83 a8 bc 8d f8 61 3a
       0.04574161 -0.103957064 -0.020570664 0.0008620106
000220 ac 4d 27 bd c8 f8 98 3d 4f 6c 73 3d 33 11 da bb
       -0.040845558 0.07469326 0.059429463 -0.0066548823
000230 d1 4d 5f 3d d1 5d a3 3c 3d 76 97 3d ce ab f1 3c
       0.05451757 0.019942196 0.07395599 0.029500868
000240 d3 2d 97 bc 1f fb cb 3c 16 e8 8c 3d e4 f7 c9 3d
       -0.018454468 0.024900017 0.068802044 0.098617345
000250 ed 2b 2c bd 81 40 99 3c 8c 63 66 bc 8a d8 fb 3c
       -0.04203408 0.018707516 -0.01406182 0.030742902
000260 63 af 2f bd 47 59 3c bd 27 77 6e 3d bd d2 b4 bd
       -0.04289187 -0.04598358 0.0582191 -0.08829258
000270 9e 28 1b 3d 19 8e c6 3d 4c 8a a3 bc 48 4f e6 ba
       0.037880532 0.09695072 -0.019963406 -0.0017571235
000280 4d df 44 3c 2f ab a2 3d f9 b9 a2 bc 5c 37 2e bc
       0.01201613 0.07942807 -0.01986407 -0.010633316
000290 64 58 94 3d f2 bb 2c bd b7 d9 ea bc 90 02 67 3d
       0.07243422 -0.042171426 -0.028668268 0.05639893
0002a0 21 35 07 bd a6 eb 07 bd ca c3 f7 3b d7 82 f1 3b
       -0.033009652 -0.033183716 0.0075611817 0.0073703337
0002b0 84 5c 71 3b f6 b0 8c 3c 5f 28 e5 3d a7 23 07 bd
       0.0036828825 0.017174225 0.11189341 -0.032992985
0002c0 37 ee 77 bc cd 19 fd bb 0b 56 43 3a d0 99 d5 bc
       -0.015132478 -0.007724023 0.0007451481 -0.02607432
0002d0 e8 8a bf 3b da ba 82 3c 07 f4 99 bc c4 63 36 3c
       0.0058454163 0.015958238 -0.01879312 0.011132184
0002e0 45 6d 4e bb 87 6c 99 3c 65 db 96 bd 41 2b 5b bd
       -0.0031498235 0.018728508 -0.07366065 -0.053508047
0002f0 e8 0e 01 3d 46 e3 f7 3c 60 02 b3 bc 30 16 41 3c
       0.031508356 0.03025974 -0.021851718 0.011785075
000300 97 77 75 bb 0d 9c a2 3d 0e 24 0c bd 4c 1c b2 bc
       -0.0037455314 0.079399206 -0.034214072 -0.021742009
000310 da 6a 75 bd 1c a0 6a bb 68 20 0e 3c f7 c7 ec 3b
       -0.059916355 -0.0035801 0.008674718 0.007225986
000320 f4 c0 3d bd fe 26 ee bc 93 37 37 3d 14 a2 36 3d
       -0.046326593 -0.029071327 0.044730734 0.044588163
000330 3b 68 82 3c a7 79 b3 bd e3 90 96 bc e9 db 8a 3d
       0.015918842 -0.08763438 -0.018379634 0.06780226
000340 4c 78 16 3d 9c 7b c3 bc df b9 95 3c 8d 48 ab bc
       0.036735818 -0.023862652 0.018277107 -0.020908618
000350 8a ff 5e 3d 3d e6 86 3d cd cc 48 bd 4d 99 d3 3c
       0.05444292 0.06586883 -0.04902344 0.025829935
000360 9f e3 8b bc 6f 19 7f bd 7e dd e0 bc 18 25 8f bc
       -0.017076312 -0.062280115 -0.027449366 -0.017473742
000370 2b 1e 10 3d 09 73 41 bb 61 dc bc 3d 29 5a 4a 3d
       0.03518502 -0.002951803 0.092217214 0.04940239
000380 32 de 05 3d 91 26 1b bd a8 fb e0 bb 58 81 1d bd
       0.032682605 -0.037878577 -0.0068659373 -0.03845343
000390 76 76 63 bd ed 0c 03 bb 31 07 24 bd b7 e7 74 3d
       -0.055532895 -0.0019996718 -0.04004592 0.059791293
0003a0 c2 90 5c 3d a0 ad 2b 3c 65 ba a0 3c 0c 23 08 3d
       0.05384899 0.010478407 0.01962013 0.03323655
0003b0 fb 9d 81 3c bd 34 c5 3a 9e 98 88 3d 70 79 4b 3d
       0.015822401 0.0015045624 0.066697344 0.04967636
0003c0 e7 c1 e9 bc 0a 76 a3 bd 22 d5 91 bc 58 ef 10 be
       -0.028534843 -0.079814985 -0.017801825 -0.14153802
0003d0 85 10 cb 3c 05 14 56 3c 20 70 6d 3d e5 a2 cc 3c
       0.02478815 0.0130662965 0.05796826 0.024980018
0003e0 7e 4d 21 bc ab d2 41 bd 77 2a 6b bd bd 89 f0 3b
       -0.009845136 -0.04732005 -0.057413545 0.0073406384
0003f0 57 77 01 3d f3 33 52 3d 35 fc 91 3c e2 7c 44 bd
       0.031607952 0.051319074 0.017820457 -0.04797066

exp_avg f4 [10, 768]
000000 86 cd 85 3b 49 c8 91 bb 53 c5 15 bc ff cf c1 3b
       0.004083338 -0.0044489247 -0.009141284 0.0059146876
000010 8e 50 64 bc 8f a1 26 3c e1 6c 33 3b 89 d4 4c bc
       -0.013935221 0.0101703545 0.002737813 -0.012501844
000020 3a 1b 05 3c a5 b4 89 bc ad f0 3e 3b 13 35 2d 3c
       0.008124167 -0.01680977 0.0029135153 0.010571736
000030 e1 d0 f6 bb c7 1e 8e 3b 8e 0c 82 bb 29 71 3e 3b
       -0.0075322245 0.004337165 -0.003968782 0.0029059148
000040 62 56 4e ba 43 9d 9e bb cc 54 47 bc ee 1a 98 3c
       -0.00078711484 -0.0048405244 -0.012166213 0.018567529
000050 dc d8 a6 3b 18 01 d8 3b b7 bf e7 3b 1a f4 bb 3b
       0.0050917696 0.0065919273 0.0070724147 0.0057358863
000060 c5 38 e2 bb 04 19 a9 3a e0 c7 05 3c 89 b5 34 bb
       -0.00690374 0.0012901132 0.00816533 -0.0027574024
000070 7b 21 2b 3c 55 dd c3 bb d5 bd 96 bc ad 3d 2c bc
       0.010444994 -0.0059773126 -0.018401066 -0.0105127515
000080 2f db 0d 3c f8 a3 cb 3b 1a 02 1a 3c 79 24 37 3c
       0.0086582145 0.006214615 0.009399915 0.011178129
000090 15 11 0d bc c3 98 87 3a a1 f8 6f bb de 7c 1b bc
       -0.00861003 0.0010345209 -0.00366167 -0.00949022
0000a0 30 83 d9 ba 5a 17 2f 3c d8 e6 d2 bb 69 2a a9 bc
       -0.0016594883 0.01068672 -0.00643621 -0.020650106
0000b0 a9 64 a5 3b 65 9e 32 3c 55 e8 ed bb 4d 61 05 bb
       0.0050474 0.010902022 -0.007260362 -0.0020352185
0000c0 3e a9 c9 ba b5 37 03 bc e0 62 ff bb e1 3c 75 3b
       -0.0015385521 -0.008008887 -0.0077937692 0.003742032
0000d0 e9 ae 8a bc 7d 98 c7 bb 2f e1 d7 3c 81 6b 9f ba
       -0.016929107 -0.006091176 0.026352493 -0.0012162776
0000e0 e0 aa d6 ba 4e a9 33 3c d5 10 77 bb df d6 9f bb
       -0.0016377829 0.010965658 -0.0037699242 -0.0048779096
0000f0 fa d4 44 bc 4f 25 e0 3b 69 06 14 bc ba c4 08 ba
       -0.012013668 0.006840385 -0.009034731 -0.0005217303
000100 87 bd 89 ba 71 22 30 bc 10 3a 23 3c e3 59 27 bc
       -0.0010508754 -0.010750399 0.009962574 -0.010214302
000110 d7 6e d7 3b 81 74 e7 3b 92 ea 08 3b 63 18 26 3c
       0.0065744924 0.007063449 0.0020891768 0.01013765
000120 a4 59 06 bc 1f 08 6a 3b 04 3a 84 bb 67 d4 a1 bb
       -0.008200083 0.0035710407 -0.0040352363 -0.0049386504
000130 fe ee 20 3b c0 d8 1f bb 9d 66 25 bc 36 0e 58 bc
       0.0024556513 -0.0024390668 -0.010095266 -0.013186982
000140 89 dc b8 ba 6a a1 64 3c dc d2 9b 3b ce fe 6f bb
       -0.001410381 0.0139545 0.004755361 -0.0036620381
000150 45 2f 18 bc 38 9f 34 3b 6c 2b 1c 3b 13 23 c2 bc
       -0.009288614 0.0027560722 0.0023829592 -0.023698365
000160 b8 59 41 bb 43 54 bd bb 18 c0 49 bc 56 a0 86 3c
       -0.002950294 -0.005777867 -0.012313865 0.016433876
000170 ef 12 88 bb ba 74 24 3c 76 df 9f b9 b2 65 8a bb
       -0.0041526477 0.010037595 -0.00030493335 -0.004223549
000180 65 0a 43 b8 c4 51 80 ba a4 a0 1e bc 35 ce 8b 3b
       -4.6501304e-05 -0.0009789993 -0.009681854 0.004266525
000190 56 2e 5f b9 70 3c 29 3b 1b ee e7 b9 88 4f 3c 3c
       -0.00021284199 0.0025823377 -0.00044237156 0.011493571
0001a0 3c 97 06 3b 49 f6 73 ba 33 28 b6 3b 44 12 21 bc
       0.002053692 -0.00093064137 0.0055589913 -0.009831015
0001b0 fb 5e 95 ba 0a 3d 43 3c e3 a2 2e ba f3 aa cb 3c
       -0.0011396104 0.011916408 -0.0006661845 0.024861788
0001c0 4f 25 48 bc 10 1d 91 ba 41 5e cd 3b f3 dd e0 ba
       -0.012215926 -0.0011071283 0.0062673395 -0.001715599
0001d0 95 09 b3 bb 88 a4 3c 3b 01 8e 28 3b 2c da 64 3c
       -0.0054637888 0.0028784592 0.0025719407 0.013968032
0001e0 72 77 68 3c ff c3 88 ba f8 4c c0 bb 3b c0 2e 3b
       0.014188634 -0.0010434388 -0.0058685504 0.0026664871
0001f0 62 26 67 bc 06 15 82 bb 97 d4 62 bc ab 06 66 bb
       -0.014108272 -0.0039697913 -0.013844631 -0.003509919
000200 c8 ec 0a 3c 1b 97 0b bc 22 31 5b bc f5 22 46 bc
       0.008479305 -0.008519913 -0.013378413 -0.012093295
000210 14 27 f1 3b f8 32 34 bc c4 cf 5c 39 83 6b 40 3c
       0.007359395 -0.01099848 0.00021058234 0.011744383
000220 33 37 40 3b 65 de 89 bc fa 02 42 bb e7 c6 94 bb
       0.0029329776 -0.016829679 -0.0029603825 -0.0045403126
000230 94 fa ca 3a 60 a8 a2 bb c2 b8 30 bb e1 ef 4a bb
       0.0015486055 -0.0049639195 -0.0026965593 -0.0030965733
000240 d5 1d f9 3b b8 a6 a9 3b b7 79 a1 bb 43 11 b6 ba
       0.007602433 0.005177345 -0.0049278396 -0.0013890642
000250 a8 6d bc 3b 89 72 9c bb 82 e2 10 bc 9b 47 0c 3c
       0.0057503767 -0.004774396 -0.008843066 0.008561994
000260 ae 04 98 ba b0 ac e9 3a 33 0c 3c bb db 39 57 bc
       -0.0011598074 0.0017827954 -0.0028693795 -0.013136352
000270 17 43 0f bc 7f 96 3c bc 8b 8e 72 bc 55 ee 02 bb
       -0.008744023 -0.01151049 -0.014804493 -0.0019978483
000280 bd 13 06 3c 78 1a b0 3b 7a a9 36 bc f2 97 5c 3b
       0.008183417 0.005374249 -0.011148805 0.0033659902
000290 28 7e 2b bb 85 bc c8 3b 3f d6 46 3b 71 8f cf 3b
       -0.0026167724 0.006125989 0.0030340103 0.006334238
0002a0 b8 34 49 3b 22 1a ec bb 41 93 65 3c 6c 1d 1f bb
       0.003070159 -0.0072052637 0.014012159 -0.0024279011
0002b0 6c 30 5d 3c a8 5a 32 3c e4 8d 72 bc 4f dc 7f ba
       0.013500314 0.010885872 -0.014804337 -0.00097603066
0002c0 5b 04 88 bb c8 ad 30 3b 89 fb b0 bb 7e 77 72 bc
       -0.00415091 0.002695905 -0.005401079 -0.014798997
0002d0 87 5d 3f 3c 02 d3 25 3b da e5 92 3b 1f 33 1f bc
       0.0116800135 0.0025302772 0.004482967 -0.009716778
0002e0 34 cc 46 bc c1 45 23 3b 4a 5b 5a bc 89 96 94 bb
       -0.012133647 0.0024913403 -0.013327429 -0.0045345468
0002f0 f1 a6 0f bc 00 2f b1 3b 1d b3 b0 3b b0 a1 e3 bc
       -0.008767829 0.005407214 0.0053924457 -0.02778706
000300 6f 31 0c bb 98 f7 64 bb 94 03 7a bc 24 17 dd 3b
       -0.002139177 -0.0034937616 -0.015259642 0.0067471433
000310 32 27 f3 bb 18 13 45 3c 60 62 62 ba 7b f9 72 bc
       -0.007420444 0.012028478 -0.0008635875 -0.014829989
000320 07 cc 6e 3b ac 09 7d 3b e9 e9 55 bb 77 00 71 bb
       0.0036437528 0.0038610501 -0.0032640642 -0.0036773959
000330 f1 45 0f 3a 49 9b 95 3b 8d 49 e6 bb d5 8a 77 bb
       0.0005465439 0.0045656306 -0.007027811 -0.003777196
000340 cf 31 5f bc 23 60 82 bb b2 93 8f 3c ed ba fa bb
       -0.013622715 -0.0039787455 0.017526481 -0.007651678
000350 e9 e4 53 bb 75 12 22 3c d5 d3 b3 bb 3d d6 35 3a
       -0.0032332486 0.009892096 -0.005487899 0.0006936526
000360 36 50 05 3c 93 44 0d 3c 00 f9 93 bb 82 76 bf bb
       0.0081368 0.008622306 -0.004515767 -0.0058429847
000370 59 18 0c 3c ee 01 8e bb ba a0 64 bc f8 a5 4f 3b
       0.008550727 -0.004333726 -0.013954336 0.0031684618
000380 17 de e6 bb 86 e8 41 3c e0 0b b9 bb 60 57 1b ba
       -0.007045518 0.011835223 -0.0056471676 -0.00059258007
000390 24 20 e0 ba 6a 1c 56 3b 0d e5 03 bc af 4a 8b bc
       -0.0017099422 0.0032670745 -0.008050215 -0.017003385
0003a0 57 13 48 3b 8e 82 45 3b 88 ef 41 bb 6b e6 22 3c
       0.0030529106 0.003013763 -0.0029592235 0.009942631
0003b0 83 b0 00 3c 89 44 1c 3c fd 1a 03 bc cf 30 d2 bb
       0.007854584 0.009537824 -0.00800204 -0.00641451
0003c0 c5 50 86 ba 7d d1 f3 3b 40 cb 6e bb 8b c5 35 3a
       -0.001024746 0.0074407444 -0.0036437064 0.0006934038
0003d0 d1 e6 09 3c d5 89 10 bc ad e8 cb bb 1b 82 0d 3c
       0.008416847 -0.008821924 -0.0062228055 0.008636977
0003e0 8a 8d 21 bc 53 aa 84 3c 4c 89 78 3c 23 27 7c 3c
       -0.009860406 0.016194498 0.015169453 0.01539019
0003f0 de 3c 83 3c d8 ab 3f bc eb 27 00 3c 27 85 7a 3a
       0.016020235 -0.011698686 0.007822017 0.00095565844

exp_avg_sq f4 [10, 768]
000000 16 a4 e9 3a 29 20 d5 3a 64 83 0f 3b ff 06 0b 3b
       0.0017825391 0.0016260195 0.0021898383 0.0021213887
000010 ca ea c5 3b a9 af 28 3b e5 e4 a1 3b 91 a3 fc 3a
       0.006039952 0.0025739467 0.0049406164 0.0019274821
000020 44 36 e6 3a 4e 11 f6 3a 2d f7 e2 3a d0 90 e9 3a
       0.001756378 0.0018773468 0.0017316096 0.0017819647
000030 db 6a 06 3b 63 5c 29 3b a8 4f ed 3a a5 5e 0b 3b
       0.0020510468 0.002584242 0.0018105404 0.002126613
000040 57 94 b1 3a c9 a4 01 3b 42 e7 52 3b 1d 31 de 3a
       0.0013548237 0.0019782057 0.0032181297 0.0016951893
000050 35 ee c8 3a 0a dd e8 3a 95 58 d3 3a ee ce d9 3a
       0.001532978 0.001776607 0.0016124422 0.0016617456
000060 19 e2 c2 3a d1 96 29 3b 84 ef cc 3a 10 f2 f3 3a
       0.0014868408 0.0025877247 0.0015635346 0.0018611569
000070 00 e8 d6 3a 8d 78 16 3b ff 16 e1 3a 55 18 34 3b
       0.0016396046 0.0022960037 0.0017172991 0.0027480323
000080 95 25 ea 3a c6 13 06 3b 58 cd 30 3b ae 6a b6 3a
       0.0017863984 0.0020458563 0.0026977863 0.0013917291
000090 d4 d3 21 3b a9 6c e8 3a c9 40 20 3b 83 fd e8 3a
       0.002469291 0.0017732579 0.0024452677 0.0017775748
0000a0 c2 69 ed 3a 23 8b c9 3a ce fe 06 3b a5 61 dc 3a
       0.0018113183 0.0015376549 0.0020598653 0.0016813768
0000b0 d4 06 d1 3a 0a d5 09 3b 0d 25 ef 3a 94 b9 1c 3b
       0.001594747 0.0021031522 0.0018245295 0.0023914324
0000c0 ae 72 0e 3b 72 ef 0f 3b a7 4c c3 3a d4 73 56 3b
       0.0021735835 0.002196279 0.0014900164 0.0032722848
0000d0 0d 2f 9c 3b 0e c8 f8 3b c9 90 cb 3a be 74 ae 3b
       0.004766351 0.0075922078 0.001553082 0.0053239753
0000e0 6d 7b 20 3b 25 6e bb 3a e2 8c 09 3b ef 0e a6 3b
       0.002448763 0.0014299793 0.0020988514 0.005067698
0000f0 25 29 e7 3a 6d e7 8d 3b a7 ce ff 3a ac 94 33 3b
       0.0017636163 0.0043305666 0.0019516543 0.0027401848
000100 0d d5 ad 3a 16 c8 53 3b 8b c3 fe 3a 4c 38 39 3b
       0.0013262347 0.0032315305 0.0019436938 0.0028262315
000110 ab c9 8a 3b a6 85 cf 3a 2b cc 35 3b c9 89 e7 3a
       0.0042354665 0.0015832677 0.0027740102 0.0017664965
000120 95 ab 9e 3c dd aa da 3a 3d 5d 13 3b 02 b0 bd 3a
       0.019368926 0.0016683001 0.0022485994 0.001447201
000130 6e d2 d0 3a db 11 0d 3b 27 c1 08 3b 54 e2 25 3b
       0.0015931854 0.0021525535 0.002086708 0.0025311904
000140 f5 a8 cb 3a fd 3e 0d 3b 5f ff e2 3a b2 35 bd 3a
       0.0015538024 0.0021552437 0.0017318538 0.0014435558
000150 1f 0d 50 3b c3 1c 0a 3b c1 46 8b 3b e8 db 88 3b
       0.0031746102 0.0021074272 0.004250378 0.0041766055
000160 fe 71 bf 3a c8 06 45 3b 05 3f ce 3b 35 16 e0 3a
       0.0014606116 0.0030063856 0.0062941336 0.0017096462
000170 e8 17 f2 3a 4c a2 0e 3c b7 6a d8 3a ad 9f 04 3b
       0.0018470259 0.008705687 0.0016511296 0.0020236776
000180 f0 ba db 3a 4d d5 db 3a 7b 98 da 3a 22 c1 12 3c
       0.0016764086 0.0016771943 0.0016677523 0.008957179
000190 65 9d 94 3b 0b a8 9f 3b 69 3c 6b 3b 96 53 0c 3b
       0.0045353645 0.004872327 0.0035894162 0.0021412126
0001a0 5e 2a dc 3a 79 de 14 3b 70 46 09 3b 4a 6c 36 3b
       0.0016797294 0.0022715612 0.0020946525 0.0027835541
0001b0 96 cb c9 3a 8d ae 11 3c 5c eb db 3a 17 16 d4 3a
       0.0015395756 0.008891714 0.0016778517 0.00161809
0001c0 22 aa 43 3b 1c 08 ee 3a 2b 66 cd 3a b2 c3 e7 3a
       0.0029856046 0.0018160376 0.0015670707 0.0017682223
0001d0 42 7a 95 3b e3 63 d6 3a 39 e7 bd 3a 2b 30 d6 3a
       0.0045616934 0.0016356673 0.0014488465 0.001634126
0001e0 8c 33 c3 3a f5 a7 e2 3a 32 90 ed 3a 01 e2 dc 3b
       0.0014892682 0.0017292487 0.0018124639 0.006740809
0001f0 4a fc 96 3b 70 2a eb 3a 1d 56 fe 3a 35 da e9 3a
       0.004607712 0.0017941725 0.0019404326 0.001784152
000200 ed 36 22 3b 2d 24 d5 3a 4a 91 ec 3a 34 72 dd 3b
       0.0024751977 0.0016261392 0.0018048671 0.006757999
000210 85 fc b7 3a 16 a7 28 3b 3c a1 e7 3a 66 5a f1 3a
       0.0014037049 0.0025734357 0.0017671953 0.0018413782
000220 66 25 80 3b 28 f9 63 3b 2f d0 d1 3a 9b 80 f0 3a
       0.0039107082 0.003478596 0.0016007478 0.0018348874
000230 e9 d8 62 3b ed 72 9f 3b 2e 55 04 3b 07 f4 7d 3b
       0.0034614152 0.004865995 0.0020192373 0.0038750188
000240 be fd 11 3c 96 26 eb 3a 59 1b c7 3a cd ec c2 3a
       0.0089105945 0.0017940577 0.0015190645 0.0014871598
000250 52 c3 d0 3a 64 2e 04 3b 05 5f 0d 3b 93 e8 34 3c
       0.0015927351 0.0020169253 0.0021571529 0.011041778
000260 68 f1 da 3b b1 d3 d1 3a d3 cd d9 3a 54 af d7 3a
       0.00668161 0.0016008524 0.0016617127 0.001645545
000270 02 6f 33 3b 60 61 13 3b 5e 0e b9 3b 56 4f 21 3c
       0.0027379398 0.002248846 0.0056474647 0.009845575
000280 d1 42 4f 3b ae ab c7 3a cb a8 06 3b db 46 e1 3a
       0.003162552 0.001523366 0.0020547386 0.0017187254
000290 e9 42 70 3b c3 23 9a 3b 35 32 8e 3b 87 63 d6 3a
       0.0036660975 0.00470397 0.0043394812 0.0016356566
0002a0 ef f7 d2 3a ff 51 f2 3a 13 dc bb 3b 51 55 d5 3a
       0.0016095618 0.0018487572 0.005733022 0.0016276037
0002b0 fa 3f b6 3b a0 09 18 3b cd c2 39 3b 88 31 d3 3a
       0.005561826 0.0023199096 0.002834487 0.0016112784
0002c0 22 d1 d8 3a 7d 3b ee 3a 32 3b d2 3a bc a0 83 3b
       0.0016541819 0.0018175688 0.001603937 0.0040169638
0002d0 08 51 06 3b c4 ad 4a 3b 46 ba 18 3b 94 e9 e2 3a
       0.0020495076 0.0030926326 0.0023304387 0.0017312043
0002e0 36 09 13 3b dc 2d 27 3b 5e 8a 33 3b 53 08 de 3a
       0.002243591 0.0025509512 0.0027395706 0.0016939737
0002f0 91 0b eb 3a 20 3e 04 3b 7c 9b 08 3b 5b cb ed 3a
       0.0017932524 0.002017863 0.002084463 0.001814227
000300 19 fc 20 3b 9d 17 e2 3a bd 3d 09 3b 7d 61 01 3b
       0.0024564324 0.0017249469 0.002094134 0.0019741945
000310 4b 16 d1 3a 5e 90 15 3b 01 bc 18 3b 24 22 2b 3b
       0.0015952078 0.0022821645 0.0023305418 0.0026112879
000320 08 5c da 3a 95 c5 b9 3a 9c db c5 3a 02 74 d0 3a
       0.0016659508 0.0014173264 0.0015095356 0.0015903714
000330 28 fd 50 3b 78 cb 40 3b 9f e4 c6 3a b7 c1 e9 3a
       0.0031889174 0.0029418152 0.0015174336 0.0017834221
000340 44 07 96 3b 44 57 f5 3a 86 42 d8 3a 87 3e d4 3a
       0.004578503 0.0018718024 0.0016499318 0.0016192951
000350 d7 3b fb 3a 33 b6 6d 3b 57 be 23 3b d0 e3 d8 3a
       0.0019167614 0.003627193 0.0024985278 0.0016547386
000360 be 24 16 3b 7d b9 f7 3a c8 fb e6 3b 99 61 12 3b
       0.0022910084 0.0018899884 0.0070490576 0.0022336005
000370 a5 6d ea 3a 9c 24 ce 3a 0c 86 2b 3b bd d2 ef 3a
       0.001788546 0.0015727463 0.0026172427 0.0018297058
000380 61 ce bd 3a 26 5c 05 3b 00 dd 28 3b ee 67 34 3b
       0.0014481061 0.0020349114 0.0025766492 0.0027527767
000390 6f c4 d0 3a ad b3 d2 3b 03 3f d4 3a 02 96 00 3b
       0.0015927682 0.0064301104 0.0016193095 0.0019620662
0003a0 ab 7c e0 3a 4e 6a de 3a 98 48 1b 3b 8b dd 19 3b
       0.0017126998 0.0016968937 0.0023694392 0.0023477997
0003b0 84 37 05 3b cc dc 96 3c 38 b9 f6 3a 32 f9 e3 3a
       0.002032728 0.018415831 0.001882351 0.0017392992
0003c0 cb a4 c3 3a 42 b2 e7 3a b0 3f 1e 3b 86 87 dd 3a
       0.0014926431 0.0017677026 0.0024146847 0.0016901351
0003d0 82 a4 0b 3b 51 b6 f5 3a 80 e5 c1 3a a1 85 d2 3a
       0.002130777 0.0018746351 0.0014793128 0.0016061553
0003e0 29 9c 84 3b 71 3f cb 3a 55 e7 e6 3a de 0e 05 3b
       0.004046936 0.0015506578 0.001761655 0.002030305
0003f0 f5 32 02 3b 1f 9b 3a 3b d8 ed 16 3b 36 cc d1 3a
       0.0019866799 0.0028473807 0.002302995 0.0016006294
