SmallD_SDD_step_3_and_4/out_step3_ipc20_s3_adamlr.pth (torch, 371168 bytes, 3 tensors)

module.data.weight f4 [40, 768]
00000000: 45af 46bd aa53 7ebd 0f08 69bd 2d16 b7bb
00000010: b92d 973d 7e52 64bc 78cd c9bd fb4b 0dbe
00000020: 9ec0 2fbd eb2e 6b3d c93a 88bd 9f68 f73c
00000030: 2da2 abbd 342a 12bd 4f39 073d 1774 cc3c
00000040: 57e6 8c3d 063a d1bd 66bf 28bb e079 85bd
00000050: b045 e83c ec14 9ebd 2085 223d f5a0 373d
00000060: 87b4 1c3d 135b 87bd e9aa 6fbb 8986 483b
00000070: 598e 43bb 54d6 c53d abd6 16bd e111 a33c
00000080: 0aa5 623b 1211 ac3b c89b acbd 0c90 c63c
00000090: 943f f43c e2a3 903d b1d3 043c 0dcb a43c
000000a0: 0098 6c3b 0755 683d 75c8 2cbd c06b 213d
000000b0: b6d2 86bd 0b42 0d3e 70b9 6ebd 2093 56bd
000000c0: 2ac4 3dbd 074f be3d 98a1 5f3d b181 5d3d
000000d0: 9874 41bd 9df0 a23d f405 5d3d 5e2a 2abd
000000e0: dcff 69bc 369f 96bd 3f72 e63d 5885 903c
000000f0: 3b6b 87bd 92bf 9b3c 2c2f 833c 7a95 86bc
00000100: 68d2 28bc 0ddb 293d 4f8a 1dbc 61b0 453d
00000110: 39c1 13bd 89a7 65bc 3c6c edbc 38d0 223d
00000120: 33a3 b3bd c7ac 73bd a953 673c a154 3cbd
00000130: ddc8 9fbc 4770 4c3d 464d 243c c609 763c
00000140: eb05 743d cdb1 833d 21e9 c4bd 4c9b b4bc
00000150: 6132 903d 15ca ebbc e0a1 50bd e595 ddbc
00000160: b94f 343d 5343 073e 6689 20be 5283 44bd
00000170: 7fe6 36bd f54a adbd 04c8 98bd 1a7e 483d
00000180: de7c bb3d 98f9 7abd 07ab 14bc ef2b c1bc
00000190: c689 a3bd 9423 a4bd 98bf 243d dae0 ba3d
000001a0: cf2b 80bd c209 9d3d db82 17bd 60e8 a23d
000001b0: 9c56 84bd 3ee9 5fbd 4e5e ae3d 6c2b 8d3c
000001c0: b867 233c 5945 8bbd d815 5f3d 28f8 723a
000001d0: 1d7a c03c 2231 adbc 0308 f2bb 4b52 d73c
000001e0: 57e1 613d 72dd f5bc 13dd d13d 338e f1bc
000001f0: 2996 0fbd 22b6 76bc 685f 8a3d 1ae3 4abd
00000200: 72be e7bd 9539 fe3c 1680 573d 329e 00bd
00000210: 4716 bfbd 743e 703d 4ef8 1cbd 3c90 aebd
00000220: fc9f 95bc ed81 283d b0cb 653d 668a 4e3d
00000230: 7d90 0cbd fae1 cbbc 4d72 83bd 22fe 56bb
00000240: 1ab3 0f3d c400 5d3d bd05 853d 1740 443b
00000250: 4f42 26bd 1bf4 e2bc 186c 62bd 6013 b2bc
00000260: e56d d3bb 6274 a3bd 7103 96bd 12c6 8d38
00000270: f569 803b 280e cfbb b016 27bd 91f0 133d
00000280: fb02 9b3d efa7 a73c e0f9 b93d 4c27 6dbd
00000290: 02d1 653d fcd3 7cbd c9d2 073d b883 563d
000002a0: 7e05 5cbd dfb7 883d 7eed 8a3d da34 063d
000002b0: 56fb c9bc 6e34 c03c 5b4f e1bc c226 6cbd
000002c0: 0d46 453d fb05 893c 7462 2a3d a2ce ef3c
000002d0: c43d 2bbd fa5a 6ebd 0f7d 983d 00d6 473d
000002e0: f10a 283b b666 723b e58b 87ba 860a f5bc
000002f0: 92fc 933d fb2f b2bd b9df 9abd f601 4abd
00000300: 1e76 92ba 68bd f5bd 65f6 34bc 07f0 7c3d
00000310: 32af 263d 3255 99bd c287 333d 6d7a 2fbc
00000320: 3dd9 e0bd e84e f3bc 6841 1f3d 3201 843d
00000330: a852 b43c 7638 11bd 9187 7b3c 0378 413d
00000340: a967 3dbc 4438 503d f782 20bd 573c 7abc
00000350: 1ba2 b8bc ac69 cf3d 34b9 edbd 4aef de3c
00000360: 95b8 8d3d 9d17 c43d ce29 82bc 8d29 973d
00000370: e678 2cbc 943a 67bd 0bde 6ebb 1f23 5a3d
00000380: a8a4 55bd 943f 6bbc bebe b03b 46dd 16bd
00000390: 850e a53b 0df5 a23d e6cb ebbc eabc 033d
000003a0: 4519 74bd 840e 4a3d f625 44bc 3507 8b3d
000003b0: a5ef 333c 85d7 673a f41a 7d3d de3b 173d
000003c0: 7769 fd3c 3fb0 9cbd 7f58 aa3d 43e8 4dbd
000003d0: a362 763d 962a b8bc 9507 1ebd 6bcc 99bd
000003e0: 4c84 88bd dc9c 4c3d cc66 c23c bc64 923c
000003f0: 6378 933c 2cb7 c93d e4f9 783d d9d5 9c3d
-0.048506994 -0.062091507 -0.05689245 -0.0055873604 0.07381768 -0.013935683 -0.09853643 -0.13798515
-0.042908303 0.05741779 -0.066518374 0.030201254 -0.08380542 -0.03568478 0.033013638 0.0249577
0.06879871 -0.10216145 -0.0025748848 -0.065173864 0.028353542 -0.07718834 0.03967774 0.044831235
0.0382581 -0.06609168 -0.0036570376 0.0030597767 -0.0029839484 0.096600205 -0.036825817 0.019905986
0.0034583234 0.0052510584 -0.084281504 0.024238609 0.029815473 0.07062508 0.008107112 0.020116353
0.0036101341 0.056721713 -0.04218336 0.0394094 -0.06583159 0.13794725 -0.058282316 -0.052386403
-0.046329655 0.09292417 0.054597467 0.05407876 -0.047230333 0.079560496 0.053960755 -0.04154431
-0.014282193 -0.07354586 0.112522595 0.017641708 -0.066122495 0.019012246 0.016013704 -0.016428698
-0.010304071 0.04146867 -0.009615495 0.04826391 -0.036072943 -0.014016994 -0.028982274 0.039749354
-0.08771362 -0.059490945 0.014119067 -0.045979146 -0.019504959 0.049911764 0.010028189 0.015016979
0.059575956 0.06430397 -0.09614778 -0.022046708 0.07040859 -0.028782884 -0.050935626 -0.027049014
0.044021342 0.13209276 -0.15677413 -0.0479768 -0.044653412 -0.084615625 -0.07460025 0.048948385
0.09154676 -0.061273187 -0.009073979 -0.02358052 -0.079852626 -0.080145985 0.04022178 0.09124918
-0.06258356 0.07667877 -0.036990028 0.07954478 -0.06461832 -0.054665796 0.08514081 0.01723262
0.009973459 -0.068003364 0.05446419 0.00092685455 0.023495728 -0.021141592 -0.007386209 0.026284358
0.05514654 -0.03001282 0.10247245 -0.029486751 -0.035055313 -0.015058072 0.067564785 -0.049532987
-0.113156214 0.031033317 0.052612387 -0.031400867 -0.09330421 0.05865331 -0.03832274 -0.08523604
-0.018264763 0.041139532 0.056102455 0.050424956 -0.034317482 -0.024888027 -0.064182855 -0.0032805284
0.035082914 0.05395581 0.06495235 0.0029945427 -0.04059058 -0.02770429 -0.055278867 -0.021737754
-0.0064523094 -0.07981183 -0.07324875 6.7602974e-05 0.003918881 -0.006318826 -0.04079312 0.036118094
0.07568928 0.02046582 0.09080863 -0.057898805 0.05610753 -0.0617256 0.033160005 0.05237171
-0.053716175 0.06675696 0.06783579 0.032765247 -0.02465598 0.0234625 -0.02750366 -0.05765415
0.04816251 0.016726485 0.0415978 0.029273335 -0.04180695 -0.05819223 0.07445728 0.04878807
0.0025641287 0.003698749 -0.0010341374 -0.029912245 0.07225908 -0.08700558 -0.07562203 -0.049318276
-0.0011174118 -0.11999017 -0.011045073 0.061752345 0.040694423 -0.07486953 0.04383064 -0.010710341
-0.10978935 -0.029700711 0.038880736 0.064455405 0.02201207 -0.035454236 0.015352146 0.047233593
-0.011560359 0.05083491 -0.039187398 -0.015273175 -0.022538235 0.10127577 -0.1160759 0.027213711
0.06919972 0.095748164 -0.015889075 0.07380972 -0.010526871 -0.05645235 -0.0036448266 0.05325615
-0.05215898 -0.01435842 0.005393832 -0.036832117 0.0050371313 0.07956896 -0.02878375 0.032162584
-0.05959441 0.04933025 -0.011971941 0.06788484 0.010982429 0.00088440656 0.061793283 0.03692233
0.030934079 -0.07650804 0.083176605 -0.05027033 0.06015266 -0.022481244 -0.03858145 -0.07509693
-0.066658586 0.04995428 0.023730658 0.0178703 0.01800174 0.098493904 0.06078519 0.07657976

exp_avg f4 [40, 768]
00000000: 31fb 1138 15c3 27b8 b9df 0c39 ed27 0139
00000010: 9b0d 6b38 363f 1bb9 33c8 c437 7551 cfb9
00000020: f079 39b8 2d4c cb37 46e8 1c38 8f25 b838
00000030: a10d f636 6ec3 06b6 f37b 88b9 e2e3 9c38
00000040: 4501 f437 7c88 9cb8 3ff0 18ba 08f7 6e38
00000050: 3ed0 6139 bde1 83b8 f1ff 90b7 c1d8 9e38
00000060: b696 8938 1e8f 3738 9239 acb7 fd52 5f39
00000070: 00a3 e537 21fa a938 5f61 b436 791c 83b9
00000080: dd54 c63a d71a a03a c5e6 14b9 f103 3136
00000090: d468 8ab9 4f86 0538 73c4 19ba b0ca 1eb7
000000a0: b1e1 3338 9da6 67b7 64eb b3b8 0760 3b37
000000b0: 03df 8fb6 d5f8 1438 a1ed bf38 6a41 9d38
000000c0: 2cf2 6a38 31bb 57b8 18d2 9bb7 e8bb 2439
000000d0: 096b 8ab9 8316 c5b8 3002 8938 ba9e 30ba
000000e0: a987 903a f1ad 4c38 9760 1138 21fc 91b8
000000f0: a100 32b8 7f10 b4b8 b96b 92b8 8a98 373a
00000100: 5bc4 7ab7 25f8 8b3a 4b85 ff38 34ef ecba
00000110: 3480 963a a2fd 2438 ae63 1e3a 0886 c338
00000120: fa80 7eb9 6442 13b7 7a45 2439 9241 e5b6
00000130: 15c7 26b9 1eae c7b7 2b37 0539 3c9a 3a38
00000140: a700 e037 30e6 1b3a adcf 38b8 f55f c537
00000150: 3ad2 7db9 45ee 28b9 743a 9f38 019e bf39
00000160: 731a 1738 a838 bfb8 ea81 af39 1906 2cb8
00000170: cd92 32b8 8a22 3038 eff4 1638 5671 3639
00000180: 8664 3239 f7d7 c038 f97c fbb9 727f 8dba
00000190: 3b91 f2b8 ed7b a4b8 f623 c0b9 3b27 9238
000001a0: 82a3 4fb8 8611 fd37 a181 8a38 448c 51b7
000001b0: 4c67 a037 c08e 4d3a f539 7f37 dbbc 20b8
000001c0: 2c36 8f39 4ed2 ebb7 ac70 fa37 53a2 a3ba
000001d0: 6b17 2bb9 8f88 5e38 12a2 b638 b3f9 0139
000001e0: b6b2 d7b7 1585 a5b8 2db7 4a37 bd45 91b8
000001f0: ea30 1a3a 5449 3f39 7f20 5a37 fd29 9138
00000200: 27d9 64b9 858f 38b9 2126 cdb6 618a 1cb9
00000210: 6e88 1237 e0ea 6539 adcf 1e38 83a6 ecb7
00000220: 48d0 2bb9 c7b9 81ba 6bbb 6a37 1012 7d38
00000230: fa40 eb38 eea6 813a 54bf cc3a 7a06 803a
00000240: c456 67b9 cdec 06b9 c151 2138 a84c 36b9
00000250: f8cb f1b7 2232 bcb8 0539 2e39 19d0 593a
00000260: e651 0db9 a4f5 a038 d953 ef39 d6bc 02ba
00000270: 789b bd38 6a1a d038 da77 86b7 5587 3bb9
00000280: c9db 52b8 b563 9c38 c37b a2b8 2927 e8b7
00000290: 00e5 033a ef5d 00b9 c73d a1b7 af7d 5eb9
000002a0: 8e57 1b38 4ae2 4f38 9527 8238 b822 a6b8
000002b0: 3828 3bba d1e1 d439 5a13 3bba a7e1 7438
000002c0: 4d68 e738 3126 56b8 4bff 12b7 67d9 7838
000002d0: cb55 ed38 c557 1839 7cf2 b9b8 9a3b 4ab9
000002e0: 6da3 40b9 fefc d637 7716 f1b8 548b fd38
000002f0: 33e0 0f3a 3e4d b7b8 19d7 b038 59b8 0b38
00000300: 5dd2 82b8 db92 3eb8 24de 24ba 1f9c 3fb8
00000310: 761b 4c37 17d0 b138 3b6f 29b9 1251 0eb9
00000320: ccde 0239 d2d3 023a eceb 99b6 b8d0 9837
00000330: d387 3839 470e 69ba 80ec 18b9 15c9 1638
00000340: 8185 96b9 8b4c 9338 9208 f337 470d 9d37
00000350: 4374 50b8 981d b638 27f5 f7b7 6aef a436
00000360: 0948 34b8 369f a1b8 1bb1 d639 a99d 6b3a
00000370: d552 2538 9412 ccb7 5b8d 6e39 fd83 77b8
00000380: b555 28b8 d96f 2cb8 7bf3 6d39 0b5f cf38
00000390: 54dd 073a f488 a83a 2d4b 10b9 5f54 7737
000003a0: 7981 9537 bf60 64b7 18e8 bcb8 d79c bc38
000003b0: 32af c739 991f 723a 070b 1fb8 aa44 0d38
000003c0: e3f3 20b8 8e33 9bb8 b501 6b38 3753 4c38
000003d0: 9a92 2338 aa0f 06b8 fb49 94b7 3c9f 9837
000003e0: 7d23 d4b6 39f4 3d37 5360 9eb9 b862 1f39
000003f0: 9286 6738 b059 3c39 ddad 413a 5ba4 dc37
3.4804634e-05 -3.9997587e-05 0.00013434784 0.00012317272 5.6041037e-05 -0.000148055 2.3458246e-05 -0.00039542807
-4.4221e-05 2.4234958e-05 3.740962e-05 8.7807995e-05 7.332958e-06 -2.008131e-06 -0.0002603229 7.481106e-05
2.9087658e-05 -7.464082e-05 -0.00058341393 5.6973688e-05 0.00021535248 -6.288614e-05 -1.728532e-05 7.574401e-05
6.560741e-05 4.376389e-05 -2.0530806e-05 0.00021297853 2.737483e-05 8.105138e-05 5.3757535e-06 -0.0002500748
0.0015131492 0.001221503 -0.00014200348 2.637735e-06 -0.00026399514 3.1834756e-05 -0.000586576 -9.464726e-06
4.2887117e-05 -1.3807466e-05 -8.57923e-05 1.1168427e-05 -4.287694e-06 3.5517693e-05 9.1518516e-05 7.498528e-05
5.6015488e-05 -5.143433e-05 -1.8575272e-05 0.0001571026 -0.00026401159 -9.397885e-05 6.5330765e-05 -0.0006737519
0.0011026758 4.8799386e-05 3.466065e-05 -6.9611015e-05 -4.2439093e-05 -8.5861415e-05 -6.9818874e-05 0.0007003626
-1.4946879e-05 0.0010678811 0.00012184175 -0.0018076659 0.0011482299 3.933686e-05 0.0006042075 9.32329e-05
-0.00024271375 -8.777341e-06 0.00015666141 -6.832365e-06 -0.00015905157 -2.3803728e-05 0.0001270442 4.4489498e-05
2.6703185e-05 0.00059470814 -4.406243e-05 2.3528914e-05 -0.00024206276 -0.00016110491 7.5925986e-05 0.0003654808
3.602584e-05 -9.118143e-05 0.00033475395 -4.1013674e-05 -4.2575226e-05 4.1993837e-05 3.59909e-05 0.00017399093
0.00017012851 9.1955e-05 -0.00047967563 -0.0010795428 -0.000115665105 -7.8432124e-05 -0.00036647887 6.96913e-05
-4.9504924e-05 3.016811e-05 6.604498e-05 -1.2490029e-05 1.9121588e-05 0.0007841401 1.5212679e-05 -3.8322858e-05
0.00027315447 -2.8112114e-05 2.985479e-05 -0.001248429 -0.00016316555 5.3056105e-05 8.708624e-05 0.00012395419
-2.5713216e-05 -7.8926016e-05 1.2082787e-05 -6.9271286e-05 0.00058819226 0.00018242496 1.3001379e-05 6.92196e-05
-0.0002182467 -0.00017601073 -6.113915e-06 -0.0001492887 8.734043e-06 0.0002192664 3.786355e-05 -2.821093e-05
-0.00016385422 -0.0009897285 1.39911235e-05 6.0336723e-05 0.00011217776 0.0009891668 0.0015620985 0.0009767555
-0.000220622 -0.00012867451 3.846153e-05 -0.00017385429 -2.882442e-05 -8.9738765e-05 0.00016615175 0.0008308902
-0.00013477317 7.675149e-05 0.00045648104 -0.0004987245 9.0411806e-05 9.923133e-05 -1.6029855e-05 -0.00017884125
-5.0272592e-05 7.4572315e-05 -7.7478144e-05 -2.767479e-05 0.0005031377 -0.00012242024 -1.9221463e-05 -0.0002121839
3.703642e-05 4.9563394e-05 6.206256e-05 -7.921964e-05 -0.0007139477 0.00040604037 -0.00071363675 5.838429e-05
0.00011034366 -5.1057144e-05 -8.761718e-06 5.933028e-05 0.00011317021 0.00014528546 -8.866654e-05 -0.00019286425
-0.00018371428 2.5628597e-05 -0.0001149596 0.00012089932 0.00054884254 -8.7405075e-05 8.432399e-05 3.331187e-05
-6.238066e-05 -4.54363e-05 -0.0006289205 -4.5683348e-05 1.2165741e-05 8.4787775e-05 -0.00016158533 -0.00013572376
0.00012480764 0.000499067 -4.5872202e-06 1.8217004e-05 0.00017598206 -0.0008890372 -0.00014583953 3.595006e-05
-0.00028709698 7.0237635e-05 2.8971848e-05 1.8722041e-05 -4.969934e-05 8.6839485e-05 -2.9558852e-05 4.9154523e-06
-4.2982432e-05 -7.7067336e-05 0.00040949215 0.0008988032 3.941621e-05 -2.4327346e-05 0.00022750108 -5.9012313e-05
-4.0134142e-05 -4.1112162e-05 0.00022692785 9.888232e-05 0.0005182822 0.0012858198 -0.00013760915 1.4741991e-05
1.7822475e-05 -1.36123845e-05 -9.0077694e-05 8.993752e-05 0.00038086768 0.0009236276 -3.7918824e-05 3.3680968e-05
-3.837411e-05 -7.400579e-05 5.6029956e-05 4.871489e-05 3.899876e-05 -3.1962678e-05 -1.7677425e-05 1.8193961e-05
-6.3222237e-06 1.132214e-05 -0.00030207876 0.00015200197 5.520002e-05 0.00017962488 0.00073882734 2.6302578e-05

exp_avg_sq f4 [40, 768]
00000000: c868 0b35 0a51 2b34 3ccf ea35 2cb4 1d35
00000010: e357 2436 d550 4d35 08a7 6b37 9604 8538
00000020: 021f 9e34 bb9a 9134 20fb 8434 de0f 7437
00000030: 3f71 5634 da25 1136 0c02 4d37 b266 8534
00000040: 13f3 9d34 8e78 7a35 e0cd 0038 dd89 2a34
00000050: 0f16 c735 d95b 7435 581d 3134 ff0d d033
00000060: 7410 9635 c49a af34 d1ad 3135 db78 1636
00000070: 3460 f934 f4f8 8a37 0141 9633 b883 3937
00000080: 2c1e 3238 7844 ec37 6b84 0b35 da56 0935
00000090: 23c1 fc35 6b28 1f35 c993 0838 882d 1235
000000a0: d875 4035 99f9 2835 7529 ea34 79c4 7134
000000b0: 023f 8d34 b559 1d35 3676 5135 464b bf36
000000c0: e24e ec35 c93a b734 b5ef 4134 f8fc 3f35
000000d0: c519 6535 94f4 6d34 ad9c 5b33 8b42 8036
000000e0: 63cb 2438 a634 f834 7936 a634 6f14 5335
000000f0: cd33 b933 32f7 6c36 ad22 2f36 84e9 c036
00000100: 971c 9634 72d0 0837 215c 9437 9b8f fc37
00000110: a730 1338 0c7e 0634 4d13 8b38 7c29 9934
00000120: af89 9336 f4a7 2d34 034b 0138 d0d3 8834
00000130: 1dd9 8835 2011 1b34 4c0d b536 1909 0d39
00000140: 6df6 4f34 3112 1737 7e97 ba34 3e6d 9734
00000150: dc32 3437 455f 2235 ac75 8035 bdbd 0c37
00000160: 0a91 8933 fe1f a435 7cd9 6137 541e 9c34
00000170: 0265 db34 38ec e835 4979 9f34 512e bd36
00000180: 6b7b 5235 5e59 a134 9284 e935 8191 7038
00000190: 8210 0835 e3d8 0036 a2d1 5536 8132 a834
000001a0: 3099 b034 a3c2 5035 af78 8934 5c18 1035
000001b0: 53dc 6934 351d 4039 b903 b534 495b ad34
000001c0: d7bc 6636 bf15 4035 a656 9834 b6ee de38
000001d0: a3bd 4736 310d 8135 cac8 0035 327d 9635
000001e0: 3dd3 2e34 e038 9734 9be8 e934 62f5 ef34
000001f0: 3977 1c38 ff82 8f37 d8aa d534 8073 7034
00000200: b475 d635 3af2 1735 ddaf 9934 9e72 fc36
00000210: 412f af34 68aa 2f36 cf49 a034 7140 1335
00000220: 8827 3037 e3e3 fb37 9ccd 4934 e43c f534
00000230: 92fb 9e35 f859 0538 e86f 0139 00b6 3138
00000240: 6de6 3b35 a542 3d35 de5b fd34 93e8 ae35
00000250: f8b4 5134 d812 6934 97a4 ca36 e30e 9a38
00000260: 9805 ec37 2628 5734 4224 b836 71e8 7936
00000270: c068 a535 9b83 7637 f11f 6337 0249 8835
00000280: 4c57 b436 ab5f 8934 b826 9b35 acff 4c34
00000290: ab58 4436 a9f4 4835 078f 5936 9fcc 7735
000002a0: b378 8734 f06f 3635 ff10 2c35 2046 9d34
000002b0: e641 4638 df3d b436 6492 bd37 9143 2534
000002c0: 25b6 1a36 20b0 3f36 0356 0c34 a244 1e36
000002d0: b7b5 0d35 11ea 0936 a8a3 f734 cab8 1035
000002e0: 63aa cf35 c4cf 1836 6e6e 2537 14b0 2936
000002f0: 900a ba36 490c 4d35 ba0a d833 ce89 3f35
00000300: cbfe e335 471c 5335 8253 e937 642d e234
00000310: 1789 9535 7938 1935 2bdb e734 4e3c 9737
00000320: 9903 0535 a155 3837 40ae 9334 c7fd bc34
00000330: 9721 3c37 01a4 f537 8841 2e35 c77c 2534
00000340: 9a51 b236 a34a e935 f94d 4434 f6a8 9634
00000350: e5c0 bc34 aa3f d434 84af f934 00a8 f033
00000360: 73f2 db34 c47a 1b35 12b7 a237 4b72 ff37
00000370: 56c2 0636 a000 6e34 9676 b136 66f5 a034
00000380: 6208 cc33 226b 0037 08e9 1337 56b0 ca35
00000390: 770a c737 ebc4 0a38 94dc 9335 10e0 e734
000003a0: 2a1d ac34 f982 0536 3573 8c37 6cd5 1635
000003b0: 3fd3 a837 41e3 4b38 71a8 ea34 ec36 4634
000003c0: 53fa 9434 9eb0 a434 0d85 dc34 18dc 0935
000003d0: 4fb8 e634 318e 6735 e1ed b534 0169 5034
000003e0: 5d58 6e35 ad1e b033 94a5 6537 9e2f 0a36
000003f0: b6c0 b135 f588 0f35 2215 3337 a36f f634
5.193401e-07 1.5955098e-07 1.7494672e-06 5.874924e-07 2.4489061e-06 7.648608e-07 1.40459815e-05 6.3427884e-05
2.9452355e-07 2.7120936e-07 2.4769633e-07 1.4547228e-05 1.9971502e-07 2.1628716e-06 1.2219429e-05 2.48479e-07
2.942039e-07 9.330769e-07 3.0709314e-05 1.5882638e-07 1.4833075e-06 9.103074e-07 1.6495085e-07 9.688301e-08
1.1180659e-06 3.2708897e-07 6.6190574e-07 2.242209e-06 4.644986e-07 1.656681e-05 6.9967435e-08 1.1057527e-05
4.2466607e-05 2.8165276e-05 5.197423e-07 5.116286e-07 1.8831673e-06 5.929093e-07 3.2562562e-05 5.4455495e-07
7.169706e-07 6.294809e-07 4.361606e-07 2.251635e-07 2.630914e-07 5.86176e-07 7.8030587e-07 5.7010066e-06
1.7606328e-06 3.4129178e-07 1.806173e-07 7.152116e-07 8.534665e-07 2.2161322e-07 5.1132407e-08 3.822444e-06
3.9290066e-05 4.6231906e-07 3.0959544e-07 7.863336e-07 8.624156e-08 3.5310627e-06 2.6097216e-06 5.7492307e-06
2.796048e-07 8.154764e-06 1.7685876e-05 3.0107612e-05 3.5092842e-05 1.2525578e-07 6.6316315e-05 2.8528655e-07
4.39697e-06 1.6172982e-07 3.0825857e-05 2.5486088e-07 1.0195978e-06 1.444173e-07 5.3957683e-06 0.00013450197
1.9368026e-07 9.004537e-06 3.4755425e-07 2.8205426e-07 1.0740678e-05 6.048834e-07 9.57099e-07 8.388827e-06
6.405942e-08 1.2228263e-06 1.3461682e-05 2.907933e-07 4.0865422e-07 1.7354096e-06 2.9704304e-07 5.638031e-06
7.8410693e-07 3.005361e-07 1.7398436e-06 5.735597e-05 5.068797e-07 1.919973e-06 3.1861496e-06 3.1329185e-07
3.2894013e-07 7.776927e-07 2.5606047e-07 5.367963e-07 2.177997e-07 0.00018321427 3.3716586e-07 3.229018e-07
3.438259e-06 7.155722e-07 2.837525e-07 0.00010630248 2.9763694e-06 9.615088e-07 4.79759e-07 1.1212308e-06
1.6281861e-07 2.8167324e-07 4.3568875e-07 4.4695759e-07 3.7304333e-05 1.7107928e-05 3.9798647e-07 2.239376e-07
1.5978499e-06 5.660437e-07 2.8626428e-07 7.5235284e-06 3.2630672e-07 2.6176222e-06 2.9856025e-07 5.485554e-07
1.0499622e-05 3.002765e-05 1.8794384e-07 4.567911e-07 1.1845134e-06 3.179346e-05 0.00012344087 4.236959e-05
6.999824e-07 7.050497e-07 4.7191764e-07 1.3031698e-06 1.9530478e-07 2.1706671e-07 6.03923e-06 7.346065e-05
2.8135997e-05 2.0038041e-07 5.4878483e-06 3.723919e-06 1.2323944e-06 1.4693384e-05 1.3537691e-05 1.0154038e-06
5.3745807e-06 2.5587846e-07 1.1559669e-06 1.9091993e-07 2.9257887e-06 7.4861833e-07 3.2418773e-06 9.2312433e-07
2.523353e-07 6.7963174e-07 6.4099726e-07 2.9294551e-07 4.726825e-05 5.371621e-06 2.2598724e-05 1.5391403e-07
2.305381e-06 2.8563736e-06 1.3069807e-07 2.3583784e-06 5.2791023e-07 2.0550835e-06 4.612641e-07 5.3913084e-07
1.5472291e-06 2.27707e-06 9.860478e-06 2.5285453e-06 5.5444616e-06 7.638633e-07 1.0060235e-07 7.1353577e-07
1.6986972e-06 7.8644774e-07 2.781465e-05 4.2128806e-07 1.1141263e-06 5.707912e-07 4.318657e-07 1.8028684e-05
4.9551596e-07 1.0987192e-05 2.7507667e-07 3.5202376e-07 1.1213494e-05 2.9282646e-05 6.491541e-07 1.5412216e-07
5.314313e-06 1.7381575e-06 1.8282289e-07 2.8062613e-07 3.5158078e-07 3.95344e-07 4.650757e-07 1.120643e-07
4.0968334e-07 5.7920647e-07 1.9397154e-05 3.045159e-05 2.0080674e-06 2.2165705e-07 5.2888163e-06 2.9980873e-07
9.501015e-08 7.654338e-06 8.81614e-06 1.5101493e-06 2.3727522e-05 3.3085158e-05 1.101655e-06 4.319013e-07
3.2058716e-07 1.989478e-06 1.6742948e-05 5.6189924e-07 2.012553e-05 4.861062e-05 4.3708454e-07 1.8460167e-07
2.7749283e-07 3.0675886e-07 4.1075e-07 5.1356756e-07 4.297494e-07 8.626112e-07 3.3886957e-07 1.940971e-07
8.8790495e-07 8.2012185e-08 1.3688015e-05 2.059132e-06 1.3243614e-06 5.347095e-07 1.0674152e-05 4.5902297e-07
